training_runs/best_model.pt (torch, 973410 bytes, 24 tensors)

layer_0.lin.weight f4 [100, 200]
00000000: fc04 b83c b53c c4bc d241 97bd 9b08 cdbd
00000010: dc9c 4abd 39eb 513d 0ff4 86bb 08dc 663d
00000020: f39e be3b 45cd a03c 5a78 4dbd 5010 ff3c
00000030: 7d95 c0bd 22a0 3abd 3c9b 0dbd 7537 b3bc
00000040: cf4c 943c b488 7f3d f2a4 3ebd c014 e7bc
00000050: 140c 2f3d c533 b43d ea99 393b d8b0 5f3d
00000060: 5938 833c 7dcc 26bd 74a7 6c3d ef48 febc
00000070: 7e56 62bd 5a5f 233c 4940 2bbc 1a0e 163d
00000080: 9156 9cbc 4a9b f8bc 335f 65bd 4009 61bd
00000090: 14df 5abd 9424 b73d f673 383c cc05 ac3d
000000a0: 4f0e 473d 30e9 333b e2cd 5d3d 4183 c0bc
000000b0: eda5 febc e33a cbbb 764d 653d 4785 9a3d
000000c0: 518c fabc 390e 77bc 1e5a 413c fcaa 873d
000000d0: 88f6 e23c f713 f8bb 6753 793d ced3 31bd
000000e0: 6796 d93c 17d1 40bc 6a87 79bd 88d8 adbd
000000f0: b58f 523d 7392 063d dc5e 09bb d971 833b
00000100: efcc 453d 1127 01bd a43f 13bc 5753 b6bb
00000110: a201 523d ce7a a93d 9dcf d5bc d099 1dbc
00000120: e51b 90ba e2c1 1b3d 1c6c c13d ed77 b13d
00000130: 848f 31bc 4d5c d1bd 88e4 113d 0666 66bd
00000140: 7884 7dbd 0351 603d edb7 a03c 813a 25bd
00000150: 3e76 973c d476 183c 91d4 b2bc 5ad5 43bd
00000160: 102c 993c b477 1cbc e3ca 213c 22f9 ef3c
00000170: 87ec 733d d561 5e3d b33d 9ebd b29c 40bd
00000180: 7946 203b fe63 cd3b d69e b6bd 1a3d 86bd
00000190: ea86 613d 156d 643d 575b fdbc 862c 72ba
000001a0: 1aa7 70bd 393a 8f3c f766 d1bc a539 07bd
000001b0: 54bf a13b 8606 523d 647e 713c 423a 0c3b
000001c0: 64ef 11bd 91fd 5b3d b48b bd3c ef76 8bbd
000001d0: 37c1 36bc c4e1 92bc fa30 e03c fec9 8d3b
000001e0: e5b8 b43c c2c6 2eb7 2669 5fbd 099e 223d
000001f0: 1c2d 76bd eb8a adbc 44f6 7cbc ceeb d4bc
00000200: 66c5 d2bc aa1a 96bd 95c1 eebc 587f 85bc
00000210: 9a7c 2fbd 8e5a e53b 8f6a 323d bfc6 643c
00000220: b121 cfbc 5e70 d2bb 5e6c 2fbc 64af 743d
00000230: 032f 613d 6313 333d 711f 3f3d 9521 ffbb
00000240: e833 9dbd 52bd 27bd 6b3c b63c 5bc5 72bc
00000250: 7e7b 0abd e788 23bd ef12 c8bc 62bb 80bd
00000260: 0f1e bbbb 4a00 143d a9ff 1f3d 87b9 21bd
00000270: df6f 893c 03e4 7dbd 7216 ffbc c47f 9bbb
00000280: 0ee6 3abc 2a63 63bd b670 59bd 0cab 39bd
00000290: fc0a 5cbb 1b55 033d 1d33 ccbc 1279 223d
000002a0: 1b92 82bd 8a92 35bc 0af2 063c 19fd a03b
000002b0: f5c5 7f3d daca 943c 1f89 71bd bc96 7c3d
000002c0: f1a4 b9bc 362d 41bd 8fbd 9f3d e9c2 5abd
000002d0: 2f13 34bc acec 0abd ab6c 683d 8c36 28bc
000002e0: 99b8 073d d030 913c 2552 abbb 74c9 8bbc
000002f0: b6c6 55bd a156 0f3d 1a2a 453d c7a8 573d
00000300: 197e 88bd 14fb 4cbc 332d 88bd c7c7 febc
00000310: 1f88 fabc d12e 033c 64a1 febc e42e 053d
00000320: 3453 a2ba b705 5c3d 723c 1dbd c4c0 18bd
00000330: a395 afbc 4dd7 313d 13e8 26bb 985d 6c3d
00000340: 5671 263d fd72 75bc e133 d13c 98c2 8fbc
00000350: 44d5 5abc 1e0c debc 8439 26bd e4d6 d4bc
00000360: 0428 11bd 4e87 c6bc e984 1e3d 041a 4dbd
00000370: b4e1 1b3b 5996 653d 5a6d eb3c 4e8c ecbb
00000380: 5dcf 87bd 0c16 3c3d e68a 00bd 219e 00bc
00000390: 6ea3 f3bc a3d4 d2bc 6646 603b a9c2 833d
000003a0: e634 7b3c 1b45 c73d c8b5 463d 30e8 31bd
000003b0: 54e8 f63c 7b99 91bd d5f3 0dbd bf7d c1bb
000003c0: e7da 313d f96f 873d 3db6 e1bc aaec d03c
000003d0: ac52 443d 18f2 6abd 9e2e 233d ca62 79bd
000003e0: 2f5b 843c 8ab8 ef38 1525 fdbc e510 01bc
000003f0: 0125 b83d fdca 7b3c 98ef 6cbd 6620 09bd
0.022463314 -0.023954729 -0.07385601 -0.10011407 -0.049466 0.051249716 -0.0041184495 0.056362182
0.005817288 0.01962913 -0.050163604 0.031135708 -0.094035126 -0.04556287 -0.03457187 -0.02187703
0.018103031 0.06238623 -0.046544023 -0.028208137 0.042736128 0.08798937 0.00283205 0.05461201
0.01601808 -0.04072236 0.057776883 -0.031040637 -0.055258267 0.009971464 -0.0104523385 0.036634542
-0.019084247 -0.030347485 -0.055998992 -0.054940462 -0.0534354 0.089425236 0.011258116 0.08399543
0.04859763 0.0027452223 0.054151423 -0.023500087 -0.031084979 -0.006202088 0.055982076 0.07544952
-0.030584486 -0.015079075 0.011801271 0.066244096 0.027705446 -0.0075707394 0.060870554 -0.043414883
0.026560975 -0.011768601 -0.060920157 -0.08488566 0.05140658 0.03285451 -0.0020961082 0.0040113744
0.048291143 -0.031531397 -0.008987341 -0.005564134 0.05127109 0.08275376 -0.026099974 -0.009619191
-0.0010994641 0.038026698 0.09444448 0.08665452 -0.010837439 -0.10222683 0.035618335 -0.05624964
-0.06189391 0.05476476 0.019618953 -0.040338997 0.018489 0.009305675 -0.021829875 -0.04781089
0.018697768 -0.009550024 0.009875032 0.0292936 0.059551742 0.05429252 -0.07726612 -0.047024436
0.0024456067 0.0062680235 -0.08917014 -0.06554623 0.055060305 0.05576809 -0.030927343 -0.0009238202
-0.05875311 0.017483817 -0.025561793 -0.03301396 0.004936138 0.051275752 0.0147396065 0.002139703
-0.03562869 0.053708617 0.023137905 -0.06809794 -0.011154464 -0.017929919 0.027367104 0.004327058
0.02206082 -1.0417485e-05 -0.054543637 0.039701495 -0.060101613 -0.021184405 -0.015439574 -0.025991347
-0.025728893 -0.073293045 -0.029145041 -0.016296074 -0.04284344 0.0069993204 0.043558653 0.0139634
-0.02528462 -0.0064220866 -0.010706989 0.059737578 0.054976474 0.04371966 0.046660844 -0.0077859857
-0.07675916 -0.040952034 0.022245606 -0.014817561 -0.033809178 -0.039925482 -0.02442309 -0.062857404
-0.0057103704 0.03613309 0.039062176 -0.039483573 0.016776977 -0.061985027 -0.031138632 -0.0047454555
-0.011407388 -0.055514492 -0.053086005 -0.04532914 -0.0033575883 0.032063585 -0.024926716 0.039666243
-0.06375524 -0.011082301 0.008236418 0.004912984 0.062444646 0.018163133 -0.05896866 0.06166719
-0.022661658 -0.047162257 0.07799827 -0.053408537 -0.010990902 -0.033917114 0.05674426 -0.010266911
0.03313503 0.01772347 -0.0052282983 -0.017063834 -0.05219146 0.034994725 0.048135854 0.052651193
-0.06664676 -0.012511034 -0.06649246 -0.03110112 -0.030582486 0.008006767 -0.031082816 0.03251542
-0.0012384416 0.053716388 -0.038387723 -0.03729321 -0.021433657 0.043418217 -0.0025467917 0.057706445
0.04063543 -0.014981029 0.025537433 -0.017548844 -0.013356511 -0.027105387 -0.040582195 -0.025981374
-0.035438552 -0.02423444 0.03870097 -0.05007364 0.0023785653 0.056051586 0.028738666 -0.007218874
-0.06631348 0.045919463 -0.031382464 -0.007850201 -0.029741015 -0.025736159 0.0034221648 0.06433613
0.015332436 0.09729978 0.048513204 -0.043434322 0.03014008 -0.07109352 -0.034656364 -0.0059048827
0.043421652 0.06613154 -0.027552718 0.025503475 0.047930405 -0.057359785 0.03983938 -0.06088523
0.016156761 0.00011430781 -0.030901471 -0.007877563 0.08991433 0.01536822 -0.057845682 -0.033478163

layer_0.lin.bias f4 [100]
00000000: 21e8 163c 9064 b6bc 7878 0cbd 686a 08bb
00000010: c078 0fba d9e0 cfbc 1f6e 1abb d193 04bd
00000020: 4cd9 70bd fd03 febc bc1e 3dbd e3e0 063d
00000030: a137 793d 32ef 3a3d 8e13 1abd fe5d 7ebb
00000040: 4820 a4bc 3451 8dbc 42b2 9f3b b38a 2b3d
00000050: cedb 303c 4e55 103c 291b 25bc 65f9 7a3c
00000060: 4e69 12ba 4fe9 68bd 55a3 b23b 1219 6c3d
00000070: 4c84 173d d055 e6bb fcfe d7bc fd28 95bc
00000080: bff4 96bb 7a97 62bc b09e 7abc d335 d53c
00000090: 4eea 5cbd e660 7cbc 1cf5 083d e1aa 8d3c
000000a0: 2534 9037 5223 e73c 5c83 b9bc 1e09 d8bb
000000b0: e140 7f3d 9d07 ff39 92ea 57bd 72ab 10bd
000000c0: 9d9f 51bd 4487 dfbc 4fbe b03b 4496 6bbc
000000d0: 55bd 2fbb 238f 53bd fc66 febb 5718 4b3c
000000e0: 58aa 303c d960 5a3d e976 283d d2e0 3dbd
000000f0: 154a 093d 939e 21bd 807a 8bba ffa5 2b3c
00000100: 1e87 f53c f30a 3c3c adbc 8c3c 91f8 173d
00000110: 0908 4c3d 8868 013d d6c1 b7bc 9da3 bc3c
00000120: 81a4 35bd a479 7cba 1f93 883c ac63 0b3d
00000130: fcd8 e83c 20fb 0cbb f02b 18bc a476 073d
00000140: 6fe3 2a3d 6f10 1abc 19ad 94ba e265 89bc
00000150: 1ddc 093c c2bf e6bc 3338 babc 86fc 883b
00000160: 41a4 373d d95a 5f3b e45b 873c 15cf a13b
00000170: dcce 393d 3a78 8abc 7504 c438 db47 cb3c
00000180: 3d34 a8bb 1eaa 2f3d 46c1 38bd 1fc6 be3b
0.009210617 -0.022264749 -0.034294575 -0.0020815376 -0.000547301 -0.02537577 -0.0023564172 -0.03236753
-0.05880098 -0.031007761 -0.04617189 0.032929312 0.060844067 0.04563827 -0.037616305 -0.0038813348
-0.020034924 -0.017250635 0.004873545 0.04188032 0.010794593 0.008809401 -0.010077276 0.015318249
-0.00055851496 -0.056863125 0.0054515996 0.057641096 0.036991403 -0.0070292726 -0.026366703 -0.018208021
-0.0046068127 -0.01383006 -0.015296623 0.026026642 -0.053934388 -0.015403962 0.03343688 0.017293395
1.719042e-05 0.028215084 -0.022645645 -0.0065928837 0.062317733 0.00048643062 -0.052713938 -0.035319753
-0.05117761 -0.02728618 0.0053937803 -0.014379088 -0.0026815732 -0.051650178 -0.0077637415 0.01239594
0.010782801 0.053315017 0.041129027 -0.046356983 0.033517916 -0.03945787 -0.0010641366 0.010476588
0.029971655 0.01147722 0.017179811 0.037102286 0.04981235 0.03159383 -0.022431295 0.023027236
-0.044346336 -0.0009631163 0.016671715 0.0340306 0.028423779 -0.0021511987 -0.009287819 0.03307213
0.041720804 -0.009403332 -0.0011343091 -0.016772214 0.0084142955 -0.02816761 -0.022731876 0.0041804938
0.04483438 0.003408125 0.016523309 0.004938016 0.045363292 -0.016903032 9.3468385e-05 0.024814537
-0.0051331804 0.042886846 -0.045106195 0.0058219577

layer_1.lin.weight f4 [100, 200]
00000000: e1fa 17bd 95d3 493c e837 be3c 8a00 17bd
00000010: 481b 9b3d 37e8 3f3a 1e93 81bd 5fd0 a0bd
00000020: 8969 263b 0885 083c 1d4a 33bd b6ac 103d
00000030: c95c 363d a1c7 2d3d 8c73 9d3b a78f 08bc
00000040: 2fc6 de3c a54e f0bc d8fb 27bd ea27 47ba
00000050: d6bd 533c b157 db3c 59d0 693d 9c88 ac3b
00000060: a5a0 c0bc 5abc 283b 2b67 1f3c 28d3 a13d
00000070: d746 653d 0947 9dbd c9e1 1f3c 455f 0f3c
00000080: 5dbf 0a3c 375d b53c 1871 08bd b60e fbbc
00000090: 7458 16bd db30 8e3c 8ee2 a03d f665 7c3d
000000a0: edc8 903c 662d 923c 584c 1a3d 2946 323d
000000b0: 089e 9b3c e132 24bd df7e 84bd f2a6 5d3c
000000c0: 5a3c 98bd d7a7 e23c 756b 94bd 11e0 973d
000000d0: ff55 b9bd 5cbc 0bbd 03f9 febb 5ca5 3cbc
000000e0: f726 76bc 110f 2fbd cf7b 04bb 554a 37bd
000000f0: 8f9f 86bd f73d 3abd 7aa0 103d e466 c83c
00000100: b8d8 9a3d a28d dd3b 3eed cabc e32a 4ebb
00000110: 55b8 80bd 4642 8a3d 817d 413d c217 11bd
00000120: cf10 773b 8cce 093d e00d 23bd f665 0cbd
00000130: 5861 23bd 1002 5ebd 5834 9c3d 988e f23c
00000140: 82ce 1cbb 9316 45bc 11ff b4bd e014 833d
00000150: ea62 5abd d69c 243d 427d 7fbd 2c55 323d
00000160: 76b0 c3bb 2994 70bd 2115 8d3d 3149 1b3d
00000170: 5f73 813c da8b ed3c 6bd6 b9bd 1819 043d
00000180: 772c 493c affb 843d 2aee 8ebd 11b2 473c
00000190: 6f17 253d 8e3d 7abd 2e98 19bd 90ce 963d
000001a0: 07e4 4d3d 448f 3c3b 50ed 9dbd b25b 7fbc
000001b0: 9ee3 7ebc ed3c 463d 6621 54bc c312 4a3c
000001c0: c385 363d aaba 063d 115c b1bd 4238 4fbc
000001d0: 06cf b5bb 8dee 97bd 1267 36bd 50f4 fbbb
000001e0: 3413 a0bb f993 0b3d 98e9 953d 0fcd 843d
000001f0: 525e 043d 3f4c c23c 338a d1bb acd9 f7bc
00000200: 873a a83b ace6 12bd 337d 0fbd 8101 923c
00000210: 6be3 4d3d a7f5 b83c 5d3f 1fbd 0299 c43a
00000220: 11b3 3abd 41b2 ab3c cae5 1abd 143b 273d
00000230: 0414 293c f294 9a3c 7706 15bd 1542 4cbd
00000240: d6f6 033d 892f ee3d d69e e43c dd02 283d
00000250: 4338 5abd 295b 913d f2d3 3f3d 290e babd
00000260: ce9c be3d 6ad4 8dbd 5494 7ebc a45b 13bd
00000270: 8dc5 92bc 9a4f 253d 112b c03d c9e8 89bd
00000280: e6a6 323d 12ae 83bd b9e1 983d c5e8 21bc
00000290: 3cc7 473d df49 5abd a79e 633d bdb0 443d
000002a0: bb18 4a3d 9424 473d 9305 243d fda6 50bc
000002b0: c9e6 7ebd 5aca 61bd 7a47 85bd 9455 4ebd
000002c0: 097b 8b3d dbad 7c3d f8e7 a83b c5c5 46bd
000002d0: 9be6 45bb b7f8 773d a93c d7ba c8dc 9fbd
000002e0: c715 883b 1d72 8dbd 547c 73bc 74cf abbd
000002f0: 078f 48bd da4a 463d 2a7e 58bd efdd 84bd
00000300: 83c8 923d b430 3cbd 5f49 84bd 2a5c 413b
00000310: 4439 133c 1c12 18bd 2c7a 5dbd 0d30 55bd
00000320: 0c3e 833d 17d3 ba3d 789c 103d 2101 39bb
00000330: 2548 503d 4d6b 043d 1525 1fbb 5b0c 9ebb
00000340: aff4 32bd 688c 6cbc ba65 ecbc 48d3 30bd
00000350: 32c4 223d cd22 d13c 53c4 87bc 1996 8f3c
00000360: ab85 0c3c 89a4 db3c aeb4 65bd 06b4 6cbd
00000370: 9469 7d3c 078e c13d 404c 913d 493f 743c
00000380: 9c0f 75ba f646 5fbd 4727 4b3d 0631 373d
00000390: 2232 f63c b05e 33bd 1ae0 fc3c 257d 22bd
000003a0: 70a2 3dbc 9c14 79bd 0e34 863d f7d8 16bc
000003b0: 6849 e9bc cb19 d6bb ff28 f4bb 0880 7bba
000003c0: f4e2 0cbc c8c4 38bc 28d7 083c 4aa1 77bd
000003d0: e494 94bc 32d2 a93b 3720 d93c 3c66 213d
000003e0: 823c 233d 6642 123d 234d 533a 4bd1 86bd
000003f0: f34e d1bc ba36 a0bd a1a7 afbd 5395 573d
-0.03710449 0.0123185115 0.023220018 -0.03686575 0.07573563 0.00073206745 -0.063268885 -0.07852244
0.0025392494 0.008332498 -0.04377185 0.03532096 0.04452208 0.04242671 0.004805034 -0.008335031
0.02719411 -0.029334376 -0.04101166 -0.0007597195 0.012923678 0.026775213 0.05708346 0.0052653085
-0.023514101 0.0025747032 0.009729187 0.07901603 0.05597576 -0.076795645 0.009758421 0.008750741
0.008468476 0.022139175 -0.03331098 -0.030646663 -0.03670545 0.01735728 0.07855712 0.061620675
0.017673934 0.017843913 0.037670463 0.04352394 0.018996254 -0.040087584 -0.06469511 0.013528572
-0.07433386 0.027667923 -0.07247058 0.07415784 -0.090496056 -0.03411518 -0.0077811494 -0.011514034
-0.015023938 -0.042738978 -0.0020215397 -0.044748623 -0.06573402 -0.04546925 0.035309292 0.024463125
0.07560867 0.0067612687 -0.024771329 -0.0031458668 -0.062851585 0.06750922 0.04723883 -0.035423048
0.0037699228 0.033644244 -0.039808154 -0.034276925 -0.039887756 -0.054201186 0.07627171 0.02960901
-0.00239268 -0.012029308 -0.088377126 0.06400466 -0.053316988 0.040188633 -0.062375315 0.043538257
-0.0059719635 -0.058735047 0.06888796 0.037911598 0.015802084 0.02899735 -0.090741 0.032250494
0.012278668 0.06493317 -0.0697902 0.01218845 0.04030555 -0.06109386 -0.037498645 0.073636174
0.050266292 0.0028771916 -0.077112794 -0.015585827 -0.015557198 0.048397947 -0.012947416 0.012333575
0.04456116 0.03289286 -0.086601384 -0.01264769 -0.0055483608 -0.07418547 -0.04453189 -0.0076890364
-0.0048851017 0.034076665 0.07319945 0.06484424 0.032316513 0.023717998 -0.0063946485 -0.030255161
0.00513393 -0.035864517 -0.03503151 0.017822983 0.05026571 0.022578074 -0.038878787 0.0014999213
-0.045580927 0.020959022 -0.0378168 0.040827826 0.0103197135 0.01886985 -0.03638312 -0.04986771
0.032217823 0.1163016 0.02790777 0.041018356 -0.05327631 0.070974655 0.046832986 -0.09084732
0.09307252 -0.069252804 -0.015538294 -0.035976067 -0.017916465 0.040359117 0.09383214 -0.06733853
0.043616198 -0.06429686 0.07464928 -0.009882157 0.04877399 -0.053293105 0.055571225 0.048020113
0.04933999 0.048618868 0.04004438 -0.012735126 -0.062231813 -0.055124618 -0.06507774 -0.050374582
0.068105765 0.06168924 0.005154606 -0.04852845 -0.0030197266 0.060539927 -0.0016421276 -0.078057826
0.0041529867 -0.06906531 -0.014861185 -0.08389178 -0.048964527 0.048411228 -0.052854694 -0.06487643
0.07167151 -0.045944884 -0.06459307 0.0029504397 0.008985821 -0.037126645 -0.05407159 -0.052047778
0.06408319 0.091222934 0.03530547 -0.0028229433 0.050850052 0.032328892 -0.0024283577 -0.00482325
-0.04369038 -0.014437772 -0.0288571 -0.043170244 0.039737888 0.02552929 -0.016573107 0.017527627
0.008576791 0.026811855 -0.056080513 -0.05778887 0.015467066 0.09450918 0.07094622 0.0149076665
-0.0009348334 -0.054511033 0.049598005 0.044724487 0.030053202 -0.043791473 0.030868579 -0.03967013
-0.011574373 -0.06081067 0.065528974 -0.009207002 -0.028477386 -0.0065338365 -0.007451176 -0.0009593968
-0.008599032 -0.011277385 0.0083520785 -0.06045655 -0.018137403 0.005182528 0.026504619 0.03940414
0.039852627 0.035707854 0.00080605055 -0.06582888 -0.025550341 -0.07822938 -0.085768946 0.05263264

layer_1.lin.bias f4 [100]
00000000: 657c 37bd fd69 2bbd 867b a7bc 9e3d 2ebd
00000010: 6d6d 63bc 8a1f dd3c b289 213d 461b 61bc
00000020: 679f 0cbc 438b 45bd ec2f 39bd b197 093d
00000030: 7282 813c 67c1 d43c 5bb5 163d 26bc 643d
00000040: 6564 d23a b22c b6bc 74b8 803d 48bc 47bd
00000050: 17c3 9abc 9240 21bd 39d2 75bd f050 30bc
00000060: 5637 9fbc 2f76 70bc 1530 663c e6da fabb
00000070: c523 833c d7ea b83c 3993 d73c 7a28 6c3d
00000080: 1f15 313d 6790 40bd 470d aebb 4940 97bc
00000090: bc29 de3c 5226 2a3d 99e5 a9bc 3c50 a5bc
000000a0: a0a9 38bd 99ee 7d3d cb11 d4bc 57ec e13c
000000b0: 3a6d cc3c a238 073d 00a7 03bd 7e35 c0bb
000000c0: b707 9b3c 5a2c c9bc fa95 2ebd 4708 48bd
000000d0: cc2a 443d 28d4 11bd cb9b 6b3d 389c 90bc
000000e0: 66fd 4c3d 5024 8bbd 0947 b3bc 6401 febb
000000f0: c6fe 163c 6aa9 3fbd fdcb 023d 543a 623c
00000100: 0a4a 413c 8a20 6e3b e63c 483d a3e4 11bd
00000110: 0f38 fb3c 2cbf 083d d8bc 073d 5947 d2bc
00000120: 001c 573d 8cb0 35bd b745 8f3d 9f0b 5fbc
00000130: fa49 57bd cc5f b1bb f737 84bd ca2c 603d
00000140: 0be3 e4bb 99b6 eebc f458 473d 5259 ddbc
00000150: f7a7 683b 01e3 1c3d 33a7 063d 8383 913c
00000160: 9657 c53c 49b0 0f3d 7918 3ebd 92b1 593c
00000170: 733e 16bd 3b51 7fbd 10ae 4cbd aeb3 a0bd
00000180: 6bad 0dbd 7b04 83bd bdab 373d 9592 0bbc
-0.044796366 -0.041849125 -0.020444643 -0.04253923 -0.01388107 0.026992578 0.039437957 -0.013739413
-0.008582926 -0.048228513 -0.045211717 0.03359193 0.015809271 0.025971128 0.036794048 0.055843495
0.0016051648 -0.02223811 0.06285182 -0.048763543 -0.018891854 -0.03936822 -0.060014937 -0.0107614845
-0.019435566 -0.014676615 0.01404955 -0.0076554893 0.016008267 0.022572918 0.026315318 0.05765579
0.043233033 -0.047012713 -0.0053116414 -0.01846327 0.02711951 0.04154045 -0.020739364 -0.02017986
-0.045083642 0.061995123 -0.02588739 0.027578516 0.024954427 0.033012994 -0.032141685 -0.0058657518
0.018924577 -0.024557281 -0.042623498 -0.04883602 0.047892377 -0.03560272 0.057521623 -0.017652616
0.050046347 -0.067940354 -0.021884458 -0.0077516306 0.009216016 -0.046792425 0.03193282 0.013807852
0.011797437 0.0036335313 0.048886202 -0.035618436 0.03066638 0.03338544 0.03313908 -0.025668787
0.052516937 -0.04435782 0.06995719 -0.0136136105 -0.052560784 -0.005413031 -0.06455987 0.054730214
-0.0069850734 -0.029139804 0.048668817 -0.02702013 0.0035500505 0.038302425 0.032874297 0.017762905
0.024089616 0.035080228 -0.046410058 0.013286965 -0.03668065 -0.062333327 -0.049970686 -0.07846771
-0.034589212 -0.06397339 0.044841517 -0.008518835

layer_2.lin.weight f4 [100, 200]
00000000: c243 9ebd 43ac 943d e68d 57bd 9eb5 c6bd
00000010: fd2f 0bbd 6581 13bc bbaf df3c 558d a4bd
00000020: d51f 423b 4fcc 2b3c a7c5 85bd 5c4a 0cbd
00000030: 057c ac3c dc83 b0bd 41cc 063d 296f a83c
00000040: 2d37 6d3c 6fad 4a3c b35b 503d 0f0d 933d
00000050: 2702 633d 6eee 333d 2cba 363b 7dcd d7bc
00000060: 7827 363b 7547 adbd d9f6 15bc 16c6 18bd
00000070: 2e53 d5bc d976 a4bd 743f d23c ec79 8d3c
00000080: 9b94 ddbb 55b1 c9bc 4806 8cbd c465 b33b
00000090: 6daf a4bc 636d 5bbd 5e76 c7bc 1c28 9bbd
000000a0: 9b17 b1bc 9eb1 7a3c 6b08 013d 4420 06bd
000000b0: 30be 6b3c b17a 3a3d 0147 3dbc 7eb8 a23c
000000c0: 54a5 acbd cab8 203d c4b5 82bd 1ffe 00bd
000000d0: 3300 123d 8510 963d 3144 8a3d 9c29 87bb
000000e0: a118 803d 4349 8fbd 572a c7bd d63a 80bd
000000f0: 6c81 96bc 4b00 753d 6547 9b3c f129 243c
00000100: 7361 9c3c 90ae dc3c 4e5c 993d e8fb 9dbd
00000110: 1be2 9cbb 1c39 f73c 044c 7a3d 1434 cb3c
00000120: b67d aa3c 1770 1fbd f49a 153c 8d65 e03d
00000130: 4b27 0e3d eb2a 3e3c 03fd 833d 4d03 f03c
00000140: 9838 6abd 1193 aabd 416c be3c 4da4 1abd
00000150: e15d 4e3d 72da 5abc b30e 8a3d e041 013d
00000160: 555c a93d 4ab3 c0bd 1169 a5bb 375d 583d
00000170: 8f63 06bd f2c8 0b3d dfc2 953d 6da5 a4bc
00000180: 0d12 afbc 5ad5 88bd 5725 593c 9357 f23c
00000190: aa83 ea3a 73cc bdbd 2f57 49bc 3edc 413d
000001a0: 46f0 63bd 7325 b93c 104d 5f3d f521 cabc
000001b0: 895e 3dbd 3de8 f5bc 16c0 d03c 9b83 4c3d
000001c0: afc9 283c d559 46bc 6ee4 34bd b18d 49bd
000001d0: fe79 3b3c 3a14 893b c939 f63d 258d 653d
000001e0: 4a61 6dbd 439f 7ebd 0eb5 a8bd dedd 24bd
000001f0: b877 27bd f130 b23c 7b25 793d 98ee 97bd
00000200: 375f 54bd 09ee 6fbd 03c0 17bd 2a1e 1c3d
00000210: c33e 853b b50c 45bd 522b 303c ac9d ba3c
00000220: 7a25 b23c 977a faba 46f2 613d 10c1 6c3c
00000230: bc0f 96bd 5d07 18bd 31f4 9dbd 9153 233c
00000240: a821 a1bc ce49 663c 7bc1 b23b 1351 013d
00000250: 2251 a9bc 945d b33d b3be 2f3d 4b00 83bd
00000260: 5d49 3a3b df5d 5b3d ab8c 433d 5aad 6e3d
00000270: aa1b 8a3d 0452 87bd 75d3 5a3d 42ae aabc
00000280: 61bf 49bd 06f9 4fbd c0ed 883c e2e8 713b
00000290: 54bd 20bc 1dfa 3f3c 7538 0f3d 873b 2bbd
000002a0: 21b5 5e3d 1539 c3bc 8c30 383c 869f 18bd
000002b0: 61af 5bbd 66d2 6fbd 59d9 203d f149 54bd
000002c0: 9063 523c 8d87 99bc 75c1 51bd 243b 81bd
000002d0: a624 c3bc af01 cfbd cade 46bd e9aa 4dbc
000002e0: 6395 ad3c 6c7e 023d 296e f5bc 02e0 a63c
000002f0: cbd6 0ebd c673 de3c 0136 4e3d ee8e 49bc
00000300: 06fd 383d 9c19 eb3b 4c6c a03c 8145 ab3d
00000310: d303 f13c 669c ed3b 1ed3 243c 9135 6d3d
00000320: 1159 9abc 4ca7 303d d95e 23bc dab3 da3c
00000330: a696 afbb e0f4 a4bc 9bab febc 5633 efbc
00000340: 9a5a a4bb 9870 8d3d 89df cebb 82ff 223d
00000350: 938a 3a3c e24b 11bd 46df 0aba f36d 133c
00000360: a978 b23b 02a5 a13d 9dda 2abd 6f20 13bd
00000370: d146 dcbb 91d2 bb3d d972 c43d c511 123d
00000380: ba96 823c 0336 073c ddcc 133d 9267 7d3d
00000390: 69da 393d 69eb 41bc d47f 6ebd 6d1d 77bd
000003a0: 9943 d63c 5627 eabc 7c22 73bd e759 8abd
000003b0: 10f4 953d 617e 343c 7e56 a1bd 6f28 eabc
000003c0: 110e c23c dc4a 383d 5e43 d7bc d9d5 3d3d
000003d0: fad7 503d 5ebf 713d d06f ac3b 769f 293d
000003e0: 9f56 a7bb 3c91 f33c 28e8 de3c c710 69bd
000003f0: 8c19 ff3b 2731 0f3d 695b 46bc d527 85bd
-0.077277675 0.07259419 -0.05262556 -0.097026095 -0.033981312 -0.009003018 0.027305475 -0.080347694
0.0029621024 0.010485723 -0.0653184 -0.034250602 0.02105523 -0.086189 0.032909635 0.020560818
0.014478487 0.012370451 0.0508687 0.07180225 0.055421975 0.043928556 0.0027881963 -0.026343102
0.0027794521 -0.08460895 -0.009153091 -0.037298284 -0.02604064 -0.08030481 0.025665022 0.017270051
-0.0067621 -0.024620691 -0.068371356 0.005474778 -0.02010318 -0.053571116 -0.024348434 -0.0757601
-0.021617701 0.015301136 0.03150217 -0.032745615 0.014388606 0.045527164 -0.011552573 0.019863363
-0.08429971 0.03923873 -0.06382325 -0.03149235 0.03564472 0.073273696 0.06751288 -0.0041248333
0.062546976 -0.069963954 -0.097248726 -0.06261222 -0.01837226 0.059814733 0.018954942 0.010019765
0.019089436 0.026938707 0.07488309 -0.07714063 -0.004787696 0.030178599 0.06110765 0.024805106
0.020811897 -0.038925257 0.009131182 0.10956869 0.03470544 0.011606912 0.064447425 0.029298449
-0.05718288 -0.08328832 0.023244979 -0.037754346 0.0503825 -0.0133577455 0.06741085 0.031556964
0.08269564 -0.09409197 -0.0050479253 0.05282327 -0.03280979 0.034127183 0.07312559 -0.020098412
-0.021370912 -0.066813186 0.013253531 0.029582774 0.0017892022 -0.09267511 -0.012288853 0.04732918
-0.055649064 0.022600865 0.054516852 -0.024674395 -0.046232734 -0.030017966 0.025482219 0.049930196
0.010301991 -0.012106379 -0.04416316 -0.049207393 0.011442659 0.0041833194 0.120227404 0.05604281
-0.05795411 -0.062163603 -0.082376584 -0.04025065 -0.040885657 0.021751853 0.06082676 -0.07418555
-0.051848616 -0.058576617 -0.03704835 0.038114704 0.0040663197 -0.04810782 0.010752516 0.022780262
0.021746386 -0.0019110021 0.05516269 0.014450327 -0.0732722 -0.037116397 -0.077125914 0.009968654
-0.019669369 0.014055682 0.0054551936 0.03157146 -0.02066857 0.08758083 0.042906474 -0.0639654
0.0028425076 0.05355632 0.047741573 0.05827079 0.06743558 -0.0660744 0.053424317 -0.020835046
-0.04925478 -0.050774597 0.01671493 0.003691249 -0.009810764 0.0117173465 0.03496595 -0.041804817
0.054371957 -0.02383093 0.011242043 -0.03726151 -0.05363405 -0.05855026 0.03926978 -0.05182833
0.01284112 -0.018741393 -0.051209886 -0.06310108 -0.023821186 -0.10107743 -0.048552312 -0.012552955
0.021189397 0.031858847 -0.029959755 0.020370487 -0.03487281 0.027154814 0.05034447 -0.0123021435
0.045163177 0.0071746837 0.01958289 0.08362866 0.029420769 0.00725131 0.0100601 0.057912413
-0.018841298 0.043128297 -0.009971344 0.026697088 -0.005358535 -0.020136297 -0.031087687 -0.029199284
-0.0050156834 0.06906241 -0.0063132686 0.039794452 0.011385578 -0.035472758 -0.00052975526 0.008998382
0.0054465127 0.07892801 -0.041712392 -0.035919603 -0.006722309 0.09171022 0.09592218 0.035661478
0.015941013 0.0082526235 0.036084045 0.06186635 0.045374308 -0.011835911 -0.058227375 -0.060330797
0.02615528 -0.02858321 -0.05935906 -0.06755429 0.07321942 0.011016459 -0.07877825 -0.028583733
0.023688348 0.044993266 -0.02627724 0.04634652 0.05098722 0.059020393 0.0052623525 0.04141184
-0.0051067616 0.02973234 0.02721031 -0.056900766 0.007785028 0.034958985 -0.012106755 -0.06501738

layer_2.lin.bias f4 [100]
00000000: ee73 f03b 466a 1dbd 7c4f 41bc ba86 1ebd
00000010: ccb0 44bd 5692 6bbd 7188 cf3c fb61 f83c
00000020: 8836 06bd 01bf c83c 02fa 453d e043 3dbd
00000030: 811b 3bbd d236 30bd 5bb1 04bd b4cb 0e3d
00000040: 804c 49bd c4d0 edbc 06d9 06bd ee7a 1abc
00000050: 50aa 38bc 359a d0bb 9ce3 273d 9311 8f3c
00000060: 3ed8 913b 1a9f 1c3d 2225 943d 9f09 fbbc
00000070: add1 9439 50c8 803d e5f8 f53a 89c5 3dbc
00000080: ba1c 9cbc 0123 723d c17c 183d fa51 1a3b
00000090: ffae 8c3b ea1b 593d df9c 953c 944d eebc
000000a0: 4100 2f3d c76e 6cbd e399 b7ba e2b3 15bd
000000b0: 85a4 69bc 2f77 053d 3a19 c6bc 38c5 4dbb
000000c0: 67ef fabc 168e 52bc 8546 0d3d 7f37 26bd
000000d0: a93c 72bd c537 c9bc c385 8abc 84c0 48bc
000000e0: f4b1 c1bc 6835 2dbd 9a9e a8bc e1b0 b53c
000000f0: 7ba8 13bd 7b6b 2b3d eedc efbc cfd6 d6bc
00000100: 3f08 453d 9f49 f83c 8ddb 743d 523e 90bb
00000110: 70a5 243d c4fc b7bc 15bd 1bbd 155b 263c
00000120: 34ae a13d 0bf1 473c 5b1e 67bd 19c0 823b
00000130: f36d 62bd 5f87 9e3c e12f 55bd 0df1 0dbb
00000140: 3d74 43bd 0607 b3bc d7b4 65bb 78e0 6dbd
00000150: e26b 21bd 0226 473d cb97 2b3d 7f33 79bc
00000160: 2cd5 abbc 5d28 bcbc 60a4 f73b 7522 873d
00000170: 9497 313d f766 0abc c686 46bd c612 83bc
00000180: cae5 5c3d 62f1 573d f3ea 93bd 72d6 3b3c
0.0073380386 -0.03843143 -0.011798736 -0.038702704 -0.04802017 -0.057512604 0.025333615 0.030320158
-0.03276685 0.02450514 0.04833413 -0.04620731 -0.045680527 -0.04302103 -0.0323957 0.034862235
-0.04914522 -0.029030211 -0.032921813 -0.009428723 -0.011271074 -0.006366039 0.04098855 0.017464435
0.004450827 0.03823767 0.07233645 -0.030644236 0.0002838498 0.062882066 0.0018766193 -0.011582741
-0.019056667 0.059115414 0.03722835 0.0023547397 0.004293322 0.053005137 0.018263279 -0.029089727
0.04272485 -0.057722833 -0.0014007654 -0.036548503 -0.014260416 0.032584365 -0.02418195 -0.003139807
-0.030631734 -0.012851259 0.03449108 -0.04058027 -0.05913988 -0.024562726 -0.016909486 -0.012252931
-0.023644425 -0.04228726 -0.02058344 0.022179069 -0.036049347 0.04185055 -0.029280152 -0.026225476
0.048103567 0.030308543 0.059779692 -0.0044019604 0.040196836 -0.022459395 -0.03802212 0.010153552
0.07894555 0.012203465 -0.056425434 0.003990185 -0.055280637 0.01935166 -0.052047614 -0.002165857
-0.047718275 -0.021853935 -0.0035050416 -0.0580754 -0.039409526 0.04862023 0.041892808 -0.0152100315
-0.020975672 -0.022968465 0.007557437 0.06598369 0.043357447 -0.0084474 -0.048468374 -0.016000163
0.05393008 0.052720435 -0.072225474 0.011464702

layer_3.lin.weight f4 [100, 200]
00000000: 0fa5 8f3d fa15 1e3c 7157 b8ba b50f 21bd
00000010: 8248 fc3c eb14 4b3d 8135 b13d b36d 423d
00000020: f02d 9fbc b762 21bd b5d4 533d 3c5b 763d
00000030: 9ba7 483d af7e 993c 6f4b 54bd d701 46bc
00000040: 5caa 85bc 4421 69bd 946f 603d eb39 713d
00000050: b652 bd3c 56e8 873c ddb6 9fbc 93f5 ebbb
00000060: a790 80bd 3ffc 293d 0633 03bd 4ec9 063d
00000070: 41e5 923c 3917 203d cb2a 303d 68ee 443c
00000080: ac9d 89ba b06f 0c3c 1e61 87bc 52b5 b53c
00000090: cce6 1dbc 4b8e 633d a3e7 4f3d 0004 ce3b
000000a0: 467c e8bc 6578 74bd c3fb 41bd 168d 983c
000000b0: 8dca 913c c1d3 e53b 69da ea3b b698 2dbb
000000c0: d37a a6bc f9b2 803d 5207 1fbc ef1c 493d
000000d0: c0a3 8fbd 87b7 693d 536c 97ba a854 8f3d
000000e0: 8233 26bd 7019 38bd bdc7 20bd 41f1 5e3c
000000f0: e392 b2bd 0be1 88bc c6b7 33bd deaf b6bc
00000100: f196 30bc 110f 4e3d fcbb e3bc 52f5 653d
00000110: 9ae4 a83a dbd3 563c da9b e53c ceec a23c
00000120: 851c 8d3d cd73 bd3b baf7 983d f5a8 f83c
00000130: 58af 30bd e1b7 afbc 7860 003d da87 6f3d
00000140: 189a 95bd 160a e9bc f009 133d a9ca 8dbb
00000150: 7346 ab3d 4ba7 6b3d 0cb3 913d 56c6 a6ba
00000160: 8979 833d d407 1cbd 6ae4 74bb 55dd ab3c
00000170: 55a6 1cbd 900d 07bd 349a b03d 92c7 fbbc
00000180: 2641 dbbb 182a eaba 9572 1abd 82b3 babc
00000190: ee4a 01bc e1d5 58bd f0d2 783d 9b2c 8bbd
000001a0: 4651 243e 1fed 32bd 88f7 1d3b 728d 33bd
000001b0: b5bb f63c 365a 9b3c 8f5e 623c bdbc 87bd
000001c0: 278a 93bd e9da 0bbd 56f4 d1bc 3420 65bd
000001d0: 7469 bb3c 4e00 933d a89b 93bd c1ab 483c
000001e0: ab53 903d c454 2a3d 7128 2ebd 2f92 0b3d
000001f0: 2edd d93c e626 90bd 926c e63c 6909 bf3c
00000200: 17d5 04bd ef4b cb3b 50dd 7dbd f1ee 87bd
00000210: e3a7 91bd 5643 bdbc 498d 00ba 3000 d63c
00000220: 3b26 203d 350d 98bd fd7b 09bd fa76 b0bd
00000230: 53bf 473d d7be 473d b096 f93c 43b0 0ebd
00000240: 2403 9c3d 3621 463d 5610 323d 34e5 a2bd
00000250: 05a9 51bd 1f8f b0bc 0276 b839 048e febc
00000260: a535 b038 2e1b adbc d5b2 0fbd eace 013c
00000270: 6dee 1dbd f3df 3c3d 60e5 33bc 5cf5 afbb
00000280: 4f8e 923d 4037 c93d 7c61 86bd 25ad 95bd
00000290: b58b 81bc 8df5 983d e7f4 3f3d 3396 993c
000002a0: 37a0 823a 6d02 e13c ff87 523d aef8 96bd
000002b0: 6f71 8cbb 2964 263d 2b39 f73b 44be 14bd
000002c0: 6197 42bd 23a5 56bd b4b4 693c 9548 79bc
000002d0: 6f08 983d bee6 02bc f183 65bc 7955 3fbc
000002e0: 765e 30bd 375f 1ebc 4dec 66bd 949d c9bc
000002f0: febc 9fbd e4ad c93d 88ef 61bc 3bf7 2dbd
00000300: 95b2 1ebd 49aa e03a 43f3 8cbd 50b7 05bc
00000310: c392 523d 7dc2 83ba 2c3d 383d 7e7d 9ebd
00000320: 36e9 963c cd4c 143c 35da 1ebd 8a8c 67bd
00000330: 66b7 9ebd 5ab3 35bc 0bbe 5dbd 7a07 a93c
00000340: bd8e 253d 1096 6a3d fd51 023d a357 053c
00000350: 92f0 88bc 5b0f 473c b614 043d a1eb d0bc
00000360: 1faf a83d b860 bfbc 53b0 173c fc60 d33c
00000370: 1aa0 64bb e89a 0c3b 0959 72bd d377 ccbd
00000380: f031 433d 6524 c33b 04cd d63c 45b0 6bbd
00000390: 8e60 89b9 c796 e8bc 7dcd 0f3d 2eaf 8a3c
000003a0: db62 85bd 2ad1 9bbd 9590 0f3b ee86 923d
000003b0: 4b82 063d 2c1e 333d 79a2 f2bc 11f9 ddbc
000003c0: 69c5 4a3d d4f6 0abd 6991 abbc 41a0 71bd
000003d0: 33d9 70bd 3fd0 18bd 22d4 bebc 0e0c 363d
000003e0: d395 573d 78ea 11bd 6686 44bd 3eb6 ccba
000003f0: dbc0 b13c c05a 8c3d d28d 0fbd 65ca 6cbc
0.07013904 0.009648794 -0.0014064146 -0.03932162 0.030796293 0.049580496 0.08652783 0.0474679
-0.019431084 -0.039400782 0.051716525 0.0601456 0.048987966 0.018737165 -0.05182975 -0.0120854
-0.016316585 -0.05691649 0.05479391 0.058893126 0.023110729 0.016590279 -0.019496376 -0.0072009056
-0.0627759 0.041500326 -0.03203108 0.032906823 0.017931582 0.039084647 0.04300956 0.012019731
-0.001049926 0.00857155 -0.016525801 0.022181187 -0.009637546 0.055555623 0.050758015 0.006287098
-0.02837957 -0.05968513 -0.04735924 0.018621963 0.017796779 0.0070137684 0.00716715 -0.0026488728
-0.020322239 0.06284136 -0.009706335 0.04909986 -0.07013655 0.05705979 -0.0011552669 0.06998569
-0.040576465 -0.044946134 -0.039252985 0.013607324 -0.08719423 -0.016708871 -0.043876432 -0.022300657
-0.010778175 0.050307337 -0.027799599 0.05614216 0.0012885511 0.013112034 0.028028417 0.019888308
0.06890205 0.005781627 0.07469125 0.030354002 -0.04313597 -0.021449985 0.031342 0.058479168
-0.07304782 -0.028447192 0.03589815 -0.0043271375 0.083630465 0.05753259 0.071142286 -0.0012723904
0.06419665 -0.038093403 -0.003736759 0.020979563 -0.038244564 -0.03297192 0.08623162 -0.030734811
-0.006691116 -0.0017865328 -0.03770693 -0.022790674 -0.0078914 -0.052938346 0.06074804 -0.06795617
0.16046628 -0.043683168 0.002410384 -0.043836065 0.030118803 0.018963914 0.01381649 -0.06627796
-0.07204085 -0.034144316 -0.025629204 -0.055938914 0.022877432 0.071777925 -0.072074234 0.012247981
0.070472084 0.041584745 -0.042519037 0.03407496 0.026594725 -0.07038669 0.028127942 0.023319917
-0.03242978 0.0062041203 -0.06197864 -0.06637371 -0.071121 -0.023103397 -0.00049038656 0.026123136
0.03909896 -0.07424394 -0.03356551 -0.08616443 0.048766445 0.048765983 0.030467361 -0.034836065
0.076177865 0.048371516 0.04347261 -0.07953873 -0.05118658 -0.02155262 0.00035183138 -0.031073578
8.402326e-05 -0.021131124 -0.035082657 0.007922867 -0.03855746 0.046112012 -0.01097998 -0.0053698253
0.071560495 0.09824991 -0.065615624 -0.07308415 -0.015813688 0.0746871 0.046864416 0.018748378
0.0009965961 0.027466977 0.051399227 -0.07371651 -0.0042859833 0.040622864 0.0075446567 -0.036314264
-0.047507647 -0.05240358 0.014264274 -0.015215059 0.074234836 -0.007989584 -0.014008508 -0.011678093
-0.043058835 -0.009666256 -0.056377698 -0.024611272 -0.07799719 0.0984762 -0.013790019 -0.042472105
-0.038744528 0.0017140593 -0.06882336 -0.008161381 0.051409494 -0.0010052469 0.044980213 -0.077387795
0.01842175 0.009051514 -0.038782317 -0.056530513 -0.07749824 -0.011090124 -0.054136317 0.020633448
0.04041933 0.057272017 0.03181647 0.00813857 -0.016716275 0.012149657 0.032246314 -0.025502982
0.08236527 -0.023361549 0.009258348 0.025803082 -0.0034885467 0.0021454636 -0.05916694 -0.09983792
0.047655046 0.0059552663 0.026220806 -0.05754115 -0.00026202615 -0.028392209 0.03510808 0.016929235
-0.06512996 -0.07608254 0.0021906246 0.07154642 0.0328391 0.043729946 -0.029618489 -0.027096303
0.04950467 -0.0339268 -0.02094336 -0.05899072 -0.058800887 -0.037307974 -0.023294512 0.04444509
0.052633118 -0.035623997 -0.047979735 -0.0015618277 0.021698406 0.06853247 -0.03504736 -0.0144525515

layer_3.lin.bias f4 [100]
00000000: b1b2 56bd a447 743d 0046 8c3b 2867 ec3c
00000010: 9f02 a0bc 0475 533d 0e02 5cbd fad2 2b3b
00000020: 7331 4ebd 72ab d2bb 7017 dc3c f5c1 87bc
00000030: 8ea1 213d c7c8 14bd fe82 c8bc a43a b3bc
00000040: bae3 00bd 4431 17bc 8ef5 15bc 9536 ac3c
00000050: a8ba 5cbd fecd 6f3d a947 14bb 40f7 163d
00000060: 7f83 25bd 4ff9 213d b968 4b3d 3dea 6c3c
00000070: 9f96 83bd 8a45 70bd b797 723d 1e51 6c3d
00000080: 1865 c4bc 420f 0f3d 2d42 983d 2849 9f3b
00000090: f961 623d bcac 5a3d df80 243d e5e4 883d
000000a0: 50cb a9bc 724f 20bd 9278 cfbc fa67 593d
000000b0: 09ce 29bc 2da0 0ebc d6fd df3c 4930 6d3d
000000c0: 1196 80bd 5929 b43c dbe0 7abb adaf 533d
000000d0: 48e6 61bd 93ec 6a3d 13c5 513c 2d88 113d
000000e0: 5381 143d 09b1 92bc 1168 78bd 82ad bbbc
000000f0: 1a0b 013c 6075 e4bc 4de4 b33a 5a52 4c3c
00000100: fcbd 103c c573 6bbd 8179 423d f8e7 ed3c
00000110: 1066 6ebc c4ba 1e3d 6bfa a53c 8eab e83c
00000120: 1785 4cbd 00b6 b43c 8f8c 31bd b191 543d
00000130: b1f0 613d 4637 853d 4ecb a23c 990e cdbc
00000140: 5557 613d c5ea 8d3d 264c b5ba dc4e 1abd
00000150: c1b0 0f3c 8418 b6bb d0f9 6d3c 7670 03bd
00000160: 52cc abbb dffa 553d 7807 b6bc dc79 5bbd
00000170: 74c1 943d 3b06 6c3d b5b0 fb3b b069 98bd
00000180: 7f9e a73b 7597 553c 0562 ac3c 851f 313d
-0.052416507 0.059638634 0.0042808056 0.028857782 -0.0195325 0.051625267 -0.053712897 0.002621828
-0.050340127 -0.0064291293 0.026866645 -0.016571978 0.03946071 -0.03632429 -0.024476524 -0.021878548
-0.031467177 -0.009228054 -0.009152783 0.02102212 -0.053888947 0.05854606 -0.002262572 0.03685689
-0.040408608 0.0395444 0.04966042 0.014460144 -0.06425213 -0.058660068 0.059226718 0.057694547
-0.023973987 0.03492666 0.07434497 0.004861016 0.055269215 0.05338739 0.040161964 0.06684283
-0.02072683 -0.039138265 -0.025326047 0.053077675 -0.010364064 -0.008705181 0.027342718 0.057907376
-0.06278623 0.021992372 -0.0038280997 0.05168121 -0.055151254 0.05735452 0.012803334 0.035530258
0.036256146 -0.017906683 -0.06064612 -0.022909883 0.007876182 -0.027888 0.0013724655 0.012470806
0.008834358 -0.057483453 0.047479156 0.029041275 -0.014550701 0.038752332 0.02026101 0.028402116
-0.049931612 0.02205944 -0.043346938 0.051896755 0.05516118 0.06504683 0.019872334 -0.025031375
0.055014927 0.06929544 -0.0013831898 -0.037672862 0.008770169 -0.0055571217 0.014524892 -0.032089673
-0.0052428627 0.052241202 -0.022220358 -0.05358301 0.07263461 0.05762313 0.007680977 -0.07442033
0.0051153298 0.013036598 0.021042833 0.04324295

layer_4.lin.weight f4 [100, 200]
00000000: a458 6bbd e562 7d3d dab6 6f3d a24f 3ebd
00000010: 60dd 06bc ba0e 1bbd fd40 2f3d a67b 33bc
00000020: 3ca3 f0bc 680c db3c 09ed 40bd ad9c 113d
00000030: 26ac 003d 718c 503d 1899 ccbc c922 dc3c
00000040: c229 48bd 8f27 3fbc c093 813d 87e5 f53c
00000050: 9ba2 3bbc 2416 fdbb c94e 123d 63f7 183d
00000060: 1436 86bd 3be9 c13b 33d8 1cbd 8899 afbd
00000070: acb1 c53a f9d4 09bd 0e78 3d3d 8e98 fd3c
00000080: 9110 8c3c 803f 293d 8427 b83c e54e 4a3d
00000090: 0604 1f3d b73c 423c 7dfa a33c 8850 47bd
000000a0: 57d4 3e3c 526f a838 0245 1bbd d39f c8bc
000000b0: 557f 8abd b4b1 a7bc bcb1 1c3d 72ba 03bd
000000c0: 750c 2abc 0a54 8a3d c359 5c3d d2c9 5ebd
000000d0: d01a 793d d990 85bc 6818 39bd d280 98bd
000000e0: c0d0 953d 096d 37bc eea2 8c3d 01f2 793d
000000f0: 6955 a33b 4c09 053d b4d7 a53c 2d8d ecbc
00000100: bfd5 03bd 9f01 bdbc 7612 763d b614 733d
00000110: 5328 50bd 2774 143d 99d2 99bc dc25 84bc
00000120: ad25 22bd 3b7c 9abc dc9d 943c 4d84 7f3d
00000130: 8f53 333d 0d7f d23b 3ea0 343d fe7e b13c
00000140: 194f ca3c bd60 2f3d bd98 13bd cacc ba3c
00000150: bb17 b4bd 08d8 603d fdcf 623d e995 293c
00000160: 37bb 963d c8c9 b03c 821f f0bc cb61 63bd
00000170: 7768 77bd 70b0 f6bc 68c0 04bd 82f3 3c3d
00000180: 7ac6 15bd 60e4 8ebd e7b4 16bd 301d 4fbc
00000190: b3f1 6a3d 49dd 933d 2b2d 24bd 56e3 763d
000001a0: 81dd 0dbd 7053 953d 48bd ffbc 2551 383d
000001b0: bff0 4cbd 2dea 97bc 3fea 5e3d 693a 84bc
000001c0: f298 b93d 91cb 7fbd 88f3 c4bd 2242 613b
000001d0: 4702 81bd 2cc2 ff3c 3027 663d 32ce fcbc
000001e0: 48a9 4abd b43f 823d 8c95 a8bd 2e48 69bd
000001f0: 97cd 98bb 9b8d 933c d816 da3c a839 a8bd
00000200: 5744 bfbd bee1 b83c 915a cc3c d667 a53b
00000210: f28c c83d 58cc b7bc fe32 17bd a00b ffbc
00000220: bbc7 89bd 966c 903d 2da8 403d 74e8 b23c
00000230: e286 17bd e325 083d d4a1 963d d903 8bbd
00000240: b8ac 093c dce5 30bd 1714 b9bc a384 fa3c
00000250: 9f24 d83b 7bb8 1b3d 83ba f2bc 7e22 863c
00000260: 804b cf3c e51a 9ebd 4eb8 fa3c 3e98 283d
00000270: 0952 8dbd f9bd 38bb ffd3 babb ce5b eb3c
00000280: 7577 8dbb c848 413d e907 1ebd 04b3 d03c
00000290: 0b3c d63c 7bc8 463c a1ca 1dbd 99bf 273c
000002a0: 3a20 92bd 2fc5 0eba 6b4d 293d 36ba e9bc
000002b0: c90e af3c 026e ae3d 0d59 79bc 816d c2bb
000002c0: 88d4 ab3c 1290 b73d a4e3 9f3d 3df1 83bd
000002d0: 92c4 c9bc 6583 9b3c 296f de3c b0c7 3c3d
000002e0: db46 8c3d 4500 0f3c 0cef bbbc 4717 ebbc
000002f0: 6225 74bd 39a5 e93c 111a 223d 6a02 a6bd
00000300: 06a1 a93d 9056 5bbc 6ecf 79bb e6cb 563d
00000310: c18e d4bd 5d82 383d 61c0 743c 19a7 a23d
00000320: 831f c73c 2cf3 423d c209 ed3c 8b0f 47bd
00000330: 5a32 8ebd be1f 03bd 9236 b3bd d808 8b3d
00000340: a7b7 543d 6685 f4bc f48c 35bd 2b0c 5a3d
00000350: 5375 833d bfba 28bd 41f8 8ebc b340 7fbd
00000360: ffa2 c8bb 373d dc3d 1ffc e6bc c101 4cbc
00000370: 5c67 7ebd 03c4 b1bb 48d9 813d 424a 8fbc
00000380: d3a4 2cbc fb3d 4cbd 7d7d 20bc b3a3 723c
00000390: fcb5 20bc 835e 563c ee07 303d 2730 80bb
000003a0: 9fcf 2d3d 9645 723d 5ca0 a4bd 4ba7 493d
000003b0: 90d0 a83c 25ef f1bb 8af5 5e3c 98d9 9cbb
000003c0: 1b44 803d a436 8abb f782 76bd d61d 18bd
000003d0: a8a9 763d 8d6e b5bb 2a05 a2bd 5317 053d
000003e0: f895 783d 15e1 903d 81b9 54bd 9df6 49bd
000003f0: 290d adbb a02d 8a3d 1d1c 273d b179 a43c
-0.05745758 0.06186189 0.05852399 -0.046462663 -0.008231491 -0.03785584 0.042786587 -0.010954773
-0.029374711 0.026739314 -0.047101054 0.03554981 0.031414174 0.050915185 -0.024975345 0.026872056
-0.04886795 -0.011667146 0.06327009 0.030016674 -0.011452342 -0.0077235866 0.035719667 0.0373453
-0.06553283 0.005917696 -0.03829212 -0.08574206 0.0015082858 -0.033650372 0.04625707 0.030956533
0.017097743 0.041320324 0.02247978 0.049391646 0.038822196 0.011855296 0.020016903 -0.048660785
0.011647305 8.031599e-05 -0.037907608 -0.024490273 -0.06762568 -0.020470478 0.03825544 -0.03216023
-0.010378947 0.067543104 0.05379654 -0.05439169 0.060816586 -0.01630442 -0.04518929 -0.074464455
0.073152065 -0.01119543 0.06867014 0.06102181 0.004984547 0.03247957 0.020244457 -0.028875912
-0.032186266 -0.023072062 0.0600762 0.059345923 -0.050819706 0.036243584 -0.018777179 -0.016131334
-0.03958671 -0.018858066 0.01814168 0.06238203 0.04378086 0.006423837 0.04409813 0.021667
0.02469592 0.042816866 -0.036034334 0.02280273 -0.08793589 0.054893523 0.055374134 0.010350683
0.07359927 0.021580592 -0.0293119 -0.055513185 -0.06040236 -0.030113429 -0.032410055 0.046130665
-0.036566235 -0.06977153 -0.036793616 -0.012641236 0.05735941 0.07219941 -0.040082138 0.0602754
-0.03463507 0.07291305 -0.031218186 0.04499926 -0.05003428 -0.01854428 0.054422613 -0.016141133
0.09062375 -0.062449995 -0.096167624 0.0034371694 -0.062992625 0.031220518 0.056189716 -0.03086004
-0.049477845 0.06359807 -0.08231649 -0.0569536 -0.00466318 0.018011859 0.02662222 -0.08214122
-0.09339207 0.02256858 0.02494553 0.0050477786 0.09792508 -0.022436306 -0.036913864 -0.031133473
-0.06727549 0.07051961 0.047035385 0.021839358 -0.03699387 0.033239257 0.07355085 -0.06787843
0.008402996 -0.04318796 -0.022592587 0.030580824 0.0065961624 0.03801773 -0.029629951 0.016373869
0.025304556 -0.077199735 0.030605461 0.041160814 -0.069004126 -0.0028189404 -0.0057015414 0.0287303
-0.004317219 0.04718855 -0.038581762 0.025475986 0.026151678 0.012132759 -0.03852332 0.010238552
-0.07135053 -0.0005446253 0.041333597 -0.028531175 0.021369355 0.08517076 -0.015218985 -0.005933464
0.020975366 0.08963026 0.07807091 -0.06442497 -0.024629865 0.018983552 0.027152615 0.046088874
0.06849452 0.008728092 -0.022941135 -0.028697623 -0.059605964 0.028521167 0.03957564 -0.08105929
0.08282666 -0.013387337 -0.0038118022 0.052440546 -0.10378791 0.0450462 0.014938445 0.079420276
0.024307018 0.047595188 0.028935317 -0.048598807 -0.069431975 -0.032012694 -0.08750643 0.06788796
0.051932957 -0.029848766 -0.044323877 0.05323426 0.06418862 -0.04119372 -0.017452361 -0.06231756
-0.0061229463 0.10753863 -0.028196393 -0.01245159 -0.06211029 -0.0054249777 0.06340271 -0.017491464
-0.010537344 -0.049863797 -0.009795544 0.014809537 -0.009809013 0.013084057 0.042976312 -0.00391199
0.04243433 0.059148394 -0.080383986 0.04923181 0.020607263 -0.0073832446 0.013608346 -0.0047866814
0.0626299 -0.0042179395 -0.06018349 -0.03713783 0.06022039 -0.0055368603 -0.07911141 0.032492947
0.060689896 0.07074181 -0.051934723 -0.049307454 -0.00528111 0.067469835 0.040798295 0.020077558

layer_4.lin.bias f4 [100]
00000000: 6444 a9bc 7a27 753d d815 b73c 25ee 3cbc
00000010: 249a bebc 762b 293d 2496 b0bc 3866 683c
00000020: bc5a 84bd df1e 62bd 8df4 bbbc f88b 4fbb
00000030: f1a1 333d 022b 8fbd 4e5d 6abd 2e60 6c3d
00000040: 9afb 89bd 7680 c33c 2242 a13c 4243 d4bc
00000050: a3a4 c83c 5fdd 4bbd 89a8 a93b ee3d 59bc
00000060: 4cf4 4f3d b823 823c 5912 893c 1d62 04bd
00000070: 2035 ff3c c71c 163b b603 d43c ae46 933c
00000080: c084 303d 64be 03bd e3c5 573c 463b fa3c
00000090: b6c8 3e3d fac3 50bd 9779 4abd 83c2 053d
000000a0: 4cd0 183d ee28 3a3b d757 ecbb 5cc8 33bb
000000b0: 0e9c f8bc 0539 2d3d 54db 18bc 4f3b d6bc
000000c0: 1f87 d73a 1187 a93c e536 0abd e3f3 a8bc
000000d0: 8090 1ebd 100e 873d a49c d13a 13e9 453c
000000e0: 1548 a1bc eddd bfbc 5fe1 05bd fffe 2b3a
000000f0: 0a30 583d 0154 dd3c 34fc 7ebd 2d3d 153d
00000100: cc70 c9bc 7360 493d 3ac2 283d de74 523d
00000110: 721e 6bbd db56 e7bc eb92 1b3d d705 be3c
00000120: 5eba b83b 4330 29bd 31ea 08bd c349 643d
00000130: aa4c 783c 0ebf d03c 618c b5b9 4352 3e3d
00000140: eb71 6cbd dbf2 babc 90de 353d 13c6 043d
00000150: 3caa 3a3b 8a1b f9bc 3da4 293c 9be0 e3bc
00000160: 1746 223d 35db 5e3c e3e3 08bd bd1f 6fbd
00000170: d8ef 2a3c eb54 43bd e7ad 27bc 3fc1 a83c
00000180: 0fe5 7d3d f501 323d 67b3 8abc 9a2c c2bc
-0.020662494 0.0598521 0.022349283 -0.011531387 -0.02326686 0.041301213 -0.021555968 0.014184527
-0.06462619 -0.055205222 -0.02294376 -0.0031669121 0.04385561 -0.06990625 -0.05721789 0.05770891
-0.06737442 0.023864966 0.019684855 -0.025910977 0.024492567 -0.049771663 0.0051775617 -0.013259394
0.05077009 0.015886173 0.016732382 -0.03232013 0.031153262 0.0022905336 0.025880676 0.017978039
0.04309535 -0.032163993 0.013169738 0.030545842 0.04657813 -0.050968148 -0.049432363 0.032656204
0.037308022 0.0028405744 -0.0072126198 -0.0027432656 -0.03034785 0.042290706 -0.009329636 -0.026151327
0.0016443467 0.020694287 -0.033743758 -0.020624107 -0.038712025 0.06594479 0.0015992117 0.012079495
-0.019687692 -0.023421252 -0.032685634 0.00065611297 0.05278019 0.027017595 -0.06225224 0.036435295
-0.024589919 0.049164247 0.041200854 0.051380984 -0.05740208 -0.028239658 0.03798191 0.023196144
0.005637451 -0.04130579 -0.033426467 0.055734407 0.015154997 0.025481727 -0.000346276 0.04646517
-0.05772583 -0.02282088 0.044401705 0.03241546 0.0028482815 -0.03040864 0.010354099 -0.027817061
0.039617624 0.013602068 -0.033420455 -0.058379877 0.01043316 -0.047688406 -0.010234333 0.02059996
0.061986025 0.043458898 -0.016931249 -0.023702908
