training_runs/model_step14000.pt (torch, 108782 bytes, 24 tensors)

layer_0.lin.weight f4 [32, 64]
-0.1296993 0.048861403 0.10850645 0.067115135 -0.1305379 0.02810847 0.073793046 -0.11800838
0.06211705 -0.0943756 0.059934776 0.24393414 -0.1381873 0.01880964 -0.07248579 -0.110170916
0.16312638 0.15818146 -0.11905621 -0.1723249 0.17440349 0.20960288 -0.09790828 -0.032356925
-0.18047288 0.09857803 0.12351725 -0.068344444 0.10188324 0.0657667 0.07287424 0.13909268
0.073888406 0.19245757 -0.027365243 -0.20846926 0.1943525 -0.1352648 0.12151824 0.2586032
0.15203892 0.02208335 0.091664165 -0.42892733 0.002581326 0.0006265515 -0.041880067 0.09251831
-0.024149816 -0.19847403 0.09915819 0.2964809 0.02952051 -0.03616352 -0.09934739 0.02821706
0.1459488 -0.23799047 0.06637547 -0.038356856 0.033132806 -0.21282521 0.06957795 -0.18160777
-0.03440878 -0.052495003 -0.0053876797 0.109682925 -0.15624504 0.23801312 -0.05292556 -0.18957455
-0.056745324 -0.0062977253 -0.017814249 0.27128106 0.073596224 -0.048147127 0.120893985 -0.12619565
-0.027851846 0.10977943 0.021677697 -0.17327948 0.07640977 -0.00806235 0.15654194 -0.04240321
0.026737884 0.07145351 0.02515726 0.043673586 0.08056545 0.171973 -0.010215718 0.11814955
0.21540909 0.09877256 -0.1839138 -0.28384653 0.11293721 -0.12048627 -0.01464185 0.21566832
-0.15602806 -0.024336843 -0.09436232 -0.44924316 -0.12691161 0.033098437 -0.045202926 0.15720971
-0.21048312 -0.18713494 0.010791655 -0.04679983 0.109785885 -0.08476919 -0.007855641 0.00014256348
0.17872643 0.22601819 -0.15391621 -0.010627689 -0.25456783 -0.15234855 -0.0004361824 -0.20636892
-0.17094003 0.18484814 0.2066087 -0.027800975 -0.02946466 0.1125885 0.06416346 -0.11625731
0.0645988 -0.16167544 -0.071744986 0.03458926 0.12324386 0.14453436 0.056926977 -0.10697212
0.0532942 -0.05531949 0.022958176 0.035197597 -0.008864754 0.086181134 -0.23044007 -0.0054900805
-0.02407567 -0.08281276 0.3127899 0.031763185 0.4352751 -0.03423979 0.03090204 0.08518114
-0.06657873 -0.19331253 -0.12052353 -0.18287186 -0.13780972 0.075213864 -0.11635122 -0.06748562
-0.3385133 0.03472127 0.17907463 0.110345185 0.107103586 -0.006579373 -0.15309134 0.17378351
-0.21189293 -0.051233523 -0.043042768 -0.016107406 0.18351048 0.032747414 0.24635199 0.033261944
0.050650626 0.08814057 -0.16335645 -0.026115142 -0.11635734 0.18575186 -0.1124288 0.038857546
-0.33304557 -0.16644265 -0.053282548 0.16182998 -0.010641361 -0.08029937 -0.08119005 -0.1107583
0.12577765 0.09994379 -0.092170894 -0.034309577 -0.0014670017 0.004197093 -0.03184355 -0.016728032
0.32707164 0.20329565 0.11797634 0.025427613 -0.075921364 -0.12861952 -0.0406533 -0.1547858
-0.31380424 -0.17383416 0.060207136 -0.111175284 -0.058837786 0.111922696 0.0229092 0.12894201
-0.033832766 -0.111231074 -0.21285929 -0.08683724 0.06276244 -0.13274975 0.0726305 0.15279895
0.025440061 0.11756037 -0.02179577 -0.29489464 -0.052467793 -0.09367794 0.00022896416 0.103422076
-0.050089426 0.12804665 0.0049505145 0.08606244 -0.1544367 -0.32777682 0.11114659 -0.063683264
-0.01161607 -0.015233288 -0.21197203 -0.20995212 -0.1980379 -0.1423297 -0.048523214 -0.15732493
00000000: e5cf 04be e522 483d a138 de3d a973 893d
00000010: baab 05be bc43 e63c cf20 973d 61ae f1bd
00000020: 736e 7e3d ff47 c1bd 2b7e 753d dfc9 793e
00000030: f980 0dbe ad16 9a3c 6e73 94bd 4aa1 e1bd
00000040: 9a0a 273e 52fa 213e bed3 f3bd f075 30be
00000050: d496 323e 23a2 563e 2384 c8bd b288 04bd
00000060: e2cd 38be 47e3 c93d 9df6 fc3d 2cf8 8bbd
00000070: 29a8 d03d b1b0 863d 173f 953d 506e 0e3e
00000080: ce52 973d 9913 453e 132d e0bc f778 55be
00000090: 5704 473e db82 0abe 8ede f83d a367 843e
000000a0: 17b0 1b3e 24e8 b43c 6cba bb3d 5d9c dbbe
000000b0: 772b 293b 293f 243a 6f8a 2bbd 3d7a bd3d
000000c0: d6d5 c5bc c73c 4bbe 7313 cb3d 58cc 973e
000000d0: ffd4 f13c 3320 14bd a576 cbbd 7727 e73c
000000e0: 9a73 153e c6b3 73be ddef 873d 141c 1dbd
000000f0: 44b6 073d daee 59be e27e 8e3d 63f7 39be
00000100: 39f0 0cbd 0005 57bd 228b b0bb 71a1 e03d
00000110: b3fe 1fbe b6b9 733e 79c8 58bd d51f 42be
00000120: c96d 68bd 265d cebb 30ef 91bc 5ae5 8a3e
00000130: 9eb9 963d ec35 45bd 4497 f73d 6f39 01be
00000140: 8e29 e4bc 0ad4 e03d 6d95 b13c 2d70 31be
00000150: ba7c 9c3d f217 04bc 884c 203e fdae 2dbd
00000160: 6809 db3c 3856 923d 9916 ce3c 13e3 323d
00000170: 80ff a43d b119 303e d45f 27bc 64f8 f13d
00000180: 3394 5c3e 4549 ca3d e653 3cbe 5554 91be
00000190: a04b e73d 81c1 f6bd 5fe4 6fbc 28d8 5c3e
000001a0: d2c5 1fbe 0f5e c7bc 0841 c1bd 3303 e6be
000001b0: 1ef5 01be 3a92 073d b426 39bd 95fb 203e
000001c0: e388 57be 4da0 3fbe 7bcf 303c 2eb1 3fbd
000001d0: 6cd7 e03d 789b adbd f2b4 00bc 187d 1539
000001e0: 1004 373e 5071 673e 369c 1dbe c21f 2ebc
000001f0: b756 82be 4201 1cbe 69af e4b9 6052 53be
00000200: e70a 2fbe d548 3d3e 3b91 533e dfbe e3bc
00000210: df5f f1bc cd94 e63d 2268 833d 5018 eebd
00000220: 604c 843d 3f8e 25be 09ef 92bd 78ad 0d3d
00000230: 4767 fc3d d100 143e 432c 693d 3314 dbbd
00000240: 054b 5a3d b196 62bd c912 bc3c 5b2b 103d
00000250: 793d 11bc bc7f b03d 7bf8 6bbe 22e6 b3bb
00000260: 573a c5bc bc99 a9bd ff25 a03e 1d1a 023d
00000270: 61dc de3e 063f 0cbd 4626 fd3c 7373 ae3d
00000280: 6e5a 88bd b8f3 45be 0ad5 f6bd c342 3bbe
00000290: fe1d 0dbe ba09 9a3d 8c49 eebd e735 8abd
000002a0: 9e51 adbe e437 0e3d 575f 373e a8fc e13d
000002b0: 2059 db3d c897 d7bb fac3 1cbe 4ef4 313e
000002c0: 76fa 58be 3eda 51bd 9d4d 30bd aef3 83bc
000002d0: 2cea 3b3e 2722 063d b243 7c3e ad3d 083d
000002e0: 0877 4f3d 0b83 b43d ea46 27be 6cef d5bc
000002f0: c24c eebd bc35 3e3e 1241 e6bd 1729 1f3d
00000300: f384 aabe f16f 2abe cd3e 5abd c2b6 253e
00000310: 1a59 2ebc ff73 a4bd f846 a6bd 3fd5 e2bd
00000320: dbcb 003e 54af cc3d 18c4 bcbd 3388 0cbd
00000330: 6948 c0ba c587 893b 626e 02bd 3a09 89bc
00000340: ef75 a73e bc2c 503e 949d f13d 924d d03c
00000350: a97c 9bbd d6b4 03be 1384 26bd 2b80 1ebe
00000360: f3aa a0be 9501 32be c29b 763d deaf e3bd
00000370: e4ff 70bd ba37 e53d 13ac bb3c 6009 043e
00000380: 3a94 0abd 1ecd e3bd c9f7 59be b9d7 b1bd
00000390: 9889 803d 8def 07be 4dbf 943d 5477 1c3e
000003a0: ad67 d03c 7ec3 f03d 0b8d b2bc 6efc 96be
000003b0: 78e8 56bd 38da bfbd 1916 7039 f4ce d33d
000003c0: 922a 4dbd a91e 033e ed37 a23b 8141 b03d
000003d0: a724 1ebe 5dd2 a7be d3a0 e33d 5f6c 82bd
000003e0: 5451 3ebc 0a95 79bc 320f 59be b0fd 56be
000003f0: 72ca 4abe e0be 11be 47c0 46bd c919 21be

layer_0.lin.bias f4 [32]
0.007933205 0.006454934 -0.06132508 0.032111526 -0.002097111 0.024005935 0.03499224 0.13970363
0.1546091 -0.00038762452 -0.08623912 0.09785502 0.019587656 -0.028008439 0.07382837 -0.030910121
0.004818988 0.12270956 -0.09289719 -0.02622512 -0.054279655 -0.06249651 -0.11394483 -0.00015191587
-0.015065603 -0.028321235 0.0276843 -0.004563482 0.015487525 -0.010597184 -0.041944694 -0.0010237518
00000000: 46fa 013c e983 d33b 0230 7bbd 6087 033d
00000010: af6f 09bb 18a8 c43c 0654 0f3d 780e 0f3e
00000020: d951 1e3e 153a cbb9 239e b0bd 3668 c83d
00000030: 4b76 a03c f471 e5bc 5433 973d 3937 fdbc
00000040: 9ae8 9d3b 264f fb3d e240 bebd 10d6 d6bc
00000050: 5854 5ebd 57fc 7fbd e85b e9bd 9b4b 1fb9
00000060: b8d5 76bc ef01 e8bc 2fca e23c 4389 95bb
00000070: 63bf 7d3c d09f 2dbc 33ce 2bbd 692f 86ba

layer_1.lin.weight f4 [32, 64]
-0.16481747 -0.08247172 -0.050403114 0.13142335 -0.11181149 0.09494549 -0.12412563 0.1697388
-0.11083398 -0.06669497 -0.10501573 -0.17624848 0.15886174 -0.10338185 -0.036169603 -0.09825018
0.04997905 0.018897358 -0.036037393 0.059531406 -0.1607901 -0.0038019037 0.12031045 -0.033543147
0.0094674295 0.19169132 0.008393478 -0.097302854 0.18695761 0.20095043 0.0017135256 0.011232557
0.024564525 0.1564322 0.03856894 -0.02185783 0.014720298 -0.06969949 0.2125034 -0.17984822
-0.011664119 0.15507518 -0.05547388 0.0017978804 -0.12292948 0.14002253 0.24242884 0.1655994
0.06294274 -0.13312823 -0.013360082 0.025687799 -0.08437779 0.02525555 -0.14519785 0.08449896
0.13569716 -0.14680248 0.102128975 0.18931992 -0.34457842 0.1723083 -0.015475373 -0.10490243
-0.0696344 -0.030093094 -0.030891089 -0.015932392 0.0007674086 -0.13712691 0.3573054 0.004571084
0.08580987 0.055556107 0.0573416 -0.071529746 0.06686562 -0.26465672 -0.18326378 -0.21586452
0.05894944 0.0206952 -0.021116938 0.050398126 -0.25917974 -0.013017825 -0.13217339 -0.040602237
-0.14009173 0.08527723 -0.15558909 -0.080196865 0.19460042 0.10657343 -0.2071929 0.07034591
0.124640144 0.07730136 -0.06431277 0.01147202 0.08707901 0.057637967 -0.04887622 -0.11552469
-0.03771111 0.11218964 0.011353292 0.033058204 -0.0145126395 0.051095814 0.07666908 0.060857374
0.05378846 -0.042032074 0.013346423 0.05121161 0.041996226 -0.045474846 0.029763183 -0.060533382
0.056263458 -0.10092484 0.13444065 0.0915976 -0.20328769 0.06960087 0.03450491 0.02587244
-0.1541414 -0.20888478 0.021003062 -0.028150875 0.16603568 -0.25928757 0.20116137 0.24076927
0.083323844 -0.12744844 -0.0792001 -0.12059472 0.21090409 -0.064744435 -0.17453742 -0.25496292
-0.08333708 -0.08761843 0.13280195 -0.11630496 0.075895034 -0.06907961 -0.20345882 -0.009317414
0.0035906576 0.07532608 -0.17098585 -0.02124642 0.27113536 0.08832155 0.038214378 -0.031684324
0.012024641 -0.06402827 -0.1462786 -0.069128886 0.05158415 0.12019971 -0.13302962 -0.017423952
0.0041888473 -0.06912959 0.0049446016 0.1047158 0.036855333 0.19531251 0.08181654 0.052929454
0.18411943 -0.020298375 -0.049812835 0.109152965 0.05122125 -0.038576007 0.109325975 0.042348612
0.02094222 -0.101686634 0.058339223 0.07267585 -0.03528776 -0.051298663 0.1422495 0.060180575
0.0603406 -0.014635971 0.016658163 0.09747629 -0.006740682 -0.0829526 -0.026188498 0.17061125
0.019896138 -0.07378333 0.007017204 -0.09247186 0.13731998 -0.0671646 -0.2712768 -0.07375971
-0.014098724 0.013173011 0.058753904 -0.035880327 0.12241476 0.046388008 0.00514131 -0.078658484
-0.0035859633 0.1285299 0.063584134 -0.14738268 0.029627351 -0.11995833 -0.05992681 0.09581613
-0.1992054 -0.16338967 0.06097285 -0.16262384 0.13373154 0.1299706 0.09355045 0.08735788
-0.1169098 0.028296048 0.087434895 -0.118672386 0.023463205 0.14513634 0.012152471 0.050249785
-0.061619665 0.09975898 0.11992637 0.04241178 -0.027363265 -0.005052989 0.052010875 0.14483537
-0.0026739796 -0.03808106 0.028961763 -0.058070775 -0.10989449 -0.027114194 -0.06314015 0.0010210441
00000000: e9c5 28be efe6 a8bd 7f73 4ebd d893 063e
00000010: 6cfd e4bd c872 c23d 9435 febd 02d0 2d3e
00000020: edfc e2bd 5f97 88bd 7d12 d7bd 7b7a 34be
00000030: a7ac 223e ddb9 d3bd 9426 14bd 6437 c9bd
00000040: d5b6 4c3d a2ce 9a3c f29b 13bd 34d7 733d
00000050: 29a6 24be 5c29 79bb 5365 f63d 8a64 09bd
00000060: 471d 1b3c bb4a 443e cc84 093c b846 c7bd
00000070: d171 3f3e f3c5 4d3e 6198 e03a c208 383c
00000080: 8b3b c93c c32f 203e 77fa 1d3d 310f b3bc
00000090: 682d 713c 9bbe 8ebd 7e9a 593e 222a 38be
000000a0: dc1a 3fbc 07cc 1e3e 9438 63bd dba6 eb3a
000000b0: 74c2 fbbd 1162 0f3e 443f 783e e492 293e
000000c0: 20e8 803d c452 08be 3fe4 5abc 386f d23c
000000d0: 43ce acbd bae4 ce3c bfae 14be ca0d ad3d
000000e0: 32f4 0a3e 6453 16be ff28 d13d 15dd 413e
000000f0: 956c b0be 9671 303e 6b8c 7dbc 16d7 d6bd
00000100: 7b9c 8ebd cb85 f6bc 4f0f fdbc a684 82bc
00000110: eb2b 493a ff6a 0cbe bcf0 b63e 08c9 953b
00000120: 16bd af3d cd8e 633d 07df 6a3d 307e 92bd
00000130: d8f0 883d 1681 87be 80a9 3bbe 970b 5dbe
00000140: f874 713d fb88 a93c 6efd acbc 446e 4e3d
00000150: 35b3 84be b748 55bc 7658 07be 884e 26bd
00000160: 3574 0fbe d4a5 ae3d bf52 1fbe 413e a4bd
00000170: 5545 473e 2c43 da3d 602a 54be 8411 903d
00000180: 5543 ff3d 2d50 9e3d 6ab6 83bd 24f5 3b3c
00000190: 7b56 b23d ca15 6c3d 6e32 48bd 3598 ecbd
000001a0: f776 1abd afc3 e53d 2803 3a3c 0a68 073d
000001b0: 6cc6 6dbc d849 513d ae04 9d3d 9545 793d
000001c0: 4a51 5c3d d329 2cbd f5aa 5a3c 44c3 513d
000001d0: 3c04 2c3d d543 3abd ebd1 f33c daf1 77bd
000001e0: 8374 663d afb1 cebd cfaa 093e 8697 bb3d
000001f0: a62a 50be e78a 8e3d 0555 0d3d 70f2 d33c
00000200: 3ed7 1dbe e4e5 55be 9d0e ac3c aa9c e6bc
00000210: 4205 2a3e 57c1 84be 3ffd 4d3e 388c 763e
00000220: b1a5 aa3d d881 02be a933 a2bd 5dfa f6bd
00000230: 3ef7 573e bb98 84bd f0b9 32be 808a 82be
00000240: a2ac aabd 4b71 b3bd 3cfd 073e 4b31 eebd
00000250: db6e 9b3d 9c79 8dbd 8257 50be 11a8 18bc
00000260: 3d51 6b3b 8f44 9a3d ea16 2fbe f90c aebc
00000270: 41d2 8a3e eee1 b43d ae86 1c3d 6cc7 01bd
00000280: 0003 453c 4121 83bd 0fca 15be 7293 8dbd
00000290: e749 533d 442b f63d eb38 08be adbc 8ebc
000002a0: 9942 893b d193 8dbd 5306 a23b 3d75 d63d
000002b0: 9ef5 163d 0100 483e 6e8f a73d 8ecc 583d
000002c0: ce89 3c3e c748 a6bc 8b08 4cbd 978b df3d
000002d0: 60cd 513d e001 1ebd 4ce6 df3d bd75 2d3d
000002e0: 058f ab3c 1541 d0bd 1cf5 6e3d 13d7 943d
000002f0: e689 10bd 8c1e 52bd daa9 113e e87f 763d
00000300: b427 773d b6cb 6fbc b376 883c a6a1 c73d
00000310: f0e0 dcbb 0ee3 a9bd 4389 d6bc b7b4 2e3e
00000320: 3afd a23c b71b 97bd 93f0 e53b e361 bdbd
00000330: 9c9d 0c3e 988d 89bd cbe4 8abe 550f 97bd
00000340: 56fe 66bc 9dd3 573c efa7 703d 40f7 12bd
00000350: 97b4 fa3d 5a01 3e3d 6f78 a83b b317 a1bd
00000360: 7b02 6bbb 589d 033e 6638 823d 7ceb 16be
00000370: 0fb5 f23c b7ac f5bd d175 75bd 3f3b c43d
00000380: 80fc 4bbe 9f4f 27be abbe 793d dd86 26be
00000390: ecf0 083e 0317 053e 6197 bf3d b0e8 b23d
000003a0: 686e efbd 1dcd e73c 1111 b33d 820a f3bd
000003b0: e835 c03c 9f9e 143e 281b 473c b8d2 4d3d
000003c0: e764 7cbd 704e cc3d f59b f53d fab7 2d3d
000003d0: ed28 e0bc 8b93 a5bb 5b09 553d b94f 143e
000003e0: ef3d 2fbb e3fa 1bbd 3841 ed3c 9fdb 6dbd
000003f0: 5d10 e1bd 961e debc 9f4f 81bd 8ed4 853a

layer_1.lin.bias f4 [32]
-0.06792711 -0.059974857 -0.04825318 -0.01746952 -0.028251227 -0.082069874 0.04733792 0.040602032
-0.082788795 0.021835078 0.039142236 0.00022910694 0.016845917 -0.0019306325 0.07013829 -0.09743672
-0.018403497 0.06620234 -0.075126015 0.077233985 0.08549483 -0.097799055 -0.018192962 0.11187797
-0.008563338 0.023391232 0.017704198 0.026404781 -0.04190033 0.009493228 0.09973849 0.019760508
00000000: 5e1d 8bbd 32a8 75bd 20a5 45bd 3d1c 8fbc
00000010: 1e6f e7bc 4014 a8bd 68e5 413d 514e 263d
00000020: 2c8d a9bd 7adf b23c 9c53 203d 6d3c 7039
00000030: 7300 8a3c 470d fdba aaa4 8f3d e78c c7bd
00000040: eec2 96bc 1895 873d abdb 99bd da2c 9e3d
00000050: ea17 af3d df4a c8bd 6809 95bc 4720 e53d
00000060: 3e4d 0cbc f89e bf3c 6508 913c d74e d83c
00000070: ae9f 2bbd 7c89 1b3c b243 cc3d cae0 a13c

layer_2.lin.weight f4 [32, 64]
0.04816184 0.09874091 0.048722237 0.050709214 -0.035893228 -0.0131017305 -0.07193029 0.010404642
-0.036385402 -0.11979173 0.19966646 -0.06903399 0.21734121 0.038223535 -0.018586593 0.032341342
0.012155149 0.16368267 0.051514488 0.038108714 -0.067075066 0.053636674 -0.08196162 0.09162553
-0.038548864 0.06560562 0.21505722 -0.0943776 0.097482644 -0.09647156 0.13882628 -0.16928047
-0.12357977 0.07925792 -0.1061464 -0.12605895 -0.13151324 0.13937049 0.0960917 -0.1070663
0.13859116 0.08396872 -0.16542503 -0.06130523 -0.1538775 0.02205997 0.0214017 -0.06685535
0.00068775244 0.096563116 -0.04332308 -0.013438101 -0.015828077 -0.39921865 0.05385655 -0.018892013
-0.07389985 0.031044701 0.15732601 0.07288393 -0.16454786 0.061190594 -0.1536321 0.11934151
-0.0018387038 0.049189948 0.092615895 0.032079473 -0.04147198 0.13488774 -0.059733883 -0.0113067115
0.19640844 0.14305328 -0.20891933 -0.057384852 -0.26274112 0.04244249 -0.0641013 -0.13633116
-0.070455275 0.009682701 -0.0047633206 0.08927805 0.007971954 -0.08393499 -0.034544025 0.08477019
-0.04304216 -0.025963278 0.085765146 -0.06243478 -0.26410165 -0.12521832 -0.06962362 0.3306706
0.09454977 0.060779713 0.10736016 -0.03872197 -0.287899 0.05698938 0.09221725 0.012599354
0.032015115 0.02575929 -0.138294 -0.06597836 0.10380115 -0.06707185 -0.058897674 0.0108867185
-0.061520863 0.07389411 -0.11276909 -0.13922712 -0.064961664 -0.2737752 0.059576914 -0.040776007
-0.13926816 0.0122519955 0.06468714 0.038645312 0.093594715 -0.00071109144 0.07627815 0.053454515
-0.1554529 0.090174265 0.0771139 -0.01978477 -0.11780613 0.014469336 0.14407302 0.055766523
-0.16075659 0.07174925 -0.003455929 -0.036169745 -0.013070584 -0.18507883 -0.113669604 -0.059083965
-0.03492599 -0.14290977 -0.043302882 -0.06429903 0.13558862 -0.09693029 0.0011730808 0.06867858
-0.060974825 0.10187159 -0.0032343338 0.1817533 0.018567268 0.081643365 -0.12816478 0.10503028
0.09769341 0.1136426 0.02690216 0.07136274 -0.04143467 0.02289194 0.09104206 -0.042033155
0.015352528 -0.18899162 0.13814868 0.100077264 -0.0042029414 -0.03343681 0.022205377 0.005264775
-0.17919406 0.041849814 -0.09347198 -0.097084835 0.036964096 0.1508142 -0.011274769 0.0007327126
-0.044448636 0.002932802 0.0036580365 -0.062397238 0.087598376 0.046957936 0.12537673 -0.27135596
-0.063097246 0.11634794 0.18879426 0.098992415 -0.106207 0.001960122 -0.15811351 -0.12085511
0.032131292 -0.09640793 0.079102986 -0.013084289 0.25141403 0.02264937 -0.05299585 0.11189999
0.037651774 -0.047742918 -0.116292946 0.0054203835 -0.007979708 -0.12026808 0.008736322 -0.06508626
-0.047006823 0.20894971 0.16796276 0.0012801597 0.20314834 0.036643244 0.10599338 -0.2502517
0.08978027 -0.0820732 -0.12159929 -0.07870181 0.13121541 -0.0027046183 -0.05650053 -0.043394275
0.03963064 0.12388242 -0.13193874 -0.072328255 -0.17917737 -0.038919464 -0.128472 0.045175817
-0.008644268 -0.12211014 0.060682666 -0.02699951 -0.020765727 -0.009248363 -0.05149546 -0.022888264
0.006739325 -0.059373423 -0.112614766 -0.0053142114 -0.11888405 -0.07259545 -0.096537575 0.30243453
00000000: 5945 453d ad38 ca3d f890 473d 77b4 4f3d
00000010: c704 13bd a4a8 56bc 3050 93bd 3b78 2a3c
00000020: dc08 15bd 5e55 f5bd 5d75 4c3e b161 8dbd
00000030: b28e 5e3e 4890 1c3d e942 98bc 5b78 043d
00000040: 6426 473c 6e9c 273e db00 533d e217 1c3d
00000050: a75e 89bd 21b2 5b3d 7edb a7bd 2aa6 bb3d
00000060: 6ae5 1dbd 3d5c 863d f637 5c3e 0b49 c1bd
00000070: fba4 c73d e292 c5bd 7a28 0e3e dc57 2dbe
00000080: 6417 fdbd fa51 a23d 4963 d9bd 9915 01be
00000090: 68ab 06be 23b7 0e3e bacb c43d 9445 dbbd
000000a0: d7ea 0d3e cbf7 ab3d 2e65 29be 311b 7bbd
000000b0: 1092 1dbe 1cb7 b43c 9e52 af3c 75eb 88bd
000000c0: 494a 343a e2c2 c53d 8b73 31bd 7b2b 5cbc
000000d0: e2a9 81bc 6366 ccbe b098 5c3d 6cc3 9abc
000000e0: ce58 97bd 7551 fe3c 121a 213e 2b44 953d
000000f0: 3c7f 28be fda2 7a3d bc51 1dbe 5269 f43d
00000100: a900 f1ba 667b 493d 67ad bd3d c465 033d
00000110: 86de 29bd 0320 0a3e 84ab 74bd c93f 39bc
00000120: 4b1f 493e 8f7c 123e f3ee 55be 610c 6bbd
00000130: 0186 86be 2dd8 2d3d 8b47 83bd 659a 0bbe
00000140: db4a 90bd 31a4 1e3c a115 9cbb 69d7 b63d
00000150: cc9c 023c 1ce6 abbd 097e 0dbd fe9b ad3d
00000160: fa4c 30bd f1b0 d4bc a3a5 af3d 9dbb 7fbd
00000170: 5538 87be 3b39 00be d496 8ebd a84d a93e
00000180: 4fa3 c13d 26f4 783d a5df db3d ee9a 1ebd
00000190: 7f67 93be b26d 693d 66dc bc3d 856d 4e3c
000001a0: 4822 033d 2605 d33c f19c 0dbe aa1f 87bd
000001b0: b395 d43d f75c 89bd b03e 71bd 355e 323c
000001c0: 4dfd 7bbd cc55 973d 7bf3 e6bd 8e91 0ebe
000001d0: 9f0a 85bd 432c 8cbe ec06 743d be04 27bd
000001e0: 509c 0ebe 98bc 483c b17a 843d 8c4a 1e3d
000001f0: 96ae bf3d 8a68 3aba b837 9c3d 1ff3 5a3d
00000200: 0c2f 1fbe 49ad b83d e4ed 9d3d ac13 a2bc
00000210: 5744 f1bd cb10 6d3c e187 133e 706b 643d
00000220: 609d 24be 45f1 923d de7c 62bb ba26 14bd
00000230: 0126 56bc 4e85 3dbe 9ccb e8bd 0702 72bd
00000240: 8e0e 0fbd f056 12be 5d5e 31bd 36af 83bd
00000250: bed7 0a3e 6383 c6bd 0fc2 993a 5ba7 8c3d
00000260: bdc0 79bd 0da2 d03d 1ef7 53bb 891d 3a3e
00000270: 621a 983c a334 a73d a13d 03be 1e1a d73d
00000280: 7c13 c83d 74bd e83d eb61 dc3c a126 923d
00000290: 67b7 29bd e187 bb3c 4274 ba3d f52a 2cbd
000002a0: 2b89 7b3c 0587 41be d976 0d3e 4ff5 cc3d
000002b0: d4b8 89bb 09f5 08bd 0de8 b53c 2284 ac3b
000002c0: a67e 37be b66a 2b3d 3d6e bfbd 6ad4 c6bd
000002d0: aa67 173d 0a6f 1a3e cfb9 38bc 8313 403a
000002e0: c60f 36bd 4134 403b abbb 6f3b 3f94 7fbd
000002f0: c766 b33d f756 403d c262 003e 2bef 8abe
00000300: 2139 81bd d447 ee3d 4853 413e 89bc ca3d
00000310: 0e83 d9bd 6475 003b 82e8 21be e282 f7bd
00000320: 1a9c 033d 8571 c5bd bf00 a23d 7c5f 56bc
00000330: 57b9 803e 2c8b b93c 2d12 59bd d22b e53d
00000340: bf38 1a3d 148e 43bd ff2a eebd 799d b13b
00000350: 52bd 02bc 1c4f f6bd ca22 0f3c f24b 85bd
00000360: 3a8a 40bd eaf6 553e 6efe 2b3e 08cb a73a
00000370: 1e06 503e 3a17 163d 0f13 d93d fe20 80be
00000380: b8de b73d fe15 a8bd 0c09 f9bd 6a2e a1bd
00000390: 555d 063e f73f 31bb 1a6d 67bd 32be 31bd
000003a0: bd53 223d 11b6 fd3d f31a 07be d620 94bd
000003b0: 467a 37be 046a 1fbd 2a8e 03be 470a 393d
000003c0: b0a0 0dbc e214 fabd 638e 783d 142e ddbc
000003d0: e31c aabc 7286 17bc e7ec 52bd 2b80 bbbc
000003e0: 8ed5 dc3b 8c31 73bd 92a2 e6bd d622 aebb
000003f0: 7b79 f3bd ecac 94bd 7eb5 c5bd b3d8 9a3e

layer_2.lin.bias f4 [32]
0.059450317 -0.034318723 -0.120949835 -0.001022152 -0.08608125 -0.057778466 -0.04848282 -0.06698905
-0.049460597 -0.026173854 -0.00858301 0.07257972 0.086040385 0.060451087 0.032567378 0.05434174
-0.050418504 -0.041528 -0.10086562 -0.090309225 0.0065736915 -0.045759413 -0.03517322 0.048177045
-0.0008155936 0.017168136 -0.029864527 0.0029975981 -0.05976726 0.04275904 -0.11254598 -0.12577866
00000000: 2d82 733d ca91 0cbd 8cb4 f7bd bbf9 85ba
00000010: 5e4b b0bd 1da9 6cbd ec95 46bd 8e31 89bd
00000020: 3297 4abd 8d6a d6bc c19f 0cbc ada4 943d
00000030: f135 b03d 8f9b 773d 5f65 053d 7295 5e3d
00000040: a283 4ebd 4419 2abd a292 cebd 0bf4 b8bd
00000050: 1f68 d73b 396e 3bbd cb11 10bd 4b55 453d
00000060: 8fcd 55ba 31a4 8c3c 74a6 f4bc 5a73 443b
00000070: 84ce 74bd 1a24 2f3d 827e e6bd 1fcc 00be

layer_3.lin.weight f4 [32, 64]
0.004197288 -0.0970079 0.22941 0.005263314 0.06842953 0.0159218 -0.00027793556 0.026425371
-0.09010424 0.11669579 0.06974137 0.07267108 0.078529984 -0.03518305 0.11141332 -0.21330377
-0.019784573 0.013972023 -0.12249263 0.09804539 0.18939792 -0.106002554 -0.19079396 -0.012018829
-0.03725543 0.108110875 -0.0016505976 0.19025034 0.072563045 -0.0014419082 0.068499625 -0.011465497
0.21269436 -0.16215657 -0.20409359 0.18610173 -0.14081466 0.07952229 0.07690047 0.122155756
0.051483333 -0.08415002 -0.09736117 0.1472261 -0.10677791 -0.004546367 0.18208386 -0.029007722
0.083862275 -0.047246527 -0.03301731 -0.14824301 -0.08858761 0.16476104 0.26073965 0.15472525
0.11546319 -0.1019318 0.10452818 -0.2799548 0.10097343 0.012453496 -0.055951096 0.20421113
-0.14350896 0.09416487 -0.13107882 -0.034665823 0.060559735 -0.101777084 0.13933837 0.04921709
-0.034150347 0.2002119 0.056437436 -0.025973989 -0.13505478 -0.04608771 -0.25679967 -0.19650726
-0.09869312 0.17141406 0.007387829 -0.03356861 -0.08221253 -0.07875967 0.13102396 0.1914974
0.06502213 0.010516112 -0.18479665 -0.087629564 -0.01845307 0.08517769 0.036865145 -0.09202538
-0.01490051 0.025987493 0.10430307 -0.120794386 -0.046952326 0.13039464 0.1841369 -0.0322332
0.020166311 -0.14651132 -0.09265345 0.009145784 0.17899546 0.14466313 -0.082123876 0.10657145
-0.061550826 0.004450103 0.078887634 -0.08617048 0.21776567 -0.06644589 -0.19158761 -0.0334897
0.042950206 0.2299366 0.056481183 0.15398167 -0.06623228 0.06793623 0.16738296 -0.09749184
-0.09984918 -0.20075402 0.09318543 -0.17098589 0.018227238 -0.2699222 0.15116379 0.107065365
-0.07136534 0.018110953 0.14559849 0.0778482 -0.056188285 0.047807314 0.013198036 0.10305836
-0.15053995 -0.033374097 0.0989594 -0.004809196 -0.014898607 0.07802579 -0.11797481 -0.07691094
-0.084188044 -0.01388419 -0.036405444 -0.04216239 0.1128695 0.0906217 -0.06331521 0.11273102
0.1563085 -0.005085181 0.010617244 -0.011868348 0.02437991 0.21827371 0.019816212 0.04327586
0.13953649 -0.09752727 -0.16348185 -0.10137657 -0.040624306 0.012715194 -0.105092876 -0.027621279
-0.036016703 -0.026073223 -0.013086883 -0.11921611 -0.029335588 0.059611563 -0.15255728 0.069911614
0.100233026 -0.021601675 0.08142064 0.095079154 0.023127632 -0.041358005 0.16205743 0.081702836
-0.003240295 -0.027721139 -0.15372345 0.142482 -0.07145326 -0.07694877 -0.059571292 -0.028826568
-0.060868755 -0.1315975 0.08551616 -0.08111148 0.00047289848 0.12314904 -0.19674961 -0.020701064
-0.06035254 0.08521338 -0.044211093 -0.04513238 -0.14246319 0.019138522 0.17727908 -0.11370976
0.08247625 -0.18000624 -0.006571848 -0.15792038 0.046687134 0.19541499 -0.04749255 0.050523255
0.047249503 0.04731868 -0.034591205 -0.065241925 -0.11589117 0.06217777 -0.12919526 0.024440289
0.001768481 -0.048895802 -0.022137895 -0.01943682 0.06211088 -0.072550714 -0.060417984 0.02521821
0.039785746 -0.02466795 0.02949855 -0.0022827224 0.1701888 -0.041167505 -0.15226457 0.15947036
0.030017335 0.0106152715 0.029455531 0.1822391 -0.17257556 0.15557306 0.13012688 -0.038322464
00000000: 6789 893b 14ac c6bd 74ea 6a3e e177 ac3b
00000010: c824 8c3d 6f6e 823c e1b7 91b9 057a d83c
00000020: 9288 b8bd 34fe ee3d 90d4 8e3d 93d4 943d
00000030: 54d4 a03d 1a1c 10bd ab2c e43d 4e6c 5abe
00000040: 4213 a2bc e9ea 643c 6add fabd 05cc c83d
00000050: 87f1 413e de17 d9bd 7e5f 43be 9fea 44bc
00000060: 2699 18bd 3c69 dd3d dd58 d8ba fcd0 423e
00000070: ef9b 943d 69fe bcba 8849 8c3d c8d9 3bbc
00000080: 8dcc 593e 5f0c 26be e9fd 50be 7491 3e3e
00000090: b831 10be 95dc a23d fe7d 9d3d cc2c fa3d
000000a0: 30e0 523d d856 acbd 4b65 c7bd 70c2 163e
000000b0: 60ae dabd b1f9 94bb 3174 3a3e 9aa1 edbc
000000c0: fcbf ab3d 9385 41bd 293d 07bd 04cd 17be
000000d0: 6c6d b5bd 1eb7 283e ab7f 853e 4c70 1e3e
000000e0: f777 ec3d 9fc1 d0bd df12 d63d 3c56 8fbe
000000f0: 28cb ce3d c009 4c3c fa2c 65bd b91c 513e
00000100: 03f4 12be 83d9 c03d 8739 06be c0fd 0dbd
00000110: 7c0d 783d 8170 d0bd b8ae 0e3e dc97 493d
00000120: 3ce1 0bbd 5904 4d3e f12a 673d 67c7 d4bc
00000130: cd4b 0abe 77c6 3cbd 3f7b 83be 3339 49be
00000140: 9e1f cabd 2b87 2f3e 9a15 f23b 3d7f 09bd
00000150: 0b5f a8bd c04c a1bd 252b 063e e517 443e
00000160: 532a 853d c54b 2c3c 553b 3dbe 2177 b3bd
00000170: e52a 97bc a471 ae3d e8ff 163d cd77 bcbd
00000180: 4521 74bc b9e3 d43c d99c d53d 0c63 f7bd
00000190: 1551 40bd 2c86 053e 628e 3c3e f606 04bd
000001a0: d233 a53c 1007 16be 18c1 bdbd 33d8 153c
000001b0: 964a 373e 9222 143e 9030 a8bd 2242 da3d
000001c0: b81c 7cbd 2bd2 913b d78f a13d 267a b0bd
000001d0: f7fd 5e3e c814 88bd 8b2f 44be 7f2c 09bd
000001e0: 8eec 2f3d 8074 6b3e d058 673d 5fad 1d3e
000001f0: caa4 87bd 2622 8b3d 7066 2b3e cda9 c7bd
00000200: ba7d ccbd 7692 4dbe 01d8 be3d ed16 2fbe
00000210: 4a51 953c 3e33 8abe aeca 1a3e 1645 db3d
00000220: fe27 92bd 6c5d 943c c517 153e e16e 9f3d
00000230: b025 66bd 9ad1 433d 933c 583c 4310 d33d
00000240: 2527 1abe 47b3 08bd 3aab ca3d 7696 9dbb
00000250: 4919 74bc fccb 9f3d c79c f1bd 7c83 9dbd
00000260: c86a acbd 837a 63bc e01d 15bd 78b2 2cbd
00000270: 2028 e73d df97 b93d 68ab 81bd 85df e63d
00000280: 560f 203e 97a1 a6bb f3f3 2d3c 7673 42bc
00000290: 61b8 c73c 2583 5f3e 9c55 a23c 0742 313d
000002a0: a7e2 0e3e 61bc c7bd c967 27be 859e cfbd
000002b0: ac65 26bd 6453 503c ef3a d7bd 0546 e2bc
000002c0: 4086 13bd 8397 d5bc 5e6a 56bc 9327 f4bd
000002d0: 3051 f0bc 412b 743d fa37 1cbe d22d 8f3d
000002e0: f946 cd3d fff5 b0bc ddbf a63d dcb8 c23d
000002f0: 2976 bd3c 0367 29bd 62f2 253e d153 a73d
00000300: 215b 54bb 7117 e3bc ae69 1dbe cde6 113e
00000310: 1656 92bd 5197 9dbd 0701 74bd b225 ecbc
00000320: 8451 79bd 7fc1 06be 1923 af3d c71d a6bd
00000330: 5cef f739 9035 fc3d bb78 49be 4795 a9bc
00000340: 3a34 77bd 5a84 ae3d b116 35bd bbdc 38bd
00000350: dfe1 11be 64c8 9c3c a688 353e aae0 e8bd
00000360: 4fe9 a83d 8e53 38be a858 d7bb e1b5 21be
00000370: 023b 3f3d de1a 483e 8c87 42bd 79f1 4e3d
00000380: b288 413d 3bd1 413d 82af 0dbd 8f9d 85bd
00000390: 5a58 edbd 1eae 7e3d c34b 04be 0037 c83c
000003a0: 60cc e73a f746 48bd 885a b5bc f739 9fbc
000003b0: fa67 7e3d 7895 94bd d978 77bd 6b96 ce3c
000003c0: 61f6 223d 7114 cabc f1a6 f13c ba99 15bb
000003d0: f945 2e3e 429f 28bd 3eeb 1bbe 334c 233e
000003e0: eae6 f53c adeb 2d3c ba4c f13c e39c 3a3e
000003f0: a6b7 30be 8b4e 1f3e fb3f 053e 04f8 1cbd

layer_3.lin.bias f4 [32]
-0.0098309815 0.0316224 0.06681798 -0.03161285 0.02916406 0.051961347 0.08621076 -0.06973941
0.06315757 -0.0023849204 0.017494401 0.032938037 0.06061212 0.016003441 -0.07538297 -0.017716916
-0.018454883 0.015608947 -0.016615914 -0.0012036882 0.07455802 0.062170826 0.037620626 0.012708931
0.04627375 -0.0011259216 -0.04595672 0.074740626 0.048622943 0.043210275 0.038239554 -0.02918183
00000000: 2012 21bc 7d86 013d ddd7 883d 7a7c 01bd
00000010: 77e9 ee3c 6cd5 543d 448f b03d 89d3 8ebd
00000020: c258 813d 534c 1cbb 6b50 8f3c 09ea 063d
00000030: 6a44 783d a619 833c 6362 9abd 1123 91bc
00000040: b22e 97bc abbc 7f3c 191e 88bc 13c5 9dba
00000050: e0b1 983d d6a6 7e3d 1618 1a3d 1f39 503c
00000060: 8b89 3d3d a993 93ba 1d3d 3cbd 9d11 993d
00000070: da28 473d 42fd 303d 14a1 1c3d bc0e efbc

layer_4.lin.weight f4 [32, 64]
0.08432105 -0.035741284 0.06584018 -0.124413066 -0.25439474 0.17063415 -0.047196127 -0.15382437
-0.0066289525 0.028106779 -0.01230624 -0.07693597 0.057138428 0.01185947 0.003393851 -0.16043368
-0.16240159 0.022046972 0.05115516 0.025847435 0.052805074 -0.047530916 0.018327417 -0.19696365
0.008915803 0.15392321 0.085130125 -0.0012383475 -0.08559797 -0.098581284 -0.038100604 -0.1503621
-0.13338508 0.16631421 0.046350315 0.06178142 0.055445854 0.050646424 -0.06842432 0.11019329
0.093288176 0.04773337 -0.17780736 -0.036383267 -0.16692561 0.0062566916 0.032129463 0.20306233
-0.04379133 0.0075561977 -0.14769666 0.01740681 0.09310783 0.004215514 -0.068181224 0.11309495
0.085662805 -0.16446091 -0.17370468 -0.14164315 -0.1414055 0.13088496 0.08817192 -0.040447913
0.13133891 -0.10272176 -0.14368586 -0.13900945 -0.05723429 -0.0037500141 0.17370647 0.037432075
-0.21134143 -0.04916288 -0.036972675 0.11093341 0.11827851 -0.10254055 -0.0019508372 0.048901472
-0.043635525 0.09895335 -0.18887089 -0.052814238 -0.09296052 -0.05021928 -0.023713257 0.0593567
-0.061425127 -0.14335556 -0.18505695 -0.03874757 0.07818639 -0.0009819213 0.17560616 -0.056568325
0.03495469 0.05912351 -0.004012922 -0.14490697 -0.16029629 0.059862066 0.067638315 -0.16346881
-0.066587664 -0.03630363 -0.1087883 -0.1313751 -0.07523245 0.114257164 0.05871079 -0.20672183
-0.10346561 0.08166465 -0.086874865 -0.16096817 0.0040397253 0.039345782 0.04389774 0.03352016
0.15047428 -0.13072619 -0.015651392 -0.018457405 -0.10305678 -0.049666323 0.009896622 0.09418433
-0.08946547 0.14488937 -0.10763299 0.17827548 0.0051382273 -0.18203095 -0.119365714 -0.06494973
-0.017773574 0.075908065 0.037836898 -0.008209342 0.087502204 0.021444779 -0.06013539 0.038108543
-0.13735569 0.07239538 0.08664329 -0.10841163 -0.05416929 0.082035676 0.014759061 0.11123468
-0.00024405857 -0.21005063 0.14772002 -0.01916564 0.015696242 0.06449968 0.015303376 0.099035375
-0.04734661 -0.11579542 -0.034439426 0.01608631 0.1456375 0.06465391 -0.06243674 0.069064945
-0.06911918 -0.07257585 0.11023651 0.026600506 -0.016968612 -0.07245906 -0.010990738 0.081297144
0.12716274 0.035853345 -0.060072925 0.11013214 -0.096071556 -0.035552725 -0.1397436 0.17329538
-0.08819567 -0.0028819472 0.045284923 0.11215135 -0.022240182 0.1296745 -0.14305176 0.065293476
-0.03534801 -0.08889753 -0.12123692 0.055303 -0.021719811 0.0076543516 0.11138269 0.09092199
0.12401154 -0.08751075 -0.00721709 0.0478192 0.055062942 0.08067172 0.10168754 -0.16519861
0.13498941 -0.009771316 0.04284817 0.11703182 0.1406996 0.0044980794 0.07958566 0.10955995
-0.08368267 0.13248265 -0.09705871 0.061019197 0.12179287 -0.17166425 -0.14897807 0.08442354
0.09198971 0.12113748 0.08058179 0.024187744 -0.05109787 0.060284514 -0.029390791 0.022571906
0.0006124588 0.1621344 -0.08020325 -0.09346091 0.015992606 -0.010338155 0.114162 -0.00784849
-0.13540982 0.008665249 0.034431264 -0.12853046 0.0065080794 -0.03206318 -0.020683877 -0.06628398
0.19845375 -0.024618167 0.026279885 -0.029524291 -0.075445995 -0.10237515 -0.077935554 0.09911597
00000000: 84b0 ac3d 7465 12bd 37d7 863d 47cc febd
00000010: 0740 82be b8ba 2e3e ba50 41bd 2384 1dbe
00000020: af37 d9bb 3040 e63c 1da0 49bc 9b90 9dbd
00000030: fc09 6a3d 394e 423c 5f6b 5e3b ba48 24be
00000040: 9a4c 26be da9b b43c 1388 513d 00be d33c
00000050: 224a 583d c7af 42bd 6123 963c d7b0 49be
00000060: 9713 123c 0c9e 1d3e b458 ae3d 0c50 a2ba
00000070: fd4d afbd fce4 c9bd 610f 1cbd 86f8 19be
00000080: 1996 08be 464e 2a3e d4d9 3d3d 840e 7d3d
00000090: 311b 633d a072 4f3d 0d22 8cbd 05ad e13d
000000a0: df0d bf3d 1184 433d 2213 36be 9f06 15bd
000000b0: 8cee 2abe ef04 cd3b 2f9a 033d 92ef 4f3e
000000c0: 8a5e 33bd fb99 f73b cb3d 17be ba98 8e3c
000000d0: 51af be3d 4b22 8a3b 99a2 8bbd 539e e73d
000000e0: fb6f af3d 7168 28be a4df 31be e70a 11be
000000f0: 9acc 10be b506 063e 7b93 b43d b6ac 25bd
00000100: b57d 063e c95f d2bd 6322 13be 7e58 0ebe
00000110: 816e 6abd ccc2 75bb 1ce0 313e 6052 193d
00000120: e369 58be 045f 49bd a970 17bd 0e31 e33d
00000130: 013c f23d c800 d2bd 3cb3 ffba e94c 483d
00000140: 2abb 32bd 0ea8 ca3d 5f67 41be be53 58bd
00000150: 1662 bebd bbb2 4dbd 4e42 c2bc 0320 733d
00000160: ea98 7bbd cdcb 12be 927f 3dbe c6b5 1ebd
00000170: 3020 a03d d0b3 80ba 1ad2 333e 30b4 67bd
00000180: a62c 0f3d 7e2b 723d d47e 83bb 7e62 14be
00000190: b624 24be ed31 753d f585 8a3d 5e64 27be
000001a0: 1d5f 88bd 1db3 14bd 66cc debd 3287 06be
000001b0: 7913 9abd a9ff e93d ba7a 703d e3ae 53be
000001c0: c7e5 d3bd cc3f a73d 73eb b1bd d7d4 24be
000001d0: ac5f 843b 0b29 213d 1ece 333d 6f4c 093d
000001e0: ee15 1a3e 16dd 05be 5937 80bc fc33 97bc
000001f0: 6f0f d3bd ea6e 4bbd 7125 223c b7e3 c03d
00000200: ac39 b7bd e15d 143e af6e dcbd d98d 363e
00000210: 935e a83b 5266 3abe 0376 f4bd 5d04 85bd
00000220: e399 91bc b075 9b3d ddfa 1a3d 7a80 06bc
00000230: 5b34 b33d f6ac af3c 8750 76bd b417 1c3d
00000240: f8a6 0cbe 0744 943d 0a72 b13d eb06 debd
00000250: 9ee0 5dbd 5202 a83d fdcf 713c 02cf e33d
00000260: f9e9 7fb9 8317 57be eb43 173e 4301 9dbc
00000270: 6895 803c 6918 843d 03bb 7a3c 0fd3 ca3d
00000280: 85ee 41bd 2626 edbd 5b10 0dbd 70c7 833c
00000290: ff21 153e 4569 843d abbd 7fbd ec71 8d3d
000002a0: 5b8e 8dbd a6a2 94bd aec3 e13d 4ee9 d93c
000002b0: c201 8bbc 6a65 94bd 7f12 34bc 1e7f a63d
000002c0: f336 023e f5da 123d 070f 76bd f68c e13d
000002d0: 2ac1 c4bd bc9f 11bd f218 0fbe 5874 313e
000002e0: ee9f b4bd 0ddf 3cbb af7c 393d 9baf e53d
000002f0: 0b31 b6bc 64c9 043e 297c 12be 96b8 853d
00000300: 13c9 10bd e90f b6bd 104b f8bd 6685 623d
00000310: bfed b1bc 5bd1 fa3b 9c1c e43d 4f35 ba3d
00000320: c3f9 fd3d d638 b3bd 577d ecbb 11de 433d
00000330: ae89 613d 3737 a53d 8f41 d03d d329 29be
00000340: aa3a 0a3e df17 20bc 9081 2f3d 61ae ef3d
00000350: 8e13 103e a064 933b cefd a23d f860 e03d
00000360: d261 abbd 88a9 073e b8c6 c6bd 44ef 793d
00000370: 8a6e f93d c1c8 2fbe b58d 18be 40e6 ac3d
00000380: 1a65 bc3d ed16 f83d 1108 a53d 6025 c63c
00000390: 004c 51bd e5ec 763d f5c4 f0bc b8e8 b83c
000003a0: 6a8d 203a 8f06 263e 9a41 a4bd 6f68 bfbd
000003b0: ed02 833c 5d61 29bc c4cd e93d f496 00bc
000003c0: dfa8 0abe b0f8 0d3c cc07 0d3d 7d9d 03be
000003d0: ba41 d53b ae54 03bd 3c71 a9bc e5bf 87bd
000003e0: 7637 4b3e 0aac c9bc ea48 d73c eddc f1bc
000003f0: 6e83 9abd 10aa d1bd ad9c 9fbd 50fd ca3d

layer_4.lin.bias f4 [32]
0.019106666 -0.046417776 0.064953364 -0.014792738 -0.054093402 -0.04624498 0.024801128 -0.035147615
-0.078473926 -0.037753314 0.05825485 0.0055081365 -0.11466256 0.012202495 0.03955333 0.07459374
0.057401426 0.09073127 0.06068325 -0.055667307 -0.039448075 -0.014997689 0.003871846 -0.06053014
0.118900664 -0.028633477 0.06765535 0.07496969 0.08068504 0.06547909 -0.023290759 0.038302988
00000000: 9585 9c3c 9120 3ebd 4506 853d 3d5d 72bc
00000010: 0b91 5dbd 606b 3dbd bc2b cb3c f2f6 0fbd
00000020: f0b6 a0bd 38a3 1abd a39c 6e3d 997d b43b
00000030: 34d4 eabd f9ec 473c ac02 223d 9ac4 983d
00000040: c21d 6b3d 51d1 b93d 008f 783d 6703 64bd
00000050: 4e94 21bd deb8 75bc ccbe 7d3b 74ee 77bd
00000060: 3182 f33d c190 eabc e38e 8a3d b589 993d
00000070: 333e a53d e719 863d 43cc bebc 98e3 1c3d

layer_5.lin.weight f4 [32, 64]
-0.1588907 -0.101733744 0.040914115 0.08345423 -0.020298352 -0.13896845 -0.1489034 -0.117964014
0.0036457698 0.11046241 -0.024126275 0.11984293 -0.08370689 -0.22525795 0.28720844 -0.047315624
-0.12250736 0.07919971 0.011395859 -0.098914325 -0.018249746 -0.08433803 0.3224925 0.10122547
0.099467 -0.04259278 -0.12779185 -0.28519708 0.13652074 -0.25539023 0.015810914 -0.1780615
0.001615364 0.047611833 -0.040248632 -0.12779413 -0.002529018 0.052814245 -0.05552951 0.05053876
-0.09663577 0.04933872 0.11772065 -0.068622686 -0.04200337 0.019963741 -0.13950777 -0.012999589
0.005486124 0.09453561 0.01139795 0.22998607 0.16696756 0.10069375 -0.09398576 -0.17077732
-0.005518966 0.10788598 0.1837339 0.23539683 -0.04774056 0.11133788 -0.04480428 0.1768908
0.07553172 -0.08593436 -0.08281468 0.105701685 -0.090844356 0.10714326 0.024444718 0.070686236
0.11525237 -0.096615955 0.089016564 0.039092354 -0.047823224 0.12181472 -0.14004244 0.057960752
0.1069782 -0.0705653 -0.0871709 0.12627314 0.03273742 0.13430311 0.026586985 -0.054913603
0.08801426 0.10012582 0.11558457 0.064765334 0.050528437 -0.04474905 0.070030235 0.033771556
-0.07890589 0.103664175 0.018916694 -0.092909314 0.18195824 -0.061182458 -0.024012294 0.040507365
0.05123314 -0.1024348 -0.011560602 0.049975652 0.074857704 0.095729835 0.0881968 -0.12514836
0.048870333 -0.14254779 -0.007976785 0.09146689 -0.12074213 0.034711994 0.0048486586 -0.03918323
0.055392973 0.09146588 0.014798625 -0.017802157 -0.023354612 -0.031867463 -0.00019763659 -0.08010923
-0.10817836 0.13182616 0.03231494 0.09665992 0.118610404 0.105159216 -0.08484965 0.013651415
-0.14093383 0.1531654 -0.088527136 -0.06682653 -0.11530532 -0.047440697 -0.07584843 0.007182389
0.028535293 -0.13141802 -0.11165535 -0.10548403 -0.006029077 -0.13500108 -0.16245545 -0.02248518
0.01542718 -0.043261766 0.0130019225 0.08126906 0.05862497 -0.1296155 0.09128643 0.16506009
0.21607631 -0.09097928 -0.059029184 0.015235642 -0.16504821 -0.02636435 0.049229052 0.16980363
-0.16919029 -0.028800877 0.026249217 -0.058174673 0.08707634 0.1343594 0.06488665 -0.005111853
0.011546951 0.13089092 -0.0010739758 -0.054279834 0.11091919 -0.087730706 -0.20197763 -0.17536186
0.10963695 -0.017739529 0.075752005 0.04317301 -0.055234555 0.1228104 -0.036194913 -0.18761857
-0.05251159 -0.007414067 -0.17800398 0.13022782 -0.110734925 -0.025104718 0.1447722 0.0034043253
0.06530612 -0.077865824 -0.028201696 -0.12818247 -0.18405806 0.08414492 0.008019696 0.0669212
0.33723134 0.09844685 0.11832058 -0.04566084 0.09984829 0.065023646 -0.1289668 -0.063295156
0.15633987 -0.07819948 0.12375486 -0.31015617 -0.03715368 -0.00038440092 0.21222621 -0.008215078
0.15937899 -0.021418741 0.07669435 -0.056880362 0.09469773 0.059540104 -0.017555196 -0.046153974
0.027978374 -0.01807609 -0.06955512 -0.06583018 0.016732441 -0.04886178 0.09129117 -0.07863248
0.05176024 0.0807794 0.14938226 -0.07545215 -0.052493673 0.07649544 0.022271922 0.098957434
-0.10071465 0.009190755 0.05076843 0.16561738 0.061720796 0.07676379 -0.027897678 -0.02975876
00000000: 3eb4 22be c859 d0bd 8f95 273d 0dea aa3d
00000010: bb48 a6bc bf4d 0ebe 227a 18be 1e97 f1bd
00000020: deed 6e3b 1e3a e23d 77a4 c5bc 3670 f53d
00000030: 856e abbd 05aa 66be fc0c 933e 07ce 41bd
00000040: 24e5 fabd 7533 a23d b2b5 3a3c 9893 cabd
00000050: 7e80 95bc 6bb9 acbd bd1d a53e 4d4f cf3d
00000060: 5bb5 cb3d c475 2ebd dedb 02be 5a05 92be
00000070: 18cc 0b3e 82c2 82be e485 813c c155 36be
00000080: 9fba d33a a004 433d c0db 24bd 77dc 02be
00000090: e2bd 25bb c053 583d e972 63bd bb01 4f3d
000000a0: f9e8 c5bd 6617 4a3d 8617 f13d 0d8a 8cbd
000000b0: ba0b 2cbd 008b a33c 20db 0ebe 3afc 54bc
000000c0: f2c4 b33b e39b c13d 78be 3a3c 7881 6b3e
000000d0: 8bf9 2a3e 8638 ce3d 9b7b c0bd 40e0 2ebe
000000e0: 71d8 b4bb 53f3 dc3d bd24 3c3e de0b 713e
000000f0: 9b8b 43bd 1d05 e43d b184 37bd dd22 353e
00000100: 60b0 9a3d 5bfe afbd be9a a9bd 207a d83d
00000110: 9b0c babd ed6d db3d 4a40 c83c f2c3 903d
00000120: 6f09 ec3d 96de c5bd 514e b63d 4e1f 203d
00000130: 49e2 43bd ff79 f93d 4967 0fbe 4168 6d3d
00000140: 6317 db3d 8a84 90bd a886 b2bd bf4d 013e
00000150: ac17 063d c186 093e f3cc d93c 16ed 60bd
00000160: d240 b43d c40e cd3d 9ab7 ec3d b0a3 843d
00000170: e8f6 4e3d c84a 37bd 036c 8f3d 0b54 0a3d
00000180: 6999 a1bd e24d d43d 2ff7 9a3c 3d47 bebd
00000190: 4353 3a3e 759a 7abd 6eb5 c4bc 0deb 253d
000001a0: d7d9 513d 56c9 d1bd ae68 3dbc 45b3 4c3d
000001b0: ff4e 993d 010e c43d 86a0 b43d e426 00be
000001c0: 422c 483d 0cf8 11be 10b1 02bc fe52 bb3d
000001d0: a647 f7bd 2a2e 0e3d 7fe1 9e3b 987e 20bd
000001e0: bee3 623d 7752 bb3d ef75 723c d4d5 91bc
000001f0: 2c52 bfbc 7587 02bd ab3c 4fb9 4f10 a4bd
00000200: 9e8c ddbd 70fd 063e ac5c 043d a3f5 c53d
00000210: 03ea f23d b75d d73d a7c5 adbd 2faa 5f3c
00000220: f550 10be 64d7 1c3e b74d b5bd 59dc 88bd
00000230: 3225 ecbd 2d51 42bd 6c56 9bbd 3f5a eb3b
00000240: d9c2 e93c 7292 06be 8fab e4bd 0308 d8bd
00000250: 908f c5bb b93d 0abe b95a 26be d732 b8bc
00000260: 48c2 7c3c 4033 31bd 0406 553c 6570 a63d
00000270: bd20 703d edb9 04be 61f4 ba3d 8305 293e
00000280: 1c43 5d3e 5853 babd 96c8 71bd ea9e 793c
00000290: 6602 29be 0dfa d7bc 67a4 493d 01e1 2d3e
000002a0: 3840 2dbe d1ef ebbc 9908 d73c 9148 6ebd
000002b0: 1555 b23d 8395 093e 4be3 843d 5581 a7bb
000002c0: 6c2f 3d3c 4508 063e a6c4 8cba 8854 5ebd
000002d0: 9a29 e33d 28ac b3bd 39d3 4ebe 0f92 33be
000002e0: 5689 e03d 7d52 91bc de23 9b3d 2fd6 303d
000002f0: a13d 62bd 0584 fb3d 1e41 14bd 151f 40be
00000300: 6516 57bd b4f1 f2bb ad46 36be 715a 053e
00000310: fec8 e2bd 69a8 cdbc 2a3f 143e 1a1b 5f3b
00000320: 37bf 853d 1e78 9fbd 3e07 e7bc 4442 03be
00000330: b779 3cbe 2c54 ac3d 0b65 033c fb0d 893d
00000340: 96a9 ac3e 819e c93d 0f52 f23d dc06 3bbd
00000350: 437d cc3d 1e2b 853d df0f 04be e4a0 81bd
00000360: 8f17 203e 0d27 a0bd 3073 fd3d cacc 9ebe
00000370: 752e 18bd 6b89 c9b9 d451 593e 8998 06bc
00000380: 3f34 233e 5b76 afbc ed11 9d3d 62fb 68bd
00000390: e2f0 c13d 53e0 733d eacf 8fbc f30b 3dbd
000003a0: e732 e53c 4f14 94bc ea72 8ebd f9d1 86bd
000003b0: 7912 893c 4a23 48bd ddf6 ba3d 110a a1bd
000003c0: 8c02 543d ac6f a53d aaf7 183e a886 9abd
000003d0: 9b03 57bd a4a9 9c3d 9b73 b63c 32aa ca3d
000003e0: 7b43 cebd d294 163c 8ff2 4f3d 9a97 293e
000003f0: f2ce 7c3d 5536 9d3d ac89 e4bc a5c8 f3bc

layer_5.lin.bias f4 [32]
0.0065522315 0.07122995 0.018616179 -0.04456914 -0.04140328 -0.007436977 -0.088293076 0.036407642
0.01717727 -0.022349115 0.0710625 -0.022918189 0.013238051 0.0657537 0.022263864 -0.020449465
0.12371037 -0.017178265 0.011877805 0.055136267 -0.012984111 -0.03594169 -0.043701608 -0.05194067
-0.073785685 -0.044058952 0.080136664 0.058307827 0.012816159 0.03400594 0.000845056 0.09470914
00000000: 1ab4 d63b 02e1 913d f580 983c 218e 36bd
00000010: 7c96 29bd e2b1 f3bb 00d3 b4bd 2e20 153d
00000020: 59b7 8c3c 7e15 b7bc 3789 913d edbe bbbc
00000030: 69e4 583c e0a9 863d b562 b63c a385 a7bc
00000040: dd5b fd3d 6fb9 8cbc 209b 423c 91d6 613d
00000050: 4fbb 54bc 9837 13bd 7500 33bd bdbf 54bd
00000060: f31c 97bd 2977 34bd b11e a43d 30d4 6e3d
00000070: defa 513c d049 0b3d c086 5d3a def6 c13d

layer_6.lin.weight f4 [32, 64]
0.018271474 0.06262778 -0.010633437 0.13292243 0.010531843 -0.042883623 -0.013917109 -0.1205737
0.06913214 0.107943885 0.000737864 0.020067433 -0.03618366 0.11920948 0.074122936 -0.22092299
-0.056165542 0.079010814 -0.14506689 -0.1989202 -0.0638664 0.110083334 -0.041437987 0.1692626
-0.12557432 0.15816233 -0.09412235 0.00072100555 0.060260564 -0.08097354 -0.08913733 0.03248853
0.1513802 -0.12364484 -0.10779501 -0.013106075 0.044043787 -0.02276741 -0.02053768 0.106118895
-0.020028168 -0.055576902 -0.06486615 0.09785559 0.053896382 -0.038098264 0.03717221 0.01168819
0.040557854 -0.13077164 0.07717141 0.095371716 -0.12869617 -0.014734422 -0.029505845 -0.16950786
0.049132098 0.13214529 0.034049273 0.036114193 -0.14012298 -0.019773364 0.04246978 -0.10905733
0.13336244 -0.12196236 -0.008880204 -0.15177274 0.0051584584 0.100791 -0.09413107 0.09692183
-0.06846462 0.017442 -0.046442345 0.09481786 -0.22570087 -0.049874995 -0.0629526 -0.06284547
-0.11070394 0.003290159 0.10427434 -0.14042662 0.1591312 -0.07262997 0.007184142 0.13069369
-0.2141772 -0.11376762 -0.19566256 -0.11815564 -0.10137472 0.123593606 -0.027155684 -0.09692361
0.11906929 0.07774917 0.16893688 -0.08364245 -0.078313045 -0.090569206 -0.12447464 -0.049519964
0.0035231214 -0.067129 0.06439413 -0.00657999 0.123995274 -0.100310765 0.15672645 -0.045512438
0.020970799 -0.022706607 -0.13619061 0.22503926 -0.122737855 -0.037827007 -0.15648264 -0.09644483
0.03135743 0.1543153 0.1844348 -0.045448553 0.12505478 -0.035083793 -0.07693238 0.10900688
-0.07413935 -0.02973511 0.1497556 -0.049794085 -0.033374883 0.1040974 0.094914004 0.076401055
0.09023882 0.011207995 -0.052868683 -0.19897638 0.106561214 0.11826555 0.05891338 -0.23773508
-0.07851323 0.18114837 -0.007222609 -0.17122129 -0.09543775 -0.057361964 0.12412368 0.13246728
0.12690184 0.13990134 0.16796637 0.08203256 0.020632586 -0.22710864 -0.07143084 -0.09072841
0.13866208 0.022252837 -0.111216314 0.06757409 -0.06890052 -0.2074852 0.022563554 -0.17497064
-0.04719701 -0.05000917 0.0006305733 0.12846899 -0.046294782 -0.21952006 -0.14630938 0.11117106
-0.051681343 -0.13189939 0.074138075 0.048553184 0.06848941 -0.102715805 -0.051726058 -0.029848138
0.056079373 -0.029940434 -0.20745267 -0.115351975 -0.106651574 0.073609576 -0.09855866 0.115634724
0.021299422 -0.049108148 0.22376803 0.11088227 0.15593672 0.058575768 -0.008827697 -0.06966443
0.2504051 -0.03373082 0.033960924 0.19292654 -0.04479286 0.072709545 -0.08153145 0.10372436
-0.04820336 0.059749167 -0.08181432 -0.023650968 -0.09301572 -0.12930878 -0.055017497 -0.14581887
0.16005588 0.065060355 0.15648098 0.0832769 0.16680095 0.044538233 0.042514477 0.25359258
-0.24855793 0.038149234 0.0022466488 0.14086176 -0.084695995 -0.11554705 0.061292853 0.116696075
-0.12887788 0.054034717 0.06797778 0.0754493 -0.028038917 0.0890281 0.0863405 0.17329985
0.09484656 0.09217171 0.1322671 0.016974421 0.08862504 -0.048006117 0.016785583 0.15736102
-0.03052356 -0.06922617 0.0067445994 -0.10637668 0.019610422 0.08102352 -0.08811926 0.14293419
00000000: 0fae 953c fe42 803d de37 2ebc d11c 083e
00000010: c08d 2c3c bda6 2fbd 9604 64bc 58ef f6bd
00000020: 2795 8d3d af11 dd3d 376d 413a 7564 a43c
00000030: 5135 14bd 1a24 f43d c4cd 973d a339 62be
00000040: d70d 66bd 6cd0 a13d 6a8c 14be bdb1 4bbe
00000050: 63cc 82bd 5f73 e13d e1ba 29bd 2d53 2d3e
00000060: 8e96 00be 4ef5 213e 38c3 c0bd dd01 3d3a
00000070: c8d3 763d 75d5 a5bd a28d b6bd b112 053d
00000080: 6903 1b3e 8239 fdbd a1c3 dcbd ddba 56bc
00000090: 4267 343d b882 babc a33e a8bc dd54 d93d
000000a0: 1d12 a4bc 9ba4 63bd 8bd8 84bd 8368 c83d
000000b0: 74c2 5c3d ed0c 1cbd e341 183d d27f 3f3c
000000c0: fe1f 263d 00e9 05be 0b0c 9e3d 3f52 c33d
000000d0: eec8 03be a568 71bc 3eb6 f1bc 7893 2dbe
000000e0: bd3e 493d 1851 073e 4077 0b3d 7aec 133d
000000f0: 667c 0fbe c0fb a1bc cbf4 2d3d 7359 dfbd
00000100: 2a90 083e 67c7 f9bd 467e 11bc 506a 1bbe
00000110: 4908 a93b 836b ce3d cac7 c0bd f47e c63d
00000120: 2e37 8cbd 86e2 8e3c 543a 3ebd de2f c23d
00000130: 211e 67be b949 4cbd 4bed 80bd 20b5 80bd
00000140: bfb8 e2bd b59f 573b c98d d53d ffcb 0fbe
00000150: 4af3 223e 06bf 94bd f368 eb3b 91d4 053e
00000160: 4551 5bbe fffe e8bd c45b 48be 96fb f1bd
00000170: 8d9d cfbd a51e fd3d 9975 debc e37f c6bd
00000180: 9ada f33d f53a 9f3d cafd 2c3e bc4c abbd
00000190: 9762 a0bd 597c b9bd 8fec febd 72d5 4abd
000001a0: 2be4 663b ee7a 89bd 12e1 833d f59c d7bb
000001b0: 3cf1 fd3d bb6f cdbd e67c 203e 406b 3abd
000001c0: f4ca ab3c 3503 babc 8d75 0bbe b170 663e
000001d0: fc5d fbbd 7ef0 1abd fc3c 20be de84 c5bd
000001e0: a670 003d d404 1e3e 7adc 3c3e 4328 3abd
000001f0: 5c0e 003e 06b4 0fbd b98e 9dbd 003f df3d
00000200: 5fd6 97bd 0c97 f3bc 8859 193e e2f4 4bbd
00000210: 1ab4 08bd 0531 d53d 4662 c23d 2878 9c3d
00000220: 21cf b83d bda1 373c d58c 58bd 77c0 4bbe
00000230: c43c da3d 3535 f23d 284f 713d d370 73be
00000240: 8bcb a0bd f57e 393e a3ab ecbb a254 2fbe
00000250: de74 c3bd 61f4 6abd 8e34 fe3d 81a5 073e
00000260: 8ef2 013e 4c42 0f3e 60ff 2b3e b000 a83d
00000270: ab05 a93c 2b8f 68be 554a 92bd d1cf b9bd
00000280: 6ffd 0d3e 954b b63c 61c5 e3bd 4964 8a3d
00000290: b71b 8dbd 0077 54be 34d7 b83c 812b 33be
000002a0: a751 41bd 6ad6 4cbd 0f4d 253a 608d 033e
000002b0: 999f 3dbd dec9 60be 20d2 15be a7ad e33d
000002c0: d1af 53bd a210 07be b4d5 973d b4df 463d
000002d0: 2d44 8c3d aa5c d2bd b4de 53bd 1584 f4bc
000002e0: 7cb3 653d a445 f5bc 796e 54be a83d ecbd
000002f0: 246c dabd 9ec0 963d 1fd9 c9bd e6d1 ec3d
00000300: 207c ae3c a025 49bd 7223 653e 3e16 e33d
00000310: e0ad 1f3e 25ed 6f3d 0ba2 10bc 3aac 8ebd
00000320: 1935 803e 5429 0abd 9c1a 0b3d 898e 453e
00000330: b878 37bd bee8 943d f6f9 a6bd 706d d43d
00000340: e370 45bd 8bbb 743d 448e a7bd adbf c1bc
00000350: 077f bebd 8569 04be 075a 61bd 8b51 15be
00000360: b0e5 233e 5d3e 853d 8d3c 203e 148d aa3d
00000370: decd 2a3e b96d 363d a923 2e3d e3d6 813e
00000380: f885 7ebe 5f42 1c3d 833c 133b 113e 103e
00000390: 1875 adbd efa3 ecbd 370e 7b3d 5afe ee3d
000003a0: 90f8 03be 8253 5d3d ef37 8b3d 2a85 9a3d
000003b0: dfb1 e5bc 5d54 b63d 4ad3 b03d 8475 313e
000003c0: ea3e c23d 86c4 bc3d 0771 073e f10d 8b3c
000003d0: 0c81 b53d 10a2 44bd eb81 893c 3f23 213e
000003e0: 8b0c fabc 73c6 8dbd cd01 dd3b 04dc d9bd
000003f0: 09a6 a03c a9ef a53d df77 b4bd 575d 123e

layer_6.lin.bias f4 [32]
0.066998996 0.08031811 0.02595569 -0.021200562 -0.047441885 0.032428693 0.03351896 -0.004192526
0.02046469 0.05490096 -0.042583432 0.029749786 -0.085804865 -0.027307443 -0.04111962 -0.005525944
-0.06371011 -0.020892026 0.05453188 0.050806798 0.07898826 -0.017191332 0.049210913 -0.005597395
0.031456143 -0.08064369 -0.07397077 -0.0825145 0.038449395 0.049961768 -0.0236298 0.03337777
00000000: c536 893d d27d a43d 07a1 d43c cdac adbc
00000010: 6c52 42bd f3d3 043d 2d4b 093d 7561 89bb
00000020: 91a5 a73c d4df 603d f76b 2ebd d3b5 f33c
00000030: 76ba afbd dcb3 dfbc 0c6d 28bd fa12 b5bb
00000040: 727a 82bd c125 abbc d25c 5f3d ca1a 503d
00000050: 99c4 a13d d6d4 8cbc 6291 493d 5a6a b7bb
00000060: 28d8 003d 8528 a5bd fd7d 97bd 5dfd a8bd
00000070: 1d7d 1d3d b6a4 4c3d 4893 c1bc 21b7 083d
