training_runs/model_step2000.pt (torch, 108754 bytes, 24 tensors)

layer_0.lin.weight f4 [32, 64]
0	0xbd76372e	-0.060111217
1	0x3d5e83af	0.054324802
2	0x3dc43614	0.09580627
3	0x3cb8a9ee	0.022541966
4	0xbd94109c	-0.072297305
5	0x3d0db9d8	0.034601063
6	0x3d357650	0.044302285
7	0xbd7134db	-0.058888298
8	0xbc57782f	-0.013151213
9	0xbd5359e4	-0.0515994
10	0x3d3303be	0.04370474
11	0x3d22fdb6	0.03979274
12	0xbda9e6ae	-0.08295952
13	0xbc9f14a9	-0.019419031
14	0xbc936036	-0.017990213
15	0x3d27d785	0.04097702
16	0x3db578fe	0.08860968
17	0x3deface5	0.11702899
18	0xbe4a8537	-0.1977738
19	0xbda60347	-0.08106094
20	0x3deb35ce	0.11484872
21	0x3e2896f7	0.16463839
22	0xbc8808cd	-0.016605759
23	0x3d996a41	0.074909694
24	0xbe0d7df6	-0.13817582
25	0x3daf76be	0.0856757
26	0x3df19e94	0.117978245
27	0xbe34e905	-0.17667015
28	0xbd182194	-0.037141398
29	0x3d8fbb8f	0.07018196
30	0x3d1d9176	0.0384688
31	0x3e31b358	0.1735357
32	0x3b1a146f	0.0023510715
33	0x3d9594c9	0.07303769
34	0xbdcd61e7	-0.10028439
35	0xbe479c6e	-0.19493267
36	0x3de34576	0.11097233
37	0xbd848772	-0.06471147
38	0x3d315665	0.043295283
39	0x3e3184e5	0.17335851
40	0x3e1f40d5	0.15552075
41	0x3b9ae45a	0.0047269287
42	0x3d2ae9ad	0.041726757
43	0xbe5077d8	-0.20358217
44	0xbd585963	-0.05281962
45	0x3ce8d7b1	0.028423162
46	0x3abe6e31	0.0014528689
47	0x3d0bc38b	0.03412203
48	0xbbf9624e	-0.007610596
49	0xbdc5cf35	-0.09658662
50	0x3e11c24d	0.14234276
51	0x3dc5e1e7	0.09662228
52	0x3da785d4	0.081798226
53	0xbdf3bcc1	-0.11901236
54	0xbcf7faba	-0.030270923
55	0xbdb92e4a	-0.09042032
56	0x3dc53706	0.096296355
57	0xbe46b4c4	-0.19404894
58	0xbcb73518	-0.022364184
59	0x3ce53e5c	0.027983837
60	0x3d22d63c	0.03975509
61	0xbe10a3ed	-0.14125033
62	0xbc2a1892	-0.010381835
63	0xbe048890	-0.1294272
64	0x3d1a6a85	0.03769924
65	0x3c2f900b	0.010715495
66	0x3d9fdf67	0.078062825
67	0x3d837c23	0.064201616
68	0x3c4a82b8	0.012360267
69	0x3da1513d	0.07876823
70	0x3c9c4417	0.019075437
71	0xbe005a09	-0.12534346
72	0x3d3815a3	0.04494251
73	0x3c635c7d	0.013877031
74	0x3dc87c4f	0.09789335
75	0x3e08cb82	0.13358882
76	0x3d8161ce	0.06317483
77	0xbda23dea	-0.079219654
78	0x3d8fc778	0.070204675
79	0xbd3a2357	-0.04544386
80	0xbd50b061	-0.050949458
81	0x3dc08e28	0.09402114
82	0x3d9b6cd2	0.07589115
83	0xbd49bab2	-0.049250312
84	0x3cb1dd80	0.021712065
85	0x3d07336d	0.033008028
86	0x3c64ad93	0.013957399
87	0xbc94d3b7	-0.01816736
88	0xbce4f6bb	-0.027949682
89	0xbd685a35	-0.056726653
90	0x3d4480ef	0.047974523
91	0xbac692ae	-0.0015149915
92	0x3d50df1f	0.050994035
93	0x3dd8b45f	0.10581278
94	0xbd5bd837	-0.053672995
95	0x3b943e2f	0.0045240144
96	0x3da78a55	0.081806816
97	0x3dc83fcf	0.097777955
98	0xbe119228	-0.1421591
99	0xbe3d996b	-0.18515556
100	0x3e5135b6	0.20430645
101	0xbcf05fd0	-0.029342562
102	0xbcfd190b	-0.03089573
103	0x3e0ec302	0.13941577
104	0xbd047b83	-0.032344352
105	0x3de72664	0.11286619
106	0xbda21990	-0.07915032
107	0xbe2ac5de	-0.16677043
108	0xbcb675c0	-0.022272944
109	0x3d4b7d8f	0.04968029
110	0xbd4b0eb0	-0.049574554
111	0x3d01750e	0.031605773
112	0xbcf731fe	-0.030175205
113	0xbbd55da7	-0.0065114084
114	0x3e13c140	0.14429188
115	0xbdbc9c6a	-0.09209521
116	0xbbf1c717	-0.0073784697
117	0xbdd3c422	-0.10340144
118	0xbd17c6a8	-0.037054688
119	0xbc8fcaae	-0.0175527
120	0x3dd08f7c	0.101836175
121	0xbc6559b6	-0.01399844
122	0xbdcb0d69	-0.09914667
123	0x3d93c0d4	0.072145134
124	0xbe242f8d	-0.16033764
125	0xbddb2acb	-0.107015215
126	0xbd4d8ba2	-0.050181992
127	0xbddbd900	-0.10734749
128	0xbd33f3f8	-0.04393384
129	0xbd1a6742	-0.03769613
130	0x3da85d59	0.0822093
131	0x3d2fd248	0.04292515
132	0xbac31f9d	-0.0014886741
133	0x3b994836	0.0046777977
134	0x3da534a5	0.08066682
135	0xbcd58292	-0.026063237
136	0x3c15e830	0.009149596
137	0xbe20ae1f	-0.15691422
138	0x3d1da467	0.038486864
139	0x3d8ca360	0.06867099
140	0x3cb11c7e	0.021620031
141	0x3e1c2e20	0.1525197
142	0x3de5864f	0.11207258
143	0xbcbdae72	-0.023154471
144	0xbdb34448	-0.08753258
145	0xbcbd93c9	-0.023141759
146	0x3cc5bafd	0.024137015
147	0x3cfbb2da	0.030724932
148	0xbd3b4fc6	-0.045730375
149	0xbd216917	-0.039406862
150	0xbe4eadbd	-0.20183463
151	0xbdc764d9	-0.09736032
152	0xbd13d6aa	-0.03609339
153	0x3d08d0a6	0.033402108
154	0x3e041343	0.12897973
155	0xbd461670	-0.04836124
156	0x3e058a89	0.13041128
157	0xbdbe00e6	-0.09277515
158	0x3ce64f7d	0.028114075
159	0xbdb7bc3c	-0.0897145
160	0xbd97cd45	-0.07412199
161	0xbddc2ac0	-0.107503414
162	0xbe0d5dcb	-0.1380531
163	0xbcc7881f	-0.0243569
164	0xbd81793c	-0.06321952
165	0x3dce74b8	0.10080856
166	0xbdadbc49	-0.08483178
167	0xbc9ecdfc	-0.01938533
168	0xbe3d470f	-0.18484138
169	0x3d5dd797	0.05416068
170	0x3d96a02c	0.07354769
171	0x3c711b23	0.014715943
172	0x3ddf2016	0.10894792
173	0xbda250c1	-0.07925559
174	0xbe0e0095	-0.1386741
175	0x3e12def2	0.1434286
176	0xbd42690b	-0.047463458
177	0x3cd22742	0.025653485
178	0x3c93d04f	0.018043665
179	0xbc926677	-0.017871125
180	0xbb8be3cf	-0.0042691003
181	0xbd2b2aef	-0.04178899
182	0x3e62431c	0.22095913
183	0x3db9a8b5	0.090653814
184	0xbd3261a4	-0.04355015
185	0x3d4adcb0	0.04952687
186	0xbdc0bbb7	-0.09410804
187	0xbdb8e796	-0.090285465
188	0xbde4a731	-0.11164702
189	0x3dbced42	0.09224941
190	0x3d4b2396	0.049594484
191	0x3db110c3	0.08645775
192	0xbdc92beb	-0.0982283
193	0x3d296b70	0.041362226
194	0xbd23609a	-0.03988705
195	0xbd280e24	-0.04102911
196	0xbde7e318	-0.113226116
197	0xbbc1cd0c	-0.005914336
198	0xbd2e5bde	-0.04256808
199	0xbd3e2589	-0.046422515
200	0x3ce6bca2	0.028166119
201	0x3d350538	0.04419443
202	0xbd973111	-0.073824055
203	0xbdabc8a9	-0.08387882
204	0xbd183994	-0.037164286
205	0x3db53f5b	0.08849975
206	0xbc9450c3	-0.018104916
207	0x3de462de	0.1115167
208	0x3d90e1f5	0.07074348
209	0x3d1f3de2	0.038877375
210	0x3c0db015	0.008647938
211	0xbcc574fa	-0.02410363
212	0x3d2b6813	0.0418473
213	0xbcde9c41	-0.027174117
214	0xbb2a7436	-0.0026009209
215	0xbd2f34e2	-0.042775042
216	0xbe01a53c	-0.12660688
217	0xbda6d128	-0.08145362
218	0x3e15f401	0.14643861
219	0xbda16e1e	-0.07882331
220	0xbb8bf84b	-0.004271542
221	0x3e0f673a	0.14004222
222	0x3d04a2cd	0.03238182
223	0x3d007c36	0.031368457
224	0xbd552f42	-0.05204702
225	0x3ca982c6	0.02069224
226	0xbe30d42c	-0.17268437
227	0xbdce9d55	-0.100886025
228	0xbc3c41df	-0.011490314
229	0xbb98d6d7	-0.004664283
230	0x3a5499d9	0.0008110083
231	0x3e1d3dc0	0.15355587
232	0x3c2a50d6	0.010395249
233	0x3e397067	0.18109284
234	0x3d48f43c	0.049061045
235	0xbdcdc5bd	-0.10047481
236	0x3d0b9143	0.03407408
237	0xbdb4110c	-0.08792314
238	0xbd9eb0e3	-0.07748582
239	0x3d80dd1e	0.06292175
240	0x3c5ca122	0.013466151
241	0x3c5c8fe0	0.013462037
242	0x3c4df49d	0.012570527
243	0x3d4a036f	0.04931968
244	0x3ca2028f	0.01977661
245	0xbe2dd424	-0.16975456
246	0x3de6516f	0.11246001
247	0xbd6df828	-0.05809799
248	0x3c86019a	0.016358186
249	0xbcf68d2a	-0.03009661
250	0xbe3ad849	-0.18246569
251	0xbcab6f30	-0.020927042
252	0x3b07da98	0.0020729657
253	0xbda31700	-0.07963371
254	0xbdf3e749	-0.119093485
255	0xbdbaad68	-0.09115106

layer_0.lin.bias f4 [32]
0	0xbcb17b0e	-0.021665122
1	0xbd4d3c1a	-0.050106145
2	0xbd9a6d85	-0.075404204
3	0x3d2d4ef1	0.042311613
4	0xbcea4a76	-0.028599959
5	0xbc4f7ce5	-0.0126640545
6	0xbca85574	-0.02054856
7	0x3c96696a	0.018360812
8	0x3dbfccf6	0.09365265
9	0x3d82413a	0.06360097
10	0xbdd14c0f	-0.10219585
11	0x3d99e25f	0.0751388
12	0x3d0b8a81	0.034067634
13	0x3c2b7061	0.010463805
14	0x3cf73330	0.030175775
15	0x3b0cdcac	0.0021493835
16	0x3d515a67	0.051111605
17	0x3da42916	0.08015649
18	0xbd9c2f7a	-0.07626243
19	0xbd82c655	-0.06385485
20	0xbd50a481	-0.050938133
21	0xbd86c3ab	-0.065802895
22	0x3c92ff19	0.017943906
23	0x3d0b1d01	0.033963207
24	0xbd291f39	-0.041289542
25	0x3d12dbe3	0.03585423
26	0x3d9ddf33	0.077085875
27	0xbcae6220	-0.021287024
28	0xbc214eb1	-0.009845422
29	0xbd856888	-0.065140784
30	0x3c8274fb	0.015924921
31	0xbd1d03aa	-0.038333572

layer_1.lin.weight f4 [32, 64]
0	0xbd97e204	-0.07416156
1	0xbd88ff36	-0.066893026
2	0xbdb8407c	-0.089966744
3	0x3da01e80	0.078183174
4	0xbd54aa4e	-0.051920228
5	0x3c80afe6	0.015708875
6	0xbdfad28e	-0.12247191
7	0x3e116926	0.14200267
8	0xbd76adfd	-0.060224522
9	0xbd14e1ee	-0.036348276
10	0xbdeb08e4	-0.11476305
11	0xbe02121f	-0.12702225
12	0x3e0a5d1d	0.13512082
13	0xbd8921ae	-0.06695877
14	0xbd4bc500	-0.04974842
15	0xbd494352	-0.049136467
16	0x3d81cfa4	0.063384324
17	0x3d215cc6	0.039395116
18	0xbdcfec8c	-0.101525396
19	0x3daca592	0.084300175
20	0xbe20fa43	-0.15720467
21	0xbc2b3692	-0.010450022
22	0x3d199991	0.037499968
23	0xbcdd45cc	-0.02701082
24	0x3d58d249	0.05293492
25	0x3dfb86dc	0.12281582
26	0x3d0c0694	0.03418596
27	0xbd821e65	-0.063534535
28	0x3e01cb1c	0.12675136
29	0x3daf3fee	0.085571155
30	0xb8dcd6fe	-0.00010530463
31	0xbc70e47b	-0.0147029115
32	0xbc103a1b	-0.008802916
33	0x3dfd7e4d	0.123776056
34	0xbc488c6a	-0.012240509
35	0xbd029645	-0.03188159
36	0x3ca1a5c7	0.01973237
37	0xbd773b93	-0.06035955
38	0x3e48e1f5	0.19617446
39	0xbe038f35	-0.12847598
40	0x3c22c61b	0.009934927
41	0x3dbbf44f	0.091774575
42	0xbd899a3a	-0.067188695
43	0x3c62001a	0.0137939695
44	0xbd8ebb4c	-0.06969318
45	0x3db9627d	0.09051988
46	0x3e460def	0.19341253
47	0x3e10390d	0.14084263
48	0x3dd4718a	0.10373218
49	0xbdc71bb8	-0.09722084
50	0xbd368333	-0.044558715
51	0x3c091c60	0.0083685815
52	0xbddaf3f3	-0.10691061
53	0x3cf9742c	0.030450903
54	0xbe208bbc	-0.15678304
55	0x3da632da	0.08115168
56	0x3db2dd4c	0.08733615
57	0xbe012bc5	-0.12614353
58	0x3e025813	0.1272891
59	0x3d9cdb6c	0.07659039
60	0xbe1fcdc7	-0.15605842
61	0x3e07946e	0.13240215
62	0xbdb26d7f	-0.08712291
63	0xbdf024e5	-0.11725787
64	0xbdb82bc6	-0.08992724
65	0x3b958c8f	0.004563875
66	0x3caa0a2b	0.020756802
67	0xbc9ecba1	-0.019384207
68	0xbe17bee3	-0.14818911
69	0xbd12f490	-0.035877764
70	0x3d62e8bd	0.055397738
71	0x3de89f8c	0.11358556
72	0x3da0f7d7	0.07859772
73	0x3d0be4ef	0.034153875
74	0x3a653fb4	0.0008745149
75	0xbdcd99d5	-0.10039107
76	0x3d8ba8f7	0.06819337
77	0xbdb7a3d8	-0.089667976
78	0xbdaf52cf	-0.08560716
79	0xbd3e91c1	-0.04652572
80	0x3d44a34e	0.048007302
81	0x3ae5fb82	0.0017546269
82	0xbd70ebc3	-0.05881859
83	0x3b1e8a1c	0.0024191206
84	0xbe2f3e64	-0.17113644
85	0xbd6ad61e	-0.057333104
86	0x3d092ed7	0.033491936
87	0x3c90076c	0.017581664
88	0xbcd17466	-0.025568198
89	0x3d970843	0.07374623
90	0xbd9670ed	-0.07345758
91	0xbdb57a86	-0.0886126
92	0x3e01ab85	0.12663086
93	0x3cfb017d	0.030640358
94	0xbd75d160	-0.06001413
95	0x3d4a3b0a	0.04937271
96	0x3dbdbebd	0.09264896
97	0x3bd6d0dc	0.0065556597
98	0xbdd034f0	-0.10166347
99	0x3bda3d12	0.006660112
100	0x3e239629	0.1597525
101	0x3c9472f7	0.018121226
102	0x3d483015	0.04887398
103	0xbe364122	-0.17798284
104	0xbd163fcd	-0.03668194
105	0x3e038194	0.12842399
106	0x3cb08b72	0.021550868
107	0x3d1e63b7	0.038669314
108	0x3c175eeb	0.009238939
109	0xbcc42ea1	-0.023948016
110	0x3d0951f1	0.03352541
111	0x3d94d8c5	0.07267908
112	0x3ce593f9	0.02802466
113	0xbc69e82a	-0.014276544
114	0x3ba32735	0.004979039
115	0x3d2ff1c2	0.042955168
116	0xbc2ac8b0	-0.010423824
117	0xbd66c672	-0.056341596
118	0x3c4968d9	0.012293064
119	0xbd3aed8c	-0.0456367
120	0x3d269ad6	0.040675007
121	0xbdb0386d	-0.08604512
122	0x3e08f29f	0.13373803
123	0x3d1d1815	0.038353045
124	0xbe11a4d5	-0.14223035
125	0x3da30e1c	0.079616755
126	0xbda8b983	-0.082385086
127	0xbc4a1b24	-0.012335572
128	0xbde08377	-0.10962575
129	0xbdb1a3f2	-0.08673848
130	0x3c27ff3d	0.010253725
131	0xbcc7d449	-0.024393218
132	0x3d4a0fc9	0.04933146
133	0xbde223e7	-0.11042004
134	0x3dab86ad	0.08375297
135	0x3dc24d64	0.09487417
136	0x3dfe7835	0.124252714
137	0xbd132a17	-0.035928812
138	0xbdc4d853	-0.09611573
139	0xbd8bc98a	-0.0682555
140	0x3dd6f74b	0.10496386
141	0xbc589b57	-0.01322063
142	0xbd8f123a	-0.06985898
143	0x3d13f748	0.036124498
144	0x3d230329	0.039797936
145	0xbdb7fb3c	-0.08983466
146	0x3db4c5a0	0.088267565
147	0xbdb93a19	-0.090442844
148	0x3da32fdb	0.07968112
149	0xbd973af1	-0.07384289
150	0xbdeb1278	-0.11478132
151	0x3cf03510	0.029322177
152	0x3d1910c9	0.037369523
153	0x3b21effc	0.0024709692
154	0xbdd305a3	-0.103038095
155	0x3d47b2e0	0.048754573
156	0x3dc2863f	0.09498262
157	0x3d4c8b12	0.049937315
158	0x3de69c9d	0.1126034
159	0xbbb2e973	-0.005459958
160	0xbc698b20	-0.014254361
161	0xbdbe3eb5	-0.09289304
162	0xbe0d5f0b	-0.13805787
163	0xbd8779b9	-0.06615014
164	0xbb3af97f	-0.002853006
165	0x3dc0c983	0.09413435
166	0xbd89c044	-0.06726125
167	0xbcd06fbd	-0.025443906
168	0x3c38133f	0.011235057
169	0xbd614cc3	-0.055004846
170	0xbc1346cc	-0.008989047
171	0x3e059ebb	0.13048832
172	0x3da772a4	0.08176163
173	0x3dc1fe06	0.09472279
174	0xbca61d75	-0.020277718
175	0x3ca09343	0.01960147
176	0x3e2e49b6	0.17020306
177	0xbc58471c	-0.013200548
178	0xbd7225d5	-0.05911811
179	0x3da448df	0.080217116
180	0x3b724f21	0.0036973434
181	0xbd83d18b	-0.064364515
182	0x3dd7aedd	0.105313994
183	0x3d18d75c	0.037314758
184	0x3d18da37	0.03731748
185	0xbdc50fea	-0.09622176
186	0x3d40381f	0.04692852
187	0x3d614095	0.05499323
188	0x3d0d2a4d	0.03446417
189	0xbdb0bf30	-0.08630216
190	0x3db71af8	0.08940691
191	0x3d6ba560	0.05753076
192	0x3d709e15	0.05874451
193	0x3d9dc5a9	0.07703716
194	0x3cc6c903	0.024265772
195	0x3db42226	0.08795576
196	0xbd8df222	-0.06930949
197	0xbd800ed5	-0.06252829
198	0xbc1a2aa1	-0.009409578
199	0x3d6bb02a	0.05754105
200	0x3d29696b	0.0413603
201	0xbbbbeb88	-0.0057348646
202	0xbcd452ab	-0.025918325
203	0xbd15066f	-0.03638309
204	0x3d226955	0.039651234
205	0xbdc99913	-0.0984365
206	0xbe003fff	-0.12524413
207	0x3d60d7c5	0.054893274
208	0xbd42042c	-0.04736726
209	0xbc3be012	-0.011466997
210	0x3d4e8192	0.050416537
211	0xbc373308	-0.0111816
212	0x3d8ddc15	0.06926743
213	0x3d2e03dd	0.042484153
214	0x3a83cf72	0.001005633
215	0xbcc280aa	-0.023742992
216	0x3d090b34	0.03345795
217	0x3d4374b2	0.04771871
218	0x3dc34059	0.09533758
219	0xbde345f7	-0.11097329
220	0xbdaa1e73	-0.08306589
221	0xbde8dbbb	-0.11370035
222	0xbc8bbca0	-0.017057717
223	0x3da8d661	0.082440145
224	0xbe0a505c	-0.13507217
225	0xbe130a93	-0.14359502
226	0x3d4e33d7	0.050342407
227	0xbe0999e5	-0.13437612
228	0x3e3af95c	0.18259186
229	0x3dfac976	0.12245457
230	0x3d62b47c	0.055347905
231	0x3da7d171	0.08194245
232	0xbdf025a5	-0.1172593
233	0x3d920b35	0.07131044
234	0x3d921e07	0.071346335
235	0xbdd9f8db	-0.106431685
236	0xbb16df60	-0.0023021325
237	0xbc98205a	-0.018570114
238	0x3c51e6d5	0.012811382
239	0x3c37cab7	0.011217765
240	0xbd022508	-0.031773597
241	0x3deb212d	0.11480937
242	0x3de0e188	0.10980517
243	0x3d3c84c7	0.046025064
244	0xbda5f49f	-0.081032984
245	0xbbfe1efb	-0.007755158
246	0x3d30a92d	0.04313009
247	0x3df8a902	0.12141611
248	0xbc1c3bbe	-0.009535728
249	0xbb81bae8	-0.0039590485
250	0x3cda9ed8	0.02668707
251	0xbd9040f9	-0.070436426
252	0xbd83f134	-0.0644249
253	0xbd6bf7da	-0.057609417
254	0xbd875167	-0.06607323
255	0x3c75cf81	0.015003086

layer_1.lin.bias f4 [32]
0	0xbd434601	-0.047674183
1	0xbd78c592	-0.060735293
2	0xbd0c899d	-0.034310926
3	0xbc03f172	-0.0080531705
4	0xbd4c6d99	-0.049909208
5	0xbd8eb7d1	-0.06968654
6	0x3d961e26	0.07329969
7	0x3d023067	0.03178444
8	0xbdae4916	-0.08510034
9	0x3d0c247d	0.034214485
10	0x3d255bb7	0.04037067
11	0x3cd7b55a	0.026331592
12	0x3d0995ee	0.03359025
13	0x3d048e01	0.032361988
14	0x3dac10a9	0.08401615
15	0xbd79cb19	-0.060984705
16	0xbc5d0e9d	-0.013492254
17	0x3dd3ba48	0.10338265
18	0xbd19d54c	-0.03755693
19	0x3cdadb33	0.02671585
20	0x3e02746a	0.12739721
21	0xbdc876e4	-0.097883016
22	0xbd0d4b19	-0.034495447
23	0x3da85be8	0.08220655
24	0xbcfe4b7e	-0.031041857
25	0x3cef9f3b	0.029250732
26	0x3cc635fc	0.024195664
27	0x3d12a399	0.03580055
28	0xbd47fc07	-0.048824336
29	0xbcf6965f	-0.030101
30	0x3dc4ebf7	0.09615319
31	0xbc2bbddd	-0.010482279

layer_2.lin.weight f4 [32, 64]
0	0xbc73b6d5	-0.0148751335
1	0x3d87044c	0.065926164
2	0xbb5d2af4	-0.0033747526
3	0xbc105c5e	-0.008811085
4	0x3d43e088	0.04782155
5	0xbd035d01	-0.032071117
6	0xbdc1e75f	-0.09467959
7	0xbcf5711f	-0.029961167
8	0xbcbf8545	-0.023378978
9	0xbd9e77c1	-0.07737685
10	0x3ddec47f	0.108773224
11	0xbd56649e	-0.05234205
12	0x3e01566d	0.12630625
13	0x3d4c69b7	0.049905505
14	0xbb15bb44	-0.0022847215
15	0x3d606f75	0.054793794
16	0x3c30c4bd	0.010789094
17	0x3de69a86	0.11259942
18	0x3d0c64b9	0.034275744
19	0x3d3403a6	0.043948792
20	0xbd6737a2	-0.05644954
21	0x3d908e8d	0.070584394
22	0xbde17ad7	-0.11009758
23	0x3d84d8c9	0.06486661
24	0xbda76f26	-0.08175497
25	0xbc6045d5	-0.013688524
26	0x3e1aea00	0.15128326
27	0xbda0adb0	-0.07845628
28	0x3daa9e2a	0.08330949
29	0xbd996be6	-0.07491283
30	0x3e1fb7a0	0.15597391
31	0xbc414949	-0.011797258
32	0xbe1bf47f	-0.15229987
33	0x3d14229e	0.036165826
34	0xbde8f11b	-0.11374112
35	0xbe084ae5	-0.1330982
36	0xbdf363fe	-0.11884306
37	0x3e005e62	0.12536004
38	0x3d738e36	0.059461795
39	0xbdeb9dd5	-0.115047134
40	0x3e1ba6a2	0.15200284
41	0x3cfaf70a	0.030635376
42	0xbe01c825	-0.12674005
43	0xbcbfd335	-0.023416141
44	0xbde4a710	-0.11164677
45	0x3c8ab2a7	0.016930891
46	0x3d1d1391	0.038348738
47	0xbd94b293	-0.07260623
48	0xbb44ae42	-0.0030011092
49	0x3d9521be	0.072818264
50	0xbd67eded	-0.056623388
51	0xbcdba521	-0.026812138
52	0xbc977d88	-0.018492475
53	0xbeb333c2	-0.35000426
54	0x3ce0df9e	0.027450379
55	0xbb73c204	-0.00371945
56	0xbdf1fcea	-0.11815818
57	0x3c3516b4	0.011052776
58	0x3e0ac25a	0.13550702
59	0x3db10e06	0.08645253
60	0xbe0e2844	-0.13882548
61	0x3dc78436	0.09742014
62	0xbdf5a5e8	-0.11994535
63	0x3dd7946d	0.10526357
64	0x3da01327	0.07816153
65	0x3da11ec0	0.07867193
66	0x3df87908	0.1213246
67	0x3dddc5aa	0.10828717
68	0xbcfa1c82	-0.030531172
69	0x3d4a0d42	0.04932905
70	0xbdbdcf27	-0.09268027
71	0xbb3dc7b3	-0.0028958141
72	0x3de86ce0	0.11348891
73	0x3d85c205	0.06531147
74	0xbdd2d756	-0.10294978
75	0xbcdda34e	-0.027055409
76	0xbe048993	-0.12943105
77	0x3d53270f	0.05155092
78	0xbd0a5fc8	-0.03378275
79	0xbdf566fd	-0.11982534
80	0xbd2152da	-0.039385654
81	0x3d0931e3	0.03349484
82	0x3b397785	0.00283
83	0x3e049632	0.1294792
84	0xbb2803af	-0.0025636961
85	0x3d25710f	0.040391024
86	0xbce71bc4	-0.028211482
87	0x3ca9995f	0.020703016
88	0x3caa291c	0.020771556
89	0x3c5eb6bf	0.013593375
90	0x3d253ea7	0.040342953
91	0xbd88a497	-0.06672018
92	0xbe579135	-0.21051486
93	0xbdf5b2a0	-0.11996961
94	0xbd733859	-0.05937991
95	0x3de25c16	0.1105272
96	0x3db0601d	0.08612082
97	0xbcf35a53	-0.029706156
98	0x3d82c4fe	0.063852295
99	0x3d14921d	0.036272157
100	0xbdeec90e	-0.11659442
101	0xbcc247dc	-0.023715906
102	0x3d842c64	0.06453779
103	0x3d441a3b	0.047876578
104	0xbd1ccdd6	-0.038282238
105	0x3d2d1236	0.042253695
106	0xbdc0f5b9	-0.09421868
107	0x3c2324d9	0.009957516
108	0xbc396f0f	-0.011317982
109	0xbc690bd9	-0.014224016
110	0xbc9cb273	-0.01912806
111	0x3cd4e9fe	0.025990482
112	0xbd0c650b	-0.03427605
113	0x3dad59b5	0.08464376
114	0xbdbb72f5	-0.09152786
115	0xbd94bfab	-0.0726312
116	0xbdbd24c7	-0.0923553
117	0xbe37dc42	-0.17955115
118	0x3de27649	0.11057717
119	0xbd2cd7a0	-0.042197824
120	0xbdc03fbe	-0.09387158
121	0xbd1cb207	-0.038255718
122	0xbdb2eb98	-0.08736342
123	0x3c35d489	0.011098036
124	0x3d955f82	0.07293607
125	0xbcbb4f01	-0.02286482
126	0x3d7d0a3e	0.061777346
127	0x3d75bed0	0.059996426
128	0xbd97d9b6	-0.07414572
129	0x3d224fcf	0.039626893
130	0x3d328a80	0.043589115
131	0xb89990b5	-7.322562e-05
132	0xbc668458	-0.014069639
133	0xbc50f550	-0.0127538
134	0x3ce01b91	0.027356895
135	0x3d876654	0.066113144
136	0xbe0fd87a	-0.14047423
137	0x3d6132b8	0.05498001
138	0x3cf00f34	0.029304124
139	0xbc9b8382	-0.018983606
140	0x3c94a98b	0.01814725
141	0xbdd01533	-0.101602934
142	0xbda0d85d	-0.07853768
143	0xbd254ab8	-0.04035446
144	0x3bf6b403	0.0075287833
145	0xbd39385a	-0.045219757
146	0xbbc41a82	-0.0059846053
147	0xbc8a6a6c	-0.016896449
148	0x3dc11f62	0.09429814
149	0xbe00792c	-0.12546223
150	0xbba41c72	-0.0050082738
151	0x3dbaf84f	0.09129392
152	0xbd951928	-0.07280189
153	0x3d0becbe	0.03416132
154	0x3c2418fd	0.010015723
155	0x3da83a48	0.08214241
156	0xbd99240d	-0.07477579
157	0x3d9ff944	0.078112155
158	0xbe006b20	-0.12540865
159	0x3e1b7738	0.15182197
160	0x3dbec7b0	0.09315431
161	0x3deb3bc0	0.11486006
162	0xbaa10aab	-0.0012286504
163	0x3d0094e8	0.031392008
164	0xbb0acca2	-0.00211791
165	0x3d522789	0.051307235
166	0x3dff23cc	0.124579996
167	0xbd86f65d	-0.06589959
168	0xbce0080d	-0.027347589
169	0xbe1af939	-0.15134133
170	0x3e122dad	0.14275236
171	0x3d8d8590	0.06910241
172	0xbcae4069	-0.021270948
173	0xbc512388	-0.012764819
174	0x3d99dbf9	0.075126596
175	0x3d6807c1	0.05664802
176	0xbde35fd4	-0.11102262
177	0x3de3d892	0.11125292
178	0xbd6e7306	-0.058215164
179	0xbd9db7b3	-0.077010535
180	0x3d2d8c00	0.042369843
181	0x3e18300f	0.14862083
182	0x3d0fa8c8	0.03507307
183	0xbd8ea62a	-0.06965287
184	0xbd3acadd	-0.04560362
185	0xbcc729e4	-0.024311967
186	0x3c19c6c0	0.009385765
187	0xbdbba46e	-0.09162222
188	0x3c10f2c7	0.008846945
189	0xbb14a349	-0.0022680333
190	0x3db1afea	0.08676131
191	0xbdb3ebf4	-0.08785239
192	0xbde57630	-0.11204183
193	0xbc32c52e	-0.010911269
194	0x3e333e74	0.17504293
195	0x3c49f653	0.012326795
196	0xbd9fe95e	-0.07808183
197	0xbcb1a5c6	-0.021685492
198	0xbe009ea1	-0.12560512
199	0xbde9a0de	-0.11407636
200	0x3cf0aece	0.029380228
201	0xbd4bc366	-0.049746893
202	0x3d8001d7	0.06250351
203	0x3d080ff8	0.033218354
204	0x3e3095c7	0.17244636
205	0x3cfd4a0b	0.030919096
206	0x3c79052e	0.015198989
207	0x3cdcc0fd	0.026947493
208	0x3bd7a4f6	0.006580944
209	0xbd8d38ca	-0.06895597
210	0xbd5ee4ab	-0.054417294
211	0x3d5470a5	0.05186524
212	0x3d2ba36e	0.041903906
213	0xbe064e87	-0.13115893
214	0x3c6344f3	0.013871419
215	0xbdbee159	-0.093203254
216	0xbd910375	-0.070807375
217	0x3e3cf178	0.18451488
218	0x3e039762	0.12850717
219	0xbd1a5114	-0.03767498
220	0x3e1899e8	0.1490246
221	0x3bc86b20	0.006116286
222	0x3dc87724	0.09788349
223	0xbe2bffe3	-0.16796832
224	0x3debaa52	0.115070954
225	0xbd5c9c8b	-0.05386023
226	0xbd8bc9b9	-0.06825585
227	0xbe15a6b9	-0.14614381
228	0xbdde44c2	-0.10852958
229	0xbc738409	-0.014863023
230	0x3a262ee2	0.00063393835
231	0xbccbed45	-0.024893412
232	0x3c65131b	0.013981606
233	0x3dbbfd7a	0.09179206
234	0xbda61fce	-0.08111535
235	0xbd40aa40	-0.047037363
236	0xbdedb8cd	-0.116075136
237	0xbd8d2cd1	-0.06893314
238	0xbd790d6e	-0.060803823
239	0x3c4fad9f	0.012675672
240	0xbd434ebd	-0.047682513
241	0xbdc6e768	-0.09712106
242	0x3ddd7239	0.10812802
243	0xbcc36aae	-0.02385458
244	0x3d9d0774	0.07667437
245	0x3d561cf0	0.05227369
246	0xbd89896b	-0.067156635
247	0xbdd240a2	-0.10266234
248	0xbc832a5e	-0.016011413
249	0xbd87267d	-0.06599138
250	0xbd37898e	-0.044808917
251	0xbcf276f2	-0.029597733
252	0xbe02973b	-0.12753002
253	0xbde37779	-0.11106772
254	0xbd9a49dd	-0.075336196
255	0x3e6278d8	0.2211641

layer_2.lin.bias f4 [32]
0	0x3d3834b2	0.04497213
1	0xbbb36ea8	-0.0054758377
2	0xbd6cbae3	-0.057795417
3	0x3cf115fe	0.029429432
4	0xbdbe3f8d	-0.09289465
5	0xbda04ffa	-0.07827754
6	0xbd3f1a55	-0.04665597
7	0xbdc94460	-0.098274946
8	0xbd81d3be	-0.06339215
9	0xbd4f6dc3	-0.050641786
10	0xbc6b6862	-0.0143681485
11	0x3d971717	0.07377451
12	0x3da0a3b1	0.07843722
13	0x3db57f9e	0.08862232
14	0x3c7a7938	0.01528769
15	0x3ce33ca8	0.027738884
16	0xbc8dab5f	-0.01729363
17	0xbd9426e9	-0.07233984
18	0xbde085bc	-0.10963008
19	0xbdc7b71d	-0.09751723
20	0x3cecdfaa	0.028915245
21	0xbda3415d	-0.079714514
22	0xbd92f698	-0.0717594
23	0x3d8f2cf7	0.06990998
24	0xbd7b5767	-0.06136265
25	0x3cd76349	0.02629246
26	0xbcb8d86a	-0.022564132
27	0x3d51b71e	0.051200025
28	0xbd819bbf	-0.06328534
29	0x3dd00693	0.10157504
30	0xbdeb6d37	-0.114954405
31	0xbde78c1e	-0.11306022

layer_3.lin.weight f4 [32, 64]
0	0x3d037456	0.03209337
1	0xbda93acd	-0.082631685
2	0x3dc081bf	0.09399747
3	0x3d66fba9	0.056392346
4	0x3d14ddc6	0.036344312
5	0x39cc19a6	0.00038929022
6	0x3d03c2d6	0.032168232
7	0x3c63d5a5	0.013905917
8	0xbdd1f4fc	-0.10251805
9	0x3da61d83	0.08111098
10	0x3d555d17	0.05209073
11	0x3d4f00d6	0.050537907
12	0x3da9f069	0.08297808
13	0xbc99e30a	-0.018785018
14	0x3b682ccf	0.0035427099
15	0xbe152328	-0.14564192
16	0xbc483853	-0.01222046
17	0xbda12e70	-0.078701854
18	0xbd962abc	-0.0733237
19	0x3daf444b	0.08557948
20	0x3e10fa01	0.14157869
21	0xbe0fe943	-0.14053826
22	0xbe27533a	-0.16340342
23	0x3d776a86	0.060404323
24	0xbcf5c642	-0.030001763
25	0x3cd389db	0.02582257
26	0xbcaaf7fa	-0.020870198
27	0x3e0af028	0.13568175
28	0x3d08edaf	0.033429798
29	0x3d1ef1bc	0.038804755
30	0xbd172cb1	-0.036907855
31	0xbccd4afe	-0.025060173
32	0x3e30ddfb	0.17272179
33	0xbda926cd	-0.08259354
34	0xbe2fb84b	-0.17160146
35	0x3e159963	0.14609294
36	0xbe19fcc6	-0.15037832
37	0x3d8aa6f6	0.067701265
38	0x3d6a74a9	0.057240162
39	0x3dafa029	0.0857547
40	0x3c9f1e90	0.019423753
41	0xbd057841	-0.032585386
42	0xbcaca22f	-0.021073429
43	0x3dcf1081	0.1011057
44	0x3be62a2d	0.0070240707
45	0xbdb80004	-0.08984378
46	0x3e17eede	0.14837214
47	0x3c6618f1	0.014044032
48	0x3e01fb95	0.12693627
49	0xbe0d9735	-0.13827212
50	0xbd6f9815	-0.058494646
51	0xbdec7135	-0.1154503
52	0xbc05a428	-0.008156814
53	0x3e13a448	0.14418137
54	0x3e4fdc42	0.20298865
55	0x3e30fe58	0.17284524
56	0x3dfdc62c	0.12391314
57	0xbda76cf5	-0.08175079
58	0x3dbd52e6	0.09244327
59	0xbe256f19	-0.16155662
60	0x3d8bb71a	0.06822033
61	0x3d84cc27	0.064842515
62	0xbcd5c8c7	-0.026096715
63	0x3e15ffda	0.14648381
64	0xbda43db7	-0.08019584
65	0x3c1e9ee3	0.009681436
66	0xbd3dd061	-0.046341304
67	0x3d08dfb7	0.033416476
68	0xbd79cabe	-0.060984366
69	0xbc6582c9	-0.014008232
70	0x3d84f77c	0.064925164
71	0xbb1a5111	-0.0023546854
72	0x3ce2cfb9	0.02768694
73	0x3dafdcfb	0.085870706
74	0x3d2d103b	0.042251807
75	0xbdcdc1fb	-0.100467645
76	0xbda39c40	-0.07988787
77	0xbde779ca	-0.11302526
78	0xbe2c8705	-0.16848381
79	0xbe12353d	-0.14278121
80	0xbce1dad1	-0.02757016
81	0x3dbc3b46	0.09190993
82	0xbdb5fa52	-0.088856354
83	0x3c9a800f	0.018859891
84	0xbd45154e	-0.04811602
85	0x3dae8bc1	0.0852275
86	0x3e06b9a6	0.13156757
87	0x3da8c478	0.082405984
88	0x3d9d915b	0.0769374
89	0xbd70a115	-0.05874737
90	0xbdc08adc	-0.09401485
91	0xbd71241c	-0.058872327
92	0x3aace9bd	0.0013192218
93	0x3e0ab4ee	0.13545582
94	0x3d0a7237	0.03380033
95	0x3da24fc5	0.07925371
96	0x3cca7821	0.024715485
97	0xbc2826d4	-0.010263164
98	0x3dd5c31e	0.10437606
99	0xbdac0c1b	-0.084007464
100	0xbde5e400	-0.11225128
101	0x3dfcfbcd	0.12352715
102	0x3dcb5487	0.09928232
103	0xbcc46520	-0.023974001
104	0xbc9ac3b4	-0.018892147
105	0xbdb50bc2	-0.08840133
106	0xbd977cb7	-0.07396834
107	0xbcb6d957	-0.022320433
108	0x3e035c21	0.12828113
109	0x3dd91d25	0.10601262
110	0xbde35535	-0.11100236
111	0x3d8120b7	0.06305068
112	0xbcdf667f	-0.027270554
113	0xbd230ad5	-0.039805252
114	0x3bec2975	0.0072070905
115	0xbd36c06d	-0.044617105
116	0x3e267301	0.16254808
117	0xbd790bb6	-0.060802184
118	0xbdc4925a	-0.09598227
119	0xbd7ec8c9	-0.062203202
120	0x3d927b3f	0.071524136
121	0x3deb570c	0.11491212
122	0x3c962b9a	0.018331338
123	0x3cb19d62	0.021681491
124	0xbd9247b9	-0.07142586
125	0x3d4a47b4	0.049384788
126	0x3d98d25d	0.074619986
127	0xbd0f6cf4	-0.035016015
128	0xbd892a64	-0.066975385
129	0xbe199475	-0.14998038
130	0x3d7c0210	0.061525404
131	0xbdcf6e62	-0.10128476
132	0x3c71ffdb	0.014770473
133	0xbe432e00	-0.19060516
134	0x3dc9fbe2	0.09862496
135	0x3de66204	0.11249164
136	0xbd095d26	-0.0335361
137	0x3ca68f2b	0.02033194
138	0x3e01a912	0.12662151
139	0x3cb7f00d	0.022453332
140	0xbd90a27c	-0.070622414
141	0x3c561d6b	0.013068537
142	0x3c127879	0.008939856
143	0x3d5dd32b	0.054156464
144	0xbe006356	-0.12537894
145	0xbd32cad2	-0.043650456
146	0x3db8574d	0.09001026
147	0x3d0e98a9	0.034813557
148	0xbd8245c2	-0.063609615
149	0x3db2ec55	0.08736483
150	0xbd3b33ce	-0.0457037
151	0xbd458c8b	-0.048229735
152	0xbc8aa2a3	-0.016923254
153	0xbdadf1ac	-0.08493361
154	0xbd0efc28	-0.034908444
155	0xbdb214a9	-0.08695347
156	0x3dff64ad	0.12470374
157	0x3d933dca	0.0718952
158	0xbdd442fd	-0.103643395
159	0x3db864e4	0.09003618
160	0x3e08f1cc	0.13373488
161	0xbd60af95	-0.054854948
162	0xbb8f55f3	-0.0043742596
163	0x3c393257	0.011303506
164	0x3d3a32e5	0.045458693
165	0x3e77f0d2	0.2421296
166	0x3d4f8338	0.05066225
167	0x3d0c7b19	0.034297083
168	0x3e2f863b	0.17141049
169	0xbda9308a	-0.08261211
170	0xbd77a1e9	-0.060457144
171	0xbe0a9ea7	-0.13537084
172	0x3c4f13ce	0.012638999
173	0x3c0f8f95	0.00876226
174	0xbde03cfe	-0.10949133
175	0xbc9bfce3	-0.019041484
176	0xbd67a0a0	-0.05654967
177	0xbcced62f	-0.025248615
178	0xbb8b2ea7	-0.0042475048
179	0xbdc3ce44	-0.095608264
180	0xbd9cf411	-0.076637395
181	0x3dc38568	0.095469296
182	0xbe0a98ee	-0.135349
183	0x3c90332f	0.017602531
184	0x3d98340c	0.07431802
185	0xbd2c0bb1	-0.042003337
186	0x3df01426	0.11722593
187	0x3dcd5b70	0.10027206
188	0x3d5e1062	0.054214843
189	0xbc08d9d6	-0.008352717
190	0x3dfb845b	0.12281104
191	0x3d320a93	0.043467116
192	0x3ccb435e	0.024812397
193	0x3e03d954	0.12875873
194	0xbddec540	-0.10877466
195	0x3dc1b94e	0.09459172
196	0xbd7a0850	-0.061043084
197	0xbd7cfa5a	-0.06176219
198	0xbd44b80c	-0.048027083
199	0x3d49cb4e	0.049266152
200	0xbddb9e22	-0.10723521
201	0xbd3d99a9	-0.04628912
202	0x3d50b4c1	0.05095363
203	0xbd567efd	-0.0523672
204	0x3cf7d328	0.030252054
205	0x3e099cb2	0.13438681
206	0xbe1e12ee	-0.15436909
207	0xbdb30af5	-0.08742324
208	0xbdaac80d	-0.08338938
209	0x3df8cd15	0.12148491
210	0x3cff1edd	0.031142646
211	0xbdb888f1	-0.090104945
212	0xbdd70c92	-0.105004445
213	0x3d840c35	0.06447641
214	0x3df16221	0.11786295
215	0xbde2a8fc	-0.110673875
216	0x3d2f5357	0.04280409
217	0xbd2a1656	-0.041525207
218	0x3d9d1162	0.07669331
219	0xbda30d9b	-0.079615794
220	0x3da0d898	0.07853812
221	0x3e02171c	0.12704128
222	0x3d6c394d	0.057671834
223	0xbbea59e7	-0.0071518305
224	0x3d3fe50b	0.04684929
225	0x3d4fecd1	0.050762955
226	0xbda8d8f8	-0.082445085
227	0xbd6ad7ac	-0.057334587
228	0xbdeb9d9a	-0.115046695
229	0x3db9c04c	0.09069881
230	0xbdf68be1	-0.120383985
231	0x3daffb42	0.085928455
232	0xbcffa04f	-0.03120437
233	0xbcb78174	-0.022400595
234	0x3ced33db	0.02895539
235	0x3b9f3bdc	0.0048594307
236	0xbd98177d	-0.07426355
237	0xbc9e4fa8	-0.019325092
238	0xbd9227e3	-0.07136514
239	0xbdd4219a	-0.103579715
240	0xbd7273b2	-0.059192367
241	0x3d804c45	0.06264547
242	0x3c88e161	0.016709032
243	0xbd471ffc	-0.048614487
244	0x3db4d584	0.088297874
245	0xbd704969	-0.05866376
246	0xbdebe59d	-0.11518405
247	0x3d8ef958	0.06981152
248	0x3cdb12fc	0.02674245
249	0xbd075826	-0.03304305
250	0x3dab1a6a	0.083546475
251	0x3de0a9f1	0.10969914
252	0xbe0c2a8c	-0.13688105
253	0x3dcd0b12	0.10011877
254	0x3dbbe10d	0.091737844
255	0xbdb305c5	-0.08741335

layer_3.lin.bias f4 [32]
0	0x3ca135d2	0.019678984
1	0xbc7c9ba8	-0.015417971
2	0x3db2e444	0.087349445
3	0xbd883abb	-0.06651827
4	0x3d9df904	0.077135116
5	0x3d581ad3	0.052759957
6	0x3da4be25	0.0804408
7	0xbdbff380	-0.09372616
8	0x3dd54e55	0.10415331
9	0xbd6d082c	-0.05786912
10	0xbc41fc10	-0.011839882
11	0xbc4db452	-0.012555199
12	0x3db4a664	0.08820799
13	0x3d9e9a95	0.07744328
14	0xbd9bc70b	-0.07606324
15	0x3d1db403	0.03850175
16	0xbbb24bdd	-0.0054411725
17	0x3bd41e42	0.0064733336
18	0x3d0614e4	0.032734767
19	0xbcb3fe71	-0.021971913
20	0x3ce00ff2	0.027351353
21	0x3e07a089	0.13244833
22	0x3d36bb4f	0.044612225
23	0xbc98fae1	-0.018674316
24	0x3c816f38	0.015800104
25	0x3cb1acb3	0.021688795
26	0xbd8af9a4	-0.067858964
27	0x3d76190f	0.06008249
28	0x3dc5524d	0.09634838
29	0x3d3d9aa8	0.04629007
30	0x3da63b85	0.08116821
31	0xbd27b61f	-0.04094517

layer_4.lin.weight f4 [32, 64]
0	0x3d4e0df5	0.05030628
1	0xbc2cb1c0	-0.010540426
2	0x3db0ead6	0.086385414
3	0xbd7cee34	-0.061750606
4	0xbde1727e	-0.11008166
5	0x3d421be3	0.047389876
6	0x3ceba050	0.028762966
7	0xbde82be9	-0.113365
8	0x3d715c2b	0.05892579
9	0x3c30ff18	0.010803007
10	0x3da685f8	0.08131021
11	0x3d2f9543	0.042866956
12	0x3dadb083	0.084809326
13	0xbb38ef4c	-0.0028218804
14	0x3d7be499	0.061497305
15	0xbdbf8f0a	-0.093534544
16	0xbcfb7379	-0.03069471
17	0x3d0d6b01	0.034525875
18	0x3daa916b	0.083285175
19	0x3d5155c0	0.05110717
20	0x3dd295c5	0.102824725
21	0x3c29cecd	0.010364247
22	0x3d066a19	0.032816026
23	0xbe27a9e6	-0.16373405
24	0xbd14fa18	-0.03637132
25	0x3da3e0e0	0.08001876
26	0x3d63a56e	0.055577688
27	0x3d4630a3	0.048386227
28	0x3d33564f	0.043783482
29	0xbd48c862	-0.049019225
30	0x3c899a0c	0.016797088
31	0xbdbad87a	-0.09123321
32	0xbc96fa93	-0.01843003
33	0xb9987eb8	-0.00029086112
34	0x3d7c71f6	0.06163212
35	0x3dd0ef85	0.10201935
36	0x3d4f0602	0.05054284
37	0xbd90852b	-0.0705665
38	0x3c833378	0.016015753
39	0x3d630a7a	0.055429913
40	0x3dd7803b	0.10522505
41	0x3d3d044b	0.046146672
42	0xbe054db4	-0.13017923
43	0x3cd80d7e	0.026373621
44	0xbde72c4f	-0.11287748
45	0x3b957d55	0.00456206
46	0x3da6e4af	0.08149087
47	0x3dd162b1	0.10223902
48	0x3da9685a	0.082718566
49	0x3dc184cf	0.09449159
50	0xbdee08f0	-0.116227984
51	0x3cad4638	0.021151647
52	0x3d6051b6	0.054765426
53	0xbd1e483b	-0.038643103
54	0xbda88ab7	-0.08229583
55	0x3db5951a	0.088663295
56	0xbd82aa70	-0.063801646
57	0xbdcb90fa	-0.099397615
58	0xbdbf866a	-0.09351809
59	0xbd8b9f6e	-0.06817518
60	0x3b998fc4	0.0046863277
61	0x3d8e5a42	0.06950809
62	0xbcfec11d	-0.031097943
63	0xbdcdba8a	-0.10045345
64	0x3d9542b7	0.072881155
65	0xbd0e13d5	-0.034686882
66	0xbc30dbd9	-0.010794603
67	0x3cb11e37	0.021620853
68	0x3d9e3274	0.07724467
69	0x3ce8b2fd	0.02840566
70	0x3d89dc2f	0.0673145
71	0x3d15fc5d	0.036617626
72	0xbdc49507	-0.09598737
73	0x3da11373	0.07865038
74	0x3da5b95e	0.080919966
75	0xbcaa361b	-0.020777753
76	0x3ddceb14	0.10787025
77	0xbc91d63d	-0.017802352
78	0xbd38ef3a	-0.04515002
79	0x3d53b401	0.051685337
80	0xbdc6ed7f	-0.097132675
81	0xbb8b1002	-0.0042438516
82	0xbd8547bd	-0.065078236
83	0xbd06842a	-0.032840885
84	0xbd5c8f26	-0.053847454
85	0xbcbd32d7	-0.023095531
86	0xbbeaa4f7	-0.0071607786
87	0x3dd629ee	0.10457216
88	0x3d0de493	0.034641813
89	0xbde0593c	-0.1095452
90	0xbdd88ca1	-0.10573698
91	0xba60e78a	-0.0008579424
92	0x3d5f0296	0.054445826
93	0x3d65cd15	0.056103785
94	0x3e039186	0.12848482
95	0xbdba82ef	-0.09107005
96	0x3da16efc	0.07882497
97	0x3d9aea6b	0.07564243
98	0xbda98a8f	-0.08278381
99	0xbdeaa942	-0.114580646
100	0xbe015eb8	-0.12633789
101	0x3cb8afe2	0.022544805
102	0x3c0e952b	0.008702557
103	0xbe04bf8b	-0.12963693
104	0xbd8ae51b	-0.0678198
105	0x3d4d7d17	0.050168123
106	0xbd35b6a3	-0.04436363
107	0xbdb0b47e	-0.08628176
108	0xbd49b4d0	-0.0492447
109	0x3d81d9c2	0.06340362
110	0x3c42701e	0.011867551
111	0xbd7dc0e5	-0.061951537
112	0xbdd50d9c	-0.104029864
113	0x3db00f5b	0.08596679
114	0xbdd47f66	-0.10375862
115	0xbe02678f	-0.12734817
116	0x3d8adf83	0.06780913
117	0x3d6cc064	0.057800665
118	0xbba7c490	-0.0051198676
119	0x3d4a9ffd	0.049468983
120	0x3de53de1	0.11193443
121	0xbe19d73c	-0.15023512
122	0xbc784730	-0.015153691
123	0xbd042f30	-0.032271564
124	0xbdd10580	-0.10206127
125	0x3cf21ee2	0.029555742
126	0xbde66ca7	-0.112511925
127	0x3cb7a8d1	0.022419365
128	0x3d25a3be	0.04043936
129	0x3de6d360	0.11270785
130	0x3abf9e70	0.0014619362
131	0x3daaac6e	0.083336696
132	0xbbfc89f2	-0.007706874
133	0xbdbabec6	-0.091184184
134	0xbdd495a1	-0.10380102
135	0xbd8c8d13	-0.06862845
136	0xbd1e8883	-0.038704406
137	0x3da90d50	0.08254492
138	0xbd5593cb	-0.0521429
139	0x3bc20caf	0.005921922
140	0x3dda9c68	0.106743634
141	0xbc380c1f	-0.011233359
142	0x3d320193	0.043458533
143	0xbccb7375	-0.024835328
144	0xbd0e1943	-0.03469206
145	0xbd86eb1e	-0.06587814
146	0x3dd5f0bd	0.10446308
147	0xbdc2095e	-0.09474443
148	0xbcb8994b	-0.022534033
149	0x3d412b1f	0.047160264
150	0x3d0856fd	0.033286083
151	0x3c2f0ca4	0.010684166
152	0xbb6e5d08	-0.003637137
153	0xbd96b61b	-0.073589526
154	0x3d0498b7	0.032372203
155	0xbd07b941	-0.033135656
156	0x3d6afaf6	0.05736824
157	0x3bd6d2e5	0.0065559023
158	0x3d98d8bc	0.07463214
159	0xbca3bb60	-0.019986808
160	0xbd950157	-0.07275646
161	0xbd7b06b6	-0.061285697
162	0x3d62c624	0.055364743
163	0xbce3b303	-0.02779532
164	0x3e10d82b	0.14144962
165	0x3dd3a003	0.10333254
166	0xbcc59e22	-0.024123255
167	0x3d94151a	0.07230587
168	0xbdce7e2d	-0.1008266
169	0xbdb3795e	-0.08763383
170	0x3d95bde8	0.07311612
171	0x3bb1c6dc	0.005425317
172	0xbc38b850	-0.011274412
173	0xbda96d1c	-0.08272764
174	0x3d359e5a	0.04434047
175	0x3dcaf6ca	0.099103525
176	0x3e1b54e7	0.15169106
177	0x3ad282a3	0.0016060661
178	0xbdf379cc	-0.11888465
179	0x3d401550	0.046895325
180	0xbdd4f3c5	-0.10398058
181	0xbd1055cf	-0.035238083
182	0xbdc15585	-0.0944014
183	0x3e0833a4	0.1330095
184	0xbcf744f1	-0.030184241
185	0x3bedd108	0.0072575845
186	0xbc9c0102	-0.01904345
187	0x3ce8b461	0.028406324
188	0xbd20b663	-0.039236438
189	0x3dd47e14	0.1037561
190	0xbd9da9ce	-0.07698403
191	0x3d01034f	0.031497296
192	0xbd99b6fc	-0.075056046
193	0xbd79ac76	-0.060955487
194	0x3d063749	0.032767568
195	0x3dcf40dc	0.10119793
196	0x3d8c599c	0.06853029
197	0xbc9cbec7	-0.019133938
198	0x3cd98852	0.02655426
199	0x3dcfb243	0.101414226
200	0x3cc557ce	0.02408972
201	0xbd0e3da3	-0.03472675
202	0x3d7241b1	0.05914468
203	0x3d31b662	0.043386824
204	0x3d573f15	0.052550394
205	0xbcc55303	-0.024087435
206	0x3e234f81	0.15948297
207	0xbd729357	-0.059222545
208	0x3d459ed3	0.04824717
209	0x3c28311b	0.010265614
210	0x3d6c1762	0.057639487
211	0x3dfceadd	0.12349484
212	0x3e2caf5c	0.1686377
213	0xbdc785ba	-0.09742303
214	0x3d3bbb2b	0.045832794
215	0x3cde9ee3	0.027175372
216	0x3bbfbd0b	0.005851393
217	0x3dad4757	0.084608726
218	0x3d45ae9a	0.048262216
219	0x3cd17844	0.025570042
220	0x3cf27964	0.0295989
221	0xbd133fcd	-0.035949517
222	0xbe199d7a	-0.15001479
223	0x3d5fe0af	0.054657634
224	0x3da8e971	0.082476504
225	0x3c9ebf37	0.019378288
226	0x3dcdf7cb	0.100570284
227	0x3c3388c4	0.0109579
228	0xbb5990fd	-0.0033197992
229	0xbd555f05	-0.05209257
230	0xbc6583df	-0.014008491
231	0xbcb1ba7d	-0.02169537
232	0xbd92d78f	-0.07170021
233	0x3dbf182b	0.093307815
234	0xbd397ca9	-0.0452849
235	0xba49fa18	-0.00077048084
236	0xbc24a0b4	-0.01004808
237	0xbda1c3f0	-0.078987
238	0x3e17737f	0.14790152
239	0x3d16cfe3	0.03681935
240	0xbdc6427c	-0.0968065
241	0x3ca8d16e	0.020607676
242	0x3d5602c1	0.05224872
243	0xbd854356	-0.06506984
244	0x3c0acf02	0.008472206
245	0xbe07f7c4	-0.13278109
246	0xbcb143d1	-0.021638783
247	0xbdf717cb	-0.12065085
248	0x3dd6c417	0.1048662
249	0x3d915b00	0.07097435
250	0x3deb998d	0.11503897
251	0xbcc4b2c0	-0.024011016
252	0xbdb9a589	-0.090647765
253	0x3d3e7a6c	0.04650347
254	0xbb6c15fa	-0.0036023841
255	0x3dc3bb42	0.09557201

layer_4.lin.bias f4 [32]
0	0x3d665cfe	0.056241028
1	0xbda98030	-0.08276403
2	0x3deea4dc	0.11652538
3	0xbd38a218	-0.04507646
4	0xbdb2e9b7	-0.08735984
5	0xbc57bb5a	-0.013167227
6	0xbccc5eb0	-0.024947494
7	0xbd2d7bbf	-0.04235434
8	0xbd87d288	-0.066319525
9	0xbbe84a8d	-0.0070889653
10	0x3cb707b0	0.022342533
11	0x3d76b236	0.06022855
12	0xbdd8c141	-0.10583735
13	0xbae55214	-0.0017495775
14	0x3d4aede7	0.049543288
15	0x3ddc3250	0.10751784
16	0x3cb8e9c8	0.022572413
17	0x3da7dc17	0.08196276
18	0x3c8f0f5b	0.017463377
19	0x3d02cb9a	0.03193245
20	0xbd34761f	-0.04405796
21	0xbd93fd3a	-0.072260335
22	0x3d21a0a7	0.03945985
23	0xbd3b2ac3	-0.045695078
24	0x3df7734a	0.120825365
25	0xbda542a4	-0.08069351
26	0x3d510936	0.051034175
27	0x3da68271	0.081303485
28	0x3ded51b3	0.115878485
29	0x3d5b9eb5	0.05361815
30	0xbd4a2226	-0.049348973
31	0x3dbe9e9e	0.093075976

layer_5.lin.weight f4 [32, 64]
0	0xbdc3570a	-0.09538086
1	0xbd7dc121	-0.06195176
2	0x3c362199	0.011116409
3	0x3ddcbeaa	0.10778554
4	0xbc445924	-0.011984143
5	0xbe35014e	-0.17676279
6	0xbdf71363	-0.120642446
7	0xbd87953d	-0.06620262
8	0x3c698eb4	0.0142552145
9	0xbb2fc3e2	-0.0026819636
10	0xbd4c7fc3	-0.04992653
11	0x3dac6980	0.0841856
12	0x3ce8615c	0.028366737
13	0xbcf1c0f3	-0.02951095
14	0x3dd87fd2	0.10571255
15	0xbdc231df	-0.094821684
16	0xbd002341	-0.03128362
17	0x3d583fe4	0.052795306
18	0xbd7a5ca9	-0.061123524
19	0xbd2257d2	-0.039634533
20	0xbc510c83	-0.012759331
21	0x3d7c0eb7	0.06153747
22	0x3e006d21	0.1254163
23	0x3e29f5b2	0.16597632
24	0x3d7541c2	0.059877165
25	0xbd4028d6	-0.046913944
26	0xbd978ca3	-0.07399871
27	0xbe3106ef	-0.17287801
28	0x3da309b1	0.07960833
29	0xbdc427d2	-0.095779076
30	0x3d9bfe99	0.0761692
31	0xbe37b1c3	-0.17938904
32	0x3d068f45	0.032851476
33	0x3ddd5f11	0.10809148
34	0xbdef3672	-0.116803065
35	0xbcf3479a	-0.029697228
36	0x3d352131	0.044221107
37	0x3c08a641	0.008340419
38	0xbd3fbe5e	-0.046812408
39	0x3d2ca01a	0.042144872
40	0xbd1cebcc	-0.03831081
41	0x3d8dcd1f	0.06923889
42	0x3db89e0b	0.09014519
43	0xbbcd7bc9	-0.00627086
44	0x3d1af93c	0.037835345
45	0xbccfa3e5	-0.025346706
46	0xbd8e1553	-0.06937661
47	0xbd9ae5d0	-0.075633645
48	0xba751e03	-0.00093504804
49	0x3d963617	0.073345356
50	0x3ca207f1	0.019779177
51	0x3e270b36	0.1631287
52	0x3e116e65	0.14202268
53	0x3e1c1c1a	0.15245095
54	0xbd9d6701	-0.07685662
55	0xbdac3a34	-0.08409539
56	0xbdbe74c9	-0.09299619
57	0x3db9ce04	0.090724975
58	0x3e236594	0.15956718
59	0x3e06ecbc	0.13176244
60	0xbdd166ad	-0.10224662
61	0x3dcbcd6c	0.099512905
62	0xbc6f4163	-0.014602992
63	0x3da08578	0.07837957
64	0x3d189a0e	0.037256293
65	0xbdddb9e7	-0.10826474
66	0xbddd4958	-0.10805005
67	0x3d62ac35	0.05534001
68	0xbd6ba1e7	-0.05752745
69	0x3dda020d	0.106449224
70	0x3df586e4	0.11988619
71	0x3de68ef2	0.112577334
72	0xbcbae949	-0.022816317
73	0x3ccbf4a2	0.024896923
74	0x3d017cb1	0.031613056
75	0x3d6a9a27	0.057275917
76	0xbe0c6ac0	-0.13712597
77	0x3c20917e	0.009800313
78	0xbe18b49d	-0.14912648
79	0x3e1c13a9	0.15241875
80	0xbd084cf3	-0.03327651
81	0xbda13b0f	-0.07872593
82	0xbdaf0094	-0.08545032
83	0x3de35611	0.111004
84	0x3dea9eda	0.1145608
85	0x3dbe12bd	0.09280918
86	0x3d8baa37	0.06819575
87	0xbde64ec3	-0.11245491
88	0x3dc55096	0.09634511
89	0xbcc562c8	-0.024094954
90	0x3dc9e2ac	0.09857687
91	0xb939f01d	-0.00017732424
92	0x3d19cbc9	0.03754786
93	0xbd53a1e3	-0.05166806
94	0xbc346aa4	-0.011011753
95	0x3de1701b	0.110077105
96	0xbdeb5164	-0.114901334
97	0x3dbd9863	0.09257581
98	0xbcbaf425	-0.022821495
99	0xbdb131e2	-0.086520925
100	0x3e3795f4	0.17928296
101	0xbd7ffd50	-0.062497437
102	0x3d8cdc5f	0.0687797
103	0x3dc3341a	0.09531422
104	0xbd7f6a69	-0.06235734
105	0xbd9e6d1d	-0.077356555
106	0xbd934aae	-0.071919784
107	0x3d0b805f	0.03405797
108	0xbcf305cd	-0.029665852
109	0x3daa8ddc	0.08327839
110	0x3dd0e31c	0.10199568
111	0xbd1fa46b	-0.03897516
112	0x3c78f734	0.015195657
113	0xbe04ba35	-0.12961657
114	0x3d018ad2	0.03162653
115	0x3c490bbe	0.012270866
116	0xbd435200	-0.047685623
117	0xbcf40cfa	-0.029791344
118	0x3d6ec92d	0.058297325
119	0xbde2b8f2	-0.11070432
120	0x3d9b8040	0.07592821
121	0x3d145879	0.036217187
122	0x3d0a6a8d	0.03379302
123	0xbdd1132d	-0.102087356
124	0xbd423b59	-0.04741988
125	0xbd1ff90a	-0.03905586
126	0xbc03523e	-0.0080152135
127	0xbd05bf06	-0.032652877
128	0xbdc5b244	-0.09653142
129	0x3e1a19d6	0.15048918
130	0x3dabd469	0.083901234
131	0x3e12f288	0.14350331
132	0x3dd8083a	0.10548444
133	0x3dafaa5a	0.08577414
134	0xbd8b145c	-0.067909926
135	0xbd98ef99	-0.074675746
136	0xbb1a556d	-0.0023549453
137	0x39b15d5c	0.0003382963
138	0xbc4d727c	-0.012539502
139	0x3d93a6bf	0.07209539
140	0xbd2c82f1	-0.042117063
141	0xbcc5ad2b	-0.024130424
142	0xbdb5996a	-0.08867152
143	0xbd955e01	-0.072933204
144	0xbd27562e	-0.04085367
145	0xbdadf369	-0.084936924
146	0xbdd55cdd	-0.10418103
147	0xbd741285	-0.059587974
148	0xbb8a8000	-0.0042266846
149	0xbdc225ea	-0.09479888
150	0xbdedf833	-0.11619606
151	0x3df10c29	0.117698975
152	0xbd563e38	-0.05230543
153	0x3ddff323	0.109350465
154	0xb9c7055b	-0.00037960228
155	0x3b3c485b	0.002872965
156	0x3dc8326c	0.09775242
157	0xbdef3711	-0.11680425
158	0x3d98bd6f	0.074580066
159	0x3dcc0913	0.09962668
160	0x3dc31bcc	0.09526786
161	0xbd8626b4	-0.06550351
162	0xbd620d2b	-0.05518834
163	0xbb9167ba	-0.004437414
164	0xbddafdc4	-0.10692933
165	0x3d9786c9	0.07398755
166	0xbcb1b0fc	-0.021690838
167	0x3d2b7a6a	0.04186479
168	0xbd09f89a	-0.03368435
169	0xbd678e65	-0.056532282
170	0x3c7bc53a	0.015366847
171	0xbd09dc8e	-0.033657603
172	0x3dc9ed83	0.09859755
173	0x3dadb669	0.084820576
174	0x3d556d36	0.052106105
175	0xbe08e2d6	-0.13367781
176	0x3dbf5cdb	0.09343883
177	0x3d57f095	0.05271967
178	0xbd734a39	-0.059396956
179	0xbcc32f9a	-0.02382641
180	0x3e078405	0.13233955
181	0xbd6e12a0	-0.05812323
182	0xbe1591f8	-0.14606464
183	0xbdc54a99	-0.09633369
184	0x3d1f4853	0.038887333
185	0x3cf552ea	0.029946763
186	0xbd92e3b9	-0.07172341
187	0x3d4f5930	0.050622165
188	0xbcdda510	-0.027056247
189	0x3d2f87fd	0.042854298
190	0xbd4ace79	-0.049513314
191	0xbe0ebef5	-0.13940032
192	0xbddfc6e0	-0.10926604
193	0xbd6af36c	-0.05736105
194	0xbe25181a	-0.16122475
195	0x3d865624	0.06559399
196	0xbe003ca3	-0.12523131
197	0xbd9b4c16	-0.075828716
198	0x3dfb4446	0.122688815
199	0x3d0c3843	0.034233343
200	0x3d211133	0.039323043
201	0xbd8ad623	-0.067791246
202	0xbcccac4d	-0.024984503
203	0xbde5aa9a	-0.1121418
204	0xbe03e82b	-0.12881534
205	0x3d9649e3	0.073383115
206	0x3d0ef9cd	0.034906197
207	0x3d4edfaf	0.05050629
208	0x3e0c3141	0.13690664
209	0x3df1651a	0.11786862
210	0x3e006ffe	0.12542722
211	0x3daeee4d	0.08541546
212	0x3d697065	0.056991953
213	0x3c474d6b	0.012164454
214	0xbdd1c721	-0.10243059
215	0xbdf9b7a5	-0.121932305
216	0x3df9ec65	0.12203292
217	0xbdab81ec	-0.0837439
218	0x3dcabb0d	0.09898958
219	0xbe734b6b	-0.23759238
220	0x3ca2f4b4	0.019892074
221	0x3cab618b	0.020920536
222	0x3e1d8663	0.15383296
223	0xbc4ca570	-0.012490615
224	0x3daf70ec	0.0856646
225	0xbceba0b5	-0.028763155
226	0x3dcc4463	0.09973981
227	0xbd86766c	-0.06565556
228	0x3d997daa	0.07494672
229	0x3da575f8	0.080791414
230	0xbd556544	-0.052098528
231	0xbc8ff9fb	-0.017575255
232	0x3d02ef20	0.03196633
233	0x3d81451c	0.0631201
234	0x3d134490	0.03595406
235	0xbdd4f274	-0.10397807
236	0x3b8be965	0.004269766
237	0xbe028e22	-0.12749532
238	0x3da0de2f	0.07854878
239	0xbe09730c	-0.13422793
240	0xbd21d937	-0.039513793
241	0x3d8b73ae	0.068091735
242	0x3dda22db	0.106511794
243	0xbca36a32	-0.019948099
244	0xbd762b91	-0.060100142
245	0xbc01e697	-0.007928512
246	0xbc71932a	-0.014744559
247	0xb937ff21	-0.00017547283
248	0xbd9d2332	-0.076727286
249	0xbd9207cf	-0.071303956
250	0x3bbb7e7e	0.005721866
251	0x3e49a64f	0.19692348
252	0x3d886c73	0.0666131
253	0x3e032881	0.1280842
254	0x3c12c2e2	0.0089575965
255	0xbca70e0b	-0.020392438

layer_5.lin.bias f4 [32]
0	0xbd8920b6	-0.06695692
1	0x3dad8120	0.08471894
2	0xbd565fb6	-0.05233737
3	0xbd3b0ecd	-0.045668412
4	0xbd4e458d	-0.050359298
5	0xbcf1099c	-0.029423527
6	0xbda5f8c6	-0.081040904
7	0x3d8d557a	0.06901069
8	0x3c942457	0.018083734
9	0xbc8f45be	-0.01748931
10	0x3ddf939f	0.10916828
11	0xbcfada4b	-0.030621668
12	0x3bba92a6	0.0056937514
13	0x3d96503b	0.073395215
14	0x3b705262	0.0036670198
15	0x3c15e917	0.009149811
16	0x3db53977	0.08848851
17	0xbd70c747	-0.058783796
18	0x3d8c01fc	0.06836316
19	0x3c279425	0.0102281915
20	0xba6c3004	-0.00090098404
21	0x3ccde061	0.025131406
22	0xbc8004c5	-0.015627274
23	0xbd6ef514	-0.058339193
24	0xbdaec482	-0.08533575
25	0xbd204f0b	-0.03913788
26	0x3d6e9b2c	0.058253452
27	0x3d9798a6	0.07402162
28	0xbd335bb9	-0.043788645
29	0x3d8f0d3c	0.06984946
30	0x3db8b03e	0.090179905
31	0x3d7c63b1	0.06161851
