training_runs/model_step16000.pt (torch, 108782 bytes, 24 tensors)

layer_0.lin.weight f4 [32, 64]
-0.20050502 0.058226507 0.15486027 0.020044815 -0.11728402 0.07784327 0.05284336 -0.120794065
0.01881109 -0.038430963 0.016301459 0.28489253 -0.13054088 0.08484187 -0.10335752 -0.139264
0.15049268 0.13082302 -0.1582911 -0.16508313 0.1882698 0.23270707 -0.06632694 -0.036612883
-0.13972537 0.073229656 0.18029268 -0.069821574 0.083344534 0.07119269 -0.0051064524 0.09029526
0.15571102 0.22348231 -0.064570166 -0.22998945 0.22127262 -0.113024555 0.1012797 0.23328649
0.17724553 -0.046287384 0.09494249 -0.50303537 -0.026736185 -0.061101034 -0.05580154 0.106902264
-0.03979621 -0.16998312 0.14866641 0.31252182 0.044048335 -0.053923625 -0.12249337 0.04114902
0.12782101 -0.3008433 0.028782202 -0.07390933 -0.029710501 -0.18046232 0.0890804 -0.11659637
-0.074110925 -0.035709273 0.049082175 0.11800682 -0.1593893 0.24546807 -0.11762135 -0.18695045
-0.080096014 0.04382775 -0.06427864 0.35137734 0.09214072 -0.00769776 0.07216087 -0.14783593
-0.009206222 0.12842669 -0.007889819 -0.15229316 0.09506439 0.015434983 0.13955754 -0.07510662
0.007579115 0.02065274 0.058888108 0.05879902 0.05697012 0.16665602 -0.0016752299 0.12383671
0.2612552 0.102109544 -0.22388265 -0.29757133 0.11371592 -0.088699654 0.04004915 0.16336574
-0.17237702 -0.06102504 -0.033793446 -0.43631032 -0.13076995 0.0012144638 -0.043502543 0.2090398
-0.24604252 -0.16516191 0.023641868 -0.008172016 0.12585641 -0.0706882 -0.007622646 0.03614171
0.21746856 0.22641845 -0.23874545 -0.077165306 -0.30382168 -0.14636108 -0.052255455 -0.24106593
-0.16205658 0.2222394 0.19545329 -0.016277574 -0.018625272 0.066704586 0.016391855 -0.07247624
0.109113954 -0.15664278 -0.05712663 -0.0024982037 0.061967585 0.10185209 0.111764155 -0.19485913
0.1005275 -0.11131514 0.092228994 -0.009357585 0.113588914 0.11288439 -0.26574457 -0.020580228
-0.044275023 -0.10857807 0.34351903 0.06362066 0.48706782 -0.06112573 0.107021354 0.10022039
-0.07036573 -0.17204787 -0.12499389 -0.19718021 -0.15356539 0.090121016 -0.10398316 -0.0938778
-0.29649514 0.04621005 0.20388377 0.12701751 0.06649068 -0.019893812 -0.09719475 0.16423418
-0.257855 -0.09476139 -0.009788525 -0.04825467 0.19573313 0.0138889225 0.24994941 0.06425432
0.07301785 0.11306089 -0.17163585 -0.13667336 -0.09640769 0.16420473 -0.1022408 0.00896558
-0.33495808 -0.13894188 -0.005518635 0.16313012 -0.037931968 -0.08790739 -0.08759796 -0.05005947
0.13205695 0.100054726 -0.10909291 -0.0001812149 0.031175245 -0.010241688 0.011194948 -0.036417335
0.33589342 0.24680828 0.10673797 0.05740851 -0.12602971 -0.13505742 -0.05161548 -0.13171831
-0.27580386 -0.17395374 0.1221268 -0.10777567 -0.029168867 0.07304235 0.01857664 0.085626975
-0.044538014 -0.13147146 -0.25375748 -0.07493295 0.09253508 -0.12399928 0.103021495 0.16137661
0.03909864 0.058484662 0.021330131 -0.2845538 -0.07234112 -0.12942238 -3.1646734e-05 0.16054821
-0.057744905 0.13658072 0.011358498 0.12807077 -0.18685023 -0.3082564 0.10734177 -0.07503445
0.012189697 -0.031760238 -0.23675346 -0.22308172 -0.23180324 -0.14793329 -0.08960754 -0.13271649
00000000: 3051 4dbe eb7e 6e3d b193 1e3e 0635 a43c
00000010: 9b32 f0bd 4b6c 9f3d 4772 583d e162 f7bd
00000020: b719 9a3c c969 1dbd a38a 853c 6fdd 913e
00000030: 82ac 05be 93c1 ad3d 1cad d3bd 399b 0ebe
00000040: c11a 1a3e 78f6 053e 1017 22be 8d0b 29be
00000050: ccc9 403e c34a 6e3e 6bd6 87bd 64f7 15bd
00000060: 2b14 0fbe 6ef9 953d a59e 383e 9dfe 8ebd
00000070: 8ab0 aa3d 79cd 913d 0754 a7bb b9ec b83d
00000080: b672 1f3e 8cd8 643e 5d3d 84bd 5b82 6bbe
00000090: 4a95 623e 6b79 e7bd bb6b cf3d a7e2 6e3e
000000a0: da7f 353e d797 3dbd 3571 c23d edc6 00bf
000000b0: d805 dbbc 1445 7abd 2890 64bd 93ef da3d
000000c0: 5a01 23bd 0e10 2ebe 023c 183e dc02 a03e
000000d0: 076c 343d 05df 5cbd cedd fabd e08b 283d
000000e0: 83e3 023e 2208 9abe a7c8 eb3c c65d 97bd
000000f0: 7063 f3bc 1dcb 38be c96f b63d 14ca eebd
00000100: 78c7 97bd e343 12bd 640a 493d 8fad f13d
00000110: f336 23be fb5b 7b3e 76e3 f0bd f06f 3fbe
00000120: 6109 a4bd ba84 333d 85a4 83bd bbe7 b33e
00000130: 46b4 bc3d 7e3d fcbb 14c9 933d 4d62 17be
00000140: b2d5 16bc 4982 033e 4d44 01bc bdf2 1bbe
00000150: 1eb1 c23d 03e3 7c3c 2ce8 0e3e 80d1 99bd
00000160: 3a5a f83b ef2f a93c a834 713d 3ed7 703d
00000170: 8059 693d e0a7 2a3e 6393 dbba 1a9e fd3d
00000180: 3ec3 853e cf1e d13d 7e41 65be 455b 98be
00000190: e4e3 e83d 2aa8 b5bd 940a 243d 5949 273e
000001a0: 9a83 30be 64f5 79bd ff6a 0abd 1164 dfbe
000001b0: 8fe8 05be a52e 9f3a b92f 32bd 880e 563e
000001c0: 92f2 7bbe 3420 29be 97ac c13c ebe3 05bc
000001d0: 81e0 003e fac4 90bd 64c7 f9bb 5409 143d
000001e0: 14b0 5e3e 3dda 673e b079 74be d808 9ebd
000001f0: 848e 9bbe aedf 15be d109 56bd fdd9 76be
00000200: 29f2 25be ba92 633e e824 483e 8c58 85bc
00000210: 0794 98bc 6a9c 883d 3648 863c 6c6e 94bd
00000220: 2377 df3d f766 20be 9dfd 69bd e7b8 23bb
00000230: b9d1 7d3d d497 d03d 9be4 e43d 2789 47be
00000240: 5de1 cd3d 31f9 e3bd 8ee2 bc3d 8e50 19bc
00000250: 4ea1 e83d ee2f e73d ac0f 88be de97 a8bc
00000260: ba59 35bd 2e5e debd bae1 af3e 8c4b 823d
00000270: f460 f93e f95e 7abd 032e db3d 5940 cd3d
00000280: e81b 90bd 512d 30be ccfc ffbd 9ce9 49be
00000290: 3f40 1dbe 5e91 b83d 1ff5 d4bd 0143 c0bd
000002a0: 36ce 97be c046 3d3d e8c6 503e e110 023e
000002b0: 442c 883d 59f8 a2bc 0b0e c7bd 012d 283e
000002c0: 9205 84be 4212 c2bd 0d60 20bc b0a6 45bd
000002d0: 446e 483e 5d8e 633c bdf2 7f3e c597 833d
000002e0: 628a 953d 788c e73d 4fc1 2fbe 1af4 0bbe
000002f0: 6571 c5bd 4925 283e a063 d1bd 5ee4 123c
00000300: a07f abbe c846 0ebe aad5 b4bb 950b 273e
00000310: 8d5e 1bbd ca08 b4bd 8f66 b3bd 290b 4dbd
00000320: f039 073e 7ee9 cc3d 1b6c dfbd 8104 3eb9
00000330: 3a63 ff3c c1cc 27bc 046b 373c 582a 15bd
00000340: 39fa ab3e 4fbb 7c3e 7099 da3d 3025 6b3d
00000350: ef0d 01be 7e4c 0abe c16a 53bd 2ae1 06be
00000360: 2a36 8dbe ee20 32be 9e1d fa3d 7eb9 dcbd
00000370: 8cf3 eebc 3a97 953d 0a2e 983c 325d af3d
00000380: 7e6d 36bd 74a0 06be 80ec 81be 7276 99bd
00000390: 0883 bd3d 56f3 fdbd effc d23d e93f 253e
000003a0: e525 203d 9d8d 6f3d 87bc ae3c 09b1 91be
000003b0: 9527 94bd 4d87 04be 6cbc 04b8 c066 243e
000003c0: ec85 6cbd d1db 0b3e fe18 3a3c fc24 033e
000003d0: ab55 3fbe c8d3 9dbe 00d6 db3d a9ab 99bd
000003e0: 4bb7 473c 0617 02bd 806f 72be 896f 64be
000003f0: d45d 6dbe d37b 17be 2884 b7bd d5e6 07be

layer_0.lin.bias f4 [32]
0.032905646 0.00837505 -0.025275234 0.01989506 -0.009047846 0.0316053 0.049645405 0.13016048
0.13241467 -0.015547478 -0.067614734 0.07407954 -0.0061868727 -0.00066045986 0.095476456 -0.021579592
-0.004229289 0.096101746 -0.04903442 0.004401787 -0.016495658 -0.077123284 -0.07472479 0.027221533
-0.050387528 0.0065426645 0.006843748 -0.01700748 -0.01659196 0.059569173 -0.0029774893 0.011168915
00000000: 12c8 063d 8137 093c 020e cfbc f7fa a23c
00000010: 6b3d 14bc 8f74 013d fb58 4b3d ca48 053e
00000020: b697 073e d9ba 7ebc 9879 8abd 04b7 973d
00000030: 40bb cabb b622 2dba 2989 c33d afc7 b0bc
00000040: d995 8abb fed0 c43d 51d8 48bd de3c 903b
00000050: e721 87bc d0f2 9dbd 5009 99bd b1ff de3c
00000060: 2763 4ebd d963 d63b 8541 e03b 4553 8bbc
00000070: ddeb 87bc cefe 733d fb21 43bb d3fd 363c

layer_1.lin.weight f4 [32, 64]
-0.16842742 -0.09037547 -0.03218003 0.15271333 -0.1671513 0.086175874 -0.14801936 0.19956721
-0.108791605 -0.08178161 -0.1302638 -0.16696252 0.17676698 -0.13664049 -0.044821527 -0.12575048
0.048333846 0.029177323 -0.047821302 0.06244382 -0.18619734 -0.014592859 0.12498823 -0.043302786
-0.0054131774 0.21589515 0.008521718 -0.09851449 0.22277042 0.21056813 0.027729822 0.019380094
-0.0038253346 0.1633465 0.01655857 -0.032108948 0.018168377 -0.03997468 0.22071065 -0.1797883
0.0048230877 0.18303917 -0.06629168 0.009902197 -0.12956959 0.14001055 0.27292457 0.19298781
0.073629156 -0.12775956 -0.026660077 0.037797045 -0.1105522 0.0131838955 -0.15416662 0.11262496
0.14313458 -0.17863952 0.11308273 0.19160429 -0.35531878 0.18914343 -0.063892 -0.115073785
-0.024597764 -0.038249962 -0.056397125 0.018577125 -0.033764224 -0.14030346 0.3670537 0.033751994
0.11508146 0.046957932 0.02928564 -0.04369623 0.0793592 -0.30571723 -0.16377948 -0.24043716
0.048181262 0.04702441 -0.047718 0.03031044 -0.28841615 -0.045020565 -0.16148779 -0.062107526
-0.19417837 0.07850043 -0.14965954 -0.10539035 0.23033717 0.12832431 -0.2374378 0.057167295
0.15556504 0.07991517 -0.09510457 0.02917346 0.07960366 0.08480847 -0.03441599 -0.089856535
-0.0060137445 0.106650755 -0.013492824 0.058409013 0.00821798 0.01199324 0.109811425 0.050220285
0.08177586 -0.013698107 -0.013930992 0.02813906 0.017146045 -0.07017606 0.002267615 -0.042186752
0.037353445 -0.12806302 0.1536155 0.06848481 -0.24249786 0.09197355 -0.0015965633 0.024314065
-0.16920067 -0.2059188 0.020327168 -0.031816643 0.13828963 -0.26280352 0.19373876 0.2470157
0.092794135 -0.12932438 -0.08925707 -0.117627695 0.23501447 -0.09818377 -0.17348142 -0.2877906
-0.08292088 -0.08083585 0.12487898 -0.1408682 0.06573742 -0.060992233 -0.2070827 -0.010012786
-0.009125755 0.0809342 -0.16171221 -0.052402534 0.36189505 0.08253285 0.023208281 -0.049414784
0.008669294 -0.059190318 -0.1574342 -0.07105086 0.036384534 0.13648453 -0.1429314 -0.0110893715
0.017940447 -0.0776716 -0.0029262716 0.10861103 0.04185145 0.18954493 0.096768886 0.062257666
0.2016559 -0.011032387 -0.06415154 0.1015899 0.043640282 -0.035878208 0.106590174 0.052541688
0.020136135 -0.10785683 0.07341203 0.03573941 -0.01795918 -0.054045726 0.11772517 0.064296454
0.082603306 0.018894883 0.005655427 0.119890794 -0.02469353 -0.10399229 -0.014451818 0.20998943
0.061555807 -0.11067573 -0.035199128 -0.054350894 0.18909803 -0.110809974 -0.25747865 -0.11830965
-0.033226807 0.03976395 0.029555075 -0.063320346 0.091841675 0.01970447 -0.03607307 -0.099601634
-0.0023368974 0.13767213 0.08168973 -0.18178397 0.07462867 -0.1339254 -0.051791497 0.09224217
-0.19849597 -0.15521495 0.011485335 -0.1305513 0.14824736 0.17021684 0.1145675 0.120396525
-0.07276608 -0.0080147 0.05494792 -0.0865745 0.060311228 0.11336889 0.05906845 0.041686505
-0.029643232 0.13533598 0.08590356 0.032359328 -0.06054674 -0.04694194 0.017706152 0.15805268
0.009090666 -0.066217564 0.04764469 -0.09086716 -0.105074026 0.00050851656 -0.104430296 0.03656526
00000000: 3d78 2cbe c616 b9bd 35cf 03bd e260 1c3e
00000010: b629 2bbe fa7c b03d 6392 17be 595b 4c3e
00000020: 22ce debd 1e7d a7bd e063 05be 39f8 2abe
00000030: 6702 353e 7ceb 0bbe c796 37bd bcc4 00be
00000040: b6f9 453d 4805 ef3c 45e0 43bd 17c5 7f3d
00000050: 84aa 3ebe e316 6fbc d4f9 ff3d 435e 31bd
00000060: 0661 b1bb 9e13 5d3e ad9e 0b3c f7c1 c9bd
00000070: ee1d 643e 2c9f 573e a729 e33c 01c3 9e3c
00000080: 77b2 7abb 4e44 273e d7a5 873c ac84 03bd
00000090: d9d5 943c 7dbc 23bd f901 623e 6d1a 38be
000000a0: fe0a 9e3b 9f6e 3b3e efc3 87bd d33c 223c
000000b0: e4ad 04be ed5e 0f3e c5bc 8b3e 999e 453e
000000c0: e2ca 963d 67d3 02be 3c66 dabc 13d1 1a3d
000000d0: 3169 e2bd 4401 583c dbdd 1dbe eaa7 e63d
000000e0: df91 123e 47ed 36be eb97 e73d ea33 443e
000000f0: 58ec b5be d1ae 413e cfd9 82bd ceab ebbd
00000100: 4081 c9bc feab 1cbd ac00 67bd 0e2f 983c
00000110: 5b4c 0abd b6ab 0fbe 76ee bb3e 883f 0a3d
00000120: d4af eb3d f656 403d 70e8 ef3c d1fa 32bd
00000130: 1487 a23d f886 9cbe cfb5 27be 2935 76be
00000140: b759 453d ab9c 403d f373 43bd 9a4d f83c
00000150: 48ab 93be 7c67 38bd 0e5d 25be 7664 7ebd
00000160: b2d6 46be d5c4 a03d 5a40 19be e5d6 d7bd
00000170: 82dd 6b3e 7367 033e e522 73be 4128 6a3d
00000180: 714c 1f3e 91aa a33d 2fc6 c2bd 2efd ee3c
00000190: 3e07 a33d 10b0 ad3d c8f7 0cbd b406 b8bd
000001a0: f20e c5bb b66b da3d 0111 5dbc 4a3e 6f3d
000001b0: b5a4 063c 4b7f 443c d0e4 e03d c9b3 4d3d
000001c0: 1a7a a73d 066e 60bc d13e 64bc e383 e63c
000001d0: dd75 8c3c 77b8 8fbd 449c 143b 04cc 2cbd
000001e0: edff 183d f422 03be 624d 1d3e c441 8c3d
000001f0: 5c51 78be a15c bc3d c643 d1ba 4a2e c73c
00000200: f142 2dbe 61dc 52be 2985 a63c 2b52 02bd
00000210: cc9b 0d3e 2f8e 86be 7463 463e aff1 7c3e
00000220: da0a be3d 9c6d 04be 69cc b6bd cae6 f0bd
00000230: a2a7 703e 9314 c9bd 1da5 31be 4a59 93be
00000240: 6cd2 a9bd 448d a5bd 8dc0 ff3d c13f 10be
00000250: 57a1 863d fed2 79bd 7d0d 54be ab0c 24bc
00000260: 3184 15bc d4c0 a53d e397 25be 0aa4 56bd
00000270: 4f4a b93e fc06 a93d 4b1f be3c 2867 4abd
00000280: a809 0e3c 8c71 72bd 6e36 21be 1d83 91bd
00000290: f307 153d 9ac2 0b3e 9c5c 12be 32b0 35bc
000002a0: d8f7 923c 4a12 9fbd b1c6 3fbb 766f de3d
000002b0: 6d6c 2b3d 1118 423e c42e c63d e501 7f3d
000002c0: e27e 4e3e 2fc1 34bc e261 83bd 5e0e d03d
000002d0: 27c0 323d 07f5 12bd f34b da3d f435 573d
000002e0: 89f4 a43c 0be4 dcbd 0c59 963d 7d63 123d
000002f0: 211f 93bc 0d5f 5dbd e519 f13d dcad 833d
00000300: ec2b a93d 71c9 9a3c 2951 b93b 4e89 f53d
00000310: 164a cabc e9f9 d4bd 51c7 6cbc 7807 573e
00000320: f121 7c3d f5a9 e2bd f62c 10bd 0b9f 5ebd
00000330: eaa2 413e 57f0 e2bd 3ed4 83be 544c f2bd
00000340: d518 08bd 86df 223d 7c1d f23c 19ae 81bd
00000350: 7d17 bc3d 456b a13c 5bc1 13bd f1fb cbbd
00000360: a226 19bb ecf9 0c3e f24c a73d 9425 3abe
00000370: ebd6 983d bd23 09be 5223 54bd 76e9 bc3d
00000380: 8742 4bbe abf0 1ebe fd2c 3c3c 3daf 05be
00000390: 28ce 173e 534d 2e3e 5ea2 ea3d 7492 f63d
000003a0: 6206 95bd 1750 03bc 1211 613d f94d b1bd
000003b0: e808 773d f32d e83d c2f1 713d 78bf 2a3d
000003c0: 5dd6 f2bc 8495 0a3e 35ee af3d 378b 043d
000003d0: dcff 77bd 3146 40bd 7e0c 913c 90d8 213e
000003e0: 04f1 143c 139d 87bd 1427 433d 9018 babd
000003f0: 0d31 d7bd f84d 053a 8ddf d5bd 74c5 153d

layer_1.lin.bias f4 [32]
-0.05659607 -0.031027978 -0.04178604 0.025577886 -0.047195967 -0.05192775 0.059352376 0.051389433
-0.05477774 -0.0045342925 0.02366765 -0.0019682697 0.04354513 0.02838418 0.027183378 -0.060717482
-0.026047776 0.08159664 -0.09838888 0.046937667 0.07986236 -0.07729718 -0.023090318 0.07748167
0.002357468 0.055734247 0.028023899 0.0732995 -0.03237912 -0.0044456683 0.117423296 -0.01054099
00000000: 48d1 67bd 632e febc d727 2bbd b788 d13c
00000010: 8f50 41bd 31b2 54bd 7a1b 733d ba7d 523d
00000020: a05e 60bd 6794 94bb a9e2 c13c 16fe 00bb
00000030: 615c 323d f185 e83c adaf de3c e5b2 78bd
00000040: 2562 d5bc 241c a73d 1c80 c9bd b641 403d
00000050: e18e a33d fc4d 9ebd e827 bdbc b6ae 9e3d
00000060: c07f 1a3b 9849 643d 6092 e53c 0c1e 963d
00000070: f89f 04bd f8ac 91bb a07b f03d 1eb4 2cbc

layer_2.lin.weight f4 [32, 64]
0.07825019 0.1192974 0.077490374 0.055516228 -0.025551785 -0.006982019 -0.071354784 0.026401352
-0.0750915 -0.112363115 0.22451389 -0.03005849 0.2580904 0.076850094 -0.034500852 0.051520433
-0.022086727 0.17128366 0.069902614 0.02334798 -0.07945874 0.058819175 -0.11566724 0.0945062
-0.01738047 0.07550888 0.20736913 -0.090371 0.076263435 -0.13341364 0.13061433 -0.18791884
-0.1422945 0.11236311 -0.09203576 -0.1174004 -0.14286044 0.15330857 0.11147498 -0.05720266
0.15468778 0.10238005 -0.18164212 -0.07842534 -0.16999589 0.03405445 0.00963511 -0.056824427
-0.026176104 0.10921169 -0.043533023 -0.023956005 -0.02387893 -0.39268377 0.031928856 -0.025249368
-0.0705119 0.035711285 0.12799539 0.094424464 -0.16822478 0.035285164 -0.11684311 0.10315453
0.020392397 0.045947086 0.09781282 0.024632543 -0.021457335 0.12393882 -0.064887956 -0.09398292
0.17283677 0.13204035 -0.18155773 -0.044259593 -0.23876251 0.053171765 -0.07479676 -0.13900843
-0.0717465 -0.008193871 0.010562716 0.091265805 0.014303091 -0.13708341 -0.01628354 0.10597181
-0.0324976 -0.02924785 0.115569636 -0.04343213 -0.28081948 -0.12870479 -0.11566191 0.35818163
0.058830522 0.04238086 0.101915695 -0.057534885 -0.30195522 0.052783933 0.10162344 -0.033889942
0.051942803 0.008038579 -0.1386543 -0.110909835 0.064875655 -0.09231737 -0.048893053 -0.023020241
-0.034581114 0.06288325 -0.1255839 -0.12750107 -0.048147134 -0.29113725 0.08192418 -0.03793587
-0.15667893 -0.020054393 0.08870405 0.042938493 0.088505805 0.024385761 0.059127506 0.05839827
-0.1703657 0.12531784 0.08620753 -0.027831817 -0.14617442 -0.0141064515 0.17177185 0.039893597
-0.18907398 0.010334192 0.022998177 -0.030912288 -0.002375104 -0.21457615 -0.09942975 -0.065405324
-0.026866375 -0.18031813 -0.051071826 -0.04982462 0.16760466 -0.13188578 0.032936994 0.10755073
-0.087534845 0.10855373 -0.0027652446 0.15609062 -0.024680417 0.07556588 -0.13735567 0.13007876
0.056728423 0.084330514 0.070958555 0.028128855 -0.064601175 -0.010167112 0.12448397 -0.01782644
-0.0367913 -0.217618 0.16588804 0.07249129 0.032427497 -0.059203736 0.05103677 -0.014319181
-0.12246574 0.010311488 -0.11670138 -0.07083282 0.06407896 0.10758325 0.0022240635 0.036043588
-0.084062345 -0.0027546817 0.044341728 -0.108278744 0.06555412 0.052522663 0.1487322 -0.22917195
-0.077826865 0.10864853 0.20935926 0.079202786 -0.13498771 0.00049183675 -0.1440291 -0.11105376
0.059292637 -0.08982506 0.06582298 -0.09647759 0.27302763 0.009871647 -0.05389448 0.093646206
0.042381752 -0.04741299 -0.11881751 0.01121905 0.0054425118 -0.14288716 0.0065470906 -0.063341014
-0.055793654 0.19212376 0.20074277 0.01909651 0.2010857 0.03431361 0.11642423 -0.24099314
0.09371157 -0.09296004 -0.14024222 -0.07768533 0.1384952 0.0034794363 -0.053787135 -0.05524437
0.041422755 0.13563402 -0.13562606 -0.057467688 -0.17207389 -0.036338538 -0.14066087 0.041829173
-0.01953115 -0.12188846 0.0718219 -0.030104602 -0.026642604 -0.012634199 -0.059709 -0.0044155144
0.022032525 -0.07845322 -0.13828035 0.011682689 -0.1284132 -0.092298724 -0.13389541 0.30564493
00000000: a341 a03d 3252 f43d 46b3 9e3d fc64 633d
00000010: fa51 d1bc 6cc9 e4bb 7522 92bd a647 d83c
00000020: 93c9 99bd a21e e6bd f8e6 653e 393d f6bc
00000030: 6d24 843e 9563 9d3d c450 0dbd 1707 533d
00000040: 39ef b4bc fc64 2f3e 1a29 8f3d 4344 bf3c
00000050: 44bb a2bd 60ec 703d f2e2 ecbd 778c c13d
00000060: 7d61 8ebc 66a4 9a3d 9358 543e 6e14 b9bd
00000070: 0130 9c3d 969d 08be c3bf 053e cc6d 40be
00000080: a6b5 11be a11e e63d 3f7d bcbd 9f6f f0bd
00000090: 024a 12be ecfc 1c3e ff4c e43d 564d 6abd
000000a0: 7966 1e3e a2ac d13d 6400 3abe 779d a0bd
000000b0: 6713 2ebe ae7c 0b3d 95dc 1d3c bbc0 68bd
000000c0: 456f d6bc 61aa df3d af4f 32bd 623f c4bc
000000d0: bf9d c3bc d90d c9be d5c7 023d c3d7 cebc
000000e0: 8b68 90bd ff45 123d 3911 033e 9d61 c13d
000000f0: 1e43 2cbe 2d87 103d 714b efbd af42 d33d
00000100: f50d a73c 0333 3c3d 1652 c83d 30ca c93c
00000110: 4bc7 afbc a3d3 fd3d fae3 84bd 1e7a c0bd
00000120: 1ffc 303e 9635 073e 45ea 39be 8c49 35bd
00000130: 297e 74be a3ca 593d 0b2f 99bd 3a58 0ebe
00000140: d4ef 92bd 963f 06bc 3e0f 2d3c 91e9 ba3d
00000150: 8357 6a3c 985f 0cbe 0f65 85bc c007 d93d
00000160: 341c 05bd 3099 efbc c6af ec3d e4e5 31bd
00000170: 92c7 8fbe 30cb 03be 27e0 ecbd 9563 b73e
00000180: 46f8 703d 8d97 2d3d 2db9 d03d b3a9 6bbd
00000190: e099 9abe f733 583d f31f d03d 2ed0 0abd
000001a0: fac1 543d 3eb4 033c 65fb 0dbe b224 e3bd
000001b0: 87dd 843d e410 bdbd 1544 48bd f294 bcbc
000001c0: eda4 0dbd efc8 803d 1199 00be a48f 02be
000001d0: ee35 45bd f10f 95be ddc7 a73d a562 1bbd
000001e0: 7170 20be 1c49 a4bc 78aa b53d 46e0 2f3d
000001f0: 8842 b53d a6c4 c73c af2f 723d 0633 6f3d
00000200: 5974 2ebe 5253 003e 938d b03d 8dff e3bc
00000210: bfae 15be bf1e 67bc f6e4 2f3e 7867 233d
00000220: 9c9c 41be be50 293c ac66 bc3c c43b fdbc
00000230: a2a7 1bbb dab9 5bbe d3a1 cbbd 3af3 85bd
00000240: df16 dcbc 51a5 38be b130 51bd e714 4cbd
00000250: 8ea0 2b3e 110d 07be f1e8 063d 8f43 dc3d
00000260: 7845 b3bd 6b51 de3d 1b39 35bb 38d6 1f3e
00000270: 962e cabc 49c2 9a3d f7a6 0cbe 5e33 053e
00000280: 105c 683d 7ab5 ac3d b852 913d 7c6e e63c
00000290: 9f4d 84bd f593 26bc 74f1 fe3d c108 92bc
000002a0: 79b2 16bd 41d7 5ebe 8ede 293e 5076 943d
000002b0: b2d2 043d 9e7f 72bd ef0b 513d 009b 6abc
000002c0: 51cf fabd 84f1 283c 2201 efbd cc10 91bd
000002d0: d43b 833d 9b54 dc3d 98c1 113b 71a2 133d
000002e0: e128 acbd e487 34bb ac9f 353d 3fc1 ddbd
000002f0: 3d41 863d 0122 573d 414d 183e 0dac 6abe
00000300: b163 9fbd 1f83 de3d 4662 563e 1235 a23d
00000310: 383a 0abe 9bee 003a 5d7c 13be 2770 e3bd
00000320: d6dc 723d 33f6 b7bd 33ce 863d 0b96 c5bd
00000330: 47ca 8b3e b0bc 213c 75c0 5cbd 95c9 bf3d
00000340: 7d98 2d3d 2034 42bd 9856 f3bd 1bd0 373c
00000350: 1957 b23b 0351 12be fa88 d63b efb8 81bd
00000360: e387 64bd 17bc 443e 838f 4d3e 4970 9c3c
00000370: 69e9 4d3e 6e8c 0c3d d46f ee3d e8c6 76be
00000380: daeb bf3d d561 bebd a89b 0fbe 7c19 9fbd
00000390: b0d1 0d3e 4107 643b e64f 5cbd ec47 62bd
000003a0: e8aa 293d a5e3 0a3e 8fe1 0abe 3d63 6bbd
000003b0: 2334 30be b8d7 14bd 6709 10be 1155 2b3d
000003c0: caff 9fbc a8a0 f9bd 5c17 933d ed9d f6bc
000003d0: 9741 dabc acff 4ebc 6d91 74bd 05b0 90bb
000003e0: 8e7d b43c 15ac a0bd 5d99 0dbe c068 3f3c
000003f0: c07e 03be 1d07 bdbd e11b 09be 7e7d 9c3e

layer_2.lin.bias f4 [32]
0.054354478 -0.027143022 -0.090224855 -0.00082629186 -0.06397846 -0.055028934 -0.057322767 -0.061386038
-0.022935899 -0.026961904 -0.01792209 0.08305312 0.087951265 0.04367976 0.05283851 0.023025444
-0.020345848 -0.05086045 -0.10032156 -0.071774095 0.01937719 -0.040202647 -0.032085422 0.054479837
-0.00086641597 0.027159931 -0.03703117 -0.0027037535 -0.051843084 0.048037775 -0.0875479 -0.11069461
00000000: cda2 5e3d 0b5b debc cfc7 b8bd 829b 58ba
00000010: 2407 83bd 0566 61bd 47cb 6abd ed6f 7bbd
00000020: 11e4 bbbc 36df dcbc 59d1 92bc c117 aa3d
00000030: cb1f b43d 8ce9 323d 326d 583d db9f bc3c
00000040: 56ac a6bc 0c53 50bd 6475 cdbd 4cfe 92bd
00000050: eabc 9e3c 88ab 24bd 016c 03bd 4026 5f3d
00000060: 3120 63ba 817e de3c ffad 17bd 7531 31bb
00000070: 6a59 54bd 42c3 443d 504c b3bd dbb3 e2bd

layer_3.lin.weight f4 [32, 64]
0.040691398 -0.1018142 0.19904171 -0.011186024 0.05045763 0.03021129 -0.013004236 0.021116827
-0.13040116 0.12444976 0.111119166 0.08767271 0.10524173 -0.0150925275 0.11581368 -0.20164996
-0.020934183 0.03542523 -0.12919481 0.08379734 0.19451854 -0.1537117 -0.19229 -0.019865943
0.005912165 0.12068804 -0.0036297177 0.19027278 0.054998737 -0.020795044 0.053990908 -0.020247217
0.22693199 -0.14505501 -0.22813699 0.20091578 -0.1490808 0.10036035 0.037825033 0.11202946
0.051105656 -0.10879893 -0.12380755 0.19293715 -0.11979659 0.0060065472 0.18027546 -0.045681782
0.067973875 -0.053816337 -0.058411513 -0.16237402 -0.07716305 0.14487152 0.25979614 0.15807807
0.15768912 -0.12760168 0.104049094 -0.28219602 0.08658169 0.0120820245 -0.06555768 0.17111507
-0.14740203 0.069533214 -0.14624381 -0.0059737856 0.053664498 -0.10096442 0.19469155 0.060286146
0.00011668815 0.1897771 0.051761404 -0.03479851 -0.16848353 -0.08471382 -0.26148242 -0.21882671
-0.09930596 0.17072277 -0.0025390547 -0.02425786 -0.08531931 -0.03679936 0.15411438 0.17355646
0.05631344 -0.010700429 -0.15143888 -0.0874741 -0.003861918 0.08710219 0.038591046 -0.09166639
-0.024085984 0.068160996 0.116337 -0.16521575 -0.047947884 0.10325037 0.22239037 -0.025180062
0.015845794 -0.16327167 -0.10102192 -0.018893788 0.18508492 0.13302413 -0.09792844 0.12665035
-0.055218354 0.040561948 0.11612665 -0.083509214 0.21206105 -0.061890874 -0.19616221 -0.01836518
0.0037632678 0.2550904 0.048991848 0.17522329 -0.06918539 0.063356526 0.17111269 -0.09225481
-0.08940154 -0.21657613 0.04824241 -0.17633949 0.019971736 -0.28417078 0.14797479 0.08946342
-0.05653224 0.03615554 0.15456112 0.0860763 -0.06596484 0.035872478 0.0030190195 0.098596916
-0.16821155 0.0052491487 0.035740044 -0.027413206 -0.018681893 0.073885605 -0.096872486 -0.06678945
-0.06995778 -0.029806854 -0.0470155 -0.016354233 0.10253627 0.0727994 -0.06946027 0.09181433
0.17596644 0.016023021 -0.013297682 0.02239812 0.009986252 0.21007872 0.023747643 0.03197752
0.11637515 -0.10678793 -0.18383771 -0.13393925 -0.039518345 0.021238225 -0.118466906 -0.02450891
-0.037812393 -0.028449493 -0.014928268 -0.13761057 -0.04411179 0.06727633 -0.13501461 0.08534805
0.10381547 -0.027172282 0.11092431 0.087770775 0.012565561 -0.042655736 0.15547815 0.061171167
0.00401861 -0.040396158 -0.18005197 0.1792747 -0.08908412 -0.08290652 -0.037607376 -0.04728053
-0.04470929 -0.16977368 0.108254924 -0.12491752 -0.0092954505 0.12289873 -0.22297084 0.008062862
-0.075303555 0.07967082 -0.06315666 -0.063891314 -0.15864368 0.02037327 0.20271027 -0.13793197
0.090851106 -0.20940594 0.029133823 -0.14800254 0.0373472 0.1842056 -0.05552103 0.038977716
0.056811754 0.057281114 -0.03715471 -0.068011574 -0.12571871 0.041369222 -0.12718095 0.02400317
-0.00047625924 -0.0688732 -0.020599088 -0.017397588 0.067657895 -0.06824595 -0.07604181 0.034792818
0.039123222 -0.003530951 0.050655138 -0.010299953 0.16358192 -0.032249156 -0.13817543 0.19004887
0.017550286 0.010204308 0.04842938 0.18073836 -0.18316524 0.15034723 0.12890112 -0.04671679
00000000: 06ac 263d f783 d0bd 97d1 4b3e 9645 37bc
00000010: a9ac 4e3d ab7d f73c b80f 55bc 32fd ac3c
00000020: e287 05be 84df fe3d 7292 e33d c08d b33d
00000030: fa88 d73d a646 77bc b92f ed3d 547d 4ebe
00000040: 2a7e abbc 0c1a 113d a54b 04be f19d ab3d
00000050: de2f 473e 9a66 1dbe abe7 44be e7bd a2bc
00000060: d6ba c13b 4b2b f73d 8fe0 6dbb ded6 423e
00000070: 5b46 613d 5e5a aabc 9225 5d3d 7edd a5bc
00000080: dc60 683e 4d89 14be be9c 69be debc 4d3e
00000090: a3a8 18be ba89 cd3d 6cee 1a3d b46f e53d
000000a0: 2a54 513d f9d1 debd d08e fdbd 5191 453e
000000b0: ea57 f5bd 92d2 c43b 219a 383e d21c 3bbd
000000c0: e335 8b3d 856e 5cbd e940 6fbd 6045 26be
000000d0: a907 9ebd 3359 143e 0004 853e 38df 213e
000000e0: 4279 213e 04aa 02be b117 d53d ff7b 90be
000000f0: be51 b13d aff3 453c 1b43 86bd ca38 2f3e
00000100: 8ff0 16be 6e67 8e3d f0c0 15be bfbf c3bb
00000110: 4ecf 5b3d 6fc6 cebd 395d 473e 9bee 763d
00000120: 79b6 f438 ee54 423e c403 543d e288 0ebd
00000130: f286 2cbe 707e adbd 06e1 85be 1c14 60be
00000140: ec60 cbbd f3d1 2e3e 4566 26bb 6bb8 c6bc
00000150: e4bb aebd edba 16bd 29d0 1d3e c9b8 313e
00000160: eca8 663d da50 2fbc cb12 1bbe 9f25 b3bd
00000170: 3c18 7dbb a262 b23d a511 1e3d 97bb bbbd
00000180: f84f c5bc fe97 8b3d 1842 ee3d 512e 29be
00000190: 0065 44bd ee74 d33d 4dba 633e 6b46 cebc
000001a0: 0acf 813c b030 27be 95e4 cebd 25c7 9abc
000001b0: e786 3d3e 7a37 083e b58e c8bd a1b0 013e
000001c0: a42c 62bd 4924 263d cfd3 ed3d e106 abbd
000001d0: 8826 593e 4981 7dbd bfde 48be 9372 96bc
000001e0: 28a1 763b 359b 823e adab 483d bc6d 333e
000001f0: 12b1 8dbd 11c1 813d 2a38 2f3e 17f0 bcbd
00000200: 2818 b7bd 22c6 5dbe d599 453d 5792 34be
00000210: c49b a33c d57e 91be b486 173e 9938 b73d
00000220: 5a8e 67bd d517 143d 4545 1e3e c548 b03d
00000230: 9318 87bd 05ef 123d beda 453b 2eed c93d
00000240: a63f 2cbe 0d01 ac3b 2764 123d a991 e0bc
00000250: c50a 99bc 5651 973d 1565 c6bd e8c8 88bd
00000260: 0646 8fbd 812d f4bc 5393 40bd 50f9 85bc
00000270: 89fe d13d da17 953d 3041 8ebd 2709 bc3d
00000280: 8c30 343e b642 833c 85de 59bc 437c b73c
00000290: 609d 233c e01e 573e 6b8a c23c dcfa 023d
000002a0: 1856 ee3d a1b3 dabd f43f 3cbe 5f27 09be
000002b0: fddd 21bd c9fb ad3c c79e f2bd e9c6 c8bc
000002c0: 2be1 1abd e90e e9bc b295 74bc c9e9 0cbe
000002d0: 90ae 34bd 2cc8 893d 4541 0abe f5ca ae3d
000002e0: 359d d43d 6898 debc 492c e33d 2ac1 b33d
000002f0: c8df 4d3c c8b7 2ebd aa35 1f3e 9e8e 7a3d
00000300: 8bae 833b 7176 25bd 8b5f 38be c993 373e
00000310: bc71 b6bd e5ca a9bd 310a 1abd 3ba9 41bd
00000320: 1721 37bd 27d9 2dbe c2b4 dd3d c2d4 ffbd
00000330: f24b 18bc 54b2 fb3d 7852 64be 181a 043c
00000340: c038 9abd 742a a33d 4758 81bd 73d9 82bd
00000350: 7d73 22be d8e5 a63c 4893 4f3e 0a3e 0dbe
00000360: 2510 ba3d 836e 56be 0eaa ee3c fa8d 17be
00000370: 61f9 183d 65a0 3c3e 056a 63bd 19a7 1f3d
00000380: 71b3 683d 9a9f 6a3d 8a2f 18bd a749 8bbd
00000390: 68bc 00be c672 293d b93b 02be 4ca2 c43c
000003a0: 6fb2 f9b9 640d 8dbd 6bbf a8bc 6385 8ebc
000003b0: 3990 8a3d 88c4 8bbd cfbb 9bbd ea82 0e3d
000003c0: ac3f 203d 8767 67bb c37b 4f3d 22c1 28bc
000003d0: 0582 273e b117 04bd dc7d 0dbe 2c9c 423e
000003e0: 9ec5 8f3c f82f 273c e35d 463d 7a13 393e
000003f0: ab8f 3bbe a0f4 193e a8fe 033e 1b5a 3fbd

layer_3.lin.bias f4 [32]
-0.0004167357 0.03203112 0.07852915 -0.022806454 0.04139865 0.058945198 0.081017785 -0.05745667
0.07126759 0.0028155572 0.025017915 0.027031783 0.06330356 0.014391064 -0.089805275 -0.010372966
0.0028099022 0.0053525385 0.000985269 0.011328624 0.08504814 0.07713005 0.024921255 0.0022933318
0.03585063 0.00029302796 -0.05342847 0.090091795 0.044503465 0.05391611 0.024900082 -0.03655824
00000000: 527d dab9 1033 033d e4d3 a03d 9ad4 babc
00000010: a191 293d 8570 713d a7ec a53d af57 6bbd
00000020: bef4 913d 3685 383b 5ff2 cc3c c271 dd3c
00000030: 4ca5 813d 7fc8 6b3c d4eb b7bd 5ff3 29bc
00000040: 5626 383b 5964 af3b 2424 813a b19b 393c
00000050: b82d ae3d 5cf6 9d3d a927 cc3c b94b 163b
00000060: 1cd8 123d 8ca1 9939 d0d7 5abd 0c82 b83d
00000070: 4449 363d 24d7 5c3d 42fb cb3c 18be 15bd

layer_4.lin.weight f4 [32, 64]
0.07241717 -0.027760161 0.03689271 -0.1579195 -0.39098358 0.118843265 -0.004747728 -0.17946452
-0.005078613 0.030484356 -0.079251006 -0.0752275 0.021145092 0.024931036 -0.0086083235 -0.19725648
-0.15394527 0.07086042 0.0041790064 0.023871044 0.03637738 -0.0498094 0.014788502 -0.16593237
0.009608297 0.13618496 0.11421309 -0.0017141056 -0.08867828 -0.10789776 -0.044799406 -0.13342465
-0.14836447 0.15874341 0.022887716 0.06748974 0.02261003 0.089797705 -0.07093944 0.070419334
0.09813358 0.030387934 -0.18145068 -0.067161895 -0.19084916 0.010063311 -0.008792273 0.20393345
-0.05262151 0.014744025 -0.14859955 0.00024877544 0.09300567 0.0017457965 -0.07240124 0.093181476
0.081072375 -0.1483059 -0.17013639 -0.15721682 -0.13422963 0.14215279 0.07893864 -0.03862981
0.13489594 -0.1436699 -0.12931368 -0.10820661 -0.0035850813 0.043914612 0.12765741 0.017672619
-0.18289438 -0.07190958 -0.001704593 0.09941927 0.19234592 -0.10617682 -0.030893447 0.092868194
-0.04759644 0.087434016 -0.15333472 -0.066763215 -0.07204706 -0.036767587 -0.035139497 0.0360356
-0.09123543 -0.10546656 -0.21762197 -0.05946922 0.08165065 0.01889939 0.16570109 -0.073919736
0.056690674 0.07101994 -0.004656055 -0.17337772 -0.1915418 0.02911531 0.081504785 -0.14089233
-0.045387432 -0.0055466034 -0.14527933 -0.104200274 -0.04733652 0.11183841 0.06726263 -0.19850141
-0.083784856 0.12869354 -0.11078417 -0.14653856 -0.01665209 0.024158137 0.027427107 0.07564052
0.16211647 -0.16461973 0.010322473 -0.012251233 -0.11306001 -0.082167245 0.029443081 0.122442715
-0.06107652 0.13816775 -0.087936796 0.17398626 -0.017994426 -0.14353292 -0.14698191 -0.06503478
-0.03333309 0.10514864 -0.0013327289 0.0061536324 0.10372318 0.00369998 -0.049874917 0.07436936
-0.15467146 0.09238082 0.06894522 -0.12315649 -0.035711534 0.056787938 -0.0056400583 0.11224037
0.004481332 -0.18078968 0.117603555 -0.0102073345 0.021059927 0.04524288 0.009377809 0.07870735
-0.05671203 -0.13315633 -0.03868805 -1.3110793e-05 0.14451315 0.04440374 -0.069164306 0.07453766
-0.08271885 -0.06880332 0.110624544 0.041006606 -0.0036931718 -0.078613624 0.006170434 0.10132487
0.118506774 0.07095384 -0.0818126 0.100287415 -0.10803749 -0.040184207 -0.14417727 0.2114175
-0.107736304 0.017452009 0.0582631 0.10024277 0.011735938 0.112942465 -0.14700629 0.08588413
-0.024033425 -0.12074468 -0.15358686 0.018278144 -0.02812403 -0.027989844 0.120925225 0.087004796
0.1591218 -0.12547043 -0.0060394537 0.04929615 0.040959142 0.10705572 0.07774522 -0.1714431
0.18038669 0.021526838 0.07277088 0.14528811 0.12568928 0.018765986 0.08022084 0.09855349
-0.114590585 0.095142566 -0.065605424 0.050167654 0.12648523 -0.17934632 -0.13299836 0.106484406
0.07448576 0.1516623 0.09286096 0.029836334 -0.032123655 0.10636351 -0.052029546 -0.0020336963
0.038804807 0.16821903 -0.03237491 -0.13324544 0.026494736 0.00077918853 0.1124363 -0.020001557
-0.1330785 0.023735547 0.06369341 -0.11987977 -0.0043542683 -0.02580628 -0.036936518 -0.11339288
0.22525264 -0.057230428 0.055118397 -0.015715595 -0.10765317 -0.09710612 -0.06522235 0.103609815
00000000: 744f 943d 4769 e3bc cf1c 173d a6b5 21be
00000010: 002f c8be 1964 f33d d492 9bbb 8cc5 37be
00000020: 7e6a a6bb 54ba f93c 5a4e a2bd e010 9abd
00000030: 7938 ad3c 2c3c cc3c ed09 0dbc 9afd 49be
00000040: d4a3 1dbe 451f 913d 0cf0 883b 358d c33c
00000050: 7300 153d f104 4cbd 794b 723c 2dea 29be
00000060: 1e6c 1d3c 1274 0b3e 8de8 e93d d7ab e0ba
00000070: f59c b5bd 80f9 dcbd 957f 37bd 79a0 08be
00000080: dbec 17be a28d 223e 057f bb3c 1038 8a3d
00000090: ab38 b93c dce7 b73d b248 91bd 0338 903d
000000a0: 42fa c83d 1ef0 f83c 35ce 39be 2d8c 89bd
000000b0: f66d 43be 96e0 243c 770d 10bc eed3 503e
000000c0: a789 57bd ec90 713c 7b2a 18be 136e 8239
000000d0: c279 be3d 36d3 e43a 1a47 94bd eed5 be3d
000000e0: 4609 a63d 80dd 17be 3c38 2ebe 72fd 20be
000000f0: 7e73 09be 8090 113e 95aa a13d 4b3a 1ebd
00000100: 2922 0a3e 341e 13be ce6a 04be 6d9b ddbd
00000110: aff3 6abb cfdf 333d a0b8 023e 2bc6 903c
00000120: aa48 3bbe 5445 93bd a66c dfba 559c cb3d
00000130: 54f6 443e 3c73 d9bd 4114 fdbc ae31 be3d
00000140: 7cf4 42bd 9b10 b33d c703 1dbe 27bb 88bd
00000150: 698d 93bd 9c99 16bd 6fee 0fbd 119a 133d
00000160: a4d9 babd dafe d7bd 4bd8 5ebe ff95 73bd
00000170: 7538 a73d e5d2 9a3c 8cad 293e 3b63 97bd
00000180: 7b34 683d e772 913d d291 98bb ee89 31be
00000190: 8923 44be 3b83 ee3c fbeb a63d 1446 10be
000001a0: 2ce8 39bd 48c0 b5bb 1bc4 14be f466 d5bd
000001b0: f0e3 41bd 890b e53d fdc0 893d f443 4bbe
000001c0: 6597 abbd 3dc8 033e d0e2 e2bd 340e 16be
000001d0: f769 88bc 49e7 c53c d0ae e03c 6be9 9a3d
000001e0: dc01 263e 1392 28be 971f 293c 65b9 48bc
000001f0: 028c e7bd 4d47 a8bd 9e32 f13c 3fc3 fa3d
00000200: 5f2b 7abd d97b 0d3e 3518 b4bd 7429 323e
00000210: 0c69 93bc 4bfa 12be 6d82 16be f430 85bd
00000220: 4788 08bd 2c58 d73d f6ae aeba 69a4 c93b
00000230: d26c d43d 5d7b 723b a449 4cbd f74e 983d
00000240: 3262 1ebe 2832 bd3d 2733 8d3d 7839 fcbd
00000250: 4246 12bd 789a 683d 3dd0 b8bb 47de e53d
00000260: 23d8 923b ee20 39be 22da f03d aa3c 27bc
00000270: de85 ac3c 9950 393d 62a5 193c 5231 a13d
00000280: e04a 68bd 225a 08be 5c77 1ebd 6df6 5bb7
00000290: 41fb 133e b2e0 353d 04a6 8dbd 33a7 983d
000002a0: 8068 a9bd c1e8 8cbd 1f8f e23d 8bf6 273d
000002b0: 2409 72bb 2e00 a1bd 5a31 ca3b 6a83 cf3d
000002c0: aeb3 f23d 3f50 913d 5d8d a7bd 7d63 cd3d
000002d0: c242 ddbd 3298 24bd 35a3 13be d47d 583e
000002e0: daa4 dcbd 84f7 8e3c 4aa5 6e3d 154c cd3d
000002f0: 1748 403c 614e e73d d188 16be 05e4 af3d
00000300: bfe1 c4bc fd48 f7bd e045 1dbe 0cbc 953c
00000310: 5e64 e6bc f54a e5bc a5a7 f73d 922f b23d
00000320: d3f0 223e 527b 00be 9ce6 c5bb c3ea 493d
00000330: c6c4 273d 0840 db3d e338 9f3d c88e 2fbe
00000340: 4ab7 383e 0d59 b03c e608 953d 68c6 143e
00000350: b1b4 003e 20bb 993c d34a a43d 6ad6 c93d
00000360: 78ae eabd 1bda c23d 235c 86bd 997c 4d3d
00000370: 5885 013e 90a6 37be b930 08be 7f14 da3d
00000380: fd8b 983d 5d4d 1b3e e32d be3d 546b f43c
00000390: 1894 03bd 1dd5 d93d ef1c 55bd c347 05bb
000003a0: caf1 1e3d 9c41 2c3e 8e9b 04bd 7e71 08be
000003b0: 7d0b d93c 7542 4c3a 0145 e63d 4eda a3bc
000003c0: bb45 08be 0d71 c23c b171 823d 8683 f5bd
000003d0: 40ae 8ebb b167 d3bc bf4a 17bd 873a e8bd
000003e0: a1a8 663e 746a 6abd d4c3 613d febd 80bc
000003f0: 4479 dcbd 93df c6bd 4c93 85bd 6231 d43d

layer_4.lin.bias f4 [32]
0.022100825 -0.056243002 0.07007996 -0.036354348 -0.042776972 -0.021326069 0.017306935 -0.021975255
-0.07614015 -0.018112468 0.05006477 0.044333797 -0.10919597 0.0005604497 0.013506992 0.073268585
0.048071146 0.07745097 0.044550676 -0.04557968 -0.023141243 -0.016405873 0.00038346357 -0.064507805
0.09427764 -0.04785402 0.086941436 0.06438568 0.050220802 0.06997452 -0.030001167 0.044683717
00000000: ca0c b53c 105f 66bd 1586 8f3d 4ce8 14bd
00000010: e836 2fbd 02b4 aebc 46c7 8d3c 7305 b4bc
00000020: 5eef 9bbd 9960 94bc b710 4d3d 5b97 353d
00000030: 23a2 dfbd 25eb 123a 6e4c 5d3c d70d 963d
00000040: 40e6 443d 9d9e 9e3d c57a 363d c2b1 3abd
00000050: b492 bdbc 9c65 86bc 9c0b c939 ab1c 84bd
00000060: a314 c13d 9402 44bd 5a0e b23d a4dc 833d
00000070: 54b4 4d3d cd4e 8f3d 02c5 f5bc 4606 373d

layer_5.lin.weight f4 [32, 64]
-0.16246267 -0.08701517 0.04373731 0.09016384 -0.05471034 -0.16974409 -0.09699701 -0.1018197
0.019938946 0.102281354 -0.048790082 0.11080807 -0.09905154 -0.25896755 0.25384682 -0.033641554
-0.11833147 0.035685044 -0.006612528 -0.09337497 -0.027706698 -0.08825649 0.29985327 0.068403244
0.1285115 -0.031629056 -0.107332915 -0.31907207 0.12863737 -0.25694036 0.0213312 -0.18028152
0.03964819 0.0671544 -0.06266146 -0.123761445 -0.008485501 0.057315703 0.004513411 0.07711952
-0.07688815 -0.0075609204 0.10489662 -0.10613077 -0.051237904 0.046788625 -0.19050479 -0.01218226
0.028921705 0.050125677 0.05222659 0.2570242 0.17774807 0.15348966 -0.1578943 -0.20912406
0.018524826 0.13264741 0.22579142 0.24334092 -0.08744889 0.18199353 -0.008252318 0.18279743
0.08636564 -0.1002706 -0.07325717 0.12303542 -0.025286654 0.19824147 0.031180328 0.066271365
0.0854828 -0.120777614 0.059376407 0.05265052 -0.0118764825 0.11705938 -0.18651135 0.0860348
0.11946847 -0.06105687 -0.05515947 0.15915936 0.060243323 0.14600019 0.008648803 -0.047910154
0.048067957 0.063740455 0.12265608 0.07397222 0.072779775 -0.005634056 0.022099977 0.030770183
-0.05802101 0.06426267 0.047141902 -0.10695944 0.2073555 -0.032928545 -0.04801198 0.028276406
0.028207242 -0.069725186 -0.050010476 0.099154726 0.10292748 0.0476084 0.15330611 -0.08440891
-0.0135246115 -0.11064609 0.028403433 0.08346671 -0.1009851 -0.022361739 0.055721793 -0.015678223
0.033153374 0.072560646 -0.045913488 -0.029514752 0.04953425 -0.061500903 -0.059939962 -0.09133388
-0.14221504 0.17910041 -0.0020062863 0.14338748 0.13304663 0.055750962 -0.095550746 0.023760041
-0.18353896 0.14868769 0.005025315 -0.111848496 -0.12819418 -0.016660351 -0.06368358 -0.0031755674
0.08413637 -0.08970415 -0.13277774 -0.12928006 -0.033804405 -0.101905756 -0.1830792 -0.08713591
0.02604215 0.041377872 -0.040638648 0.09336463 0.09685771 -0.13961738 0.14148605 0.14400643
0.13926516 -0.0912056 -0.03699092 -0.03669752 -0.14961936 -0.01077959 -0.032974817 0.12890677
-0.15023509 0.0007417517 0.05188135 -0.07359244 0.06925349 0.1072214 0.05632419 -0.030209882
0.027979625 0.08944363 -0.02060086 -0.039935324 0.08970252 -0.0915306 -0.1889539 -0.15739308
0.12964687 -0.039953135 0.07855929 0.06716038 -0.05395212 0.09726017 -0.062402923 -0.1726002
-0.08186522 0.0023341593 -0.18578818 0.1660674 -0.10881095 -0.05173346 0.16462246 0.036841314
0.036520652 -0.062534906 0.06433561 -0.12256903 -0.20376337 0.10156737 0.024514016 0.078201346
0.39369735 0.14117455 0.09632383 -0.075166754 0.116200015 0.1047485 -0.16799182 -0.02115036
0.11444195 -0.088884234 0.12139512 -0.30689198 -0.05661644 -0.042133905 0.20986338 -0.023063637
0.16983278 -0.061168287 0.12848914 -0.084786035 0.1112836 0.11579789 -0.095621325 -0.037546843
0.033041608 -0.015858551 -0.07746117 -0.050523777 0.027201533 -0.034157407 0.15986618 -0.064109184
-0.052114543 0.100534365 0.15164389 -0.103404075 -0.07401026 -0.0051702396 0.081418164 0.15864517
-0.16979268 -0.0073977 0.011417737 0.19210333 0.106450506 0.014061641 -0.04597788 -0.028569466
00000000: 9d5c 26be 0235 b2bd e525 333d d2a7 b83d
00000010: f317 60bd 65d1 2dbe 5ea6 c6bd d986 d0bd
00000020: 0057 a33c e378 d13d 1cd8 47bd 57ef e23d
00000030: 89db cabd 6597 84be 36f8 813e bacb 09bd
00000040: c557 f2bd 7b2a 123d e8ad d8bb 603b bfbd
00000050: 28f9 e2bc d2bf b4bd 5e86 993e 0017 8c3d
00000060: 8598 033e 788d 01bd 5cd1 dbbd 6a5d a3be
00000070: 84b9 033e b08d 83be c5be ae3c b89b 38be
00000080: 2466 223d 3f88 893d a754 80bd a476 fdbd
00000090: c506 0bbc dfc3 6a3d 3ce5 933b d7f0 9d3d
000000a0: 8977 9dbd 99c1 f7bb 0ad4 d63d 175b d9bd
000000b0: d6de 51bd 6ea5 3f3d b013 43be 1a98 47bc
000000c0: 36ed ec3c 9550 4d3d 8deb 553d ad98 833e
000000d0: 9703 363e 652c 1d3e 0baf 21be 9e24 56be
000000e0: 60c1 973c b9d4 073e de35 673e 5d2e 793e
000000f0: 6718 b3bd 835c 3a3e bb34 07bc 402f 3b3e
00000100: 78e0 b03d ac5a cdbd db07 96bd fff9 fb3d
00000110: f525 cfbc d0ff 4a3e e36d ff3c 48b9 873d
00000120: 9b11 af3d 415a f7bd ad34 733d 12a8 573d
00000130: 9495 42bc d4bc ef3d d5fc 3ebe 0333 b03d
00000140: e3ab f43d c516 7abd e5ee 61bd acfa 223e
00000150: b4c1 763d 1381 153e b6b3 0d3c 703d 44bd
00000160: e8e2 443d 5b8a 823d 1c33 fb3d bf7e 973d
00000170: 900d 953d e39d b8bb 030b b53c c011 fc3c
00000180: 70a7 6dbd 269c 833d de17 413d 8d0d dbbd
00000190: 0055 543e 15e0 06bd 36a8 44bd eca3 e73c
000001a0: e012 e73c 14cc 8ebd c9d7 4cbd a211 cb3d
000001b0: a5cb d23d 0701 433d 47fc 1c3e 94de acbd
000001c0: 5596 5dbc 6b9a e2bd 51ae e83c 98f0 aa3d
000001d0: 47d1 cebd f72f b7bc 893c 643d 9e6f 80bc
000001e0: d5cb 073d ad9a 943d c80f 3cbd ecc8 f1bc
000001f0: 6de4 4a3d 5fe8 7bbd 9b83 75bd 420d bbbd
00000200: d2a0 11be 1966 373e e67b 03bb 2bd4 123e
00000210: 603d 083e 1f5b 643d 1cb0 c3bd 6ba4 c23c
00000220: a3f1 3bbe 9641 183e 66ab a43b d310 e5bd
00000230: 5645 03be 4a7b 88bc 896c 82bd 2e1d 50bb
00000240: b04f ac3d cfb6 b7bd e3f6 07be fe61 04be
00000250: 7d76 0abd f7b3 d0bd 1d79 3bbe 5074 b2bd
00000260: 5956 d53c d87b 293d b674 26bd f535 bf3d
00000270: 565d c63d dcf7 0ebe b8e1 103e 6c76 133e
00000280: 879b 0e3e 00ca babd ca83 17bd 2450 16bd
00000290: d135 19be e19c 30bc 9a10 07bd 2300 043e
000002a0: 3ad7 19be 1d72 423a 8a81 543d a2b7 96bd
000002b0: c6d4 8d3d e596 db3d 32b4 663d b77a f7bc
000002c0: 8735 e53c 392e b73d 22c3 a8bc 3993 23bd
000002d0: f4b5 b73d 6574 bbbd 227d 41be a72b 21be
000002e0: 26c2 043e e6a5 23bd b1e3 a03d 628b 893d
000002f0: e6fc 5cbd 5730 c73d 359a 7fbd 1bbe 30be
00000300: f4a8 a7bd b2f8 183b 423f 3ebe 930d 2a3e
00000310: 46d8 debd 77e6 53bd ca92 283e ebe6 163d
00000320: ae96 153d 4d12 80bd 63c2 833d 7905 fbbd
00000330: 58a7 50be 8e02 d03d 9ed1 c83c 0728 a03d
00000340: b392 c93e 1090 103e 6e45 c53d 07f1 99bd
00000350: 46fa ed3d 6286 d63d 0c06 2cbe 8543 adbc
00000360: 8b60 ea3d f008 b6bd 019e f83d f220 9dbe
00000370: a4e6 67bd 9a94 2cbd 6de6 563e f4ef bcbc
00000380: a5e8 2d3e 998b 7abd a892 033e 4da4 adbd
00000390: a8e8 e33d 7227 ed3d 1dd5 c3bd b8ca 19bd
000003a0: a356 073d cbe9 81bc f6a3 9ebd 05f2 4ebd
000003b0: c0d5 de3c a3e8 0bbd f6b3 233e ad4b 83bd
000003c0: 0f76 55bd f6e4 cd3d 8948 1b3e 84c5 d3bd
000003d0: b192 97bd 1d6b a9bb 91be a63d e173 223e
000003e0: 22de 2dbe 6868 f2bb 7611 3b3c bcb6 443e
000003f0: b902 da3d cc62 663c 4d53 3cbd 830a eabc

layer_5.lin.bias f4 [32]
0.002391554 0.07869341 0.013739007 -0.014317076 -0.033915155 0.00016631979 -0.045468837 0.02370932
0.059492994 -0.019610165 0.07487943 -0.021564081 0.0014939123 0.06735697 -0.046786994 -0.0043501416
0.09317631 -0.07214378 0.008134787 0.04745033 -0.0060618226 -0.035690125 -0.014537131 -0.027644483
-0.06810981 -0.06493723 0.047436405 0.085171394 -0.004607393 0.03199681 0.03870647 0.101932965
00000000: 9ebb 1c3b 032a a13d 9219 613c 2b92 6abc
00000010: 9eea 0abd 2166 2e39 883d 3abd 0c3a c23c
00000020: edae 733d 7fa5 a0bc 635a 993d 28a7 b0bc
00000030: 61cf c33a 73f2 893d b8a3 3fbd a28b 8ebb
00000040: 39d3 be3d 1ec0 93bd c547 053c 475b 423d
00000050: 41a2 c6bb cf2f 12bd 262d 6ebc af76 e2bc
00000060: 287d 8bbd cffd 84bd ad4c 423d 576e ae3d
00000070: 9df9 96bb 160f 033d ad8a 1e3d 3bc2 d03d

layer_6.lin.weight f4 [32, 64]
0.023464197 0.08307745 0.020235103 0.15994605 -0.0038885546 -0.048466075 0.015709884 -0.14232872
0.09310283 0.08049062 0.038421515 0.056071162 0.0070076403 0.13792628 0.052332494 -0.2559317
-0.06697199 0.0718206 -0.159932 -0.19455643 -0.09565547 0.11704304 -0.07121475 0.14896454
-0.1034782 0.18348236 -0.061207518 0.0135327075 0.10039568 -0.096196555 -0.11379279 0.015110395
0.1447746 -0.091621906 -0.11772138 0.053831745 0.0010982262 -0.048232295 0.017696418 0.07155961
-0.029437792 -0.09174384 0.0012998532 0.14282143 0.10449667 -0.032253668 -0.032789096 0.06338821
0.043487113 -0.15653567 0.07582928 0.1364789 -0.16449629 -0.015809549 -0.025921041 -0.2073346
0.09510701 0.15488215 0.0662842 0.07955085 -0.1308722 -0.05563274 -0.0026742956 -0.1183759
0.2105241 -0.10686124 -0.043279722 -0.1532254 -0.008337505 0.11645108 -0.0927781 0.12947555
-0.12117856 -0.02183225 -0.04428863 0.12542723 -0.18560451 -0.07069407 -0.015308432 -0.101514705
-0.106728576 -0.006527857 0.03445094 -0.12244615 0.13143642 -0.10511851 -0.027648954 0.14052504
-0.1870589 -0.090559945 -0.14338124 -0.110404074 -0.10481079 0.067813076 -0.055573963 -0.13039443
0.121058084 0.10501033 0.13730802 -0.056564905 -0.11227627 -0.11115898 -0.07674676 -0.07221903
-0.04863988 -0.087150626 0.06831505 0.015990598 0.16698581 -0.033147525 0.20990129 0.00095361384
0.016977513 -0.038794376 -0.09411392 0.25006798 -0.13983698 -0.051315468 -0.18033952 -0.09840972
0.07139333 0.17767838 0.20818299 -0.0300131 0.15824805 -0.0854092 -0.13023996 0.06999073
-0.01976371 -0.06174606 0.15036927 -0.058330406 -0.0050472086 0.13023712 0.09986295 0.100938946
0.11575428 0.025252854 -0.08067527 -0.17104849 0.14014605 0.1518942 0.10890818 -0.2757019
-0.08058442 0.16786078 -0.055056114 -0.2106848 -0.10454561 -0.03104406 0.1239173 0.15344332
0.12458991 0.15561219 0.18615395 0.057845723 0.071330786 -0.29178843 -0.028902017 -0.092529126
0.16207352 0.0072731227 -0.12392477 0.17277002 -0.07475435 -0.19855265 0.058336273 -0.17811005
-0.060288887 -0.03312632 0.0029890186 0.18126665 -0.061271407 -0.20687191 -0.17140311 0.14884438
-0.08529322 -0.1581576 0.106611244 0.02484197 0.078583516 -0.07508119 -0.018076584 -0.019449487
0.07422969 -0.03998063 -0.24335569 -0.12833652 -0.12179201 0.08524725 -0.07019726 0.1839589
-0.0070538367 -0.060083035 0.207645 0.15074863 0.14082402 0.049650557 0.05237121 -0.08862792
0.26297343 -0.024323557 0.037527997 0.19977315 -0.07812614 0.07240273 -0.13355885 0.13674048
-0.101082556 0.0677992 -0.02945335 -0.038402524 -0.058269434 -0.11218268 -0.031084996 -0.16543777
0.17929281 0.06318896 0.09774195 0.10584809 0.13899547 0.07936782 0.039784253 0.31712222
-0.26522422 0.028505435 0.0111455945 0.11823284 -0.049948726 -0.084928 0.04754867 0.15656666
-0.1411639 0.08848949 0.051784545 0.08520423 -0.07268801 0.1010381 0.10693207 0.13242401
0.049229775 0.09930767 0.10895381 -0.021135038 0.117529534 -0.047740776 0.0021146198 0.2186205
-0.032274622 -0.056532126 -0.010365316 -0.14600907 0.041331023 0.101216696 -0.059800744 0.1421355
00000000: fd37 c03c 8324 aa3d 16c4 a53c e6c8 233e
00000010: 1fd7 7ebb 5d84 46bd 04b2 803c 9fbe 11be
00000020: b2ac be3d 44d8 a43d e15f 1d3d e0aa 653d
00000030: 59a0 e53b 8c3c 0d3e 995a 563d 7b09 83be
00000040: 9c28 89bd ae16 933d 37c5 23be cd39 47be
00000050: 04e7 c3bd 43b4 ef3d 0ad9 91bd 298a 183e
00000060: 61ec d3bd cde2 3b3e bcb4 7abd 4ab8 5d3c
00000070: 409c cd3d b302 c5bd 320c e9bd 9791 773c
00000080: cb3f 143e 44a4 bbbd e817 f1bd ad7e 5c3d
00000090: 5bf2 8f3a 3a8f 45bd 14f8 903c d88d 923d
000000a0: 8627 f1bc 32e4 bbbd d65f aa3a c83f 123e
000000b0: 5a02 d63d 6c1c 04bd dc4d 06bd aed1 813d
000000c0: 8b1f 323d e34a 20be 624c 9b3d 20c1 0b3e
000000d0: b771 28be 0783 81bc 5d58 d4bc 854f 54be
000000e0: 77c7 c23d 6d99 1e3e 03c0 873d 8eeb a23d
000000f0: 5d03 06be 28df 63bd 3c43 2fbb 106f f2bd
00000100: a193 573e 11da dabd 1446 31bd 1fe7 1cbe
00000110: 089a 08bc e77d ee3d 7202 bebd 3d95 043e
00000120: 772c f8bd 8cd9 b2bc ff67 35bd ff6f 003e
00000130: 1c0f 3ebe 0dc8 90bd 38d0 7abc f1e6 cfbd
00000140: 8394 dabd a2e7 d5bb 6e1c 0d3d 0cc5 fabd
00000150: 4597 063e 6048 d7bd 0f80 e2bc cce5 0f3e
00000160: 5e8c 3fbe 7e77 b9bd 88d2 12be 881b e2bd
00000170: 0aa7 d6bd 95e1 8a3d 86a1 63bd 1e86 05be
00000180: 4ded f73d a80f d73d 799a 0c3e 9ab0 67bd
00000190: 1af1 e5bd 52a7 e3bd 682d 9dbd 92e7 93bd
000001a0: 9c3a 47bd 077c b2bd c3e8 8b3d b7fe 823c
000001b0: 54fe 2a3e b3c5 07bd 5df0 563e f1fb 793a
000001c0: 6d14 8b3c dae6 1ebd cdbe c0bd e908 803e
000001d0: 6d31 0fbe 2b30 52bd ecaa 38be 098b c9bd
000001e0: ab36 923d 52f1 353e ec2d 553e 08de f5bc
000001f0: c70b 223e 05eb aebd a05d 05be 4d57 8f3d
00000200: 81e7 a1bc 70e9 7cbd 67fa 193e ddeb 6ebd
00000210: 0e63 a5bb e15c 053e f284 cc3d 14b9 ce3d
00000220: 9410 ed3d 13df ce3c 1339 a5bd 5627 2fbe
00000230: 7282 0f3e 278a 1b3e 400b df3d cd28 8dbe
00000240: 7209 a5bd b2e3 2b3e 8582 61bd c2bd 57be
00000250: 021c d6bd 1d50 febc 5ac8 fd3d 3f20 1d3e
00000260: ff28 ff3d cd58 1f3e 249f 3e3e a3ef 6c3d
00000270: e015 923d 4b65 95be ecc3 ecbc e97f bdbd
00000280: 9af6 253e 6053 ee3b 45cc fdbd a0ea 303e
00000290: cf18 99bd 6351 4bbe 04f2 6e3d 7b62 36be
000002a0: 7bf1 76bd 77af 07bd 69e3 433b f79d 393e
000002b0: baf7 7abd 3bd6 53be 4c84 2fbe a96a 183e
000002c0: 36ae aebd 11f4 21be ff56 da3d 6381 cb3c
000002d0: 65f0 a03d 2bc4 99bd 5815 94bc 8854 9fbc
000002e0: bc05 983d bbc2 23bd 3c32 79be a66a 03be
000002f0: 176e f9bd 1c96 ae3d 95c3 8fbd b95f 3c3e
00000300: df23 e7bb a119 76bd e4a0 543e d95d 1a3e
00000310: 2c34 103e 625e 4b3d 3283 563d 8e82 b5bd
00000320: 74a4 863e 3242 c7bc f5b6 193d 5591 4c3e
00000330: 9900 a0bd e247 943d a7c3 08be b205 0c3e
00000340: 5f04 cfbd 4fda 8a3d 2748 f1bc f74b 1dbd
00000350: eeab 6ebd 08c0 e5bd f6a5 febc 8568 29be
00000360: 8998 373e 3769 813d ee2c c83d e2c6 d83d
00000370: d454 0e3e 988b a23d d0f4 223d d85d a23e
00000380: 78cb 87be 3b84 e93c 039c 363c 0f24 f23d
00000390: 0997 4cbd bbee adbd 65c2 423d 0353 203e
000003a0: 458d 10be fa39 b53d 081c 543d 8e7f ae3d
000003b0: 74dd 94bd 10ed ce3d 33ff da3d 299a 073e
000003c0: 29a5 493d d261 cb3d 2d23 df3d 6323 adbc
000003d0: 53b3 f03d d58b 43bd 6f95 0a3b 0dde 5f3e
000003e0: 6532 04bd 3b8e 67bd 49d3 29bc 6783 15be
000003f0: b84a 293d b34a cf3d a0f1 74bd f88b 113e

layer_6.lin.bias f4 [32]
0.044653334 0.053990804 -0.0021086994 -0.052735187 -0.05615764 0.02530727 0.032952033 0.0068058837
0.03307944 0.053877283 -0.03616039 -0.004631121 -0.0869995 -0.032965634 -0.045384146 -0.0036867661
-0.05167348 -0.020270543 0.05294908 0.021427963 0.06606147 0.012715598 0.047688562 -0.01384969
0.024875768 -0.068251416 -0.06341054 -0.05709792 0.013667301 0.047676764 -0.013132117 0.017897997
00000000: 6ae6 363d 7625 5d3d 1b32 0abb da00 58bd
00000010: 8e05 66bd 3151 cf3c b6f8 063d e403 df3b
00000020: 4f7e 073d 6dae 5c3d eb1c 14bd a9c0 97bb
00000030: cb2c b2bd f906 07bd bae4 39bd ac9d 71bb
00000040: 92a7 53bd 690e a6bc 22e1 583d b289 af3c
00000050: 3c4b 873d 1555 503c 1555 433d cfe9 62bc
00000060: 44c8 cb3c 66c7 8bbd 63dd 81bd 82df 69bd
00000070: d1ec 5f3c b648 433d 1728 57bc d29e 923c
