training_runs/model_step6000.pt (torch, 108754 bytes, 24 tensors)

layer_0.lin.weight f4 [32, 64]
-0.06356021 0.06034922 0.14929736 0.0027646592 -0.07482889 0.009863661 0.015247757 -0.026464818
0.058365624 -0.12288073 0.04899021 0.04078764 -0.106465 -0.022649925 -0.014133947 -0.017123993
0.11722757 0.06938387 -0.16359708 -0.10373534 0.18164915 0.15264688 -0.07919105 -0.004277662
-0.13217597 0.07430043 0.15596677 -0.12509073 0.0068266396 0.03681162 0.062764324 0.118742436
0.056461837 0.12477148 -0.058308057 -0.17755277 0.08744724 -0.09180558 0.086872935 0.16267586
0.15050307 0.016683439 0.031512015 -0.23202859 -0.07837361 0.028026858 0.023266291 0.07868307
0.003397912 -0.1173711 0.11739977 0.1536884 0.04536098 -0.09700413 -0.050142694 -0.047666874
0.10051631 -0.16924877 -0.030776406 -0.01982456 0.023481304 -0.13161005 -0.026168656 -0.10655829
0.026309771 0.01256778 -0.050578598 0.032311045 -0.04241201 0.116974786 0.007892504 -0.088601016
-0.021045906 -0.0027943777 0.01568994 0.11163617 0.06785781 -0.07235041 0.06267917 -0.04696956
-0.12317793 0.05587915 0.031897355 -0.04494207 0.068717465 0.03405491 0.10297505 0.010694256
-0.004796103 -0.05837532 -0.0068854126 0.0072995517 0.022267612 0.14494987 -0.0021965257 0.034329392
0.22167699 0.13988172 -0.124255486 -0.25499535 0.12675291 0.011288549 -0.03396773 0.1494013
-0.04195506 0.09325925 -0.06100637 -0.18116435 -0.07468352 0.03153904 -0.07830966 0.09300581
-0.11543477 -0.057015836 0.084965944 -0.06250626 0.03957936 -0.07853205 0.00011572939 -0.010609279
0.16923583 0.13316442 -0.09435342 0.08931141 -0.16455133 -0.15053716 -0.107706845 -0.13432698
-0.104419194 -0.007764757 0.05107023 0.028101722 -0.06387182 0.04746761 0.107252896 -0.070772566
-0.052376196 -0.17115578 -0.002999408 0.10357985 0.07680229 0.12666258 0.17838107 -0.018512078
-0.05014846 -0.015638672 -0.008245689 0.0315383 0.031036196 -0.0051722163 -0.15180825 -0.025656369
-0.046006214 0.01365751 0.11486218 -0.065642826 0.14477105 0.013490803 0.036932904 -0.021684429
0.014563124 -0.123966426 -0.12630092 -0.047292486 -0.045467116 0.10392336 -0.094375774 -0.024892015
-0.17938805 0.042971887 0.07341839 0.0043618046 0.07956724 -0.058701437 -0.16269113 0.093835846
-0.10070475 -0.021267565 -0.014148411 -0.03532208 0.045269277 -0.03670307 0.26150262 0.051438157
-0.0044898884 0.09884279 -0.106364384 -0.005057356 -0.13194518 0.10915913 -0.03318429 0.05278075
-0.20091613 -0.055807825 -0.032626376 0.008661865 -0.057606783 0.022016305 -0.058037624 -0.06116355
0.062267967 0.07482211 -0.1140859 -0.09992266 -0.0024937587 0.047120593 -0.08498911 0.07890034
0.11465458 0.06077407 0.024992824 0.0048904344 0.03210262 -0.082892425 0.011419847 -0.076768644
-0.19793022 -0.1189549 0.1063011 -0.1006266 0.001712475 0.07770376 0.012794773 0.014218678
-0.030833708 -0.014750558 -0.15652521 -0.085360885 0.035890613 -0.036375795 -0.0027418074 0.12945117
-0.0020173113 0.17130768 0.035935264 -0.12485515 0.02188036 -0.052110054 -0.08006867 0.05597694
0.013122949 0.047923326 0.024846701 0.06688029 -0.044781543 -0.13914792 0.07744711 -0.060149875
0.033150397 -0.062107004 -0.16838214 -0.05713365 -0.0020348625 -0.10151574 -0.15490212 -0.07923524
00000000: db2b 82bd be30 773d 68e1 183e 492f 353b
00000010: e43f 99bd 319b 213c bad1 793c bfcc d8bc
00000020: cb10 6f3d e4a8 fbbd f5a9 483d f110 273d
00000030: 520a dabd 568c b9bc 1292 67bc 9e47 8cbc
00000040: 0215 f03d 2119 8e3d fe85 27be 3273 d4bd
00000050: 3c02 3a3e 774f 1c3e eb2e a2bd a12b 8cbb
00000060: 2359 07be d32a 983d c1b5 1f3e c917 00be
00000070: 01b2 df3b c8c7 163d 958a 803d 3c2f f33d
00000080: 8744 673d 3188 ff3d 6ed4 6ebd 65d0 35be
00000090: 8a17 b33d 9004 bcbd 70ea b13d 8094 263e
000000a0: 7a1d 1a3e b5ab 883c be12 013d e798 6dbe
000000b0: 5882 a0bd 9598 e53c f398 be3c 9724 a13d
000000c0: 81af 5e3b 4260 f0bd 4a6f f03d 7e60 1d3e
000000d0: 6fcc 393d 1aaa c6bd 6d62 4dbd 573e 43bd
000000e0: 7fdb cd3d 8d4f 2dbe cd1e fcbc 1e67 a2bc
000000f0: dd5b c03c c9c4 06be a65f d6bc 3c3b dabd
00000100: 9787 d73c 17e9 4d3c 812b 4fbd 9658 043d
00000110: 37b8 2dbd 7a90 ef3d 904f 013c 7374 b5bd
00000120: 7768 acbc e121 37bb 3088 803c 81a1 e43d
00000130: 09f9 8a3d 742c 94bd f05d 803d 2763 40bd
00000140: b644 fcbd 89e1 643d cda6 023d 2d15 38bd
00000150: bebb 8c3d 297d 0b3d 95e4 d23d f636 2f3c
00000160: a128 9dbb f61a 6fbd 079f e1bb 1431 ef3b
00000170: 916a b63c bd6d 143e 96f3 0fbb fa9c 0c3d
00000180: 4bff 623e 273d 0f3e a979 febd c08e 82be
00000190: 84cb 013e 9bf3 383c bf21 0bbd a8fc 183e
000001a0: 12d9 2bbd b5fe be3d d1e1 79bd 2683 39be
000001b0: acf3 98bd 152f 013d d160 a0bd d579 be3d
000001c0: 1169 ecbd 7089 69bd a002 ae3d 4803 80bd
000001d0: f81d 223d 69d5 a0bd beb3 f238 8bd2 2dbc
000001e0: 284c 2d3e 415c 083e 5e3c c1bd e7e8 b63d
000001f0: 2580 28be 6a26 1abe 6895 dcbd 038d 09be
00000200: bbd9 d5bd 816f febb 042f 513d 9535 e63c
00000210: 3bcf 82bd 666d 423d 68a7 db3d 35f1 90bd
00000220: 6c88 56bd 7643 2fbe b791 44bb ac21 d43d
00000230: 854a 9d3d d6b3 013e 87a9 363e a4a6 97bc
00000240: 7968 4dbd ac1c 80bc ed18 07bc 4e2e 013d
00000250: 9f3f fe3c b27b a9bb 9f73 1bbe 4e2d d2bc
00000260: 0371 3cbd c0c3 5f3c dd3c eb3d bf6f 86bd
00000270: dd3e 143e 8708 5d3c f546 173d 8ba3 b1bc
00000280: 2b9a 6e3c 1ce2 fdbd 0755 01be c4b5 41bd
00000290: ba3b 3abd c5d5 d43d 1648 c1bd 57ea cbbc
000002a0: 80b1 37be 4a03 303d 615c 963d 78ed 8e3b
000002b0: 26f4 a23d eb70 70bd 8198 26be 022d c03d
000002c0: 4b3e cebd 5139 aebc bdce 67bc e3ad 10bd
000002d0: 476c 393d f555 16bd ace3 853e d1b0 523d
000002e0: ea1f 93bb 176e ca3d 92d5 d9bd 2db8 a5bb
000002f0: a31c 07be d28e df3d 40ec 07bd a130 583d
00000300: f5bc 4dbe bf96 64bd 3ca3 05bd 7fea 0d3c
00000310: 17f5 6bbd 8a5b b43c dcb8 6dbd a186 7abd
00000320: b20c 7f3d 563c 993d dea5 e9bd 40a4 ccbd
00000330: 546e 23bb 8601 413d c50e aebd 8096 a13d
00000340: 05d0 ea3d 3bee 783d c0bd cc3c f03f a03b
00000350: 097e 033d 81c3 a9bd 4f1a 3b3c e138 9dbd
00000360: 38ae 4abe a09e f3bd 64b4 d93d 5215 cebd
00000370: 2075 e03a 2623 9f3d 2ba1 513c 75f5 683c
00000380: f996 fcbc 53ac 71bc 2548 20be b0d1 aebd
00000390: 0902 133d c9fe 14bd e5af 33bb d98e 043e
000003a0: de34 04bb 486b 2f3e db30 133d 0fb4 ffbd
000003b0: 713e b33c 5a71 55bd 0bfb a3bd 1348 653d
000003c0: a301 573c 404b 443d 4f8b cb3c 89f8 883d
000003d0: da6c 37bd cb7c 0ebe 979c 9e3d b75f 76bd
000003e0: b6c8 073d ea63 7ebd 5e6c 2cbe f904 6abd
000003f0: 545b 05bb 7ce7 cfbd a99e 1ebe 1646 a2bd

layer_0.lin.bias f4 [32]
-0.016828923 -0.059121024 -0.092033125 0.043407608 -0.013440484 -0.019044602 0.0023788686 0.008842617
0.10946487 0.07094951 -0.12241 0.11799564 0.04665061 0.009691161 0.0056871236 -0.013158454
0.049604792 0.13498263 -0.094928384 -0.07789305 -0.07127104 -0.079492226 0.023354797 0.057105027
-0.048450664 0.045073118 0.08953058 -0.029797783 -0.0038396546 -0.07608221 -0.016385717 -0.054533962
00000000: cfdc 89bc e328 72bd dd7b bcbd 2dcc 313d
00000010: 7a35 5cbc 6d03 9cbc cbe6 1b3b a0e0 103c
00000020: 1e2f e03d fa4d 913d 18b2 fabd b3a7 f13d
00000030: b614 3f3d adc7 1e3c 0d5b ba3b 8e96 57bc
00000040: 652e 4b3d e338 0a3e d069 c2bd 6486 9fbd
00000050: 8df6 91bd d2cc a2bd 8f52 bf3c f6e6 693d
00000060: 3474 46bd 979e 383d cf5b b73d 7b1a f4bc
00000070: b7a2 7bbb fdd0 9bbd 573b 86bc 015f 5fbd

layer_1.lin.weight f4 [32, 64]
-0.08116889 -0.062254716 -0.09207742 0.095239945 -0.03517997 0.037945405 -0.09794524 0.13481203
-0.067600995 -0.01956915 -0.10727687 -0.13017586 0.10662209 -0.06151718 -0.0027084085 -0.041697152
0.05310531 0.043148536 -0.08454165 0.10935652 -0.17086051 -0.0077170907 0.051801644 -0.012905034
0.050198678 0.12256417 0.035219338 -0.052015044 0.10927406 0.12606676 -0.014379579 -0.011241211
0.0066372575 0.15297884 -0.0017447046 -0.027557164 -0.018624796 -0.056744955 0.13654348 -0.12397154
0.009413214 0.102005914 -0.07385567 0.009385735 -0.071193084 0.08541943 0.21451877 0.14207456
0.10421373 -0.105582826 -0.04247855 0.0040718284 -0.105752006 0.035151567 -0.14019363 0.0771681
0.09279962 -0.12810439 0.13356493 0.08562296 -0.16899957 0.12901631 -0.04286487 -0.10928737
-0.05606021 -0.0410486 -0.039612897 0.00800743 -0.025429035 -0.06986682 0.24927433 0.017548079
0.07432159 0.098072805 0.037577454 -0.06706557 0.014656027 -0.13020624 -0.098764084 -0.05912711
0.06583978 0.031160275 -0.03159015 0.059204537 -0.24720782 -0.05663333 -0.05139192 0.00372842
-0.094088085 0.064662345 -0.11723574 -0.07254894 0.10381134 0.0872818 -0.15871562 0.06658208
0.09375243 0.044995837 -0.087601446 0.012680041 0.080026686 0.027227335 -0.04974425 -0.13871564
-0.031041875 0.13369624 0.0012910538 0.042069316 0.0119501315 -0.013292754 0.03457691 0.085888065
0.041519396 -0.017655041 -0.004115633 0.019426959 0.005931547 -0.058559377 0.016755637 -0.058354504
0.04371229 -0.08218409 0.14347425 0.05105234 -0.132087 0.062511906 -0.004565051 -0.005736633
-0.105549484 -0.15225008 0.0071452027 -0.025632631 0.1977647 -0.11942982 0.13605028 0.10585948
0.1104274 -0.05536647 -0.08142147 -0.09127401 0.108947694 -0.037719354 -0.114986174 -0.029250264
0.012453873 -0.07949888 0.09890486 -0.07176241 0.0673136 -0.06406199 -0.0964744 0.027240112
0.021481572 0.002191752 -0.12655105 0.032913767 0.1800655 0.057117112 0.061275724 0.0016545261
-0.0005852443 -0.067087054 -0.13817106 -0.05233531 -0.018130887 0.08644602 -0.10055976 -0.015879912
0.008680877 -0.04815077 -0.005793126 0.12383905 0.06875268 0.09884759 0.017093372 0.02880293
0.19053213 -0.014211121 -0.053342335 0.077188745 0.013046323 -0.05619031 0.107029885 0.032099463
0.04394601 -0.09444221 0.05137015 0.055070024 -0.0020248946 -0.09228615 0.13075292 0.060290348
0.05294939 -0.01538597 -0.0051641623 0.081785396 0.033632066 -0.041141562 -0.0062812716 0.0764511
0.04328763 -0.041496232 -0.01523475 -0.057055224 0.07302352 -0.09889683 -0.17659986 -0.0035624956
-0.021698855 0.019152245 0.041040804 -0.003525286 0.057668842 0.037781764 0.027733482 -0.025213279
0.008093866 0.05176731 0.07274158 -0.15441331 0.02144016 -0.12293663 -0.064748585 0.088762544
-0.14195985 -0.13873468 0.04860193 -0.12071064 0.10766603 0.11067226 0.06127439 0.0929765
-0.111266494 0.077550724 0.057014387 -0.086232364 0.011992025 0.010641218 0.035384156 0.03646202
-0.050592445 0.116477296 0.10612102 0.020093806 -0.07755189 -0.023487503 0.010004187 0.12528215
0.0026094986 -0.008371964 0.04177494 -0.06287407 -0.1057151 -0.071462356 -0.05109322 0.0062457444
00000000: e03b a6bd cdfe 7ebd 1693 bcbd 290d c33d
00000010: df18 10bd a46c 1b3d 8497 c8bd 2a0c 0a3e
00000020: 6472 8abd 7b4f a0bc fab3 dbbd d24c 05be
00000030: af5c da3d 70f9 7bbd 8e7f 31bb a2ca 2abd
00000040: f484 593d 85bc 303d 2c24 adbd 50f6 df3d
00000050: 0ff6 2ebe a6df fcbb f62d 543d a36f 53bc
00000060: 219d 4d3d ec02 fb3d 2742 103d ba0d 55bd
00000070: 14cb df3d a517 013e 5398 6bbc 0e2d 38bc
00000080: 5a7d d93b 7ca6 1c3e 92ae e4ba 90bf e1bc
00000090: 0793 98bc 666d 68bd 0ed2 0b3e cae4 fdbd
000000a0: e239 1a3c 7ae8 d03d a441 97bd a0c6 193c
000000b0: aecd 91bd 62f0 ae3d cfaa 5b3e fe7b 113e
000000c0: 026e d53d cf3b d8bd fdfd 2dbd f96c 853b
000000d0: 8294 d8bd 17fb 0f3d eb8e 0fbe 4f0a 9e3d
000000e0: ba0d be3d cc2d 03be 3fc5 083e 175b af3d
000000f0: 390e 2dbe da1c 043e 1393 2fbd 0fd2 dfbd
00000100: 649f 65bd 9422 28bd 2241 22bd 9831 033c
00000110: 8d50 d0bc 5616 8fbd c541 7f3e fdc0 8f3c
00000120: eb35 983d 65da c83d d1ea 193d ac59 89bd
00000130: d51f 703c c954 05be d344 cabd 452f 72bd
00000140: 02d7 863d d543 ff3c ac64 01bd 7580 723d
00000150: 0c24 7dbe 5af8 67bd 5580 52bd 8258 743b
00000160: 41b1 c0bd b16d 843d 4b19 f0bd 8a94 94bd
00000170: 0a9b d43d cdc0 b23d 5986 22be 305c 883d
00000180: 4601 c03d 8e4d 383d 6368 b3bd f2bf 4f3c
00000190: 08e5 a33d dc0b df3c a0c0 4bbd 790b 0ebe
000001a0: 884b febc abe7 083e 9438 a93a e050 2c3d
000001b0: 7cca 433c dac9 59bc 85a0 0d3d 15e6 af3d
000001c0: 3e10 2a3d 4ea1 90bc 6fdc 86bb 4925 9f3c
000001d0: 6c5d c23b f5db 6fbd 1e43 893c 2205 6fbd
000001e0: a80b 333d 2250 a8bd eaea 123e 421c 513d
000001f0: d141 07be 3e06 803d 6c96 95bb 5efa bbbb
00000200: 542a d8bd 72e7 1bbe 4e22 ea3b 86fb d1bc
00000210: d482 4a3e 9f97 f4bd c450 0b3e dbcc d83d
00000220: c327 e23d f4c7 62bd 4dc0 a6bd deed babd
00000230: f81f df3d 9c7f 1abd df7d ebbd 409e efbc
00000240: 540b 4c3c 4fd0 a2bd a28e ca3d 2cf8 92bd
00000250: b6db 893d ef32 83bd 5f94 c5bd a826 df3c
00000260: 1ffa af3c 7fa3 0f3b 9996 01be 96d0 063d
00000270: 1763 383e a2f3 693d 41fc 7a3d afdc d83a
00000280: 156b 19ba f064 89bd b77c 0dbe 8d5d 56bd
00000290: 3a87 94bc 9c0a b13d 47f2 cdbd 9716 82bc
000002a0: 3d3a 0e3c be39 45bd 43d4 bdbb 549f fd3d
000002b0: 35ce 8c3d 9b70 ca3d 6607 8c3c 1ff4 eb3c
000002c0: db1a 433e c3d5 68bc 7e7d 5abd 2215 9e3d
000002d0: 3fc0 553c cf27 66bd 7c32 db3d ba7a 033d
000002e0: bb00 343d eb6a c1bd 8269 523d 1b91 613d
000002f0: 18b4 04bb 8500 bdbd 18e4 053e 03f3 763d
00000300: 76e1 583d 6f15 7cbc 2238 a9bb 1a7f a73d
00000310: c7c1 093d 0e84 28bd 20d3 cdbb 6592 9c3d
00000320: 5f4e 313d f4f7 29bd 2c9b 79bc bdb2 69bd
00000330: 5b8d 953d 6c8a cabd 98d6 34be c278 69bb
00000340: ccc1 b1bc 2be5 9c3c 671a 283d 7c08 67bb
00000350: 2a36 6c3d 0dc1 1a3d 5431 e33c 148c cebc
00000360: 229c 043c f509 543d 8af9 943d 861e 1ebe
00000370: 46a3 af3c 33c6 fbbd e89a 84bd 23c9 b53d
00000380: ec5d 11be 7710 0ebe d112 473d 2437 f7bd
00000390: 0280 dc3d 23a8 e23d dbfa 7a3d 776a be3d
000003a0: b0df e3bd ead2 9e3d eb87 693d 989a b0bd
000003b0: 337a 443c 8158 2e3c faee 103d 3359 153d
000003c0: 063a 4fbd a68b ee3d fa55 d93d c49b a43c
000003d0: 86d3 9ebd dd68 c0bc 9ae8 233c f749 003e
000003e0: 1f04 2b3b 902a 09bc 331c 2b3d 1fc4 80bd
000003f0: 2981 d8bd db5a 92bd 2047 51bd 1aa9 cc3b

layer_1.lin.bias f4 [32]
-0.048492476 -0.055165198 -0.03741098 0.000729658 -0.032577645 -0.070025675 0.06908181 0.038098894
-0.0866187 0.030854663 0.043195713 0.02025609 0.027662432 0.0262919 0.0748304 -0.06616955
-0.012763041 0.098337345 -0.04260806 0.031424835 0.11106684 -0.092847705 -0.037542216 0.07723455
-0.025974786 0.024666626 0.02091757 0.038280446 -0.04766279 -0.015450529 0.095797874 -0.0041437554
00000000: 0ca0 46bd e7f4 61bd 413c 19bd 8546 3f3a
00000010: 2370 05bd 9f69 8fbd c47a 8d3d 960d 1c3d
00000020: 2565 b1bd ebc2 fc3c fded 303d 1af0 a53c
00000030: 539c e23c 1c62 d73c ae40 993d e783 87bd
00000040: 131c 51bc 1765 c93d ca85 2ebd 54b7 003d
00000050: 0377 e33d f026 bebd dec5 19bd 262d 9e3d
00000060: 13c9 d4bc aa11 ca3c 535b ab3c f5cb 1c3d
00000070: 0f3a 43bd 3724 7dbc ad31 c43d 57c8 87bb

layer_2.lin.weight f4 [32, 64]
-0.02579428 0.037616055 0.010811542 -0.035533708 -0.02965869 -0.010515731 -0.08287291 -0.0150268115
0.0068343584 -0.057190716 0.12521523 -0.08532507 0.16757376 0.041763876 -0.017343344 0.0017189253
0.00026741793 0.116222225 0.048365664 0.033227187 -0.046951212 0.016376762 -0.09863139 0.09452381
-0.09612976 0.048580375 0.20446987 -0.07589917 0.088858485 -0.08143096 0.1464776 -0.057688095
-0.15631549 0.03956045 -0.11388428 -0.13579254 -0.117513545 0.13047063 0.06378623 -0.1161179
0.15956853 0.049373507 -0.20095052 -0.033598393 -0.13313335 0.027896319 0.028737089 -0.07546634
-0.004163423 0.06819023 -0.048933692 -0.025977394 -0.016530726 -0.3620699 0.02689287 -0.0039044302
-0.11199426 0.029266275 0.12801309 0.08124475 -0.13770181 0.08866924 -0.13165821 0.14211278
0.069260865 0.118835434 0.119917035 0.08742839 -0.08474245 0.13971508 -0.054285336 0.005262903
0.11702473 0.0648808 -0.13873722 -0.04941866 -0.18297407 0.015457385 -0.04269678 -0.11794288
-0.046439756 0.029602293 0.008079895 0.091632254 0.010638173 -0.036737602 -0.024983158 0.015122636
0.011767742 -0.025747241 0.05790278 -0.038989335 -0.23613934 -0.14379066 -0.07862248 0.18789878
0.1019124 -0.0093411915 0.083002575 0.015843874 -0.22936378 0.040077914 0.081164494 0.040083352
-0.028450646 0.03031275 -0.094653696 -0.037240606 0.08293881 -0.04029982 -0.029102394 0.01013173
-0.033793204 0.08956391 -0.10456181 -0.09479699 -0.07091623 -0.19016181 0.10336734 -0.060706377
-0.093749255 -0.027377222 -0.03579685 0.025079155 0.10063683 -0.012592219 0.06396446 -0.009206823
-0.07451206 0.09050884 0.05376608 0.013453798 -0.036610898 0.009961617 0.045808338 0.061525792
-0.1483106 0.038465343 0.05668773 -0.0012247205 0.042059436 -0.09818082 -0.078307375 0.0045171734
0.009763969 -0.044765353 0.0025995658 -0.04445249 0.08651493 -0.11376236 -0.005068809 0.081592984
-0.06031743 0.0700683 -0.00029187617 0.088915884 -0.07676018 0.057384666 -0.13484983 0.11998668
0.10160592 0.11185982 0.0010502004 0.025203662 -0.020183794 0.05277825 0.1237847 -0.064390555
-0.015862374 -0.15749873 0.14828484 0.070566036 -0.03344554 0.00048597617 0.08270356 0.054017797
-0.11027762 0.112570316 -0.048342485 -0.08075834 0.055053864 0.15967646 0.028716633 -0.07419269
-0.057759482 -0.052682444 0.01170266 -0.0929188 0.008252764 -0.0053237583 0.0916539 -0.116992936
-0.08454987 0.025399495 0.1852867 0.020271175 -0.120324075 -0.023360658 -0.124806404 -0.12253695
0.027941026 -0.06426024 0.061298713 0.027556881 0.21807186 0.037532598 -0.003748614 0.07155706
0.009153698 -0.07484075 -0.05680019 0.03753113 0.06053299 -0.115201585 -0.0008985273 -0.10281813
-0.0589515 0.1769001 0.1119048 -0.024577362 0.1461681 0.005903964 0.07873523 -0.13607143
0.09548025 -0.058574166 -0.07199306 -0.12814163 -0.024032474 -0.028528636 -0.008252718 -0.026941638
0.016874753 0.09406119 -0.12693019 -0.038787294 -0.16229849 -0.05943322 -0.071040705 0.006469624
-0.04978734 -0.09961299 0.10993903 -0.0085985055 0.06999357 0.043403544 -0.06893375 -0.086960234
-0.0054668183 -0.08030746 -0.07024063 -0.032111414 -0.13359077 -0.10947641 -0.083999395 0.28607193
00000000: 874e d3bc 4b13 1a3d e522 313c cb8b 11bd
00000010: c8f6 f2bc 2c4a 2cbc 46b9 a9bd 0433 76bc
00000020: c1f2 df3b d040 6abd 6c38 003e e9be aebd
00000030: 7598 2b3e 9910 2b3d a113 8ebc 904d e13a
00000040: 3a34 8c39 eb05 ee3d 131b 463d 3b19 083d
00000050: ea4f 40bd 8f28 863c 41ff c9bd b395 c13d
00000060: aedf c4bd 37fc 463d 8d60 513e 0671 9bbd
00000070: 70fb b53d 46c5 a6bd 39fe 153e 5a4a 6cbd
00000080: 2b11 20be 230a 223d 293c e9bd 330d 0bbe
00000090: f1aa f0bd 189a 053e 5ba2 823d 39cf edbd
000000a0: ef65 233e e03b 4a3d f9c5 4dbe 789e 09bd
000000b0: 1c54 08be d286 e43c 0b6a eb3c 198e 9abd
000000c0: 536d 88bb 52a7 8b3d b26e 48bd 8bce d4bc
000000d0: 726b 87bc 3a61 b9be 704e dc3c 78e1 7fbb
000000e0: 3f5d e5bd d4bf ef3c dd15 033e a663 a63d
000000f0: b401 0dbe 3898 b53d 69d1 06be 0386 113e
00000100: a4d8 8d3d fe5f f33d 1097 f53d a80d b33d
00000110: 738d adbd 7811 0f3e 4d5a 5ebd 6e74 ac3b
00000120: a9aa ef3d 3ae0 843d 2111 0ebe 396b 4abd
00000130: 8e5d 3bbe f940 7d3c d2e2 2ebd 098c f1bd
00000140: 9d37 3ebd 8280 f23c 8961 043c b1a9 bb3d
00000150: bb4b 2e3c 2b7a 16bd 7ba9 ccbc efc4 773c
00000160: 7dcd 403c e1eb d2bc 772b 6d3d 48b3 1fbd
00000170: 83ce 71be dc3d 13be d304 a1bd 8a68 403e
00000180: 73b7 d03d cc0b 19bc 41fd a93d 03cb 813c
00000190: 57de 6abe bd28 243d 9239 a63d 712e 243d
000001a0: 5411 e9bc 7252 f83c ccd9 c1bd 9b89 18bd
000001b0: d3db a93d 6d11 25bd 2568 eebc 8eff 253c
000001c0: be6a 0abd 496d b73d 8124 d6bd ed24 c2bd
000001d0: 873c 91bd c7b9 42be 42b2 d33d 40a7 78bd
000001e0: 9cff bfbd 3246 e0bc b89f 12bd cd72 cd3c
000001f0: af1a ce3d 984f 4ebc ccff 823d 37d8 16bc
00000200: c799 98bd b35c b93d d239 5c3d 526d 5c3c
00000210: 4ff5 15bd 0d36 233c 86a1 3b3d 7802 7c3d
00000220: bcde 17be d68d 1d3d 6531 683d cd86 a0ba
00000230: 8446 2c3d 0713 c9bd 9e5f a0bd cc04 943b
00000240: 0ef9 1f3c e05b 37bd 7a5d 2a3b d013 36bd
00000250: bd2e b13d 3dfc e8bd 4018 a6bb 391a a73d
00000260: 690f 77bd f87f 8f3d f506 99b9 8819 b63d
00000270: 7134 9dbd 2f0c 6b3d 1316 0abe 94bb f53d
00000280: c416 d03d c316 e53d e1a6 893a e977 ce3c
00000290: 7c58 a5bc 022e 583d d582 fd3d 32df 83bd
000002a0: cff1 81bc 5947 21be fbd7 173e ed84 903d
000002b0: 31fe 08bd 9eca fe39 7c60 a93d c441 5d3d
000002c0: 3cd9 e1bd 448b e63d c502 46bd a164 a5bd
000002d0: 2980 613d 3a82 233e 253f eb3c 56f2 97bd
000002e0: 3595 6cbd 8cc9 57bd 83bc 3f3c 364c bebd
000002f0: 9a36 073c ec72 aebb 0ab5 bb3d fe99 efbd
00000300: 7b28 adbd 9a12 d03c ccbb 3d3e bc0f a63c
00000310: 786c f6bd da5e bfbc 809a ffbd a7f4 fabd
00000320: 94e4 e43c df9a 83bd 5c14 7b3d f8be e13c
00000330: 3b4e 5f3e c8bb 193d 4fab 75bb 828c 923d
00000340: 64f9 153c 1b46 99bd 51a7 68bd 3eba 193d
00000350: 71f1 773d cfee ebbd 258b 6bba 5092 d2bd
00000360: 2177 71bd 4d25 353e 582e e53d 7756 c9bc
00000370: 17ad 153e 0a76 c13b f03f a13d 4f56 0bbe
00000380: 268b c33d 77eb 6fbd 1971 93bd 8f37 03be
00000390: c0df c4bc e3b4 e9bc 6836 07bc b6b4 dcbc
000003a0: ec3c 8a3c 27a3 c03d fdf9 01be 6ddf 1ebd
000003b0: 9331 26be 4070 73bd ca7d 91bd 24ff d33b
000003c0: cfed 4bbd e501 ccbd b727 e13d bfe0 0cbc
000003d0: ca58 8f3d eac7 313d 232d 8dbd 3518 b2bd
000003e0: ff22 b3bb 3d78 a4bd 52da 8fbd 4287 03bd
000003f0: 05cc 08be 2b35 e0bd e007 acbd 0578 923e

layer_2.lin.bias f4 [32]
0.04071367 -0.0071010734 -0.05462787 0.024771934 -0.08519609 -0.07699565 -0.048301224 -0.08275165
-0.059320442 -0.04822702 -0.015331559 0.07589391 0.074601546 0.08234046 0.012178772 0.03196962
-0.013863706 -0.07206805 -0.09832223 -0.09168779 0.023718687 -0.064301796 -0.064474486 0.06820301
-0.050240535 0.024370437 -0.025834057 0.04365161 -0.05924369 0.081781544 -0.10617173 -0.109367326
00000000: 61c3 263d 1fb0 e8bb 79c1 5fbd 83ee ca3c
00000010: 4a7b aebd e5af 9dbd 81d7 45bd b279 a9bd
00000020: fef9 72bd b289 45bd 3831 7bbc 446e 9b3d
00000030: b2c8 983d 1da2 a83d 7989 473c 94f2 023d
00000040: 9924 63bc 6a98 93bd 2a5d c9bd cfc6 bbbd
00000050: b14d c23c a9b0 83bd 330b 84bd 05ae 8b3d
00000060: 05c9 4dbd 83a4 c73c f2a1 d3bc 08cc 323d
00000070: 83a9 72bd 157d a73d 9070 d9bd fafb dfbd

layer_3.lin.weight f4 [32, 64]
0.06990599 -0.12334565 0.09277889 0.08448907 0.040932268 0.047864065 0.024512907 0.03765246
-0.101656795 0.08931097 0.02581166 0.060123794 0.08060023 -0.031648673 0.07189147 -0.1177524
-0.008282961 -0.08574837 -0.05921145 0.09344365 0.11616741 -0.12072055 -0.11981745 0.048331086
0.020303788 0.03919315 0.0050790156 0.07363726 0.02640466 0.039141245 0.0046459627 0.007922255
0.15787147 -0.12552956 -0.19038257 0.15513562 -0.14520063 0.08565283 0.062430426 0.070575
0.021129545 -0.0440991 -0.0027901803 0.09703083 -0.0021722405 -0.045701213 0.14039747 -0.008593883
0.0870591 -0.11099343 -0.06255766 -0.12925407 -0.051052645 0.11360712 0.20064183 0.121970996
0.14290975 -0.1022171 0.10411128 -0.18784672 0.06446172 0.06467616 -0.09536272 0.1260347
-0.11279888 0.02559164 -0.04421711 0.018188145 -0.057729613 -0.019960402 0.06874989 -0.0044171754
0.028345544 0.088286735 0.036816645 -0.09940384 -0.08130747 -0.107629254 -0.2333029 -0.14416507
-0.03158929 0.1423466 -0.086131044 0.023694327 -0.019777052 0.02154549 0.06776441 0.09035958
0.06741645 -0.0389509 -0.09001548 -0.02678318 -0.003232618 0.1414511 0.030931838 0.009734358
0.02363548 -0.0013733426 0.10834708 -0.08024846 -0.11049768 0.12714696 0.09982018 -0.02210644
-0.017359525 -0.08570081 -0.077757426 -0.022438314 0.12944327 0.12031136 -0.07357615 0.068632804
-0.020799903 -0.04284744 0.013661356 -0.044993795 0.16295211 -0.05987738 -0.10859246 -0.05444873
0.06327385 0.12326212 0.027669458 0.025160829 -0.075868696 0.047479257 0.09137756 -0.029916046
-0.06916469 -0.18732814 0.047274444 -0.09886079 -0.0025468 -0.1842597 0.107632145 0.1267012
-0.010524723 0.013846054 0.10820428 0.014438414 -0.08159999 0.012743811 -0.015894221 0.11532452
-0.11107005 -0.051847596 0.09411158 0.043366134 -0.04135501 0.104722194 -0.13565965 -0.10908116
-0.005133303 -0.062052008 0.012161859 -0.030940766 0.13021234 0.09038044 -0.06259065 0.11070879
0.13146609 -0.01036876 -0.0055089723 0.0074533047 0.0304592 0.23666625 0.020004705 0.05481399
0.17374988 -0.08466757 -0.0773044 -0.13253763 -0.00086142094 -0.028641816 -0.11186768 -0.016352449
-0.0148834335 -0.029665554 -0.0073888036 -0.06564355 -0.06848126 0.10627447 -0.15690331 0.026918568
0.10926099 -0.041312482 0.11063269 0.09963188 0.046537537 -0.013723842 0.14802131 0.07117984
0.02739231 0.047013577 -0.11905553 0.09801263 -0.05228984 -0.06449136 -0.07117623 0.059025712
-0.10182834 -0.054253887 0.052522287 -0.041301455 0.026000911 0.1135326 -0.14765355 -0.07409888
-0.07641329 0.110681 0.02695767 -0.06987566 -0.09246092 0.06683694 0.13982269 -0.07019243
0.06309702 -0.06662379 0.05364482 -0.11903041 0.09964016 0.1435527 0.025659822 0.0080720605
0.05387376 0.07694514 -0.06833074 -0.06905299 -0.09440281 0.07930533 -0.13524908 0.09590105
-0.030484432 -0.0028064735 0.02114854 0.01206177 -0.06224827 -0.036237966 -0.034363363 -0.08609164
-0.019478448 0.053552657 0.027026413 -0.029345682 0.11421058 -0.04332713 -0.113207266 0.114756726
0.011973566 -0.006770474 0.06416568 0.11676446 -0.13002686 0.10171043 0.14124975 -0.0758413
00000000: df2a 8f3d a59c fcbd dc02 be3d 9b08 ad3d
00000010: 98a8 273d 1c0d 443d 4bcf c83c 7739 1a3d
00000020: 7031 d0bd abe8 b63d f972 d33c 5e44 763d
00000030: bc11 a53d 0aa2 01bd d63b 933d 2c28 f1bd
00000040: 42b5 07bc d79c afbd b587 72bd 625f bf3d
00000050: 2ee9 ed3d 563c f7bd da62 f5bd d1f6 453d
00000060: 2154 a63c ff88 203d df6d a63b 22cf 963d
00000070: 964e d83c 9252 203d 293d 983b 59cc 013c
00000080: 0fa9 213e d28a 00be a6f3 42be dfdb 1e3e
00000090: 79af 14be c06a af3d 0cb7 7f3d a089 903d
000000a0: de17 ad3c 42a1 34bd 75db 36bb 1ab8 c63d
000000b0: 265c 0ebb 3231 3bbd 5bc4 0f3e 5ccd 0cbc
000000c0: 0b4c b23d 8650 e3bd 3b1e 80bd 2e5b 04be
000000d0: 941c 51bd daaa e83d 0d75 4d3e eecb f93d
000000e0: ef56 123e 3357 d1bd 4b38 d53d e45a 40be
000000f0: 8204 843d ef74 843d 884d c3bd 3e0f 013e
00000100: 1903 e7bd 8fa5 d13c 001d 35bd 4eff 943c
00000110: e375 6cbd ff83 a3bc becc 8c3d f4bd 90bb
00000120: ea34 e83c adcf b43d 0dcd 163d 3e94 cbbd
00000130: 8884 a6bd ba6c dcbd f5e6 6ebe 02a0 13be
00000140: c563 01bd 4fc3 113e 7965 b0bd 9b1a c23c
00000150: 7c03 a2bc 2b80 b03c 11c8 8a3d 720e b93d
00000160: a311 8a3d fb8a 1fbd 095a b8bd 6668 dbbc
00000170: 55da 53bb 8fd8 103e c464 fd3c db7c 1f3c
00000180: 329f c13c bb01 b4ba 13e5 dd3d 4e59 a4bd
00000190: 9c4c e2bd d032 023e 866e cc3d 9118 b5bc
000001a0: 9035 8ebc e883 afbd 493f 9fbd 8ed0 b7bc
000001b0: c78c 043e cd65 f63d 18af 96bd 5b8f 8c3d
000001c0: 8f64 aabc cc80 2fbd e1d3 5f3c 6a4b 38bd
000001d0: ebdc 263e fc41 75bd b965 debd a205 5fbd
000001e0: b895 813d da70 fc3d 0fab e23c 151e ce3c
000001f0: 0c61 9bbd 9c79 423d 2824 bb3d 7f12 f5bc
00000200: 38a6 8dbd f3d2 3fbe d9a2 413d 8777 cabd
00000210: 37e8 26bb 93ae 3cbe 3e6e dc3d f6bd 013e
00000220: e36f 2cbc 8fda 623c 359a dd3d 198f 6c3c
00000230: e51d a7bd 6bcb 503c 9934 82bc 432f ec3d
00000240: b278 e3bd 255e 54bd 92bd c03d b0a0 313d
00000250: df63 29bd 9778 d63d 5dea 0abe f165 dfbd
00000260: 4435 a8bb 3f2a 7ebd 8942 473c 7d77 fdbc
00000270: 6256 053e 6119 b93d 872f 80bd 4abb e23d
00000280: 0c9f 063e bbe1 29bc 9c84 b4bb da3a f43b
00000290: 9285 f93c a358 723e e8e0 a33c a284 603d
000002a0: 7deb 313e 3166 adbd c551 9ebd f2b7 07be
000002b0: fbd0 61ba 3ea2 eabc e21a e5bd 92f5 85bc
000002c0: a5d9 73bc 2d05 f3bc c71d f2bb 2070 86bd
000002d0: e73f 8cbd 6ea6 d93d 43ab 20be 5484 dc3c
000002e0: 3ac4 df3d 4737 29bd 6493 e23d cd0b cc3d
000002f0: 259e 3e3d f7d9 60bc e692 173e bcc6 913d
00000300: d665 e03c 4f91 403d 63d3 f3bd d9ba c83d
00000310: df2d 56bd 0c14 84bd d8c4 91bd f2c4 713d
00000320: 608b d0bd 5339 5ebd 9c21 573d b72b 29bd
00000330: ddff d43c c883 e83d 7e32 17be 27c1 97bd
00000340: 927e 9cbd b8ac e23d 55d6 dc3c f81a 8fbd
00000350: 275c bdbd cee1 883d ae2d 0f3e 0cc1 8fbd
00000360: 0339 813d 0e72 88bd acba 5b3d 37c6 f3bd
00000370: 2410 cc3d 7bff 123e 8c34 d23c ad40 043c
00000380: bbaa 5c3d 6a95 9d3d fdf0 8bbd a76b 8dbd
00000390: 4356 c1bd d56a a23d bc7e 0abe c567 c43d
000003a0: 7dba f9bc d0ec 37bb b43f ad3c bb9e 453c
000003b0: 0bf8 7ebd 436e 14bd 99c0 0cbd d050 b0bd
000003c0: 4491 9fbc 085a 5b3d 7f66 dd3c 5b66 f0bc
000003d0: 3de7 e93d ca77 31bd 36d9 e7bd 9305 eb3d
000003e0: c72c 443c dada ddbb 4c69 833d 3522 ef3d
000003f0: c325 05be 8f4d d03d c6a3 103e af52 9bbd

layer_3.lin.bias f4 [32]
0.02169311 -0.014051045 0.07495537 -0.06859689 0.06869087 0.036151744 0.085098945 -0.09243773
0.10536592 -0.048896175 -0.0072548236 -0.008787656 0.086963706 0.065919794 -0.06695136 0.037689973
-0.0043834015 0.008702003 0.035545863 -0.022818806 0.036292057 0.12666035 0.04707186 -0.027686836
0.010231515 0.017275874 -0.064579256 0.05789663 0.09291856 0.058207177 0.070557505 -0.035182107
00000000: c0b5 b13c 5b36 66bc 3382 993d 877c 8cbd
00000010: cdad 8c3d da13 143d 5b48 ae3d fe4f bdbd
00000020: 16ca d73d 5b47 48bd dfb9 edbb 1afa 0fbc
00000030: 071a b23d f500 873d cb1d 89bd cd60 1a3d
00000040: a3a2 8fbb d992 0e3c 8a98 113d 81ee babc
00000050: fba6 143d 40b3 013e 6cce 403d 81cf e2bc
00000060: 16a2 273c 2286 8d3c 2142 84bd 0425 6d3d
00000070: 164c be3d a66a 6e3d 7480 903d 1d1b 10bd

layer_4.lin.weight f4 [32, 64]
0.108933926 -0.00795633 0.082594275 -0.10418087 -0.19047245 0.0766911 -0.002611655 -0.100394964
0.04098943 0.028811222 0.054159816 -0.011869774 0.08294831 -0.002800367 0.062160004 -0.12972182
-0.05345681 0.04761233 0.046547495 0.05866874 0.090213776 -0.019979345 -0.004405273 -0.17061625
-0.045369398 0.12601444 0.06762862 0.046037793 0.05131041 -0.07990124 -0.036414493 -0.14022286
-0.01843882 0.0283486 0.08696954 0.1002424 0.09916948 -0.02155589 -0.03527468 0.082283154
0.11453068 0.055424638 -0.10077022 -0.0150958905 -0.120241195 0.010032797 0.07816344 0.16634776
0.06441187 0.03485815 -0.0956782 0.041659404 0.09302283 -0.04300236 -0.108724475 0.0774336
-0.01485776 -0.13069572 -0.118316785 -0.06107315 -0.0334784 0.12207826 -0.01613337 -0.11254863
0.09341803 -0.038772106 -0.0491674 0.0007512113 0.012192887 -0.0339779 0.14177793 0.02115066
-0.1389667 0.012199886 0.049549915 0.052093677 0.13125585 -0.03250658 -0.061001062 0.06639765
-0.06508232 0.09923097 -0.13565192 -0.032984722 -0.10063805 -0.006858107 -0.009654426 0.12559271
0.011248552 -0.19780968 -0.09837489 -0.0012066204 0.08756239 0.026932327 0.1575769 -0.026181659
0.07709007 0.05560537 -0.064992376 -0.11045676 -0.10536327 0.050081767 -0.00090618787 -0.12787305
-0.050688546 0.0035884965 -0.043779396 -0.06854172 -0.036445435 0.07414601 -0.005805694 -0.12485936
-0.081227176 0.120982714 -0.09348026 -0.11973933 0.03447561 0.08351557 0.0043477924 0.0685752
0.061444547 -0.15112013 -0.029805103 -0.0027425226 -0.09698536 -0.0284506 -0.08733096 0.07111153
0.0020010765 0.10316707 -0.03769997 0.08834985 -0.003743656 -0.10900687 -0.10060932 -0.07958691
-0.027340956 0.04351098 -0.036427457 -0.0022939031 0.082945965 0.00627277 0.04050883 -0.02337263
-0.022549104 -0.071985 0.11103242 -0.08300578 -0.037934583 0.045855325 0.028677357 0.013374352
-0.014167239 -0.078721285 0.032759834 -0.033398326 0.05026665 0.048973378 0.085482724 0.0075971973
-0.04741072 -0.07025051 0.020432893 -0.031040203 0.124291904 0.10091166 -0.0063404134 0.06611858
-0.08971893 -0.087010935 0.07679189 0.01400415 -0.02910468 -0.07390887 0.050948564 0.027304927
0.16113642 -0.009542955 -0.10825273 0.06326123 -0.09935196 -0.053660292 -0.093983516 0.13184458
-0.05454032 0.031766117 -0.010381928 0.053784996 -0.04289242 0.1246596 -0.08581344 0.030924879
-0.022660218 -0.07207874 0.05065255 0.07874091 0.0618825 -0.012361121 0.038789358 0.11145743
0.055021435 -0.030588541 0.05668759 0.096549354 0.058694 -0.021621387 0.15128827 -0.10776981
0.0686655 0.0012975951 0.067030884 0.13205165 0.158622 -0.07777543 0.05040495 0.037476875
-0.015861873 0.09406727 0.038057353 0.04570619 0.050286226 -0.061140727 -0.15540443 0.046035234
0.087685265 0.025657056 0.11821521 0.008322188 -0.002181788 -0.036109008 -0.02742301 -0.011970379
-0.056085266 0.0907563 -0.05142871 -0.036130518 -0.0066110957 -0.0691437 0.1382562 0.036351796
-0.103521354 0.017431965 0.04612705 -0.0701362 -0.0035230478 -0.10143759 -0.03306133 -0.11745344
0.11486704 0.053899366 0.09010587 -0.020886946 -0.08745487 0.044904422 -0.004906243 0.08900599
00000000: c018 df3d 445b 02bc 3027 a93d c85c d5bd
00000010: 360b 43be 3910 9d3d 4d28 2bbb e09b cdbd
00000020: 88e4 273d 8305 ec3c afd6 5d3d 7179 42bc
00000030: cee0 a93d 5d86 37bb 7d9b 7e3d ccd5 04be
00000040: 87f5 5abd 2605 433d 96a8 3e3d a24e 703d
00000050: 00c2 b83d b9ab a3bc 1c5a 90bb 07b6 2ebe
00000060: 43d5 39bd ee09 013e e080 8a3d 2092 3c3d
00000070: dd2a 523d 43a3 a3bd 5d27 15bd 9596 0fbe
00000080: 020d 97bc 533b e83c 161d b23d e34b cd3d
00000090: 5e19 cb3d fa95 b0bc 2f7c 10bd 1284 a83d
000000a0: 108f ea3d f204 633d 9e60 cebd c154 77bc
000000b0: 0441 f6bd 9a60 243c 2714 a03d 1157 2a3e
000000c0: 5fea 833d 6bc7 0e3d eff2 c3bd 0da3 2a3d
000000d0: c182 be3d 3e23 30bd f0aa debd 8295 9e3d
000000e0: f66d 73bc 19d5 05be 1250 f2bd d727 7abd
000000f0: a620 09bd 2b04 fa3d 212a 84bc e57f e6bd
00000100: f451 bf3d 80cf 1ebd c163 49bd f0ec 443a
00000110: adc4 473c 692c 0bbd 3c2e 113e 2644 ad3c
00000120: 494d 0ebe 08e2 473c daf4 4a3d 2e60 553d
00000130: ef67 063e 9f25 05bd 40dc 79bd 7efb 873d
00000140: e149 85bd 9b39 cb3d 56e8 0abe fd1a 07bd
00000150: 521b cebd f9b9 e0bb 992d 1ebc 609b 003e
00000160: d94b 383c 9f8e 4abe c678 c9bd 7627 9eba
00000170: e953 b33d 2fa1 dc3c d75b 213e eb7a d6bc
00000180: 66e1 9d3d 75c2 633d b91a 85bd 2737 e2bd
00000190: b3c8 d7bd 8a22 4d3d 3d8d 6dba 27f1 02be
000001a0: cb9e 4fbd fb2c 6b3b 0652 33bd 9a5f 8cbd
000001b0: cf47 15bd ddd9 973d b13d bebb 44b6 ffbd
000001c0: 6f5a a6bd c9c5 f73d 9472 bfbd e539 f5bd
000001d0: 4c36 0d3d 360a ab3d ed77 8e3b 2871 8c3d
000001e0: 47ad 7b3d 3cbf 1abe d529 f4bc e5bb 33bb
000001f0: 43a0 c6bd 3c11 e9bc 93da b2bd eca2 913d
00000200: 7e24 033b 4249 d33d 496b 1abd c4f0 b43d
00000210: 2058 75bb fe3e dfbd 420c cebd 76fe a2bd
00000220: 24fa dfbc 9238 323d f534 15bd 4f55 16bb
00000230: 93df a93d cf8b cd3b 96ec 253d f577 bfbc
00000240: e6b8 b8bc df6c 93bd f764 e33d effe a9bd
00000250: 4b61 1bbd cbd2 3b3d c7ec ea3c 1920 5b3c
00000260: b51d 68bc a038 a1bd 2d2f 063d afcc 08bd
00000270: 67e4 4d3d 4f98 483d 9111 af3d e9f1 f83b
00000280: be31 42bd 80df 8fbd e262 a73c 0648 febc
00000290: c18c fe3d c6aa ce3d 3ec3 cfbb 2e69 873d
000002a0: 8fbe b7bd ca32 b2bd 1145 9d3d aa71 653c
000002b0: f06c eebc 895d 97bd 71af 503d 95ae df3c
000002c0: f200 253e 0e5a 1cbc 9bb3 ddbd 1b8f 813d
000002d0: 0a79 cbbd e5ca 5bbd 6e7a c0bd 4402 073e
000002e0: ac65 5fbd 301d 023d f618 2abc a84d 5c3d
000002f0: f6af 2fbd 884d ff3d f5be afbd 2c56 fd3c
00000300: eca1 b9bc 059e 93bd 0c79 4f3d ea42 a13d
00000310: 8178 7d3d 4d86 4abc 97e1 1e3d cb43 e43d
00000320: 285e 613d d294 fabc 3f31 683d abbb c53d
00000330: 1f69 703d 561f b1bc 50eb 1a3e 6bb6 dcbd
00000340: 7fa0 8c3d 1114 aa3a 7d47 893d 8c38 073e
00000350: ce6d 223e ba48 9fbd 6c75 4e3d 5a81 193d
00000360: c2f0 81bc 57a6 c03d 07e2 1b3d 6a36 3b3d
00000370: eef8 4d3d b36e 7abd 5722 1fbe 718f 3c3d
00000380: 5594 b33d bf2e d23c d11a f23d c959 083c
00000390: 54fc 0ebb 0ae7 13bd 38a6 e0bc 691f 44bc
000003a0: aab9 65bd 70de b93d e9a6 52bd 98fd 13bd
000003b0: e4a1 d8bb 369b 8dbd 0993 0d3e 9fe5 143d
000003c0: 0103 d4bd 7bcd 8e3c b8ef 3c3d 91a3 8fbd
000003d0: efe2 66bb 83be cfbd 516b 07bd 6e8b f0bd
000003e0: 693f eb3d 95c5 5c3d 6d89 b83d 1a1b abbc
000003f0: 8a1b b3bd b3ed 373d 8dc4 a0bb c648 b63d

layer_4.lin.bias f4 [32]
0.04393484 -0.07385213 0.100947894 -0.040587083 -0.091948725 -0.0173628 -0.029566398 -0.044631958
-0.055631515 -0.010628029 0.024260225 0.05669826 -0.099317886 0.0013763029 0.045029268 0.09569663
0.031388607 0.08950929 0.018275652 0.014593631 -0.037594363 -0.048836343 0.027725654 -0.04083345
0.113452286 -0.08024895 0.050314892 0.079029866 0.107880905 0.06166041 -0.036629345 0.078271486
00000000: 05f5 333d c93f 97bd c5bd ce3d a43e 26bd
00000010: 9d4f bcbd 6e3c 8ebc 3b35 f2bc 00d0 36bd
00000020: dfdd 63bd 2f21 2ebc 61bd c63c 6f3c 683d
00000030: 2d67 cbbd 1065 b43a 9c70 383d 98fc c33d
00000040: 5791 003d a650 b73d d2b6 953c 201a 6f3c
00000050: 8cfc 19bd 9e08 48bd e920 e33c fa40 27bd
00000060: ac59 e83d 9059 a4bd fd16 4e3d 69da a13d
00000070: aaf0 dc3d a08f 7c3d a708 16bd cd4c a03d

layer_5.lin.weight f4 [32, 64]
-0.07678582 -0.06390832 0.023237566 0.10996279 0.00045907777 -0.15108174 -0.117517 -0.06739442
0.01700172 0.051258475 -0.043481 0.08400834 0.020124622 -0.045681547 0.1297728 -0.0900064
-0.0490192 0.06119506 -0.050089095 -0.05602937 -0.023766702 0.049940318 0.14912733 0.17027132
0.06591029 -0.07331082 -0.075083055 -0.17658049 0.08731852 -0.09574006 0.080470696 -0.18441226
0.032035273 0.10358361 -0.098013945 -0.030305017 0.04746878 0.049694557 -0.04119425 0.046995472
-0.02503858 0.09601772 0.092186436 -0.008881911 0.036673963 -0.02681556 -0.073729664 -0.06603485
0.0016022817 0.08025434 0.019711427 0.16614151 0.13891923 0.14247371 -0.065854445 -0.105594255
-0.07160209 0.07859513 0.14569385 0.14448464 -0.085623465 0.09199215 -0.013050968 0.088064656
0.059557743 -0.11343034 -0.11237376 0.07610986 -0.05430925 0.10932491 0.11614601 0.102606766
0.02192758 -0.009183534 0.03841815 0.052543573 -0.14385577 0.020339752 -0.13663512 0.13941462
-0.012057568 -0.07065723 -0.08101402 0.102373846 0.08898079 0.10030741 0.083644755 -0.10156126
0.08616107 -0.022995146 0.105251305 -0.001905157 0.03053229 -0.042709094 -0.009190101 0.09342581
-0.11526101 0.09802389 -0.012784731 -0.10473259 0.184694 -0.08314326 0.031296488 0.078998476
-0.047995467 -0.08575661 -0.07157044 0.030696124 -0.0130312955 0.08183245 0.11136636 -0.06077426
0.04421335 -0.12335248 0.00043115224 0.011772156 -0.07781289 -0.022937996 0.05765771 -0.08994321
0.049738314 0.034391057 0.011051157 -0.07949811 -0.032426864 -0.040207352 -0.009890356 -0.032778107
-0.047735345 0.16798408 0.07532204 0.13757153 0.1360874 0.06666367 -0.08445334 -0.05179547
-0.0880817 0.06742113 -0.018047651 -0.029683072 -0.049730185 0.004580737 -0.0748274 -0.062209003
0.063830815 -0.08060437 -0.13162762 -0.1399899 0.014254361 -0.09322773 -0.17628562 0.09017647
-0.029196186 0.08081286 0.013296938 0.088231444 0.07708379 -0.12540096 0.12614486 0.14048946
0.16584152 -0.07891633 -0.04266625 0.022280948 -0.13299261 0.03274756 0.008507445 0.08601829
-0.09953476 -0.02598094 -0.004397609 -0.0063726525 0.14120139 0.09660074 0.047659136 -0.09085122
-0.022353781 0.07764493 -0.06027928 -0.03264178 0.18900464 -0.10164128 -0.13661137 -0.09739674
0.12076381 -0.0026805992 0.01900717 0.027149592 -0.045380164 0.073085226 -0.039395183 -0.18018119
-0.05608935 -0.05034202 -0.16815351 0.081377655 -0.09966027 -0.050344467 0.101900935 0.04302899
0.037781514 -0.103924416 -0.0126666585 -0.15297022 -0.12221814 0.10932284 0.067366265 0.032333974
0.16485368 0.1187723 0.13112998 0.0126948785 0.041060552 -0.0015890154 -0.081353985 -0.060987864
0.09718266 -0.06926698 0.07961653 -0.24983005 0.015664525 0.04242353 0.17357312 -0.03433902
0.094120845 -0.025510555 0.10598319 -0.07566445 0.08278328 0.07089383 -0.057859648 -0.03277321
0.037236895 0.052065495 0.025458533 -0.066115215 0.039655056 -0.08865934 0.06468103 -0.12474722
-0.046786606 0.06909314 0.0669731 -0.024801724 -0.05377869 -0.004949642 -0.00034579632 0.07144809
-0.08935479 -0.031562053 0.01029587 0.21060514 0.08558177 0.11463459 0.0032373297 -0.035305224
00000000: e241 9dbd 5ee2 82bd b55c be3c 2c34 e13d
00000010: 60b0 f039 2cb5 1abe c1ac f0bd 1606 8abd
00000020: 3147 8b3c 68f4 513d 2219 32bd 910c ac3d
00000030: 64dc a43c 931c 3bbd 29e3 043e 4755 b8bd
00000040: 5bc8 48bd aca7 7a3d 392a 4dbd 0d7f 65bd
00000050: 63b2 c2bc 388e 4c3d d6b4 183e 9b5b 2e3e
00000060: f9fb 863d fc23 96bd 25c5 99bd 84d1 34be
00000070: 0dd4 b23d 5d13 c4bd d2cd a43d 91d6 3cbe
00000080: 6b37 033d a523 d43d 89bb c8bd 3a42 f8bc
00000090: a06e 423d 858c 4b3d 4dbb 28bd 537e 403d
000000a0: b51d cdbc f0a4 c43d 3ecc bc3d 6f85 11bc
000000b0: 7037 163d 4eac dbbc 94ff 96bd 483d 87bd
000000c0: a703 d23a 635c a43d dc79 a13c 0021 2a3e
000000d0: d840 0e3e a1e4 113e b2de 86bd cd41 d8bd
000000e0: 1ea4 92bd 7cf6 a03d c530 153e c8f3 133e
000000f0: 5b5b afbd 6166 bc3d bad3 55bc 3e5b b43d
00000100: d2f2 733d 2b4e e8bd 3724 e6bd 7cdf 9b3d
00000110: 6073 5ebd bde5 df3d f6dd ed3d 7f23 d23d
00000120: 78a1 b33c 8976 16bc 5a5c 1d3d ee37 573d
00000130: ed4e 13be 8d9f a63c 14ea 0bbe b5c2 0e3e
00000140: 1b8d 45bc bdb4 90bd aeea a5bd 61a9 d13d
00000150: 8f3b b63d f96d cd3d f14d ab3d 5aff cfbd
00000160: 3775 b03d 5160 bcbc ff8d d73d 76b6 f9ba
00000170: da1e fa3c bbef 2ebd 1492 16bc 0856 bf3d
00000180: f70d ecbd c0c0 c83d 0c77 51bc 0a7e d6bd
00000190: 6d20 3d3e 0347 aabd bf30 003d f4c9 a13d
000001a0: e596 44bd 29a1 afbd 8693 92bd 7076 fb3c
000001b0: 3781 55bc c697 a73d 0c14 e43d 6eee 78bd
000001c0: 0f19 353d 3aa0 fcbd 460c e239 00e0 403c
000001d0: 5d5c 9fbd 77e8 bbbc 7e2a 6c3d 2534 b8bd
000001e0: 67ba 4b3d a3dd 0c3d e90f 353c e8cf a2bd
000001f0: 08d2 04bd 77b0 24bd 290b 22bc 5642 06bd
00000200: 2386 43bd 0504 2c3e 7142 9a3d 8ddf 0c3e
00000210: 7f5a 0b3e f686 883d dff5 acbd 7d27 54bd
00000220: 2e64 b4bd 1714 8a3d abd8 93bc ea29 f3bc
00000230: e1b1 4bbd 021a 963b 1c3f 99bd dece 7ebd
00000240: bbb9 823d e713 a5bd 64c9 06be 8359 0fbe
00000250: 208b 693c 2eee bebd 3884 34be 71ae b83d
00000260: d72c efbc 3681 a53d 66db 593c b0b2 b43d
00000270: 1bde 9d3d 1c69 00be 1e2c 013e 78dc 0f3e
00000280: 5cd2 293e e39e a1bd cec2 2ebd 8986 b63c
00000290: 372f 08be 4e22 063d d062 0b3c 5b2a b03d
000002a0: e1d8 cbbd fbd5 d4bc d119 90bb afd1 d0bb
000002b0: 1997 103e 9cd6 c53d 3a36 433d 3410 babd
000002c0: 471f b7bc 4e04 9f3d 68e7 76bd 63b3 05bd
000002d0: 6f8a 413e 4e29 d0bd dae3 0bbe f177 c7bd
000002e0: 0453 f73d feac 2fbb edb4 9b3c d268 de3c
000002f0: 8de0 39bd b5ad 953d d85c 21bd 6b81 38be
00000300: f2bd 65bd 6f33 4ebd 6f30 2cbe 54a9 a63d
00000310: af1a ccbd 0036 4ebd 70b1 d03d 2b3f 303d
00000320: cac0 1a3d 53d6 d4bd d187 4fbc 3aa4 1cbe
00000330: 814d fabd a7e4 df3d 53f7 893d a170 043d
00000340: 67cf 283e e43e f33d f046 063e 2efe 4f3c
00000350: 1c2f 283d 8246 d0ba eb9c a6bd 69ce 79bd
00000360: b407 c73d d9db 8dbd fe0d a33d 73d3 7fbe
00000370: e452 803c 4cc4 2d3d 27bd 313e 12a7 0cbd
00000380: 6ec2 c03d 83fb d0bc b70d d93d f7f5 9abd
00000390: 488a a93d c930 913d 3dfe 6cbd 343d 06bd
000003a0: b785 183d a142 553d 6a8e d03c 6a67 87bd
000003b0: 576d 223d 0793 b5bd 7d77 843d 787b ffbd
000003c0: 50a3 3fbd b480 8d3d 3129 893d fc2c cbbc
000003d0: 0b47 5cbd 9b30 a2bb ff4b b5b9 6053 923d
000003e0: a5ff b6bd 3647 01bd 02b0 283c e0a8 573e
000003f0: 7f45 af3d 8ac5 ea3d 6129 543b 369c 10bd

layer_5.lin.bias f4 [32]
-0.056302194 0.082081534 -0.029241906 -0.040662386 -0.043037407 -0.022522941 -0.076190345 0.06839113
0.017652027 -0.014741826 0.09286127 -0.026975628 0.0026518458 0.06396009 0.0079028485 0.0076805153
0.091049746 -0.057780832 0.056981508 0.032837994 0.00022976953 0.008181904 -0.010250011 -0.05403621
-0.09336002 -0.038485155 0.06377569 0.082724534 -0.033855513 0.06116137 0.072520606 0.072801545
00000000: 219d 66bd 5d1a a83d b98c efbc 9a8d 26bd
00000010: fe47 30bd 0882 b8bc af09 9cbd a610 8c3d
00000020: fc9a 903c b387 71bc 0d2e be3d fefb dcbc
00000030: 97ca 2d3b 82fd 823d f37a 013c d5ac fb3b
00000040: 4a78 ba3d 98ab 6cbd 7165 693d 2281 063d
00000050: 4aee 7039 650d 063c aaef 27bc 1355 5dbd
00000060: 8a33 bfbd 9ca2 1dbd d49c 823d 7b6b a93d
00000070: 14ac 0abd 5884 7a3d af85 943d fa18 953d

layer_6.lin.weight f4 [32, 64]
-0.004553631 0.11757239 -0.087364785 0.16200869 -0.036440577 -0.1596294 0.00042684094 -0.08861351
0.014265753 0.11343729 0.024457809 -0.06861778 0.0065958975 0.10961955 0.15293317 -0.13159697
0.033963095 0.1494925 -0.055284575 -0.11742122 0.0030186088 0.09405095 -0.087422915 0.21523166
-0.091227025 0.102696195 -0.1027763 -0.059365045 0.079571925 -0.057977583 -0.13208854 0.078991026
0.13484296 -0.14719218 -0.09774173 0.036883738 0.16391435 -0.037447926 -0.028727017 0.13225764
-0.062277384 -0.100043006 -0.02364104 0.10981873 0.0026581984 0.01648903 0.0579953 0.011049452
0.09213912 -0.18082996 0.08631506 0.035712045 -0.19120191 -0.021460975 0.014907592 -0.14706035
0.074685365 0.17585781 -0.03669243 -0.00023478606 -0.123619154 -0.021227352 0.0638522 -0.11125561
0.13278031 -0.1011881 -0.020158611 -0.15728337 -0.08101656 0.07443522 -0.05639352 0.06278765
-0.05972521 0.050191633 -0.0957989 0.03940188 -0.10085508 -0.049268734 0.059584886 -0.07355432
-0.03225645 0.10958295 0.08293005 -0.024992662 0.06776748 -0.12732519 -0.0067893662 0.13534139
-0.20986418 -0.11458523 -0.13458136 -0.12873854 5.248442e-05 0.011925988 -0.053188 -0.03331736
0.076309055 0.08977805 0.19016345 -0.037323516 -0.0720692 -0.07440204 -0.11826703 -0.07512221
0.07221295 -0.04823801 0.05396838 0.037235674 0.08988728 -0.038671203 0.07390179 0.008063233
-0.0121080205 -0.032618456 -0.20554014 0.11994688 -0.112811856 0.0016666732 -0.09664067 -0.07748858
0.013614305 0.18060994 0.116682984 -0.05954362 0.14860047 -0.082518734 -0.030010402 0.12034818
0.1291145 -0.068214834 0.06460409 -0.010643308 0.008968805 0.035179332 0.016996069 0.08216038
-0.016778013 0.0097012315 -0.042926714 -0.14588149 0.044842288 -0.042338036 -0.024950854 -0.17093176
-0.116192825 -0.016754733 0.0024022695 -0.10929192 -0.12646529 -0.08635449 0.13451986 0.0002226696
0.057031605 0.11305567 0.11687307 0.099570885 -0.13375168 -0.1699294 -0.036455896 -0.21359368
0.1053542 0.0070077404 0.019713007 -0.022031367 -0.12063722 -0.029390171 -0.05359001 -0.06762353
0.08345805 -0.09691399 -0.10603148 0.061640885 0.02504977 -0.08784063 0.0025453817 0.08185405
0.021263465 -0.053055007 -0.09454905 0.044669658 0.09832498 -0.04137126 -0.0143762035 -0.08848424
0.041785877 -0.009987253 -0.1151655 -0.03595077 -0.029875228 -0.022407085 0.017514955 0.05848059
0.069435425 -0.050430417 0.17247255 0.20100005 0.14884533 -0.014645479 0.0027220375 -0.1652365
0.11337812 -0.07492471 0.050958205 0.16634426 -0.08950879 0.04914738 -0.19048473 0.049167547
-0.09793239 0.077384055 -0.036617942 -0.0805007 -0.058766454 -0.07900454 -0.04937406 -0.10960406
0.10890349 0.06323859 0.07701589 0.038116176 0.06253526 0.07783248 0.024641166 0.112378985
-0.1828615 0.037712805 -0.02489087 0.11125747 -0.014889433 -0.14388107 0.059382655 0.12228328
-0.17417642 -0.004225678 0.08182277 0.0070751724 -0.071922615 0.016527507 0.030410267 0.0540616
0.10240782 0.010968961 0.03681022 0.040965553 0.11264731 -0.05503001 -0.051132455 0.12335481
-0.04763705 -0.07533624 -0.008994974 -0.14091721 -0.049433038 0.116643235 -0.107100874 0.024012353
00000000: a036 95bb cbc9 f03d 4fec b2bd 9be5 253e
00000010: b742 15bd e475 23be 9fc9 df39 007b b5bd
00000020: e8ba 693c cf51 e83d be5b c83c 7b87 8cbd
00000030: 6622 d83b 3780 e03d 839a 1c3e 5bc1 06be
00000040: e31c 0b3d 9014 193e 1472 62bd 897a f0bd
00000050: dad3 453b c99d c03d c90a b3bd b065 5c3e
00000060: 3cd5 babd 6252 d23d 617c d2bd c328 73bd
00000070: 9bf6 a23d e779 6dbd 3842 07be 0cc6 a13d
00000080: 4614 0a3e 8cb9 16be d12c c8bd 6713 173d
00000090: 2ad9 273e ff62 19bd ec54 ebbc 8c6e 073e
000000a0: 9216 7fbd 59e3 ccbd dbaa c1bc a4e8 e03d
000000b0: 2b35 2e3b 0114 873c 7b8c 6d3d c308 353c
000000c0: 6fb3 bc3d 7d2b 39be f3c5 b03d cb46 123d
000000d0: 6fca 43be edce afbc f93e 743c fd96 16be
000000e0: a4f4 983d 1214 343e cd4a 16bd e730 76b9
000000f0: 0a2c fdbd fce4 adbc f1c4 823d fbd9 e3bd
00000100: 90f7 073e b53b cfbd ac23 a5bc e40e 21be
00000110: 03ec a5bd 7e71 983d e4fc 66bd d096 803d
00000120: 6ca2 74bd be95 4d3d 3732 c4bd de63 213d
00000130: 1c8d cebd 03ce 49bd 480f 743d a6a3 96bd
00000140: 571f 04bd 076d e03d 3bd7 a93d 69bd ccbc
00000150: adc9 8a3d 8961 02be 5579 debb ef96 0a3e
00000160: a3e6 56be a9ab eabd b2cf 09be 09d4 03be
00000170: b822 5c38 3865 433c a9db 59bd c977 08bd
00000180: ec47 9c3d 8edd b73d 35ba 423e 8be0 18bd
00000190: 0499 93bd 1960 98bd fc35 f2bd acd9 99bd
000001a0: 62e4 933d 3895 45bd f30d 5d3d 6f84 183d
000001b0: d216 b83d b265 1ebd d259 973d a71b 043c
000001c0: b860 46bc ee9a 05bd 1d79 52be b6a6 f53d
000001d0: e709 e7bd 4674 da3a 8beb c5bd 55b2 9ebd
000001e0: 890e 5f3c d0f1 383e 7df7 ee3d 03e4 73bd
000001f0: b92a 183e 95ff a8bd 60d8 f5bc 1b79 f63d
00000200: 9736 043e 38b4 8bbd 264f 843d 4561 2ebc
00000210: e5f1 123c 3418 103d 573b 8b3c b443 a83d
00000220: 0b72 89bc eaf1 1e3c ecd3 2fbd f561 15be
00000230: 8cac 373d a66a 2dbd bc65 ccbc bc08 2fbe
00000240: 81f6 edbd 3941 89bc 656f 1d3b 71d4 dfbd
00000250: 1e80 01be 9fda b0bd 93bf 093e 6a7c 6939
00000260: f999 693d bb89 e73d 265b ef3d d2eb cb3d
00000270: 33f6 08be f901 2ebe c752 15bd 4db8 5abe
00000280: f1c3 d73d 30a1 e53b 2c7d a13c 207b b4bc
00000290: a610 f7bd a8c3 f0bc 3381 5bbd 357e 8abd
000002a0: 0eec aa3d d87a c6bd 0827 d9bd 277b 7c3d
000002b0: 2d35 cd3c cae5 b3bd 6bd0 263b 19a3 a73d
000002c0: b830 ae3c 3550 59bd efa2 c1bd 88f7 363d
000002d0: 9b5e c93d e974 29bd 2b8a 6bbc 3a37 b5bd
000002e0: ab27 2b3d 93a1 23bc e4db ebbd 1d41 13bd
000002f0: e5bc f4bc 108f b7bc 867b 8f3c 5889 6f3d
00000300: 2934 8e3d 2090 4ebd a59c 303e f5d2 4d3e
00000310: e96a 183e 97f3 6fbc 3664 323b c233 29be
00000320: ca32 e83d 2072 99bd 8db9 503d 2656 2a3e
00000330: 6250 b7bd c34e 493d 6e0e 43be e963 493d
00000340: c790 c8bd 887b 9e3d b2fc 15bd 8ddd a4bd
00000350: 18b5 70bd 22cd a1bd 743c 4abd 1878 e0bd
00000360: cb08 df3d 3c83 813d 82ba 9d3d b51f 1c3d
00000370: 7d12 803d a366 9f3d 45dc c93c f426 e63d
00000380: 0c40 3bbe be78 1a3d f0e7 cbbc f5da e33d
00000390: cff2 73bc 8f55 13be 3a3b 733d a86f fa3d
000003a0: 4e5b 32be 8e77 8abb b292 a73d d9d6 e73b
000003b0: 2a4c 93bd b264 873c f41e f93c b26f 5d3d
000003c0: 31bb d13d 28b7 333c 50c6 163d 7fcb 273d
000003d0: a2b3 e63d 2667 61bd 4470 51bd 72a1 fc3d
000003e0: 111f 43bd e349 9abd a85f 13bc 9a4c 10be
000003f0: 4c7a 4abd a6e2 ee3d b457 dbbd 8eb5 c43c

layer_6.lin.bias f4 [32]
0.07633695 0.026683794 0.037459742 0.007199382 -0.07439987 0.0076959264 0.025690153 0.04368256
0.029716436 0.110072486 -0.039168086 0.04450887 -0.09336167 -0.015100549 -0.051891297 -0.0002189858
-0.08840696 -0.0409871 0.07754373 0.022989992 0.059485916 0.039565057 0.051976588 -0.06738151
0.022322912 -0.11602745 -0.06569485 -0.10716926 0.060349762 0.053822763 -0.058426198 0.011786232
00000000: 8c56 9c3d f997 da3c 636f 193d cbe8 eb3b
00000010: f65e 98bd 1c2e fc3b 2874 d23c 7cec 323d
00000020: e26f f33c af6d e13d b76e 20bd ef4e 363d
00000030: 6734 bfbd 4b68 77bc f88b 54bd 8e9f 65b9
00000040: b50e b5bd 17e2 27bd 3fcf 9e3d 8255 bc3c
00000050: 81a7 733d f80e 223d 67e5 543d 51ff 89bd
00000060: 8ade b63c cd9f edbd 068b 86bd 8f7b dbbd
00000070: 5031 773d 4275 5c3d 4f50 6fbd 0a1b 413c
