training_runs/model_step11000.pt (torch, 108782 bytes, 24 tensors)

layer_0.lin.weight f4 [32, 64]
-0.10790684 0.10211205 0.15248975 -0.022166768 -0.04072065 0.029767584 0.07915673 -0.033560526
0.0638086 -0.110944435 0.063759476 0.09562331 -0.14819664 0.026605722 0.009824668 -0.0640549
0.16986817 0.092277 -0.16588274 -0.08058235 0.14517684 0.14248613 -0.112566814 0.05606523
-0.124258414 0.03681918 0.17892249 -0.0982955 0.12823868 0.04929046 0.049472336 0.1093988
0.07754784 0.16486968 -0.08207801 -0.14551918 0.120448954 -0.19208358 0.14722058 0.2032924
0.19749843 -0.023739783 0.042742994 -0.3241519 -0.06191156 -0.06472966 -0.031938147 0.06540197
0.021088975 -0.16166396 0.14981005 0.21492222 -0.021123124 -0.08907358 -0.11452377 -0.029221414
0.08083074 -0.22881633 -0.03653705 -0.048691925 -0.024900334 -0.22874252 0.0893536 -0.13893342
0.044005606 0.0137896985 0.017227724 -0.011837076 -0.09462378 0.24692224 0.02042034 -0.12804277
-0.06520904 0.00066586275 0.005391718 0.17426123 0.062949225 -0.052768275 0.10802993 -0.06262264
-0.13144617 0.08695278 0.026711304 -0.13353342 0.102625005 0.014000626 0.15940677 0.08789769
0.08653581 -0.030257277 -0.009792257 0.064757176 0.074479215 0.18837757 -0.033452883 0.021281006
0.21614933 0.19214985 -0.1849316 -0.25703946 0.12727651 -0.055715255 -0.058242403 0.22726187
-0.08602491 0.036936313 -0.07927536 -0.33342716 -0.083788134 0.0488764 -0.074982256 0.12382866
-0.19176517 -0.09562023 0.047324937 -0.04467826 0.09538347 -0.03202448 -0.053374104 -0.006508675
0.18359403 0.18660015 -0.11558934 0.026303068 -0.26600403 -0.19056179 0.0008359755 -0.1882709
-0.091295786 0.08795189 0.12892133 0.032313365 -0.049692858 0.07420947 0.11428628 -0.08980902
0.008838461 -0.20864332 -0.08556328 0.09835519 0.12750567 0.096121915 0.105715185 -0.039599445
-0.013029149 -0.03631448 -0.00064636325 0.017423216 0.0042366693 0.04117049 -0.20151101 -0.0011975975
-0.07305219 -0.009256242 0.18193698 -0.02267952 0.29315743 -0.004303208 0.043097313 0.038162213
0.017950797 -0.18627293 -0.13832864 -0.08389541 -0.11707899 0.12679677 -0.10333573 -0.03026288
-0.30768186 0.027729757 0.10874629 0.035927046 0.082473464 -0.031134529 -0.107949644 0.12304458
-0.1796864 -0.0372473 -0.030391779 -0.040860582 0.16645731 0.029355753 0.34412608 0.0035620076
0.0108025335 0.111131884 -0.09814649 -0.014925201 -0.1254521 0.15056913 -0.031913362 0.06483041
-0.35198304 -0.12770958 -0.060386192 0.08509956 -0.024248827 -0.055935577 -0.03783999 -0.086098395
0.099461794 0.12647955 -0.12050209 -0.061347086 -0.0026746271 0.08183959 -0.0158899 0.02401963
0.19735576 0.19483602 0.09220491 0.06133359 -0.09870771 -0.19766505 0.022198739 -0.101820156
-0.26814407 -0.20761208 0.066365935 -0.12912785 0.0020429187 0.14170423 -0.059946936 0.052794613
-0.103787236 -0.07621077 -0.19270587 -0.12942672 0.06977757 -0.11118719 0.032935534 0.13719983
0.034344684 0.17127971 0.026594557 -0.23905991 0.03128806 -0.06757441 -0.09317284 0.10765065
0.009562279 0.07649459 0.046138704 0.031776275 -0.07316697 -0.20694357 0.10273382 -0.11551893
0.046529062 -0.0765088 -0.22443074 -0.1315072 -0.17649283 -0.1547721 -0.06350194 -0.17232333
00000000: 43fe dcbd 1f20 d13d 4626 1c3e 1597 b5bc
00000010: b2ca 26bd 26db f33c ec1c a23d c376 09bd
00000020: 15ae 823d d636 e3bd 5494 823d 27d6 c33d
00000030: dcc0 17be 3ef4 d93c a5f7 203c 372f 83bd
00000040: ecf1 2d3e b9fb bc3d 2add 29be 5c08 a5bd
00000050: 3da9 143e e2e7 113e 6e89 e6bd a8a4 653d
00000060: 327b febd b5cf 163d 7537 373e 274f c9bd
00000070: 0051 033e cbe4 493d 81a3 4a3d 7a0c e03d
00000080: 67d1 9e3d 99d3 283e 8418 a8bd fb02 15be
00000090: f1ad f63d 8fb1 44be fec0 163e e22b 503e
000000a0: 073d 4a3e ef79 c2bc 4713 2f3d 3df7 a5be
000000b0: fa96 7dbd fc90 84bd 93d1 02bd 78f1 853d
000000c0: c9c2 ac3c 3d8b 25be ce67 193e 9214 5c3e
000000d0: 670a adbc 366c b6bd 708b eabd bf61 efbc
000000e0: 968a a53d d44e 6abe e0a7 15bd 2f71 47bd
000000f0: c9fb cbbc 7b3b 6abe 05ff b63d 9044 0ebe
00000100: 393f 343d 30ee 613c 2821 8d3c 4cf0 41bc
00000110: 1dca c1bd 2fd9 7c3e 8f48 a73c a51d 03be
00000120: 518c 85bd 4b8d 2e3a 02ad b03b 8971 323e
00000130: 86eb 803d 8c23 58bd cc3e dd3d 4c40 80bd
00000140: d399 06be 4d14 b23d aad1 da3c fcbc 08be
00000150: 0f2d d23d e262 653c 873b 233e b403 b43d
00000160: b039 b13d 1cde f7bc b46f 20bc 699f 843d
00000170: 8f88 983d 0de6 403e e405 09bd 8155 ae3c
00000180: 4056 5d3e eec2 443e b65e 3dbe ad9a 83be
00000190: c654 023e ae35 64bd 968f 6ebd 56b7 683e
000001a0: d42d b0bd 884a 173d 1f5b a2bd f7b6 aabe
000001b0: 1d99 abbd 9f32 483d 4c90 99bd e199 fd3d
000001c0: 175e 44be 8ad4 c3bd cbd7 413d 8d00 37bd
000001d0: 6958 c33d 1a2c 03bd ce9e 5abd b946 d5bb
000001e0: 1300 3c3e 1c14 3f3e 1bba ecbd 8879 d73c
000001f0: ae31 88be a122 43be 5e25 5b3a 16ca 40be
00000200: 49f9 babd 1f20 b43d f403 043e 055b 043d
00000210: bd8a 4bbd 22fb 973d ed0e ea3d cbed b7bd
00000220: 31cf 103c 98a6 55be cd3b afbd 726e c93d
00000230: d990 023e 91db c43d 3481 d83d 0733 22bd
00000240: 3678 55bc 7ebe 14bd b470 29ba 22bb 8e3c
00000250: c2d3 8a3b 63a2 283d e758 4ebe b4f8 9cba
00000260: 639c 95bd 7ea7 17bc b04d 3a3e 67ca b9bc
00000270: bb18 963e ed01 8dbb cf86 303d fb4f 1c3d
00000280: 8d0d 933c 55be 3ebe 06a6 0dbe 5bd1 abbd
00000290: 1cc7 efbd 03d7 013e afa1 d3bd dce9 f7bc
000002a0: 7a88 9dbe 8429 e33c 60b6 de3d 3d28 133d
000002b0: d9e7 a83d d70d ffbc b414 ddbd ccfe fb3d
000002c0: b6ff 37be a090 18bd 2ef8 f8bc 6d5d 27bd
000002d0: c973 2a3e 7a7b f03c 4b31 b03e 9270 693b
000002e0: 1cfd 303c 1d99 e33d 0701 c9bd d588 74bc
000002f0: 8476 00be cb2e 1a3e 96b7 02bd cec5 843d
00000300: 1f37 b4be 4dc6 02be 8357 77bd ae48 ae3d
00000310: 7aa5 c6bc b41c 65bd 1bfe 1abd 5b54 b0bd
00000320: a0b2 cb3d db83 013e cdc9 f6bd 1547 7bbd
00000330: cc48 2fbb 849b a73d 892b 82bc d1c4 c43c
00000340: a117 4a3e 1883 473e eed5 bc3d ee38 7b3d
00000350: 4527 cabd b568 4abe 21da b53c 1687 d0bd
00000360: 2e4a 89be 4398 54be ddea 873d 173a 04be
00000370: 7de2 053b ea1a 113e eb8a 75bd 2a3f 583d
00000380: 678e d4bd 6414 9cbd b054 45be 7088 04be
00000390: 8be7 8e3d 1cb6 e3bd 69e7 063d 1d7e 0c3e
000003a0: 03ad 0c3d f363 2f3e d4dc d93c 1fcc 74be
000003b0: e927 003d 7464 8abd 67d1 bebd f277 dc3d
000003c0: 1bab 1c3c 32a9 9c3d f0fb 3c3d d727 023d
000003d0: 90d8 95bd 04e9 53be 1c66 d23d 3095 ecbd
000003e0: 4295 3e3d a5b0 9cbd 2cd1 65be d3a9 06be
000003f0: 89ba 34be 947c 1ebe 4e0d 82bd 8775 30be

layer_0.lin.bias f4 [32]
0.013110186 0.0038964727 -0.08173446 0.06804845 -0.01749145 -0.0011075421 -0.039504107 0.13823095
0.11461912 0.036933977 -0.11632184 0.08969923 0.027977988 0.0076405457 0.096190915 -0.007490517
0.02413774 0.12544733 -0.12220587 -0.05153782 -0.080035895 -0.07013604 -0.1211949 -0.010462543
-0.0018839578 -0.018292781 0.06472591 0.0036830518 0.015074389 -0.040855143 -0.049552843 -0.0020508
00000000: 1bcc 563c f75b 7f3b 6664 a7bd fc5c 8b3d
00000010: 3b4a 8fbc f22a 91ba 0fcf 21bd 6a8c 0d3e
00000020: 6ebd ea3d 1548 173d 253a eebd 3bb4 b73d
00000030: 1832 e53c 8b5d fa3b beff c43d 0373 f5bb
00000040: 82bc c53c 4475 003e 1247 fabd 5219 53bd
00000050: dce9 a3bd 7ca3 8fbd 0835 f8bd 166b 2bbc
00000060: 22ef f6ba beda 95bc 058f 843d 5b5f 713b
00000070: 92fa 763c b957 27bd ecf7 4abd b766 06bb

layer_1.lin.weight f4 [32, 64]
-0.121168606 -0.07223833 -0.07408239 0.11168769 -0.122080825 0.06954938 -0.12891525 0.16999948
-0.07435111 -0.010103364 -0.12456321 -0.14465193 0.09642963 -0.06006659 0.01327038 -0.03428134
0.05470899 0.03536166 -0.07299403 0.11872332 -0.1918543 -0.023627378 0.09723583 -0.0022021132
0.04030795 0.14847778 0.04248447 -0.046708703 0.13725768 0.16898993 -0.024660556 -0.021301225
0.029952206 0.15732843 0.0015189092 -0.02433877 -0.0062546325 -0.05370283 0.1455117 -0.14604206
0.012819716 0.1293417 -0.07821432 0.013333675 -0.09653462 0.12783681 0.27527657 0.16756086
0.08552332 -0.11289051 -0.04523623 0.012289732 -0.10755467 0.027721262 -0.15235482 0.07171304
0.091307126 -0.14414409 0.13807255 0.12704165 -0.25017565 0.1310421 -0.05295848 -0.115711436
-0.012654281 -0.023422556 -0.043692935 -0.00039440228 0.0010326678 -0.106499754 0.30952927 0.024112862
0.08298775 0.09645902 0.05458075 -0.070427135 0.0005249228 -0.22136912 -0.14591472 -0.12580259
0.0747182 0.028293503 -0.030002883 0.068083726 -0.26933968 -0.03383981 -0.11951609 -0.045436323
-0.12431497 0.08197675 -0.14056551 -0.050612696 0.15681995 0.09915654 -0.2106735 0.10013485
0.12820034 0.06982133 -0.0814281 0.018039238 0.08035779 0.04973195 -0.059127737 -0.094461195
-0.02865657 0.1387415 0.0009467025 0.03984931 -0.009076441 0.038531512 0.09468034 0.08725661
0.0407087 -0.024949847 -0.0024658826 0.03005417 0.014830985 -0.05227354 0.018726548 -0.07215345
0.057711292 -0.0955826 0.14494346 0.08921276 -0.1487085 0.062164493 0.0026451554 0.0017894508
-0.12888487 -0.15704328 0.020564208 -0.02424957 0.17424776 -0.155817 0.1818178 0.22979414
0.09177539 -0.08957123 -0.07318592 -0.10585603 0.12692612 -0.03772177 -0.12306036 -0.12347791
-0.025428588 -0.09384456 0.11359076 -0.073203735 0.071154386 -0.07223423 -0.1956043 -0.013396661
0.042393442 0.008524942 -0.14764938 0.034821954 0.23911723 0.06587917 0.041610412 0.015085816
0.01775445 -0.057449374 -0.13339505 -0.08188 0.06480146 0.13420267 -0.11301218 -0.036135167
-0.003360148 -0.0726459 0.0162243 0.10393701 0.04100404 0.15516269 0.06990852 0.07415484
0.17456053 -0.02991516 -0.045808252 0.110800184 0.038584385 -0.033065863 0.11504119 0.020293536
0.052681796 -0.11947363 0.038664147 0.072564706 0.01436243 -0.073292166 0.13089198 0.07748502
0.048069358 -0.00081245747 0.0077795107 0.060363162 0.033131707 -0.038939286 0.0024683946 0.1667838
0.033204135 -0.07891005 0.001092535 -0.07582202 0.09593208 -0.068737924 -0.22182389 -0.022402056
-0.037567817 0.0019634606 0.052206207 -0.006138145 0.090399094 0.04603016 0.024016889 -0.05542028
0.041925345 0.055553652 0.06360924 -0.14843513 0.022321591 -0.124666974 -0.061357655 0.11027447
-0.16011572 -0.1293441 0.06355596 -0.15953389 0.123280466 0.14163047 0.088957086 0.07864398
-0.11921738 0.050779443 0.07792493 -0.109102 0.0037726087 0.08649217 0.02122902 0.06674514
-0.065029144 0.09393802 0.120046645 0.039974254 -0.047806516 0.0010347927 0.06281675 0.12231386
0.022859583 -0.040256962 0.030683184 -0.049077895 -0.111776724 -0.05713176 -0.0610493 0.013149206
00000000: 3f27 f8bd b1f1 93bd 82b8 97bd 84bc e43d
00000010: 8305 fabd e86f 8e3d 5c02 04be 5814 2e3e
00000020: 6545 98bd 9488 25bc ff1a ffbd a31f 14be
00000030: e67c c53d 6208 76bd 026c 593c 976a 0cbd
00000040: 8916 603d 63d7 103d e57d 95bd 3625 f33d
00000050: 7475 44be 348e c1bc 9423 c73d 5451 10bb
00000060: f319 253d 8f0a 183e 3204 2e3d a051 3fbd
00000070: 478d 0c3e b20b 2d3e ef04 cabc e87f aebc
00000080: 545e f53c b41a 213e 2316 c73a 1a62 c7bc
00000090: a9f3 ccbb 80f7 5bbd 0501 153e 0d8c 15be
000000a0: c909 523c 2772 043e d42e a0bd 7d75 5a3c
000000b0: f1b3 c5bd a7e7 023e 0df1 8c3e 1395 2b3e
000000c0: da26 af3d 2433 e7bd a049 39bd df5a 493c
000000d0: 9f45 dcbd b317 e33c e702 1cbe 49de 923d
000000e0: 3bff ba3d 829a 13be e462 0d3e 3517 023e
000000f0: 0617 80be e62f 063e feea 58bd 1efa ecbd
00000100: e753 4fbc a9e0 bfbc 5df7 32bd c7c7 ceb9
00000110: 955a 873a 8b1c dabd 9f7a 9e3e 5688 c53c
00000120: 7bf5 a93d 4f8c c53d 1190 5f3d 1a3c 90bd
00000130: f99a 093a 96ae 62be ab6a 15be 65d2 00be
00000140: db05 993d c7c7 e73c 9bc8 f5bc 7b6f 8b3d
00000150: e4e6 89be 9d9b 0abd dac4 f4bd 701b 3abd
00000160: d998 febd 6de3 a73d 68f0 0fbe 424f 4fbd
00000170: 6995 203e 9612 cb3d cbba 57be 8013 cd3d
00000180: f346 033e 7cfe 8e3d c7c3 a6bd 06c7 933c
00000190: a092 a43d bbb3 4b3d ed2f 72bd df74 c1bd
000001a0: 2fc1 eabc 4012 0e3e 212c 783a 0839 233d
000001b0: 5ab5 14bc 38d3 1d3d c4e7 c13d 98b3 b23d
000001c0: 2abe 263d 9f63 ccbc a59a 21bb 2a34 f63c
000001d0: a9fd 723c c81c 56bd 6b68 993c 30c5 93bd
000001e0: ad62 6c3d cfc0 c3bd 0f6c 143e 2eb5 b63d
000001f0: 0b47 18be 32a0 7e3d 585a 2d3b 018c ea3a
00000200: 65fa 03be f4cf 20be 4576 a83c 09a7 c6bc
00000210: 016e 323e 7e8e 1fbe 722e 3a3e 284f 6b3e
00000220: bcf4 bb3d 1f71 b7bd 80e2 95bd 0ccb d8bd
00000230: ecf8 013e 2582 1abd 1207 fcbd fde1 fcbd
00000240: 9d4f d0bc 9431 c0bd 46a2 e83d d7eb 95bd
00000250: 64b9 913d 8aef 93bd 7e4c 48be ab7d 5bbc
00000260: bfa4 2d3d 33ac 0b3c 6631 17be 77a1 0e3d
00000270: 26db 743e a9eb 863d ae6f 2a3d 802a 773c
00000280: c871 913c 0950 6bbd b698 08be b4b0 a7bd
00000290: a1b6 843d 6d6c 093e ee72 e7bd 7802 14bd
000002a0: ee35 5cbb 60c7 94bd d3e8 843c eddc d43d
000002b0: daf3 273d f8e2 1e3e 332c 8f3d 7ede 973d
000002c0: ffbf 323e a310 f5bc 6fa1 3bbd 35eb e23d
000002d0: a90a 1e3d 1270 07bd b79a eb3d a13e a63c
000002e0: dec8 573d 97ae f4bd 4c5e 1e3d ce9c 943d
000002f0: 6650 6b3c 341a 96bd 8c08 063e 77b0 9e3d
00000300: 60e4 443d 19fb 54ba 44eb fe3b 5d3f 773d
00000310: 1db5 073d cd7e 1fbd cac4 213b 5fc9 2a3e
00000320: 0f01 083d 989b a1bd 6433 8f3a 9348 9bbd
00000330: 0a78 c43d 78c6 8cbd cd25 63be 8484 b7bc
00000340: b6e0 19bd 67ad 003b 2dd6 553d 7e22 c9bb
00000350: 2923 b93d 1f8a 3c3d 11bf c43c 6000 63bd
00000360: e9b9 2b3d 3a8c 633d 9045 823d 61ff 17be
00000370: c5db b63c 6651 ffbd 2a52 7bbd 95d7 e13d
00000380: 60f5 23be c872 04be a129 823d da5c 23be
00000390: 787a fc3d 9407 113e 222f b63d 1810 a13d
000003a0: 3e28 f4bd 1bfe 4f3d 1b97 9f3d df70 dfbd
000003b0: df3d 773b cf22 b13d 7be8 ad3c adb1 883d
000003c0: 002e 85bd 9462 c03d 04db f53d 0bbc 233d
000003d0: c4d0 43bd e2a1 873a 11a6 803d b07f fa3d
000003e0: 0544 bb3c 7ce4 24bd 4d5b fb3c e705 49bd
000003f0: 32eb e4bd fe02 6abd d50e 7abd c46f 573c

layer_1.lin.bias f4 [32]
-0.04727286 -0.056383386 -0.046823464 -0.017258268 -0.034478545 -0.08385878 0.07312601 0.028539758
-0.088043496 0.014697626 0.049243834 0.015852977 0.017875273 0.020456443 0.077351 -0.06990893
-0.036019687 0.061588727 -0.050518516 0.075204745 0.11992029 -0.073654525 0.0010495879 0.07097685
-0.020995097 0.04144259 0.007955546 0.039881114 -0.057274614 -0.005474515 0.09428967 0.0011382062
00000000: 30a1 41bd 44f2 66bd f6c9 3fbd 3661 8dbc
00000010: 6039 0dbd 27be abbd 17c3 953d 36cc e93c
00000020: 2650 b4bd 50ce 703c e7b3 493d 1ade 813c
00000030: 2a6f 923c 4594 a73c 336a 9e3d 6a2c 8fbd
00000040: 6189 13bd 7644 7c3d 81ec 4ebd f204 9a3d
00000050: c598 f53d 2fd8 96bd 5392 893a 505c 913d
00000060: e9fd abbc b5bf 293d fa57 023c 615a 233d
00000070: c998 6abd 8f63 b3bb f11a c13d dd2f 953a

layer_2.lin.weight f4 [32, 64]
-0.00017641418 0.06560842 0.02447497 -0.0046608844 -0.004410499 -0.0020314422 -0.085471526 -0.009135762
-0.0086836 -0.07890403 0.17458989 -0.07941369 0.17696741 0.044018038 -0.018450957 0.020089831
0.014834515 0.11881499 0.040185966 0.028512955 -0.08563191 0.013021631 -0.078453496 0.10986516
-0.085795194 0.034024976 0.22825834 -0.06978379 0.085934736 -0.07605367 0.14272891 -0.14413047
-0.15216887 0.06345842 -0.12267182 -0.12568733 -0.09638872 0.14583191 0.07392284 -0.1183871
0.15490153 0.061620936 -0.16974655 -0.04825526 -0.16578262 0.027202606 0.026602535 -0.06409851
0.0072813835 0.062174138 -0.05767275 -0.022757685 -0.0312963 -0.38030964 0.047968965 0.00070975616
-0.11181318 0.008760955 0.1494911 0.09574043 -0.15220606 0.08863271 -0.14006552 0.10337014
0.037614528 0.09609095 0.12022292 0.061845914 -0.0787794 0.11778702 -0.03484745 -0.00731732
0.14415352 0.09975623 -0.18376936 -0.047628272 -0.19682704 0.019209092 -0.048886567 -0.14363603
-0.08157949 0.029133001 0.015888477 0.09852292 0.03774116 -0.06360628 -0.023180543 0.026587265
0.004569094 -0.001071253 0.09467648 -0.047861695 -0.25324705 -0.14983174 -0.07413335 0.25519866
0.13131411 0.022517607 0.11578875 0.012620378 -0.30072412 0.03376099 0.102615066 0.027825976
-0.009249545 0.01986499 -0.13122788 -0.047857296 0.113159835 -0.044547204 -0.03865579 -0.0020896206
-0.052655306 0.09041533 -0.09417155 -0.11092257 -0.031867187 -0.2035735 0.07082728 -0.070249535
-0.09539176 0.010209013 -0.004240702 0.024780098 0.10442602 -0.024722684 0.06942679 0.039208367
-0.064682856 0.12571847 0.07788608 0.025909737 -0.11255968 -0.0021001436 0.123269714 0.076924816
-0.17428437 0.025152236 0.029497148 -0.02392601 0.03276548 -0.1470868 -0.11740118 -0.020455176
-0.049153287 -0.088742524 -0.025147287 -0.062398996 0.13127838 -0.05664142 -0.005365681 0.047361534
-0.04009641 0.13417283 -0.033634473 0.15216957 0.0016426634 0.053532865 -0.14137645 0.10257837
0.16918494 0.10026228 0.0056934636 0.017366525 -0.06105185 0.010798418 0.09374805 -0.030917313
-0.011863642 -0.15976286 0.12929316 0.04299557 -0.042107258 -0.02887657 0.038944356 0.00686089
-0.15794843 0.076608896 -0.066911615 -0.07987181 0.055046946 0.15586235 0.01502136 -0.04268459
-0.030217726 -0.019262165 -0.034414 -0.08251466 0.06645222 0.0072616176 0.09930736 -0.16848414
-0.028152509 0.064605184 0.17838608 0.043898806 -0.1403367 -0.050368715 -0.14004447 -0.1254059
0.017204875 -0.08001133 0.06836792 -0.0010091475 0.20762138 0.036179207 -0.0048850486 0.09740232
0.032409023 -0.0693045 -0.075265355 0.0448961 0.04829802 -0.13046965 0.0247511 -0.09401932
-0.056083705 0.15892254 0.11485547 0.0023044872 0.14390689 0.015410163 0.06612487 -0.18798381
0.09968252 -0.06536764 -0.09200685 -0.101658866 0.08626724 -0.05011662 -0.014162658 -0.027815895
-0.0046398635 0.09330563 -0.08737208 -0.041889623 -0.19818133 -0.052257355 -0.07328837 0.027319629
-0.038699813 -0.10796863 0.09657893 0.006749991 0.039063286 0.028744252 -0.02100299 -0.062802196
0.0035083217 -0.09537279 -0.099144705 -0.015011126 -0.1480587 -0.0990779 -0.098931365 0.25953403
00000000: d2fb 38b9 b55d 863d bb7f c83c 55ba 98bb
00000010: f285 90bb f221 05bb b20b afbd 2aae 15bc
00000020: a945 0ebc 7098 a1bd b1c7 323e a5a3 a2bd
00000030: f236 353e 424c 343d 7626 97bc 6e93 a43c
00000040: 770c 733c 4655 f33d 0a9a 243d 0094 e93c
00000050: c85f afbd ae58 553c 3aac a0bd fc00 e13d
00000060: 64b5 afbd c65d 0b3d 8ebc 693e ceea 8ebd
00000070: 8dfe af3d 07c2 9bbd 8727 123e f096 13be
00000080: 28d2 1bbe 7df6 813d 5d3b fbbd 2eb4 00be
00000090: 7367 c5bd f654 153e dc64 973d f074 f2bd
000000a0: 829e 1e3e 3c66 7c3d 0ad2 2dbe 4fa7 45bd
000000b0: ebc2 29be 00d8 de3c 8fed d93c 1446 83bd
000000c0: ac98 ee3b 4faa 7e3d 433a 6cbd 536e babc
000000d0: 8d30 00bd f2b7 c2be 1b7b 443d ee0e 3a3a
000000e0: 4ffe e4bd 1c8a 0f3c 3214 193e 8f13 c43d
000000f0: e8db 1bbe 1185 b53d 566d 0fbe b9b3 d33d
00000100: b111 1a3d 55cb c43d 6f37 f63d 2452 7d3d
00000110: 1857 a1bd 523a f13d 33bc 0ebd 21c6 efbb
00000120: fb9c 133e ff4c cc3d 092e 3cbe dd15 43bd
00000130: 078d 49be 635c 9d3c 483d 48bd 5315 13be
00000140: 2613 a7bd 55a8 ee3c 8d28 823c 62c6 c93d
00000150: 7996 1a3d 0244 82bd 1fe5 bdbc 89cd d93c
00000160: 57b8 953b 4969 8cba bee5 c13d a00a 44bd
00000170: 99a9 81be 7e6d 19be 3ad3 97bd 66a9 823e
00000180: 3577 063e d876 b83c a722 ed3d b4c5 4e3c
00000190: 83f8 99be f748 0a3d d927 d23d 4df3 e33c
000001a0: 678b 17bc e7bb a23c 9a60 06be 0306 44bd
000001b0: 58c0 e73d 2177 36bd 8955 1ebd 04f2 08bb
000001c0: 17ad 57bd ac2b b93d 03dd c0bd 5f2b e3bd
000001d0: 2b87 02bd 9275 50be e50d 913d fdde 8fbd
000001e0: c15c c3bd b443 273c 96f5 8abb a2ff ca3c
000001f0: 4fdd d53d 3a87 cabc a22f 8e3d f498 203d
00000200: 7278 84bd 58bc 003e bd82 9f3d a840 d43c
00000210: b185 e6bd 90a2 09bb d574 fc3d c28a 9d3d
00000220: 9a77 32be 100c ce3c 01a4 f13c 7b00 c4bc
00000230: 1935 063d ec9d 16be 0870 f0bd 9d91 a7bc
00000240: f554 49bd a4be b5bd af01 cebc 1796 7fbd
00000250: d76d 063e d500 68bd 98d2 afbb 2bfe 413d
00000260: 223c 24bd 9a64 093e 4dc4 09bd 57d2 1b3e
00000270: a34e d73a 4745 5b3d fdc4 10be 9c14 d23d
00000280: d13e 2d3e 4f56 cd3d 3c90 ba3b 3e44 8e3c
00000290: 8111 7abd d9eb 303c fafe bf3d 4e46 fdbc
000002a0: b95f 42bc e098 23be 6d65 043e 1f1c 303d
000002b0: a978 2cbd 8e8e ecbc 1e84 1f3d 51d1 e03b
000002c0: 3cbd 21be 20e5 9c3d f508 89bd d593 a3bd
000002d0: e878 613d 619a 1f3e 261c 763c 09d6 2ebd
000002e0: 2a8b f7bc b0cb 9dbc b2f5 0cbd 72fd a8bd
000002f0: 1a18 883d ddf2 ed3b a861 cb3d 1b87 2cbe
00000300: 17a0 e6bc b94f 843d d7aa 363e 3ccf 333d
00000310: 6db4 0fbe 6d4f 4ebd d167 0fbe 676a 00be
00000320: 3df1 8c3c fbdc a3bd 7b04 8c3d 5f45 84ba
00000330: b39a 543e a630 143d c212 a0bb de7a c73d
00000340: 53bf 043d 85ef 8dbd b924 9abd f9e4 373d
00000350: 25d4 453d d699 05be d2c2 ca3c 348d c0bd
00000360: 07b8 65bd 97bc 223e 5839 eb3d e106 173b
00000370: 545c 133e e97a 7c3c 7a6c 873d d47e 40be
00000380: 5926 cc3d 78df 85bd 166e bcbd 8632 d0bd
00000390: e1ac b03d 1647 4dbd 7e0a 68bc 29de e3bc
000003a0: ff09 98bb 0617 bf3d 22f0 b2bd 7494 2bbd
000003b0: 0cf0 4abe cf0b 56bd 3718 96bd 6acd df3c
000003c0: b283 1ebd a81e ddbd 2dcb c53d 072f dd3b
000003d0: d300 203d 1179 eb3c 760e acbc 709e 80bd
000003e0: dfeb 653b cf52 c3bd 610c cbbd 3af1 75bc
000003f0: b39c 17be 5be9 cabd 879c cabd a5e1 843e

layer_2.lin.bias f4 [32]
0.05209832 -0.020868963 -0.10656847 0.039753065 -0.10207325 -0.046758894 -0.02626243 -0.054035217
-0.024354955 -0.0396069 0.004706635 0.053327143 0.07669175 0.0380671 0.012904125 0.05255371
-0.015264322 -0.041931465 -0.09605486 -0.05957115 0.018110525 -0.03866907 -0.05485429 0.039828267
-0.031278215 0.024668578 -0.020628994 0.022385474 -0.048168357 0.06094125 -0.103052825 -0.11248511
00000000: 0c65 553d 63f5 aabc 9240 dabd 1cd4 223d
00000010: c80b d1bd 4186 3fbd 4f24 d7bc 0854 5dbd
00000020: 0b84 c7bc d83a 22bd 1e3a 9a3b 906d 5a3d
00000030: 9010 9d3d 3fec 1b3d d36b 533c 8f42 573d
00000040: 3517 7abc 54c0 2bbd 69b8 c4bd e100 74bd
00000050: 865c 943c 7563 1ebd e4ae 60bd f722 233d
00000060: 961d 00bd c215 ca3c 23fe a8bc be61 b73c
00000070: 2f4c 45bd 889d 793d 5c0d d3bd 985e e6bd

layer_3.lin.weight f4 [32, 64]
0.05415597 -0.13620587 0.15520535 0.0461798 0.019606508 0.013459964 0.006684743 0.014570777
-0.13525867 0.080323815 0.024907622 0.090603784 0.08865699 -0.018333951 0.06780816 -0.20498064
0.0035713874 -0.08626242 -0.118200235 0.08765145 0.16466337 -0.14946939 -0.15574728 0.040140726
-0.0066430443 0.06346242 -0.03634831 0.11776918 0.025805648 0.06802735 -0.010007321 0.024640407
0.16842964 -0.14766613 -0.2123083 0.1489242 -0.16570087 0.062325463 0.045551497 0.055241127
0.017873166 -0.08913107 -0.051219173 0.124145605 -0.06350402 -0.024521353 0.13220638 -0.05723615
0.092322215 -0.082563765 -0.09257864 -0.14776176 -0.036155537 0.106113926 0.1963816 0.1423104
0.1452474 -0.14326264 0.064268686 -0.20776092 0.055716187 0.054517712 -0.12882268 0.15590692
-0.11379233 0.110179015 -0.06364103 -0.028865295 -0.0039463257 -0.081468366 0.15985073 0.008751822
-0.015351594 0.15826702 0.009354906 -0.08256648 -0.051358975 -0.08840583 -0.2435832 -0.13310051
-0.06841322 0.14126629 -0.026889317 -0.019143129 -0.0061408523 -0.025710145 0.091752805 0.15336624
0.031175354 0.03611864 -0.11906556 -0.012005779 -0.03770057 0.10790494 0.07973904 -0.040267006
0.0012587992 0.053953838 0.15698981 -0.10914182 -0.07306932 0.110585846 0.15399331 -0.038909476
-0.006388982 -0.119873375 -0.10239025 -0.015403561 0.18082489 0.13460876 -0.052447155 0.11941093
-0.032718547 -0.013024918 0.06135322 -0.068249054 0.21912399 -0.046028562 -0.12967514 -0.024111472
-0.0070113237 0.22359633 0.054853834 0.09438354 -0.09140849 0.03875514 0.19072126 -0.055412125
-0.09115077 -0.19315241 0.11291189 -0.14491674 -0.0004742713 -0.22528566 0.12660941 0.10608346
-0.043314025 -0.005524208 0.110807784 0.060737573 -0.062475212 0.03160873 -0.011561012 0.10513229
-0.12455941 -0.0330692 0.1027713 0.025464347 0.01267821 0.055540174 -0.17459771 -0.104969636
-0.046783753 -0.008418429 -0.018666217 0.023108719 0.11102391 0.10167996 -0.07315593 0.10780735
0.12423423 0.011935226 0.0637204 -0.018134082 0.022201305 0.21972975 0.017716331 0.039474726
0.14256442 -0.11576021 -0.11800991 -0.09866036 -0.0050569805 -0.006363065 -0.11559418 -0.023404257
-0.017324906 -0.025158232 0.011080984 -0.08189088 -0.02128764 0.043080784 -0.19326262 0.03824188
0.07433876 0.000679264 0.0769411 0.1370599 0.027953364 -0.022020297 0.15093264 0.0730107
0.040315 -3.4512064e-05 -0.17160979 0.096112095 -0.038844682 -0.05787411 -0.098507375 0.060140487
-0.051788148 -0.07377079 0.038358938 -0.04554823 -0.024620373 0.10830065 -0.17651483 -0.059686594
-0.079222366 0.13113268 -0.0088721365 -0.07050361 -0.11503507 0.054842073 0.15843587 -0.060899626
0.11963622 -0.112935215 0.05102221 -0.1289999 0.07086095 0.1660835 -0.0031588015 -0.0018763265
0.09623479 0.051403973 -0.07358451 -0.06284095 -0.08341228 0.08990085 -0.14107415 0.116994254
-0.008171751 0.0005438729 -0.016499458 0.01778956 -0.03259064 -0.04324368 -0.03561868 -0.029518828
0.008006628 0.031985767 0.052758403 -0.027903985 0.1351607 -0.0030174246 -0.114103 0.16166724
0.03227928 0.032601714 0.080226816 0.12733309 -0.12805751 0.12409561 0.15898478 -0.0759955
00000000: a7d2 5d3d 8d79 0bbe 27ee 1e3e 0827 3d3d
00000010: d49d a03c 2e87 5c3c b00b db3b 45ba 6e3c
00000020: 4081 0abe d080 a43d 120b cc3c 7a8e b93d
00000030: cc91 b53d 1531 96bc 01df 8a3d 72e6 51be
00000040: f00d 6a3b 5aaa b0bd f712 f2bd 9a82 b33d
00000050: 849d 283e 810e 19be 377c 1fbe 9a6a 243d
00000060: e5ad d9bb 96f8 813d f7e1 14bd f830 f13d
00000070: 5e66 d33c ec51 8b3d bff5 23bc aeda c93c
00000080: d278 2c3e ca35 17be 5967 59be 967f 183e
00000090: 7dad 29be fc48 7f3d 3594 3a3d 8544 623d
000000a0: bf6a 923c 5a8a b6bd 32cb 51bd 0d40 fe3d
000000b0: 650e 82bd 01e1 c8bc 1c61 073e 7470 6abd
000000c0: 6e13 bd3d 3117 a9bd df99 bdbd dc4e 17be
000000d0: d417 14bd 4252 d93d 4218 493e d1b9 113e
000000e0: bcbb 143e 71b3 12be 4d9f 833d 47bf 54be
000000f0: a836 643d f74d 5f3d 18ea 03be 10a6 1f3e
00000100: f40b e9bd 89a5 e13d 3a56 82bd e976 ecbc
00000110: 2e50 81bb e3d8 a6bd e9af 233e cd63 0f3c
00000120: 4185 7bbc c010 223e 5245 193c 9d18 a9bd
00000130: ca5d 52bd 1e0e b5bd e06d 79be 804b 08be
00000140: 3b1c 8cbd 1ca8 103e fc46 dcbc 0dd2 9cbc
00000150: 3439 c9bb 159e d2bc e5e8 bb3d 0a0c 1d3e
00000160: 7563 ff3c 24f1 133d a5d8 f3bd e3b3 44bc
00000170: ea6b 1abd 44fd dc3d 394e a33d 04ef 24bd
00000180: 4bfe a43a b3fe 5c3d f0c1 203e bf85 dfbd
00000190: 5ea5 95bd d57a e23d 6cb0 1d3e 8b5f 1fbd
000001a0: aa5a d1bb 2c80 f5bd fbb1 d1bd 385f 7cbc
000001b0: 292a 393e e1d6 093e d4d2 56bd b88d f43d
000001c0: e203 06bd 7766 55bc 844d 7b3d 29c6 8bbd
000001d0: 0a62 603e 7288 3cbd 8fc9 04be 6c85 c5bc
000001e0: 3fbf e5bb 70f6 643e 6aae 603d 284c c13d
000001f0: 6034 bbbd b6bd 1e3d 6f4c 433e d3f7 62bd
00000200: 41ad babd bfc9 45be 593e e73d 0e65 14be
00000210: 9ea7 f8b9 49b1 66be e6a5 013e 4942 d93d
00000220: 0c6a 31bd 6a04 b5bb 31ef e23d f6c7 783d
00000230: 02e6 7fbd 2878 013d 666a 3dbc 994f d73d
00000240: 0119 ffbd 9273 07bd c279 d23d 9b9a d03c
00000250: 44b8 4f3c 187e 633d bec9 32be 52fa d6bd
00000260: 52a0 3fbd 73ed 09bc e5e9 98bc 7f4e bd3c
00000270: 8160 e33d 953d d03d c7d2 95bd 1aca dc3d
00000280: 846e fe3d f78b 433c d77f 823d ed8d 94bc
00000290: 83df b53c d600 613e d721 913c 40b0 213d
000002a0: 68fc 113e b013 edbd 2eaf f1bd 710e cabd
000002b0: 07b5 a5bb 4281 d0bb a4bc ecbd 49ba bfbc
000002c0: f6ec 8dbc a318 cebc 048d 353c 68b6 a7bd
000002d0: 6b63 aebc 7a75 303d a3e6 45be 84a3 1c3d
000002e0: eb3e 983d a310 323a 4c93 9d3d 6e59 0c3e
000002f0: 74fe e43c e963 b4bc 168e 1a3e a286 953d
00000300: 5721 253d 0cc1 10b8 7aba 2fbe 6bd6 c43d
00000310: 9a1b 1fbd 670d 6dbd 3cbe c9bd df55 763d
00000320: cf1f 54bd 2415 97bd 431e 1d3d c890 3abd
00000330: aab0 c9bc bbcc dd3d 4ec0 34be ee79 74bd
00000340: 563f a2bd a547 063e 705c 11bc 3264 90bd
00000350: 8297 ebbd 15a2 603d 033d 223e e371 79bd
00000360: d603 f53d 944a e7bd aafc 503d 8d18 04be
00000370: 8c1f 913d cb11 2a3e e503 4fbb 12ef f5ba
00000380: bf16 c53d f98c 523d 7ab3 96bd c2b2 80bd
00000390: 0fd4 aabd f01d b83d be75 10be af9a ef3d
000003a0: cfe2 05bc b192 0e3a df29 87bc 69bb 913c
000003b0: c37d 05bd 4920 31bd e5e4 11bd 78d1 f1bc
000003c0: 3b2e 033c 8203 033d 3219 583d e696 e4bc
000003d0: 9167 0a3e fcbf 45bb d5ae e9bd 198c 253e
000003e0: 4737 043d 6089 053d f54d a43d 9b63 023e
000003f0: 8221 03be d725 fe3d e8cc 223e 87a3 9bbd

layer_3.lin.bias f4 [32]
0.031236617 0.019576827 0.09232382 -0.062611155 0.047445625 0.079523735 0.09732508 -0.07647102
0.09151203 -0.009790283 0.003874181 0.017676389 0.08782209 0.028847387 -0.08972987 0.00625847
0.01078408 -0.0048971367 -0.024287948 -0.016860222 0.07121991 0.07746371 0.06091633 0.0034831609
0.03134994 0.032664806 -0.035159346 0.07940598 0.07872202 0.0154652465 0.0556355 -0.060588278
00000000: efe3 ff3c 955f a03c 4514 bd3d 473a 80bd
00000010: 5856 423d 57dd a23d 5f52 c73d d79c 9cbd
00000020: a96a bb3d 6c67 20bc f9e5 7d3b 13ce 903c
00000030: 11dc b33d 5b51 ec3c 4bc4 b7bd da13 cd3b
00000040: b6af 303c 2978 a0bb 85f7 c6bc 731e 8abc
00000050: bfdb 913d 4ba5 9e3d 6783 793d be45 643b
00000060: cb68 003d 88cb 053d 3f03 10bd 9a9f a23d
00000070: 0339 a13d f261 7d3c 0de2 633d 6a2b 78bd

layer_4.lin.weight f4 [32, 64]
0.117995925 -0.05768523 0.041874047 -0.120836705 -0.25286248 0.12329755 -0.04027805 -0.098354615
0.0045458213 0.047080863 -0.04216036 -0.039942693 0.08728571 0.003802818 0.018490566 -0.12161725
-0.108182244 0.04754299 0.00898444 0.04833986 0.09516178 -0.05583571 -0.013627231 -0.12961869
-0.026982412 0.13549866 0.08341021 0.06289873 -0.1011202 -0.09361553 -0.0397559 -0.12949519
-0.08538441 0.096509784 0.040875234 0.078449465 0.08796074 0.013914976 -0.062692724 0.15348731
0.106003486 0.053228013 -0.1349645 -0.012730739 -0.13069174 -0.008619803 0.034634512 0.2183129
0.015174491 0.021414176 -0.12895058 0.035619855 0.13207865 0.009453629 -0.07961849 0.152152
0.03750101 -0.1410713 -0.14558338 -0.07550625 -0.11589611 0.14120229 0.03809884 -0.026534708
0.13191064 -0.08011082 -0.14170852 -0.10638333 0.0043981345 -0.031779878 0.1821908 0.074589536
-0.23272327 0.01684623 0.024645079 0.12978077 0.16823678 -0.13401513 -0.031483795 0.08495616
-0.03758978 0.12650023 -0.17775826 -0.040032435 -0.0415257 0.007952842 -0.0048431726 0.1260632
-0.05024547 -0.16723736 -0.1509168 -0.007500827 0.08819767 -0.0015582155 0.14593346 -0.023823187
0.056292713 0.035954494 -0.018136565 -0.13044687 -0.0990682 0.03416495 0.03410236 -0.10858015
-0.08384111 0.051040545 -0.050987136 -0.10868961 -0.015527513 0.047905676 0.024990616 -0.1474482
-0.095423296 0.10221272 -0.08468742 -0.157491 0.063756645 0.090473354 0.040984582 0.088434525
0.13429971 -0.14173457 -0.0252204 -0.00245828 -0.115610786 -0.034823857 -0.07698111 0.106620975
-0.08259312 0.15986562 -0.089176424 0.16528471 -0.05348993 -0.14153394 -0.08519543 -0.10396892
-0.042217765 0.022891225 -0.04773832 -0.027587013 0.050412957 0.05024166 -0.008378427 -0.013558007
-0.118507706 0.033769917 0.06807821 -0.11722653 -0.09057004 0.066700585 0.004594918 0.055277262
0.01034965 -0.17080067 0.11411063 -0.04443968 0.029855827 0.042884495 0.08924283 0.052894972
-0.06652392 -0.06721322 -0.012300565 0.041531302 0.10298009 0.11513009 -0.043107055 0.008653868
-0.08396443 -0.121498615 0.05784346 -0.0141171785 -0.044228848 -0.038295504 0.031496257 0.029737718
0.12748966 -0.004526541 -0.07675919 0.07707158 -0.13940625 -0.040211987 -0.13427398 0.12214935
-0.067095265 0.043974034 0.010737001 0.05488609 -0.028942456 0.113067016 -0.08126874 0.03583641
-0.059032932 -0.14575037 -0.03240733 0.05525808 0.050003033 -0.01084911 0.07869444 0.10881107
0.08862416 -0.040975943 0.02605691 0.10616663 0.05190299 0.0009959842 0.11987306 -0.12757519
0.06912854 -0.011771455 0.08886485 0.15903537 0.16666268 -0.0292439 0.097672775 0.07936651
-0.014189608 0.11062915 0.0417217 0.09577784 0.019894328 -0.07182528 -0.1274737 0.08832576
0.05034491 0.041682255 0.08901565 0.018374102 0.0005647312 -0.0031215996 -0.012067174 0.04986286
-0.04170906 0.11456736 -0.042469975 -0.048440013 -0.01396088 -0.056043636 0.10463598 0.025971958
-0.15356347 0.023558142 0.07019418 -0.08435921 0.02584474 -0.051554415 0.0020590085 -0.08616508
0.16498473 -0.033487298 0.14063826 0.0005174974 -0.15135111 0.021676814 -0.0044816067 0.12863618
00000000: d9a7 f13d 5947 6cbd 1f84 2b3d 3c79 f7bd
00000010: 3177 81be 6d83 fc3d 99fa 24bd 256e c9bd
00000020: 1df5 943b ddd7 403d 57b0 2cbd f39a 23bd
00000030: dac2 b23d b338 793b 8779 973c 7712 f9bd
00000040: a78e ddbd 70bc 423d 7933 133c 0400 463d
00000050: 2ee4 c23d fcb3 64bd c044 5fbc c3ba 04be
00000060: 380a ddbc 29c0 0a3e f9d2 aa3d 0dd1 803d
00000070: 1b18 cfbd 80b9 bfbd 15d7 22bd 639a 04be
00000080: 06de aebd eca6 c53d ca6c 273d 1daa a03d
00000090: c324 b43d a4fb 633c 0b65 80bd c72b 1d3e
000000a0: 5b18 d93d 9e05 5a3d 2234 0abe 9794 50bc
000000b0: 0ed4 05be 133a 0dbc ebdc 0d3d 6b8d 5f3e
000000c0: 6e9e 783c c86c af3c 9f0b 04be 20e6 113d
000000d0: a03f 073e 65e3 1a3c 050f a3bd bccd 1b3e
000000e0: a99a 193d ff74 10be cf13 15be 05a3 9abd
000000f0: f15a edbd 5597 103e 870d 1c3d 515f d9bc
00000100: 9513 073e 2411 a4bd 0a1c 11be 81df d9bd
00000110: 3a1e 903b 9e2b 02bd 3a90 3a3e 66c2 983d
00000120: 024f 6ebe 1b01 8a3c 7ae4 c93c 40e5 043e
00000130: 4346 2c3e 433b 09be 27f5 00bd 7ffd ad3d
00000140: bef7 19bd 4789 013e 4306 36be 0df9 23bd
00000150: da16 2abd a34c 023c 7ab3 9ebb b616 013e
00000160: 32ce 4dbd 4540 2bbe ef89 1abe 7fc9 f5bb
00000170: fba0 b43d 093d ccba 956f 153e d828 c3bc
00000180: 3093 663d 0545 133d 2293 94bc dd93 05be
00000190: 45e4 cabd 8cf0 0b3d ebae 0b3d 455f debd
000001a0: e3b4 abbd e40f 513d e3d7 50bd a998 debd
000001b0: 1c67 7ebc be38 443d 1fb9 cc3c a9fc 16be
000001c0: 4a6d c3bd e754 d13d 9970 adbd 5245 21be
000001d0: d892 823d 184a b93d 73df 273d 291d b53d
000001e0: dd85 093e de22 11be 039b cebc 181b 21bb
000001f0: 59c5 ecbd 76a3 0ebd 46a8 9dbd 195c da3d
00000200: 9526 a9bd d0b3 233e 21a2 b6bd 6540 293e
00000210: 4218 5bbd 46ee 10be f17a aebd a8ed d4bd
00000220: 89ec 2cbd 6186 bb3c 4289 43bd 29fe e1bc
00000230: d17d 4e3d 33ca 4d3d ab45 09bc 6722 5ebc
00000240: 2bb4 f2bd 5352 0a3d 976c 8b3d 7714 f0bd
00000250: c97c b9bd 519a 883d f790 963b 696a 623d
00000260: 9491 293c 5fe6 2ebe d5b2 e93d 6206 36bd
00000270: 3594 f43c a7a7 2f3d f2c4 b63d 66a8 583d
00000280: b13d 88bd 16a7 89bd 4f88 49bc ba1c 2a3d
00000290: 3ae7 d23d 53c9 eb3d 0691 30bd f4c8 0d3c
000002a0: 8bf5 abbd 44d4 f8bd 44ed 6c3d bd4b 67bc
000002b0: 4f29 35bd bfdb 1cbd 3802 013d 849c f33c
000002c0: a68c 023e 6153 94bb ec33 9dbd b4d7 9d3d
000002d0: 83c0 0ebe 53b5 24bd 1e7f 09be 7029 fa3d
000002e0: 3e69 89bd 1e1e 343d 3fea 2f3c 3dd0 603d
000002f0: bb18 edbc ae8f e73d 3a70 a6bd 33c9 123d
00000300: 84cc 71bd 963f 15be 8cbd 04bd 4c56 623d
00000310: fbcf 4c3d 77c0 31bc 8d2a a13d 57d8 de3d
00000320: 9580 b53d 64d6 27bd 4d75 d53c e46d d93d
00000330: 3b98 543d af8b 823a 0280 f53d 12a3 02be
00000340: 4493 8d3d 10dd 40bc c6fe b53d 2bda 223e
00000350: 9fa9 2a3e e790 efbc aa08 c83d e98a a23d
00000360: 887b 68bc 8991 e23d 60e4 2a3d 2c27 c43d
00000370: 6ef9 a23c 2219 93bd 7788 02be 23e4 b43d
00000380: 7736 4e3d 03bb 2a3d d64d b63d 4985 963c
00000390: 780a 143a c093 4cbb 65b5 45bc 003d 4c3d
000003a0: 1fd7 2abd 4ba2 ea3d fff4 2dbd 0969 46bd
000003b0: 2dbc 64bc 038e 65bd 644b d63d 25c3 d43c
000003c0: be3f 1dbe 01fd c03c f7c1 8f3d 86c4 acbd
000003d0: 59b8 d33c b92a 53bd 6ef0 063b 5177 b0bd
000003e0: c2f1 283e fa29 09bd 7a03 103e aaa8 073a
000003f0: c9fb 1abe 9393 b13c 71da 92bb 34b9 033e

layer_4.lin.bias f4 [32]
0.019833265 -0.05321613 0.082796745 -0.056104116 -0.07887173 -0.020134764 0.0011499131 -0.037455287
-0.06763113 -0.0031984397 0.01618579 0.035672817 -0.12261877 -0.02164578 0.061899047 0.10570602
0.040037338 0.069830686 0.066961706 -0.025425091 -0.071486905 -0.039408993 0.018592153 -0.044407934
0.10655606 -0.08202954 0.07589762 0.042345986 0.103242345 0.06427351 -0.042052682 0.072125435
00000000: 5f79 a23c 28f9 59bd 5791 a93d 6ecd 65bd
00000010: 8087 a1bd a9f1 a4bc aeb8 963a b76a 19bd
00000020: 3182 8abd ea9c 51bb 1098 843c a91d 123d
00000030: 8d1f fbbd 7e52 b1bc db89 7d3d 667c d83d
00000040: 31fe 233d 6403 8f3d 3823 893d 4848 d0bc
00000050: ba67 92bd 536b 21bd 924e 983c 18e5 35bd
00000060: 103a da3d 1aff a7bd 3670 9b3d fc72 2d3d
00000070: b970 d33d d4a1 833d 6f3f 2cbd 80b6 933d

layer_5.lin.weight f4 [32, 64]
-0.08341054 -0.0687052 0.008285879 0.07684112 0.008704436 -0.09797692 -0.12090085 -0.11737371
0.007320884 0.08309056 -0.037671003 0.13647467 -0.03647981 -0.16147 0.2076557 -0.05472174
-0.110867605 0.11795391 0.011533977 -0.08099159 0.0144194085 -0.011736332 0.21930793 0.15390636
0.08948451 -0.08612733 -0.08627343 -0.23895168 0.12302566 -0.15230125 0.053435035 -0.18948303
0.04384772 0.08403848 -0.09616634 -0.10530652 0.047329023 0.090177104 -0.039183598 0.024554504
-0.0825703 0.06362218 0.096469805 -0.0070347902 0.0026748541 0.004881483 -0.14579967 -0.036453135
0.0057451674 0.13125014 0.06300666 0.18719256 0.17971478 0.12352257 -0.10825168 -0.1259054
-0.032324303 0.086382814 0.16770102 0.19190042 -0.046485957 0.11765502 -0.014950289 0.12125446
0.06282815 -0.088962406 -0.08271615 0.08148805 -0.098661125 0.08512134 0.043590136 0.10398598
0.08372688 -0.101225436 0.06864497 0.03782846 -0.077192806 0.12613475 -0.112834975 0.056127667
0.10135769 -0.038907234 -0.1141059 0.12540688 0.036782257 0.10455425 0.061273564 -0.05227982
0.0834645 0.0515559 0.092022486 0.03447924 0.050477665 -0.018248852 0.05169272 0.036761656
-0.09911811 0.11257871 0.018102674 -0.08836934 0.16794933 -0.098214455 -0.016891167 0.07756893
-0.012612744 -0.08971018 -0.05367184 0.035961166 0.051527064 0.11741618 0.093412615 -0.115712434
-0.004457641 -0.11010228 -0.041946925 0.07050009 -0.09955367 -0.022210903 0.031602733 -0.061087955
0.0274828 0.057725456 0.019151127 -0.02469062 -0.018608836 -0.0039757555 0.0068041864 -0.0524284
-0.05563575 0.16976942 0.02511154 0.13728121 0.18836011 0.10829963 -0.055313434 0.035646122
-0.14502515 0.12939207 -0.07599595 -0.04475932 -0.06694783 0.010220827 -0.11218972 -0.020896047
0.008650729 -0.087264486 -0.0961618 -0.15102957 0.014586614 -0.11785687 -0.19678676 0.02097774
-0.024959065 0.009287141 0.023722172 0.065172635 0.034666654 -0.09798791 0.13834913 0.13021475
0.15572166 -0.083392024 -0.06453067 -0.00026019002 -0.12871598 0.020975465 0.029010382 0.13824384
-0.09681886 -0.01559759 -0.021205928 -0.01551135 0.11793214 0.10050513 0.047252312 -0.039026923
-0.0071783694 0.0837188 -0.015732452 -0.059418228 0.14930317 -0.08524985 -0.1324479 -0.13179559
0.115770325 -0.040605325 0.030513654 0.0005472891 -0.06390941 0.079088 -0.032032244 -0.20696242
-0.03369309 -0.055194285 -0.1633373 0.1308672 -0.0626019 -0.013129968 0.12230391 0.0284487
0.033884127 -0.10654189 -0.012558587 -0.16350238 -0.17807133 0.11068001 0.07908591 0.04133172
0.2784476 0.11217306 0.14770429 -0.041513473 0.058066312 -0.006044584 -0.050397303 -0.0462239
0.08507399 -0.04394875 0.06196807 -0.27261513 0.011954099 0.001579196 0.18610314 -0.015756208
0.120906934 -0.034755506 0.111464545 -0.050251607 0.11659453 0.09704628 -0.03230153 -0.040118888
0.0073280553 0.069893956 -0.019179558 -0.06435389 -0.0032750391 -0.12634385 0.105991706 -0.09910773
-0.021871066 0.05047208 0.09494514 -0.09542841 -0.038148325 -0.0066778716 0.045294326 0.09355187
-0.13317376 -0.018708475 0.0035225695 0.17040415 0.08061506 0.070472315 -0.039731227 -0.015843013
00000000: 25d3 aabd 50b5 8cbd 7fc1 073c e15e 9d3d
00000010: 0d9d 0e3c 20a8 c8bd dd9a f7bd a161 f0bd
00000020: 07e4 ef3b 622b aa3d e94c 1abd 04c0 0b3e
00000030: da6b 15bd 6458 25be b2a3 543e e723 60bd
00000040: 8e0e e3bd d291 f13d 02f9 3c3c ebde a5bd
00000050: 623f 6c3c bf49 40bc 4292 603e a199 1d3e
00000060: a843 b73d 8763 b0bd 20b0 b0bd c0af 74be
00000070: e1f4 fb3d dcf4 1bbe b2de 5a3d d707 42be
00000080: ab99 333d 5e1c ac3d dcf2 c4bd f2aa d7bd
00000090: 14dc 413d c6ae b83d fb7e 20bd 8726 c93c
000000a0: 9e1a a9bd 584c 823d f691 c53d 1984 e6bb
000000b0: 9b4c 2f3b d9f4 9f3b 824c 15be e24f 15bd
000000c0: f541 bc3b 7066 063e a309 813d 68af 3f3e
000000d0: 2707 383e 67f9 fc3d 0fb3 ddbd 58ed 00be
000000e0: 7d66 04bd 79e9 b03d d1b9 2b3e 8b81 443e
000000f0: 0f68 3ebd 1df5 f03d 0ff2 74bc 4254 f83d
00000100: 0cac 803d ec31 b6bd 1667 a9bd 35e3 a63d
00000110: d80e cabd 1954 ae3d 928b 323d 9af6 d43d
00000120: 0079 ab3d 484f cfbd bc95 8c3d 04f2 1a3d
00000130: 4317 9ebd 7829 013e 0616 e7bd 20e6 653d
00000140: 9f94 cf3d 315d 1fbd 5bb0 e9bd a96a 003e
00000150: fea8 163d 8a20 d63d fdf9 7a3d 5d23 56bd
00000160: 70ef aa3d 482c 533d 4976 bc3d 1b3a 0d3d
00000170: abc1 4e3d 9e7e 95bc bfbb 533d 6493 163d
00000180: 70fe cabd ab8f e63d 0f4c 943c fcfa b4bd
00000190: e9fa 2b3e a924 c9bd 585f 8abc 76dc 9e3d
000001a0: afa5 4ebc f9b9 b7bd 01d7 5bbd 044c 133d
000001b0: 0b0e 533d e577 f03d 1d4f bf3d a4fa ecbd
000001c0: 6711 92bb 4e7d e1bd 8ad0 2bbd 5a62 903d
000001d0: cbe2 cbbd a4f3 b5bc de71 013d 5d37 7abd
000001e0: 9c23 e13c 8771 6c3d d3e2 9c3c fc43 cabc
000001f0: 8f71 98bc 0e47 82bb a7f5 de3b 29bf 56bd
00000200: 50e2 63bd 09d8 2d3e b7b6 cd3c 7293 0c3e
00000210: 79e1 403e 32cc dd3d 5790 62bd ab01 123d
00000220: 7981 14be 5b7f 043e c4a3 9bbd 8c55 37bd
00000230: f21b 89bd 4175 273c b9c3 e5bd 302e abbc
00000240: cabb 0d3c b9b7 b2bd 7af0 c4bd 7fa7 1abe
00000250: b2fc 6e3c f15e f1bd 7882 49be 82d9 ab3c
00000260: f476 ccbc 1829 183c 0055 c23c 3b79 853d
00000270: 9ffe 0d3d e3ad c8bd 65ab 0d3e 0457 053e
00000280: 8075 1f3e 70c9 aabd a828 84bd 1d6a 88b9
00000290: 1fce 03be bdd4 ab3c 2ea7 ed3c cb8f 0d3e
000002a0: f748 c6bd 098d 7fbc 0eb8 adbc 5123 7ebc
000002b0: 6886 f13d a2d5 cd3d a48b 413d b2da 1fbd
000002c0: 8738 ebbb c374 ab3d 58e1 80bc 8760 73bd
000002d0: eee2 183e 7997 aebd 6ca0 07be 6cf5 06be
000002e0: fe18 ed3d c551 26bd c5f7 f93c f377 0f3a
000002f0: f0e2 82bd e4f8 a13d 3e34 03bd f5ed 53be
00000300: c401 0abd 6713 62bd e541 27be 0d02 063e
00000310: 6d35 80bd 141f 57bc 797a fa3d 400d e93c
00000320: 15ca 0a3d a232 dabd 88c2 4dbc 2b6d 27be
00000330: 5558 36be 33ac e23d cbf7 a13d 734b 293d
00000340: af90 8e3e fdba e53d cb3f 173e 080a 2abd
00000350: f1d6 6d3d a511 c6bb 676d 4ebd 4655 3dbd
00000360: 463b ae3d 9b03 34bd 3bd2 7d3d 3694 8bbe
00000370: 20db 433c 06fd ce3a d291 3e3e 2a13 81bc
00000380: 0e9e f73d ca5b 0ebd 8647 e43d a1d4 4dbd
00000390: 1dc9 ee3d 33c0 c63d 9c4e 04bd b453 24bd
000003a0: 2f20 f03b 9024 8f3d 731e 9dbc f9cb 83bd
000003b0: 0aa2 56bb 4860 01be 2e12 d93d fef8 cabd
000003c0: f32a b3bc d0bb 4e3d 9972 c23d f86f c3bd
000003d0: 6b41 1cbd 0cd2 dabb 8b86 393d 1f98 bf3d
000003e0: b45e 08be 8442 99bc e9da 663b 6d7e 2e3e
000003f0: 8219 a53d ca53 903d 36bd 22bd 35c9 81bc

layer_5.lin.bias f4 [32]
-0.018370658 0.09095106 -0.019999197 -0.04074975 -0.0674787 -0.01558437 -0.084560186 0.047039516
0.005411721 0.0019042173 0.10698387 -0.008098466 0.009910845 0.070480704 -0.011120023 0.017309207
0.087663256 -0.047217857 0.038651135 0.026349787 0.003660008 -0.008821389 -0.009136454 -0.03301828
-0.087201744 -0.05481218 0.049367677 0.064833306 -0.014651698 0.056324296 0.051101323 0.078518674
00000000: 107e 96bc 8d44 ba3d 5bd5 a3bc 36e9 26bd
00000010: 4632 8abd 9655 7fbc e42d adbd 82ac 403d
00000020: ce54 b13b ee96 f93a 5c1a db3d 6eaf 04bc
00000030: 1961 223c 3058 903d c230 36bc 0acc 8d3c
00000040: cb88 b33d 8367 41bd a750 1e3d 82db d73c
00000050: bfdc 6f3b 9687 10bc 11b1 15bc 2d3e 07bd
00000060: d496 b2bd bd82 60bd c335 4a3d 53c7 843d
00000070: ad0d 70bc 4eb4 663d 9f4f 513d 66ce a03d

layer_6.lin.weight f4 [32, 64]
0.057572037 0.06737843 -0.04738174 0.14715484 -0.00980364 -0.117296666 -0.045832247 -0.08547052
0.043512546 0.073959604 0.012174826 -0.0152196335 -0.036376067 0.060579948 0.06818153 -0.20273939
-0.014652336 0.03679909 -0.15502506 -0.19079939 -0.06542089 0.11217709 -0.009589782 0.12846494
-0.13992043 0.15092607 -0.12644504 0.017472005 0.020283401 -0.10052522 -0.02709128 0.013265524
0.09651542 -0.12766683 -0.09144414 -0.012017019 0.078449056 -0.032436 -0.050278127 0.16203617
-0.05788768 -0.076410264 -0.0653921 0.09667728 -0.0013831442 0.017883519 0.06062975 0.022466369
0.07351267 -0.12276434 0.06434239 0.07323249 -0.14688444 -0.034055796 -0.033097282 -0.16998152
0.07817637 0.1632401 0.032625206 0.0129018035 -0.11303105 -0.027894529 0.07713779 -0.07210638
0.17177251 -0.13392882 0.01902133 -0.14477606 -0.027173398 0.09978146 -0.07047548 0.08310127
-0.08691271 0.011660013 -0.098379314 0.09928976 -0.17282823 -0.07506271 0.006831191 -0.10482491
-0.07261804 0.0546734 0.038449373 -0.08529089 0.12713346 -0.10037625 -0.03330104 0.1390838
-0.19015142 -0.09674222 -0.17829351 -0.14679791 -0.01726298 0.08415618 -0.056138147 -0.045521572
0.11393491 0.06605302 0.1937189 -0.031112183 -0.0985464 -0.08795871 -0.08827191 -0.07882979
0.031671494 -0.092278555 0.027375307 0.013628204 0.14317906 -0.09310476 0.16975534 -0.021427872
0.021462152 -0.015924506 -0.17882912 0.23861249 -0.10442219 0.012835538 -0.1459214 -0.11841339
0.054686017 0.17854749 0.12622035 -0.061220326 0.16037701 -0.036999043 -0.044726923 0.12796585
0.032626756 -0.0405959 0.1360842 -0.039850418 -0.0038750959 0.090811335 0.06591889 0.07148801
0.034166586 0.016835174 -0.0710122 -0.20774326 0.11047296 0.057693038 0.023643173 -0.18819258
-0.05114557 0.121352844 -0.041203268 -0.14010437 -0.07605604 -0.07320353 0.12797557 0.10934869
0.13007914 0.14098378 0.14688125 0.08217524 0.00074649963 -0.22551131 -0.052454874 -0.15920341
0.15469173 0.00092963694 -0.09838171 0.08542512 -0.079086505 -0.20681015 0.029330472 -0.15861951
-0.0029308482 -0.06344954 -0.052958563 0.07344173 -0.016501848 -0.16824628 -0.115190245 0.11869767
-0.0061199944 -0.12804517 0.04278987 0.07286439 0.08281633 -0.06752005 -0.021293433 -0.042212445
0.07479482 -0.017313326 -0.21461484 -0.103442825 -0.079118595 0.04042743 -0.062055744 0.079273015
-0.03281304 -0.0028753371 0.1363779 0.1263611 0.17024785 0.020791534 -0.024971575 -0.08761845
0.17846844 -0.014790211 0.07589749 0.16998965 -0.08162315 0.1056939 -0.113042526 0.10776597
-0.078105494 0.05523102 -0.043002628 -0.084205456 -0.055984907 -0.11612284 -0.026224244 -0.13393012
0.093704954 0.006958892 0.104780704 0.04229668 0.08029147 0.035367176 0.037724122 0.144979
-0.25259405 0.07735766 -0.07503425 0.10212524 -0.040416326 -0.1464522 0.04587647 0.13100606
-0.21053855 0.05721732 0.07766822 0.03177033 -0.050046302 0.06826984 0.11594978 0.093400575
0.11963213 0.1495287 0.10389453 -0.0077583166 0.099236324 -0.08561801 -0.061810363 0.1753173
-0.0833108 -0.09943426 0.011316974 -0.16742902 -0.028458184 0.067137614 -0.12908548 0.06838455
00000000: a8d0 6b3d b4fd 893d 5b13 42bd c2af 163e
00000010: 729f 20bc 3c39 f0bd 98ba 3bbd 2b0b afbd
00000020: 363a 323d 2278 973d ec78 473c c55b 79bc
00000030: 12ff 14bd ae22 783d c2a2 8b3d ea9a 4fbe
00000040: 5a10 70bc a5ba 163d e4be 1ebe ea60 43be
00000050: 63fb 85bd 1abd e53d 761e 1dbc 508c 033e
00000060: 4d47 0fbe 5d8c 1a3e cf7a 01be 7321 8f3c
00000070: 6029 a63c 2be0 cdbd 88ee ddbc a457 593c
00000080: e0a9 c53d 18bb 02be 1147 bbbd 08e3 44bc
00000090: e6a9 a03d 9cdb 04bd 70f0 4dbd cfec 253e
000000a0: a21b 6dbd fc7c 9cbd 4bec 85bd bdfe c53d
000000b0: 9e4a b5ba 7580 923c e756 783d 640b b83c
000000c0: d08d 963d df6b fbbd f1c5 833d eafa 953d
000000d0: e068 16be 177e 0bbd 0491 07bd a30f 2ebe
000000e0: ef1a a03d 6a28 273e 02a2 053d 1662 533c
000000f0: d37c e7bd 1183 e4bc 6bfa 9d3d 82ac 93bd
00000100: 22e5 2f3e a324 09be 9fd2 9b3c 2d40 14be
00000110: bf9a debc 395a cc3d 7355 90bd 0031 aa3d
00000120: 4aff b1bd a409 3f3c 187b c9bd 6e58 cb3d
00000130: e2f9 30be 7aba 99bd 2fd8 df3b 71ae d6bd
00000140: c4b8 94bd 37f1 5f3d 177d 1d3d fdac aebd
00000150: 462f 023e 1092 cdbd ac66 08bd fc6b 0e3e
00000160: 0eb7 42be c920 c6bd 9392 36be 3152 16be
00000170: 186b 8dbc 135a ac3d 1df1 65bd d474 3abd
00000180: b556 e93d ce46 873d 3f5e 463e fade febc
00000190: b2d2 c9bd b223 b4bd e7c7 b4bd 8371 a1bd
000001a0: f8b9 013d 8afc bcbd 2e42 e03c d548 5f3c
000001b0: 889d 123e b5ad bebd 58d4 2d3e 8189 afbc
000001c0: 65d1 af3c 1c74 82bc fb1e 37be d556 743e
000001d0: 4ddb d5bd 264c 523c 6b6c 15be b882 f2bd
000001e0: 72fe 5f3d 27d5 363e e83f 013e 2ac2 7abd
000001f0: df39 243e 4f8c 17bd 9433 37bd 7b09 033e
00000200: a2a3 053d e347 26bd a859 0b3e 313a 23bd
00000210: 52f5 7dbb 4bfb b93d 7c00 873d 4e68 923d
00000220: 43f2 0b3d ebe9 893c d86e 91bd a6ba 54be
00000230: a63f e23d 894f 6c3d 54af c13c 8eb5 40be
00000240: 047e 51bd d787 f83d c2c4 28bd 8577 0fbe
00000250: 45c3 9bbd bbeb 95bd 070c 033e 35f2 df3d
00000260: 7733 053e 0d5e 103e 0a68 163e 7e4b a83d
00000270: beb0 433a 70ec 66be ecda 56bd 3806 23be
00000280: 8267 1e3e e1b2 733a 5a7c c9bd 5ef3 ae3d
00000290: 1bf8 a1bd 0ac6 53be 7546 f03c 276d 22be
000002a0: 7913 40bb d5f1 81bd 14eb 58bd 9e68 963d
000002b0: e22e 87bc c148 2cbe dde8 ebbd c417 f33d
000002c0: 3c8a c8bb 461e 03be 6e44 2f3d ed39 953d
000002d0: 9c9b a93d f447 8abd 916f aebc f5e6 2cbd
000002e0: 072e 993d add4 8dbc fec3 5bbe d5d9 d3bd
000002f0: ee08 a2bd 3c97 253d 2a2e 7ebd e459 a23d
00000300: f766 06bd 2770 3cbb a6a6 0b3e ce64 013e
00000310: 7455 2e3e 0253 aa3c 3091 ccbc 4d71 b3bd
00000320: 6ec0 363e a452 72bc 2570 9b3d c411 2e3e
00000330: 0a2a a7bd 0b76 d83d d782 e7bd 68b4 dc3d
00000340: c6f5 9fbd ec39 623d 8623 30bd e973 acbd
00000350: 6e50 65bd d0d1 edbd 3ad4 d6bc fa24 09be
00000360: 62e8 bf3d 6b07 e43b 4497 d63d 493f 2d3d
00000370: db6f a43d 2cdd 103d 9c84 1a3d 6075 143e
00000380: 0254 81be b16d 9e3d 8fab 99bd 0a27 d13d
00000390: 978b 25bd 91f7 15be f7e8 3b3d 7426 063e
000003a0: 6b97 57be b55c 6a3d 8410 9f3d 9b21 023d
000003b0: 5afd 4cbd 0fd1 8b3d 1477 ed3d cd48 bf3d
000003c0: b101 f53d 0d1e 193e a8c6 d43d 7a39 febb
000003d0: 6a3c cb3d 7f58 afbd dd2c 7dbd 6186 333e
000003e0: da9e aabd 30a4 cbbd d46a 393c 8372 2bbe
000003f0: 2321 e9bc 727f 893d fc2e 04be 330d 8c3d

layer_6.lin.bias f4 [32]
0.06905704 0.047807995 0.0045613507 -0.006505718 -0.074278 0.031234048 0.027603066 0.002764151
0.050955694 0.08996676 -0.055603247 0.054698758 -0.09372602 -0.042946655 -0.031776786 0.0009193452
-0.085276134 -0.0402685 0.08523408 0.044559114 0.071611606 -0.020974109 0.032178808 -0.039728004
0.017562931 -0.10692872 -0.0629922 -0.09775784 0.0315799 0.02572291 -0.017847527 0.038739398
00000000: c76d 8d3d 51d2 433d 6277 953b eb2d d5bb
00000010: 101f 98bd 8cde ff3c d31f e23c c226 353b
00000020: ebb6 503d 7e40 b83d 3bc0 63bd ce0b 603d
00000030: 6df3 bfbd d5e8 2fbd 6028 02bd 3600 713a
00000040: 41a5 aebd 95f0 24bd 358f ae3d 9e83 363d
00000050: 1ba9 923d e5d1 abbc edcd 033d d5b9 22bd
00000060: 23e0 8f3c 72fd dabd 0e02 81bd 4335 c8bd
00000070: ed59 013d dab8 d23c fa34 92bc 34ad 1e3d
