training_runs/model_step10000.pt (torch, 108782 bytes, 24 tensors)

layer_0.lin.weight f4 [32, 64]
-0.08913575 0.12458104 0.16811916 -0.02624835 -0.05059667 0.031447053 0.05560767 0.003932474
0.050936766 -0.118259124 0.06503961 0.060830504 -0.13078703 -0.011516243 0.010473044 -0.04936135
0.1653993 0.07926443 -0.18435735 -0.06451123 0.15375556 0.148078 -0.12351328 0.056869894
-0.12992115 0.0017860226 0.16927025 -0.099517174 0.09024451 0.06426579 0.049346723 0.094026774
0.102497704 0.148312 -0.10842165 -0.18452595 0.15873608 -0.18058252 0.15019731 0.18557411
0.24233757 0.0047511873 0.06362781 -0.29944786 -0.08890844 -0.0466906 -0.032376204 0.057109643
0.027586214 -0.1662667 0.17295444 0.20209098 0.01337487 -0.13637066 -0.0761575 -0.033899393
0.11437633 -0.20242515 -0.033598233 -0.07349828 -0.019404909 -0.23276259 0.076997116 -0.12935627
0.055522833 0.033202905 -0.005218261 -0.014414873 -0.09833066 0.22645658 0.016377823 -0.09274996
-0.055403538 -0.017069679 0.021656541 0.16092283 0.07983802 -0.09280112 0.106321804 -0.07807529
-0.13898142 0.06957662 -0.0058183176 -0.080872536 0.08706744 0.0020056842 0.14235345 0.08223937
0.06996551 -0.031846363 -0.016499693 0.0714184 0.030492153 0.19369675 -0.06367039 0.016260685
0.23104426 0.19752866 -0.17393947 -0.27282104 0.16013737 -0.037167396 -0.060713075 0.22772811
-0.05981729 0.081603505 -0.06894627 -0.32348555 -0.103127085 0.064149946 -0.093666926 0.1255921
-0.16759066 -0.06924129 0.10454078 -0.08872408 0.11527612 -0.03534975 -0.027363801 0.0004136993
0.1957783 0.17841108 -0.103265546 0.024057511 -0.23812412 -0.20384382 -0.0022718671 -0.17525232
-0.10227202 0.07484266 0.1026526 0.016171768 -0.044378407 0.034188084 0.13526179 -0.06746454
0.016825387 -0.2283309 -0.043791533 0.09771246 0.11049824 0.100304924 0.13862246 -0.042582717
-0.028050357 -0.03795391 -0.0024577198 0.041897565 -0.0061737965 0.034184117 -0.17483734 -0.007137419
-0.0547333 0.021018954 0.18755344 -0.03739676 0.26708972 -0.016462207 -0.0024527826 0.016371844
0.028683817 -0.18222058 -0.097215675 -0.08080614 -0.12653294 0.12060405 -0.11002332 0.01299591
-0.3007295 0.051163476 0.10798397 0.015443434 0.09002113 -0.041662607 -0.14383455 0.116762966
-0.16528733 -0.047999714 -0.020295778 -0.05409283 0.15999518 0.051556546 0.34025058 0.020273924
0.016461784 0.10136162 -0.091608636 -0.017390957 -0.12825467 0.14234242 -0.05189791 0.051546562
-0.32414868 -0.1119985 -0.056295104 0.06564811 -0.025648324 -0.041540947 -0.03952601 -0.027746722
0.09729314 0.10867813 -0.12678689 -0.04645548 -0.006382558 0.086995974 -0.044229947 0.042611126
0.16789867 0.19954747 0.089371845 0.051281553 -0.08161231 -0.16142721 0.030609742 -0.11611909
-0.23970503 -0.18746136 0.06617814 -0.12563081 -0.00074935734 0.16835913 -0.04194287 0.03220713
-0.07536694 -0.060987353 -0.20782706 -0.1134627 0.08487521 -0.11195175 0.03664933 0.10408549
0.04019204 0.22049612 0.02438334 -0.2507485 0.008068746 -0.056154806 -0.10186371 0.10305972
0.021078983 0.06718532 0.067168355 0.03739922 -0.071256794 -0.23221648 0.089369096 -0.11201487
0.03644324 -0.06733829 -0.22807576 -0.110363126 -0.15675065 -0.17273487 -0.09615272 -0.15196367
00000000: ce8c b6bd 5824 ff3d 6e27 2c3e c806 d7bc
00000010: 743e 4fbd a0ce 003d dec4 633d fcdb 803b
00000020: 12a3 503d d731 f2bd 7d33 853d 6829 793d
00000030: 09ed 05be a0ae 3cbc 2197 2b3c 202f 4abd
00000040: 6f5e 293e 6455 a23d 2cc8 3cbe 771e 84bd
00000050: 1972 1d3e c2a1 173e 88f4 fcbd 68f0 683d
00000060: 0d0a 05be f918 ea3a 2e55 2d3e a9cf cbbd
00000070: 1dd2 b83d c89d 833d ca1f 4a3d 1c91 c03d
00000080: 51ea d13d 1adf 173e 2c0c debd 5ff4 3cbe
00000090: b68b 223e a0ea 38be 53cd 193e 2407 3e3e
000000a0: 5727 783e d9af 9b3b 4c4f 823d 3b51 99be
000000b0: a115 b6bd a53e 3fbd e99c 04bd cdeb 693d
000000c0: 7cfc e13c d141 2abe f81a 313e f0f0 4e3e
000000d0: 4522 5b3c c0a4 0bbe 77f8 9bbd 17da 0abd
000000e0: 233e ea3d 8a48 4fbe 4d9e 09bd 4486 96bd
000000f0: 0bf7 9ebc 5159 6ebe aab0 9d3d f875 04be
00000100: e96b 633d c5ff 073d f2fd aabb 5c2c 6cbc
00000110: 9661 c9bd 3ce4 673e c92a 863c b1f3 bdbd
00000120: d2ee 62bd b6d5 8bbc 0f69 b13c f4c8 243e
00000130: 1e82 a33d 830e bebd 3fbf d93d f0e5 9fbd
00000140: 2551 0ebe 307e 8e3d 96a7 bebb 80a0 a5bd
00000150: 6a50 b23d cc71 033b 1ac5 113e 1d6d a83d
00000160: 144a 8f3d 5571 02bd 5d2a 87bc cf43 923d
00000170: aeca f93c 7158 463e 9f65 82bd 2135 853c
00000180: de96 6c3e f444 4a3e 301d 32be 33af 8bbe
00000190: 0dfb 233e d73c 18bd 46ae 78bd 8f31 693e
000001a0: fa02 75bd bd1f a73d b433 8dbd e69f a5be
000001b0: 4b34 d3bd 0c61 833d 72d4 bfbd 379b 003e
000001c0: e39c 2bbe 61ce 8dbd 7a19 d63d f8b4 b5bd
000001d0: e315 ec3d e6ca 10bd 0d2a e0bc c8e5 d839
000001e0: 1b7a 483e 65b1 363e e37c d3bd 4214 c53c
000001f0: cfd6 73be 6fbc 50be 9be3 14bb 5875 33be
00000200: fe73 d1bd 1c47 993d 873b d23d a87a 843c
00000210: 22c6 35bd ce08 0c3d 1182 0a3e d92a 8abd
00000220: 65d5 893c 93cf 69be c05e 33bd 781d c83d
00000230: e74c e23d ab6c cd3d 0cf3 0d3e 376b 2ebd
00000240: ddc9 e5bc 8f75 1bbd b211 21bb c89c 2b3d
00000250: 8f4d cabb a504 0c3d 8f08 33be 03e1 e9bb
00000260: 0630 60bd f12f ac3c 020e 403e 582d 19bd
00000270: fcbf 883e c0db 86bc ddbe 20bb 3f1e 863c
00000280: 53fa ea3c 0898 3abe 0319 c7bd b17d a5bd
00000290: da91 01be 42ff f63d e853 e1bd ccec 543c
000002a0: 38f9 99be cb90 513d b326 dd3d 7506 7d3c
000002b0: 005d b83d 69a6 2abd 5d49 13be 6c21 ef3d
000002c0: 1541 29be 599b 44bd 5543 a6bc 7190 5dbd
000002d0: c7d5 233e f52c 533d 5335 ae3e 8015 a63c
000002e0: ddda 863c ae96 cf3d 4f9d bbbd 7b77 8ebc
000002f0: 3155 03be 36c2 113e e792 54bd 7d22 533d
00000300: d1f6 a5be 785f e5bd b295 66bd 8472 863d
00000310: 6f1c d2bc d726 2abd 07e6 21bd 184d e3bc
00000320: a041 c73d a492 de3d 6cd4 01be 1a48 3ebd
00000330: c724 d1bb f22a b23d 762a 35bd 0189 2e3d
00000340: a1ed 2b3e 2c56 4c3e 9608 b73d 9b0c 523d
00000350: 5b24 a7bd 2d4d 25be 48c1 fa3c d8cf edbd
00000360: 3c75 75be dff5 3fbe 6888 873d 5da5 00be
00000370: 8570 44ba 5666 2c3e 49cc 2bbd a0eb 033d
00000380: fb59 9abd e0cd 79bd 9ed0 54be 225f e8bd
00000390: 0ed3 ad3d f646 e5bd 9c1d 163d c62a d53d
000003a0: 69a0 243d bcc9 613e 92bf c73c 1b62 80be
000003b0: c632 043c 9502 66bd ec9d d0bd f910 d33d
000003c0: d5ad ac3c 7598 893d 908f 893d ed2f 193d
000003d0: 15ef 91bd 28ca 6dbe 2507 b73d 0d68 e5bd
000003e0: 8245 153d a8e8 89bd b18c 69be 1006 e2bd
000003f0: 3e83 20be 69e1 30be b8eb c4bd 5d9c 1bbe

layer_0.lin.bias f4 [32]
0.0020696938 -0.0020236808 -0.078246035 0.05951214 -0.015602789 0.009346459 -0.03732613 0.11698014
0.10177263 0.0329237 -0.1037386 0.079780005 0.025880754 0.0027607812 0.085536145 -0.0040527517
0.023835396 0.10786991 -0.1067549 -0.04715141 -0.073631726 -0.06513163 -0.08013505 -0.00627193
-0.001974595 -0.011430934 0.057314545 -0.0010657454 0.016544053 -0.032751698 -0.050453488 0.00042980304
00000000: b3a3 073b bb9f 04bb 753f a0bd 00c3 733d
00000010: d7a2 7fbc e421 193c 49e3 18bd 4993 ef3d
00000020: 2b6e d03d 00db 063d e774 d4bd b363 a33d
00000030: e003 d43c 39ee 343b 932d af3d f2cc 84bb
00000040: 7342 c33c e6ea dc3d 50a2 dabd d621 41bd
00000050: 3bcc 96bd bb63 85bd d81d a4bd c384 cdbb
00000060: 3568 01bb d048 3bbc a8c2 6a3d 7bb0 8bba
00000070: 6587 873c a526 06bd 51a8 4ebd 3057 e139

layer_1.lin.weight f4 [32, 64]
-0.116132036 -0.078272775 -0.078133725 0.11617441 -0.09696214 0.06969945 -0.12851983 0.16678628
-0.0660611 -0.0053915386 -0.12639646 -0.14085855 0.09587308 -0.06629423 0.01549274 -0.050177954
0.052169856 0.040044162 -0.07974656 0.11456731 -0.20709366 -0.019417604 0.11055687 -0.002005318
0.040236358 0.13973014 0.042088028 -0.061394267 0.13932513 0.15416488 -0.044416133 -0.004517581
0.018561574 0.15030493 -0.0018180105 -0.0276115 -0.0020538107 -0.052305404 0.14953677 -0.14896715
0.013817027 0.12397626 -0.07776332 0.016013887 -0.100159556 0.115542024 0.27514014 0.16564465
0.088189654 -0.10703343 -0.04611612 0.013805321 -0.10932242 0.027681489 -0.16153963 0.08343676
0.0895029 -0.14783002 0.13626991 0.1182256 -0.24027467 0.13891736 -0.055096198 -0.11462131
-0.045138985 -0.030844817 -0.04043214 0.011356746 -0.015050389 -0.08706209 0.2952661 0.034687147
0.07734063 0.08780695 0.047991745 -0.077336766 0.008798388 -0.18635406 -0.141469 -0.11023624
0.06845016 0.021142598 -0.029663334 0.06508597 -0.2679883 -0.050799645 -0.105301686 -0.036626622
-0.1068213 0.06357078 -0.13656154 -0.06738773 0.14558801 0.096980006 -0.22280508 0.10716939
0.125082 0.07069991 -0.080598235 0.019307166 0.07752959 0.03561535 -0.057024032 -0.0938519
-0.03149305 0.13760324 0.0020616022 0.041094776 -0.0062219454 0.027587116 0.07374848 0.072589
0.033462483 -0.026741125 -0.0046100174 0.028387899 0.01388624 -0.052793663 0.010221922 -0.075366445
0.055280287 -0.09514238 0.14396994 0.08298457 -0.14920104 0.06680129 0.0063056536 0.005849392
-0.12276793 -0.15445964 0.026001565 -0.02241739 0.17160343 -0.16099736 0.17718561 0.22371654
0.08884153 -0.08265976 -0.07233317 -0.10373276 0.11221966 -0.038276892 -0.1259687 -0.10747116
-0.021992689 -0.09683918 0.11416287 -0.06983319 0.06759741 -0.07194953 -0.1920578 -0.005812676
0.035246752 0.00454297 -0.15099567 0.04102151 0.23386894 0.075337276 0.04870356 0.01806777
0.014757955 -0.060111854 -0.12837894 -0.07946512 0.056495316 0.12576953 -0.11386332 -0.031619582
-0.0064765103 -0.07471094 0.018978775 0.10228261 0.04417483 0.1382054 0.061518468 0.05940406
0.17498899 -0.032193385 -0.04151038 0.108302616 0.03740269 -0.03375185 0.11867751 0.01958671
0.05146006 -0.1227058 0.034941003 0.06760244 0.012784453 -0.07349263 0.13247626 0.08144166
0.050911825 0.0020556424 0.010442795 0.06508161 0.03400847 -0.042518843 0.0027197963 0.15871233
0.032949448 -0.072060116 -0.00068633567 -0.07165609 0.086866856 -0.080560215 -0.21968332 -0.014585021
-0.030791214 0.004663899 0.057054885 -0.006548119 0.08380298 0.048416715 0.017627005 -0.048648592
0.042360656 0.05675689 0.060042143 -0.14339639 0.025732249 -0.11818127 -0.05839567 0.10906499
-0.15844114 -0.13722749 0.065775536 -0.15399173 0.120324716 0.14064363 0.08949945 0.08532595
-0.12009103 0.049429633 0.07632653 -0.10654333 0.002904169 0.07580048 0.018244874 0.05105221
-0.070380785 0.09612288 0.119102344 0.038016587 -0.052434534 -0.004868964 0.06507694 0.1251946
0.025575837 -0.03764558 0.03013906 -0.049772948 -0.11282914 -0.057537273 -0.057942636 0.014944354
00000000: a2d6 edbd 7a4d a0bd 9304 a0bd d9ec ed3d
00000010: 1694 c6bd 96be 8e3d b49a 03be 06ca 2a3e
00000020: 0b4b 87bd 81ab b0bb 136e 01be 393d 10be
00000030: 1b59 c43d 45c5 87bd 43d5 7d3c 6687 4dbd
00000040: 0fb0 553d 5905 243d 2a52 a3bd 44a2 ea3d
00000050: 5c10 54be ab11 9fbc a46b e23d a76b 03bb
00000060: e1ce 243d 6b15 0f3e 7f64 2c3d 8e78 7bbd
00000070: 3fab 0e3e 66dd 1d3e b1ed 35bd 3708 94bb
00000080: 710e 983c 89e9 193e 4f4a eeba 8331 e2bc
00000090: 3a99 06bb 313e 56bd 2b20 193e d88a 18be
000000a0: d060 623c 44e7 fd3d 6042 9fbd 8e2f 833c
000000b0: 7420 cdbd 4ca1 ec3d 2bdf 8c3e c09e 293e
000000c0: c79c b43d 5834 dbbd 42e4 3cbd b72f 623c
000000d0: 6fe4 dfbd 4ac4 e23c a56a 25be e4e0 aa3d
000000e0: 4c4d b73d c160 17be 578a 0b3e 4320 f23d
000000f0: 900a 76be 5a40 0e3e 8dac 61bd 94be eabd
00000100: a8e3 38bd 45ae fcbc 2c9c 25bd a511 3a3c
00000110: e895 76bc 9c4d b2bd 1e2d 973e 1c14 0e3d
00000120: c464 9e3d 21d4 b33d fe92 443d bd62 9ebd
00000130: 1d27 103c 99d3 3ebe 40dd 10be 8ac3 e1bd
00000140: 992f 8c3d 3e33 ad3c 8500 f3bc cb4b 853d
00000150: c335 89be 4a13 50bd 69a8 d7bd cc05 16bd
00000160: 20c5 dabd 6631 823d cad6 0bbe 9402 8abd
00000170: 0615 153e 749d c63d 0427 64be a07b db3d
00000180: 7f15 003e 1dcb 903d b010 a5bd 102a 9e3c
00000190: d5c7 9e3d 67e1 113d 0892 69bd 6d35 c0bd
000001a0: dbfe 00bd dde7 0c3e f21b 073b ff52 283d
000001b0: 76e1 cbbb 60fe e13c 7109 973d 8ba9 943d
000001c0: f50f 093d 3410 dbbc a10f 97bb bd8d e83c
000001d0: 1d83 633c 2b3e 58bd d979 273c b959 9abd
000001e0: 956d 623d 02da c2bd db6c 133e d0f3 a93d
000001f0: 28c8 18be 1dcf 883d a89f ce3b 42ac bf3b
00000200: c16d fbbd ab2a 1ebe 3c01 d53c ada4 b7bc
00000210: cfb8 2f3e 7edc 24be 2570 353e f315 653e
00000220: 8cf2 b53d 8549 a9bd 6a23 94bd d771 d4bd
00000230: 6cd3 e53d 3bc8 1cbd f0fd 00be d719 dcbd
00000240: 032a b4bc 9f53 c6bd 39ce e93d b404 8fbd
00000250: 8370 8a3d 465a 93bd cdaa 44be 4378 bebb
00000260: e65e 103d 32dd 943b 9c9e 1abe 2c06 283d
00000270: 577b 6f3e 6e4a 9a3d 627d 473d dc02 943c
00000280: 5acb 713c d937 76bd c575 03be 9cbe a2bd
00000290: a267 673d bac9 003e 2c31 e9bd 8983 01bd
000002a0: e838 d4bb 0d02 99bd 6079 9b3c 8c79 d13d
000002b0: abf0 343d b785 0d3e cafa 7b3d ac51 733d
000002c0: 5030 333e 36dd 03bd ca06 2abd c3cd dd3d
000002d0: 9033 193d 613f 0abd 320d f33d 4f74 a03c
000002e0: c9c7 523d 2e4d fbbd 4c1e 0f3d 2673 8a3d
000002f0: e275 513c 4e83 96bd dba7 073e e3ca a63d
00000300: eb88 503d f5b7 063b 4218 2b3c 8249 853d
00000310: 774c 0b3d 3d28 2ebd 9c3e 323b 7c85 223e
00000320: 00f6 063d 4194 93bd 35eb 33ba 6ec0 92bd
00000330: 40e7 b13d c1fc a4bd aaf4 60be 03f6 6ebc
00000340: db3d fcbc 9fd3 983b 62b2 693d 9a91 d6bb
00000350: e6a0 ab3d 9b50 463d 8266 903c bf43 47bd
00000360: 5e82 2d3d ea79 683d c0ee 753d 81d6 12be
00000370: 70cc d23c 0609 f2bd 4c30 6fbd 775d df3d
00000380: 653e 22be 5d85 0cbe 53b5 863d 02b0 1dbe
00000390: ce6c f63d e204 103e 7d4b b73d 5fbf ae3d
000003a0: 49f2 f5bd ba76 4a3d 1551 9c3d 6433 dabd
000003b0: df53 3e3b 483d 9b3d 4676 953c 1f1c 513d
000003c0: cd23 90bd 13dc c43d eeeb f33d 48b7 1b3d
000003d0: 98c5 56bd d58b 9fbb 0f47 853d 0333 003e
000003e0: 6b84 d13c 4032 1abd 31e6 f63c b8de 4bbd
000003f0: f712 e7bd 34ac 6bbd 4255 6dbd 2ad9 743c

layer_1.lin.bias f4 [32]
-0.046169013 -0.056736622 -0.04894427 -0.017155718 -0.034378555 -0.08508109 0.07311213 0.021950195
-0.08933374 0.009225933 0.051624384 0.01268953 0.025405666 0.023869712 0.075103626 -0.06315846
-0.033451907 0.06572659 -0.051928632 0.07635522 0.12234717 -0.072184004 0.0027788077 0.070144735
-0.019600604 0.041009657 0.011271129 0.039331518 -0.060281165 -0.0073865773 0.09695565 0.0013925316
00000000: b81b 3dbd a964 68bd c979 48bd 268a 8cbc
00000010: 87d0 0cbd ff3e aebd d0bb 953d e5d0 b33c
00000020: 9cf4 b6bd 5e28 173c 1774 533d bfe7 4f3c
00000030: 8b1f d03c 6a8a c33c eecf 993d 3959 81bd
00000040: de04 09bd aa9b 863d 1eb3 54bd 2060 9c3d
00000050: 2791 fa3d 35d5 93bd a81c 363b 0ba8 8f3d
00000060: 7291 a0bc bef9 273d 8baa 383c 161a 213d
00000070: 62e9 76bd 1a0b f2bb af90 c63d 9b85 b63a

layer_2.lin.weight f4 [32, 64]
-0.0005931843 0.08145616 0.02457288 -0.0028242716 0.00034486497 -0.008556297 -0.08228131 -0.01106986
-0.011497261 -0.08256912 0.17583169 -0.07901611 0.17629547 0.045611996 -0.017166875 0.024701525
0.014550709 0.120359 0.03940553 0.030404843 -0.07901348 0.018598663 -0.07546933 0.10917668
-0.08706336 0.0371742 0.22510517 -0.0688396 0.08386941 -0.0776265 0.14430091 -0.14239
-0.15067454 0.06765613 -0.121686384 -0.12370581 -0.095296614 0.14344698 0.07428201 -0.12000563
0.15237229 0.05967479 -0.16809829 -0.046021607 -0.16426313 0.028848678 0.025915483 -0.060325358
0.0077747935 0.06539314 -0.058507238 -0.022202948 -0.027230108 -0.37892887 0.048792347 0.0022493582
-0.11230972 0.0122660445 0.15077613 0.09606895 -0.15305151 0.087844305 -0.14093892 0.10381033
0.030192986 0.106942326 0.12107828 0.060589246 -0.075347655 0.12565234 -0.029788114 -0.0040230057
0.13768184 0.09981099 -0.17827106 -0.044422444 -0.19715829 0.0133466 -0.047080263 -0.14484937
-0.084972985 0.026671702 0.016222304 0.09584036 0.022484804 -0.058032893 -0.023223188 0.026622985
0.0077252924 -0.0011771754 0.08863902 -0.05014071 -0.24845004 -0.14716914 -0.06974826 0.2428617
0.118168466 0.016111717 0.114042595 0.0076736 -0.29697198 0.042314745 0.105458155 0.03168745
-0.0070208395 0.023372868 -0.1351905 -0.04973017 0.10975486 -0.047564495 -0.03785308 -0.008029791
-0.05443344 0.088123016 -0.09516975 -0.11237316 -0.03868329 -0.20654973 0.06894091 -0.07042515
-0.09589676 0.0023138998 -0.0090111215 0.024966285 0.10611245 -0.022923188 0.070498586 0.040901974
-0.07628416 0.115632586 0.077902585 0.020666167 -0.09485304 0.0010207901 0.11203909 0.08201734
-0.16902404 0.036850017 0.024771346 -0.020307038 0.029122487 -0.1511331 -0.12376199 -0.027659794
-0.04906679 -0.08389358 -0.024804275 -0.067068234 0.109407306 -0.08520046 -0.011932634 0.059278175
-0.03317425 0.14292523 -0.038834557 0.14967568 0.0002616656 0.058383442 -0.14667776 0.11339304
0.1474397 0.1043447 0.00536322 0.013876626 -0.046150297 0.018491821 0.10112331 -0.02520308
-0.015312648 -0.15574622 0.12733117 0.048954006 -0.04721022 -0.038305204 0.040208027 -0.0029683155
-0.15704782 0.07581925 -0.06496495 -0.083683826 0.042629227 0.15018362 0.016357072 -0.04550677
-0.02747841 -0.013809366 -0.0476112 -0.08257804 0.07093381 0.006721867 0.09693006 -0.16615397
-0.024727017 0.061724395 0.17821963 0.042578574 -0.13585886 -0.05499099 -0.13887715 -0.12572709
0.014759323 -0.08306559 0.07047178 0.0026888477 0.20754275 0.036690276 -0.00090608257 0.09842702
0.032274812 -0.068550095 -0.074932605 0.04699916 0.058136813 -0.11443186 0.027752737 -0.09701383
-0.058356296 0.1620019 0.11562166 6.185726e-05 0.14362076 0.014474196 0.069093995 -0.18911707
0.11008237 -0.06373778 -0.09150827 -0.10147349 0.07812276 -0.055263896 -0.017154384 -0.028609602
-0.0068280995 0.08888158 -0.08511201 -0.040357243 -0.19686514 -0.051470593 -0.071703106 0.029484933
-0.037950516 -0.10709572 0.09657202 0.00776878 0.05142864 0.034063675 -0.020145807 -0.06687829
0.002244252 -0.0925766 -0.09713259 -0.015766058 -0.14883733 -0.10074016 -0.09831806 0.2560649
00000000: ed7f 1bba 7dd2 a63d 104d c93c 6a17 39bb
00000010: fece b439 b62f 0cbc 1a83 a8bd 5c5e 35bc
00000020: 025f 3cbc 001a a9bd 390d 343e 33d3 a1bd
00000030: cd86 343e a5d3 3a3d 8ca1 8cbc da5a ca3c
00000040: 1966 6e3c c87e f63d b167 213d 9413 f93c
00000050: d2d1 a1bd 395c 983c aa8f 9abd 0698 df3d
00000060: 464e b2bd f943 183d f881 663e c7fb 8cbd
00000070: bac3 ab3d a4fa 9ebd 9ec3 133e afce 11be
00000080: 6d4a 1abe 4c8f 8a3d b636 f9bd 7959 fdbd
00000090: df2a c3bd c4e3 123e 2b21 983d 83c5 f5bd
000000a0: 7b07 1c3e 8d6d 743d f521 2cbe 2781 3cbd
000000b0: 9834 28be 1054 ec3c b54c d43c b917 77bd
000000c0: b2c3 fe3b d7ec 853d 49a5 6fbd f5e2 b5bc
000000d0: ad11 dfbc f702 c2be 7cda 473d f869 133b
000000e0: a302 e6bd 85f7 483c 0f65 1a3e ccbf c43d
000000f0: 89b9 1cbe b7e7 b33d 4b52 10be 839a d43d
00000100: 4857 f73c 9404 db3d e4f7 f73d 6e2c 783d
00000110: df4f 9abd 02ab 003e 3406 f4bc 6bd3 83bb
00000120: 78fc 0c3e b469 cc3d b08c 36be 4ff4 35bd
00000130: dde3 49be b3ab 5a3c 3cd7 40bd 6553 14be
00000140: 5106 aebd 9d7e da3c a3e4 843c f347 c43d
00000150: 0d32 b83c e6b3 6dbd 8e3e bebc 7218 da3c
00000160: 7324 fd3b 744b 9aba 6088 b53d 5860 4dbd
00000170: b069 7ebe 82b3 16be 2dd8 8ebd bdb0 783e
00000180: 4f02 f23d b8fc 833c 2a8f e93d d372 fb3b
00000190: b60c 98be 3a52 2d3d 72fa d73d b3ca 013d
000001a0: 120f e6bb 7578 bf3c 616f 0abe ddb1 4bbd
000001b0: 28c7 e03d fdd2 42bd d50b 1bbd 628f 03bc
000001c0: 99f5 5ebd d779 b43d 5ce8 c2bd e623 e6bd
000001d0: 5f72 1ebd c681 53be e430 8d3d 103b 90bd
000001e0: 8565 c4bd cca4 173b 62a3 13bc 1886 cc3c
000001f0: 7c51 d93d 69c9 bbbc 9061 903d d488 273d
00000200: df3a 9cbd c7d0 ec3d 648b 9f3d 184c a93c
00000210: 5042 c2bd 08cc 853a c074 e53d b5f8 a73d
00000220: a314 2dbe 0bf0 163d 47ed ca3c f25a a6bc
00000230: 4892 ee3c a3c2 1abe ed76 fdbd cb96 e2bc
00000240: 42fa 48bd 66d0 abbd 5632 cbbc 125b 89bd
00000250: f010 e03d 947d aebd 1881 43bc accd 723d
00000260: b9e1 07bd fe5a 123e fc10 1fbd 9544 193e
00000270: 2a30 8939 7a23 6f3d b232 16be 9c3a e83d
00000280: 6ffa 163e adb2 d53d f3bd af3b ca5a 633c
00000290: 1808 3dbd 297c 973c bd19 cf3d b176 cebc
000002a0: e7e1 7abc f07b 1fbe 1a63 023e ff83 483d
000002b0: 815f 41bd ebe5 1cbd 2cb1 243d 1288 42bb
000002c0: 25d1 20be 1f47 9b3d 580c 85bd 6d62 abbd
000002d0: fc9b 2e3d bcc9 193e 44ff 853c 4f65 3abd
000002e0: 671a e1bc ae40 62bc f603 43bd ad1e a9bd
000002f0: bf45 913d 1b43 dc3b 4483 c63d 4424 2abe
00000300: 5090 cabc b8d2 7c3d 357f 363e df66 2e3d
00000310: 961e 0bbe 3b3e 61bd d035 0ebe 9abe 00be
00000320: 16d1 713c 4b1e aabd 8253 903d 6137 303b
00000330: 1686 543e 8b48 163d 2c86 6dba 1b94 c93d
00000340: 9832 043d fe63 8cbd 4476 99bd 3182 403d
00000350: de20 6e3d 405b eabd b559 e33c 30af c6bd
00000360: 0307 6fbd d3e3 253e 0dcb ec3d 5db9 8138
00000370: 5211 133e 2e25 6d3c 2781 8d3d e8a7 41be
00000380: de72 e13d f488 82bd b068 bbbd 55d1 cfbd
00000390: d3fe 9f3d 655c 62bd 5a87 8cbc af5e eabc
000003a0: 40be dfbb 8c07 b63d 354f aebd a34d 25bd
000003b0: 0497 49be d4d2 52bd 14d9 92bd 638a f13c
000003c0: 0072 1bbd 0055 dbbd 8dc7 c53d 4091 fe3b
000003d0: d6a6 523d 5a86 0b3d d208 a5bc 7cf7 88bd
000003e0: 4d14 133b cd98 bdbd 74ed c6bd d227 81bc
000003f0: d068 18be db50 cebd fb5a c9bd f01a 833e

layer_2.lin.bias f4 [32]
0.053385984 -0.023172086 -0.11058796 0.041499965 -0.10612903 -0.045661252 -0.026460627 -0.055037405
-0.021414353 -0.040316783 0.009176416 0.05218202 0.07782357 0.04271218 0.011706248 0.0542241
-0.013618909 -0.038447924 -0.09522701 -0.060692225 0.01939577 -0.036600996 -0.054104034 0.04039226
-0.030352345 0.027582621 -0.020888524 0.020812145 -0.04513605 0.06844467 -0.10483983 -0.113194205
00000000: 43ab 5a3d 63d3 bdbc f17b e2bd defb 293d
00000010: 2d5a d9bd 4b07 3bbd f5c3 d8bc e76e 61bd
00000020: 276d afbc 3623 25bd ae58 163c d0bc 553d
00000030: f761 9f3d f8f2 2e3d 90cb 3f3c 171a 5e3d
00000040: d821 5fbc 927b 1dbd 6106 c3bd 6998 78bd
00000050: e1e3 9e3c edea 15bd 319c 5dbd 5b72 253d
00000060: 7ba5 f8bc f3f4 e13c 691e abbc 3b7e aa3c
00000070: 94e0 38bd b82c 8c3d 44b6 d6bd 5dd2 e7bd

layer_3.lin.weight f4 [32, 64]
0.05113783 -0.13455985 0.15722041 0.046041712 0.018016763 0.01248068 0.0063504563 0.013104771
-0.13559811 0.07953007 0.031286474 0.08999384 0.08348502 -0.017581685 0.063484795 -0.21098463
0.005544523 -0.08188245 -0.10247195 0.08839662 0.16383347 -0.15096046 -0.15824054 0.039155785
-0.008863856 0.06464147 -0.03964444 0.116971426 0.0268065 0.0676208 -0.01392815 0.017040674
0.16710617 -0.14915153 -0.20750946 0.14900869 -0.16702625 0.06246258 0.047581103 0.054062624
0.017653339 -0.08777565 -0.04302762 0.12414003 -0.055085145 -0.024565011 0.12984276 -0.054514345
0.09277542 -0.077319264 -0.08070765 -0.14586627 -0.034508415 0.10532825 0.19215144 0.13990909
0.14418685 -0.13056098 0.061988592 -0.20642573 0.058039214 0.055231214 -0.13226785 0.14844015
-0.098074906 0.119215116 -0.05887977 -0.013545895 -0.021140292 -0.062536664 0.14397003 -0.0038261376
-0.0115861315 0.12546198 0.003086944 -0.08793698 -0.062456727 -0.08136685 -0.23611233 -0.12404057
-0.059204236 0.13042916 -0.037622295 -0.020855207 -0.015267134 -0.025296222 0.091815375 0.15321557
0.029717872 0.021590672 -0.10871841 -0.01434699 -0.031929538 0.11305154 0.07871682 -0.030083792
0.030067572 0.065936774 0.14164981 -0.100634955 -0.08267153 0.12034646 0.12542768 -0.043542404
-0.00038788476 -0.1372202 -0.117379546 -0.021475548 0.16776383 0.14537905 -0.06014132 0.1233098
-0.033218857 -0.020534175 0.050041378 -0.08029919 0.20947036 -0.048635587 -0.1244243 -0.0049785837
-0.00081487774 0.20519364 0.056804176 0.08643475 -0.09555593 0.041442033 0.19007541 -0.05492208
-0.09007694 -0.18909383 0.10841471 -0.1458503 -0.0021497721 -0.22457294 0.12331226 0.10306141
-0.04147128 -0.008467127 0.10773861 0.05927521 -0.07234608 0.0316609 -0.01484993 0.10373278
-0.123466246 -0.023114376 0.096319064 0.0247652 0.014212327 0.055015273 -0.17531282 -0.104760125
-0.047283884 -0.016246375 -0.019929321 0.027543798 0.11117282 0.100439176 -0.07384264 0.10532483
0.12521528 0.012651609 0.06058559 -0.018841114 0.02217558 0.2192567 0.017959595 0.03856473
0.14306182 -0.11632339 -0.11992284 -0.09941134 -0.0026070774 -0.006453772 -0.11609212 -0.026714783
-0.017121725 -0.022274954 0.011843627 -0.082464345 -0.020740004 0.04329972 -0.19332992 0.03997491
0.07377769 0.0021362184 0.07690448 0.13807885 0.028702658 -0.022315891 0.15226687 0.07183836
0.04451728 -0.0020230275 -0.16730194 0.10336546 -0.044801857 -0.05379258 -0.10098439 0.055906102
-0.04093693 -0.08106888 0.030689044 -0.045592673 -0.01904888 0.1073035 -0.16966476 -0.05517188
-0.0761383 0.12707396 -0.012504654 -0.07367591 -0.11419145 0.06154744 0.15655684 -0.06338435
0.120357946 -0.11801086 0.0596961 -0.12352359 0.078451894 0.1725756 0.0007971899 0.005203552
0.103187464 0.061503142 -0.08734971 -0.063664846 -0.08333332 0.091679074 -0.15808913 0.11825978
-0.004242941 -0.0056691696 -0.039569862 0.020377597 -0.042375986 -0.04337257 -0.03671732 -0.03233503
0.008468266 0.035387326 0.042989373 -0.034141686 0.13400935 -0.0040121707 -0.10879133 0.17377795
0.03592815 0.02057546 0.08236405 0.12136331 -0.13698325 0.12846658 0.16204618 -0.07486191
00000000: e775 513d 0fca 09be 63fe 203e 3c96 3c3d
00000010: e497 933c c47b 4c3c 7d17 d03b 65b5 563c
00000020: 3bda 0abe a9e0 a23d 3f26 003d b14e b83d
00000030: 32fa aa3d 7707 90bc 5104 823d 5b0c 58be
00000040: d4ae b53b fcb1 a7bd d0dc d1bd 4909 b53d
00000050: f6c3 273e 6195 1abe cf09 22be d161 203d
00000060: b539 11bc bf62 843d 3562 22bd b78e ef3d
00000070: 4e99 db3c c67c 8a3d e532 64bc e298 8b3c
00000080: e11d 2b3e 2ebb 18be 5c7d 54be bc95 183e
00000090: ee08 2bbe c3d8 7f3d 67e4 423d c570 5d3d
000000a0: bc9d 903c b8c3 b3bd bb3d 30bd 213d fe3d
000000b0: f6a0 61bd 903c c9bc 80f5 043e 6f4a 5fbd
000000c0: 0a01 be3d 9059 9ebd 0d4a a5bd f85d 15be
000000d0: b258 0dbd 56b6 d73d 59c3 443e 5444 0f3e
000000e0: b8a5 133e c7b1 05be c0e7 7d3d 4461 53be
000000f0: 87ba 6d3d 203a 623d 3971 07be b200 183e
00000100: 7fdb c8bd 0e27 f43d ea2b 71bd 9aef 5dbc
00000110: 682e adbc 3913 80bd e16c 133e f0bf 7abb
00000120: c2d3 3dbc 1b79 003e 544e 4a3b 4e18 b4bd
00000130: a0d2 7fbd aaa3 a6bd 6ec7 71be fb08 febd
00000140: 2480 72bd 398f 053e d619 1abd 8ad8 aabc
00000150: 0023 7abc 063a cfbc b309 bc3d 8be4 1c3e
00000160: e572 f33c ecde b03c c2a7 debd a30f 6bbc
00000170: 8cc8 02bd 9187 e73d 4936 a13d 4972 f6bc
00000180: 4550 f63c dc09 873d a60c 113e b319 cebd
00000190: b14f a9bd 3478 f63d 1d70 003e 8559 32bd
000001a0: 035d cbb9 7483 0cbe b064 f0bd 7ded afbc
000001b0: 48ca 2b3e 3fde 143e bf56 76bd d989 fc3d
000001c0: 7f10 08bd 4937 a8bc 30f8 4c3d e773 a4bd
000001d0: 667f 563e 1c36 47bd 2bd2 febd 6323 a3bb
000001e0: 859d 55ba 481e 523e 7fab 683d b404 b13d
000001f0: d4b2 c3bd 1fbf 293d 21a3 423e faf5 60bd
00000200: 427a b8bd d0a1 41be 8808 de3d c859 15be
00000210: 31e3 0cbb 73f6 65be 238b fc3d dc11 d33d
00000220: cadd 29bd b4b9 0abc 0fa6 dc3d 90ca 723d
00000230: 2e2a 94bd dcae 013d 1f4d 73bc da71 d43d
00000240: dfdb fcbd 5c5a bdbc ee42 c53d 64e0 ca3c
00000250: d2da 683c b257 613d 3485 33be 7a8c d6bd
00000260: bfac 41bd 1e17 85bc d142 a3bc 88a3 e13c
00000270: 93ae e33d 0eb3 cd3d cf3a 97bd 8bb4 d73d
00000280: 6f38 003e b248 4f3c 9828 783d ae58 9abc
00000290: 90a9 b53c d484 603e 0020 933c 0df6 1d3d
000002a0: cc7e 123e f53a eebd 1b9a f5bd 2c98 cbbd
000002b0: 80db 2abb 2a7a d3bb b5c1 edbd f6d8 dabc
000002c0: dc42 8cbc f779 b6bc c60b 423c 11e3 a8bd
000002d0: f1e6 a9bc 0c5b 313d 47f8 45be bbbc 233d
000002e0: c218 973d ccff 0b3b 1980 9d3d 8b64 0d3e
000002f0: d621 eb3c d1cf b6bc d9eb 1b3e fd1f 933d
00000300: c057 363d c594 04bb 3351 2bbe 45b1 d33d
00000310: 2782 37bd 9c55 5cbd e7d0 cebd ccfd 643d
00000320: 7bad 27bd 7107 a6bd 9767 fb3c 62bf 3abd
00000330: 660c 9cbc f0c1 db3d 99bc 2dbe e9fb 61bd
00000340: 66ee 9bbd ad1f 023e 52e0 4cbc 65e3 96bd
00000350: 35dd e9bd 2b19 7c3d 7050 203e a7cf 81bd
00000360: 3a7e f63d aeaf f1bd e683 743d f0f9 fcbd
00000370: 63ab a03d a8b7 303e 82fa 503a 8f82 aa3b
00000380: f353 d33d b8ea 7b3d 68e4 b2bd b762 82bd
00000390: a9aa aabd 3dc2 bb3d 1ee2 21be 2f32 f23d
000003a0: 5e08 8bbb 71c4 b9bb 0214 22bd ebee a63c
000003b0: 7192 2dbd 70a7 31bd e764 16bd bd71 04bd
000003c0: 7bbe 0a3c 4df2 103d a015 303d 27d8 0bbd
000003d0: bf39 093e 8778 83bb fdcd debd d9f2 313e
000003e0: 6529 133d de8d a83c 7cae a83d 548d f83d
000003f0: 5645 0cbe be8c 033e 6fef 253e 3351 99bd

layer_3.lin.bias f4 [32]
0.032733593 0.018383525 0.09220706 -0.06516475 0.04954793 0.080906205 0.094242714 -0.077759564
0.09388983 -0.010249511 0.0017485505 0.01927826 0.08691738 0.026700737 -0.0888635 0.0046921824
0.011103735 -0.0060256417 -0.016243013 -0.014540408 0.07133009 0.08147895 0.06171801 -0.0023526321
0.031643927 0.033947494 -0.037449405 0.073081106 0.081731215 0.013472986 0.05797331 -0.061878387
00000000: a913 063d 0c99 963c 0ed7 bc3d 1975 85bd
00000010: c5f2 4a3d 27b2 a53d 5302 c13d 6840 9fbd
00000020: 5049 c03d 91ed 27bc 9e2f e53a 71ed 9d3c
00000030: bd01 b23d 81bb da3c 11fe b5bd e1c0 993b
00000040: 71ec 353c bf72 c5bb 1110 85bc e43a 6ebc
00000050: 8315 923d 70de a63d 06cc 7c3d 9e2e 1abb
00000060: 109d 013d 870c 0b3d 8c64 19bd 8cab 953d
00000070: b262 a73d cdbd 5c3c 6c75 6d3d 3174 7dbd

layer_4.lin.weight f4 [32, 64]
0.10439722 -0.044975415 0.03684454 -0.11476226 -0.24106616 0.11393734 -0.03543057 -0.102323934
0.0067161666 0.03581561 -0.02666786 -0.03230602 0.08524112 0.011740864 0.0151351215 -0.127047
-0.10911075 0.049992982 0.019041667 0.056727123 0.09337657 -0.05510213 -0.0026466358 -0.11938968
-0.024791548 0.13273147 0.088345185 0.06646029 -0.1049559 -0.100155935 -0.027932495 -0.124461874
-0.073457435 0.09315736 0.04780171 0.08845182 0.09120028 0.009153374 -0.06689137 0.15740182
0.09877769 0.054551944 -0.1322496 -0.010621646 -0.12780583 -0.00712725 0.046654437 0.21093112
0.011076832 0.011730093 -0.12134856 0.03922884 0.13125373 0.0022988743 -0.094095744 0.140023
0.039385393 -0.14053948 -0.14067467 -0.07243305 -0.117711775 0.1418853 0.03912418 -0.042249102
0.12316353 -0.054395538 -0.1222443 -0.10304013 0.0018635726 -0.03143392 0.18588385 0.06739243
-0.23892961 0.030178636 0.016215015 0.13150224 0.17049281 -0.1352795 -0.02852713 0.08582577
-0.05071065 0.1293924 -0.19144961 -0.05279502 -0.038684875 0.0018471653 0.00018323219 0.13038011
-0.016100401 -0.17214899 -0.12662119 -0.01767734 0.08094854 -0.006639106 0.16157335 -0.028973408
0.048293695 0.03776259 -0.005447492 -0.13804492 -0.0891459 0.031921566 0.035238564 -0.108653195
-0.08733183 0.05633301 -0.043864828 -0.10555644 -0.008262264 0.047360506 0.021693066 -0.14313102
-0.11286622 0.115487784 -0.09528742 -0.16264455 0.062118433 0.084376484 0.04311052 0.09325979
0.14406814 -0.1382386 -0.0031328371 -0.012542424 -0.114562504 -0.053479664 -0.075744264 0.09718769
-0.060635 0.14669041 -0.088219605 0.1495869 -0.05556503 -0.12936996 -0.09260643 -0.09738064
-0.04443832 0.01847306 -0.052925363 -0.02723591 0.05440489 0.043976303 0.003011565 -0.016598212
-0.09648216 0.016568482 0.079014204 -0.104552984 -0.08859736 0.06744141 -0.0168504 0.047954075
0.005626012 -0.1680299 0.093972646 -0.038861953 0.0403293 0.04177329 0.085382044 0.047689173
-0.06288878 -0.06537848 -0.019668432 0.029319111 0.09702695 0.1261013 -0.049895417 0.0073595964
-0.08366119 -0.12721714 0.051960185 -0.017543497 -0.047526006 -0.03948218 0.03515791 0.028738791
0.14458117 -0.010348975 -0.07000694 0.08085684 -0.14235239 -0.03561223 -0.14555317 0.12525663
-0.06784918 0.041820735 -0.0029742434 0.054414738 -0.023872558 0.11672638 -0.07872738 0.04317385
-0.05649735 -0.13113694 -0.023433868 0.052771978 0.062246248 0.0017009851 0.059042305 0.11829885
0.0733843 -0.041522097 0.021985972 0.099795625 0.04981242 -0.004767988 0.1260482 -0.11781524
0.071005195 -0.017357724 0.089035794 0.17174017 0.16366072 -0.039350595 0.084445655 0.077634186
-0.005046684 0.10961328 0.035551798 0.07817995 0.023291511 -0.07451231 -0.11525889 0.08259927
0.05266249 0.045183267 0.09516309 0.010534687 0.00022925081 -0.0036862032 -0.018263223 0.05339895
-0.052597694 0.11479305 -0.04022111 -0.050778534 -0.01670958 -0.06447107 0.11296621 0.025988176
-0.14600629 0.020378882 0.072646454 -0.07275761 0.01880866 -0.052771226 0.0018937712 -0.08427228
0.1669816 -0.036244035 0.14153348 -0.0022097614 -0.14711559 0.030296704 -0.00039191675 0.13007338
00000000: 36ce d53d 2438 38bd 4dea 163d 7a08 ebbd
00000010: 0cda 76be fb57 e93d a51f 11bd 368f d1bd
00000020: 4a13 dc3b 64b3 123d 8e76 dabc 5153 04bd
00000030: e592 ae3d c15c 403c 4df9 773c 9c18 02be
00000040: 7575 dfbd 71c5 4c3d 45fd 9b3c b35a 683d
00000050: 373c bf3d c5b2 61bd 2e73 2dbb 9482 f4bd
00000060: a517 cbbc c2ea 073e 52ee b43d 551c 883d
00000070: 1ef3 d6bd 8e1e cdbd b0d2 e4bc dee5 febd
00000080: da70 96bd 49c9 be3d bacb 433d 3a26 b53d
00000090: 36c7 ba3d 08f8 153c 58fe 88bd f12d 213e
000000a0: f54b ca3d dc71 5f3d 706c 07be 6a06 2ebc
000000b0: 88df 02be b58b e9bb b918 3f3d 54fe 573e
000000c0: 9a7b 353c 932f 403c 9885 f8bd 6cae 203d
000000d0: 6167 063e b6a8 163b 45b5 c0bd 3062 0f3e
000000e0: 9452 213d 95e9 0fbe 050d 10be c757 94bd
000000f0: df12 f1bd 614a 113e ad40 203d 650d 2dbd
00000100: 293d fc3d dbcd 5ebd 385b fabd b406 d3bd
00000110: 1f43 f43a dbc0 00bd 5658 3e3e 0b05 8a3d
00000120: f7a9 74be 3039 f73c 5ad5 843c 86a8 063e
00000130: ab95 2e3e b686 0abe bab1 e9bc 6cc5 af3d
00000140: f8b5 4fbd 717f 043e 5e0b 44be 973f 58bd
00000150: 0874 1ebd 951c f23a 0422 4039 5d82 053e
00000160: fde4 83bc d347 30be fca8 01be 12d0 90bc
00000170: 59c8 a53d dc8c d9bb 7c73 253e a459 edbc
00000180: 9ccf 453d f2ac 1a3d e080 b2bb a65b 0dbe
00000190: 2092 b6bd 30c0 023d 5056 103d 9185 debd
000001a0: 08db b2bd 71bd 663d 9bab 33bd fa2d d8bd
000001b0: 725e 07bc 17fd 413d a8b5 b13c f090 12be
000001c0: 6826 e7bd dc84 ec3d 0d26 c3bd 4b8c 26be
000001d0: e66f 7e3d 94cd ac3d a894 303d fdfe be3d
000001e0: 9986 133e 6b8e 0dbe 4950 4dbb bd7e 4dbc
000001f0: bf9f eabd 7e0d 5bbd cf1f 9bbd 570a c73d
00000200: 685c 78bd 0336 163e 7bac b4bd 4f2d 193e
00000210: 2898 63bd 8f79 04be 71a8 bdbd 806f c7bd
00000220: f504 36bd d154 973c 44c8 58bd d81d dfbc
00000230: a9d7 5e3d 7f20 343d ad5d 453b f9f8 87bc
00000240: 7098 c5bd a0ba 873c 33d2 a13d e01f d6bd
00000250: 8872 b5bd b91e 8a3d da09 8abc 7e6b 443d
00000260: 695a b83b 0810 2cbe bb74 c03d b62d 1fbd
00000270: 5630 253d 781a 2b3d c8dc ae3d b955 433d
00000280: d5cb 80bd 27e5 85bd b11f a1bc a22e f03c
00000290: 11b6 c63d b320 013e 235f 4cbd c528 f13b
000002a0: 8f56 abbd 3645 02be 34d4 543d 61b7 8fbc
000002b0: a1aa 42bd 11b8 21bd be01 103d 9d6d eb3c
000002c0: 160d 143e bf8e 29bc cc5f 8fbd 4598 a53d
000002d0: d3c4 11be 21de 11bd e40b 15be 4643 003e
000002e0: 83f4 8abd 384c 2b3d 86eb 42bb fde1 5e3d
000002f0: 6290 c3bc 3e0e ef3d d23b a1bd 10d7 303d
00000300: c469 67bd c348 06be 62f8 bfbc 6e27 583d
00000310: ecf5 7e3d 97f3 de3a 58d6 713d ab46 f23d
00000320: 824a 963d 1313 2abd ed1b b43c a661 cc3d
00000330: 1c08 4c3d c83c 9cbb c812 013e 1e49 f1bd
00000340: 2c6b 913d c931 8ebc 6658 b63d a8dc 2f3e
00000350: ad96 273e 172e 21bd d8f1 ac3d acfe 9e3d
00000360: a75e a5bb ed7c e03d c39e 113d cf1c a03d
00000370: d7cd be3c e999 98bd da0c ecbd ce29 a93d
00000380: a0b4 573d 1712 393d dee4 c23d ae99 2c3c
00000390: 0c63 7039 3a94 71bb c19c 95bc dbb8 5a3d
000003a0: ae70 57bd 9e18 eb3d e4be 24bd 27fd 4fbd
000003b0: 87e2 88bc 6909 84bd d45a e73d 28e5 d43c
000003c0: ac82 15be 9df1 a63c aac7 943d f101 95bd
000003d0: 9e14 9a3c a426 58bd 6b38 f83a f296 acbd
000003e0: 39fd 2a3e a074 14bd 27ee 103e a5d1 10bb
000003f0: 78a5 16be cb30 f83c 2d7a cdb9 f531 053e

layer_4.lin.bias f4 [32]
0.01758772 -0.05270696 0.084679075 -0.05969393 -0.07900131 -0.02087638 0.002832656 -0.04465349
-0.07155129 9.183898e-05 0.01227494 0.041565157 -0.1259015 -0.025033161 0.056970663 0.10921077
0.04119702 0.064925484 0.06420059 -0.02701613 -0.0708964 -0.037321962 0.021440081 -0.041637883
0.10702819 -0.08147151 0.07417114 0.04027227 0.10329444 0.06100881 -0.04486837 0.07688348
00000000: 1f14 903c 41e3 57bd 396c ad3d 9f81 74bd
00000010: 70cb a1bd f104 abbc 15a4 393b 94e6 36bd
00000020: 7c89 92bd ad99 c038 d41c 493c 3a40 2a3d
00000030: 53ec 00be 5812 cdbc 125a 693d e5a9 df3d
00000040: 35be 283d a7f7 843d 997b 833d ee50 ddbc
00000050: 2232 91bd eade 18bd 1ca3 af3c 7c8c 2abd
00000060: 9831 db3d 89da a6bd 0ae7 973d 89f4 243d
00000070: 098c d33d 60e4 793d e5c7 37bd 1675 9d3d

layer_5.lin.weight f4 [32, 64]
-0.07988848 -0.059182566 0.011353933 0.077686846 0.011704434 -0.105228975 -0.12788294 -0.11202106
-0.008682393 0.06649883 -0.02783564 0.121742725 -0.029255485 -0.125314 0.20411827 -0.065520816
-0.079858005 0.13230239 -0.0075872927 -0.07345975 0.004605666 -0.0042050057 0.20230086 0.17750391
0.08403094 -0.08553553 -0.085607976 -0.21477513 0.117231674 -0.12892827 0.058013212 -0.19657844
0.032971352 0.08948115 -0.09260464 -0.10235508 0.048363496 0.09426391 -0.045093536 0.028416038
-0.09077382 0.07164713 0.10104613 -0.005868231 0.0046046576 -0.007329393 -0.12644333 -0.042916495
0.014442132 0.13502377 0.04686716 0.19783723 0.1732174 0.12297732 -0.09749837 -0.116517454
-0.037637893 0.081449255 0.16697723 0.18613137 -0.058171857 0.12324902 -0.017365618 0.1197217
0.065239266 -0.098104574 -0.09047703 0.08059054 -0.10817713 0.07427724 0.0686861 0.11087521
0.07584116 -0.08424747 0.06881493 0.053280585 -0.08434407 0.11629305 -0.11938846 0.06845546
0.082422435 -0.03069734 -0.11449999 0.1290021 0.047301255 0.10300363 0.05619638 -0.062138665
0.0977994 0.04421285 0.09331544 0.02021397 0.04914187 -0.015122294 0.04109989 0.03258656
-0.09974084 0.1070238 0.021905893 -0.09018537 0.16715254 -0.09265958 -0.016744997 0.07831595
-0.011425128 -0.09444205 -0.057857946 0.0401044 0.04972811 0.119826175 0.088034324 -0.11782849
0.001651426 -0.109908596 -0.037697826 0.07335907 -0.09957784 -0.025839312 0.03580856 -0.06780667
0.039333954 0.049833227 0.025119312 -0.02656581 -0.016523764 -0.001994956 0.010798005 -0.04639063
-0.05781259 0.17572078 0.027709693 0.1411902 0.18779469 0.10980754 -0.06304851 0.030965367
-0.126002 0.12888455 -0.07053039 -0.044520788 -0.06553829 0.004338439 -0.10273182 -0.02226885
0.0021682228 -0.093872614 -0.09554854 -0.16041423 0.0073838104 -0.11925008 -0.18976352 0.02414231
-0.03942008 0.01896572 0.028771488 0.06403361 0.032634087 -0.110639445 0.13939315 0.1336185
0.15722853 -0.083734274 -0.06798747 0.001010499 -0.13189518 0.027459396 0.02520833 0.13960987
-0.08009352 -0.016671155 -0.018198736 -0.01637545 0.11879437 0.09846024 0.04990987 -0.044013742
-0.016709713 0.0845127 -0.01412619 -0.056523133 0.15403159 -0.08738001 -0.12870975 -0.1299505
0.11938243 -0.04282171 0.03386715 -0.0028994353 -0.0687089 0.08015696 -0.027923169 -0.21044768
-0.03495845 -0.061508175 -0.16045198 0.13201302 -0.05834083 -0.009987953 0.13212347 0.025584862
0.04340747 -0.112321325 -0.019613853 -0.15536425 -0.17711201 0.10985844 0.08239726 0.049144685
0.2473846 0.11181855 0.1563171 -0.027564095 0.05955979 -0.007897705 -0.04016364 -0.04687186
0.08571355 -0.02873597 0.07126867 -0.2773354 0.017700052 -0.0013253577 0.17499329 -0.010821323
0.1192686 -0.036680873 0.11568006 -0.03958923 0.11918571 0.10552324 -0.021111242 -0.041542184
0.017830998 0.06682924 -0.007660748 -0.057706274 -0.0031223383 -0.12645844 0.11120064 -0.101680756
-0.04433023 0.054190118 0.09770506 -0.07803645 -0.03452191 -0.016525006 0.04241009 0.09586005
-0.11668074 -0.020479275 0.013466307 0.15944037 0.08204337 0.075367175 -0.03636961 -0.015866958
00000000: 929c a3bd 6b69 72bd d905 3a3c 481a 9f3d
00000010: f4c3 3f3c 4a82 d7bd bff3 02be 4c6b e5bd
00000020: 9840 0ebc 8a30 883d 9107 e4bc 4054 f93d
00000030: 33a9 efbc 5052 00be 6104 513e c72f 86bd
00000040: 988c a3bd 477a 073e d39e f8bb 1172 96bd
00000050: 20eb 963b 25ca 89bb f527 4f3e 96c3 353e
00000060: 6a18 ac3d 402d afbd 3c53 afbd 03ee 5bbe
00000070: 2917 f03d c605 04be 439f 6d3d dc4b 49be
00000080: f80c 073d e541 b73d 80a7 bdbd 8a9f d1bd
00000090: cd18 463d 700d c13d 00b4 38bd c0c8 e83c
000000a0: a0e7 b9bd bbbb 923d 46f1 ce3d 4a4a c0bb
000000b0: abe2 963b 682b f0bb 5c7a 01be 35c9 2fbd
000000c0: b19e 6c3c ac43 0a3e c7f7 3f3d d895 4a3e
000000d0: e75f 313e 88db fb3d 3aad c7bd b4a0 eebd
000000e0: 312a 1abd dece a63d 14fc 2a3e 3999 3e3e
000000f0: 9d45 6ebd fb69 fc3d 5742 8ebc a730 f53d
00000100: 2a9c 853d 0deb c8bd 054c b9bd a70c a53d
00000110: f98b ddbd aa1e 983d 4cab 8c3d 8b12 e33d
00000120: 9c52 9b3d f089 acbd d8ee 8c3d be3c 5a3d
00000130: 95bc acbd 0d2b ee3d f081 f4bd 6032 8c3d
00000140: 18cd a83d fd78 fbbc f97e eabd 2019 043e
00000150: f6be 413d 91f3 d23d 2d2e 663d 1d85 7ebd
00000160: 0d4b c83d 8918 353d 2a1c bf3d c597 a53c
00000170: fc48 493d 80c3 77bc 5c58 283d 7c79 053d
00000180: ed44 ccbd 4b2f db3d fd73 b33c 1bb3 b8bd
00000190: 092a 2b3e 4ec4 bdbd ce2c 89bc 1d64 a03d
000001a0: 7630 3bbc d56a c1bd 74fc 6cbd 8344 243d
000001b0: b4af 4b3d 6d67 f53d 574b b43d 1050 f1bd
000001c0: a974 d83a c217 e1bd 0969 1abd 483d 963d
000001d0: 77ef cbbd f7ac d3bc ffab 123d 39de 8abd
000001e0: a41c 213d ed1d 4c3d 04c7 cd3c 8ba0 d9bc
000001f0: d85c 87bc cfbd 02bb 1eea 303c 1a04 3ebd
00000200: e5cc 6cbd 26f0 333e 70ff e23c 2a94 103e
00000210: 404d 403e c7e2 e03d 941f 81bd 15ab fd3c
00000220: ab06 01be 50fa 033e 3d72 90bd 6e5b 36bd
00000230: f038 86bd 7729 8e3b 0f65 d2bd 2a6d b6bc
00000240: be18 0e3b 4940 c0bd f4ae c3bd a143 24be
00000250: e4f3 f13b 6339 f4bd 5e51 42be 18c6 c53c
00000260: f376 21bd ff5d 9b3c 2fb2 eb3c 0e24 833d
00000270: 52ab 053d ef96 e2bd 14bd 0e3e 4ad3 083e
00000280: 8400 213e e07c abbd 043d 8bbd b872 843a
00000290: 880f 07be 87f2 e03c b381 ce3c e4f5 0e3e
000002a0: 1208 a4bd f291 88bc 8415 95bc cf25 86bc
000002b0: 764a f33d 86a5 c93d 4b6e 4c3d c147 34bd
000002c0: cfe2 88bc ff14 ad3d 8971 67bc cd84 67bd
000002d0: 75ba 1d3e 4af4 b2bd 7dcc 03be be11 05be
000002e0: c77e f43d d165 2fbd 48b8 0a3d 7404 3ebb
000002f0: 40b7 8cbd 5529 a43d 21bf e4bc 997f 57be
00000300: 9730 0fbd ffef 7bbd 864d 24be 6c2e 073e
00000310: cbf6 6ebd 83a4 23bc 604b 073e 5897 d13c
00000320: 08cc 313d b908 e6bd 3bad a0bc ce17 1fbe
00000330: da5c 35be 76fd e03d e5bf a83d f04b 493d
00000340: 6352 7d3e 2001 e53d 9711 203e 19ce e1bc
00000350: f7f4 733d 6065 01bc a182 24bd b5fc 3fbd
00000360: 968a af3d b267 ebbc 4ff5 913d e8fe 8dbe
00000370: b3ff 903c a0b7 adba 7131 333e eb4b 31bc
00000380: 1943 f43d af3e 16bd abe9 ec3d 5128 22bd
00000390: a317 f43d 921c d83d 7cf1 acbc 2328 2abd
000003a0: 5012 923c c5dd 883d 0307 fbbb 6a5d 6cbd
000003b0: 25a0 4cbb 527e 01be 29bd e33d 003e d0bd
000003c0: 9e93 35bd 75f6 5d3d 9719 c83d 93d1 9fbd
000003d0: d966 0dbd 735f 87bc 34b6 2d3d 4652 c43d
000003e0: 50f6 eebd 27c4 a7bc c9a1 5c3c 5644 233e
000003f0: 5b06 a83d 1b5a 9a3d 4df8 14bd 6cfb 81bc

layer_5.lin.bias f4 [32]
-0.022064494 0.093089975 -0.023388803 -0.04373775 -0.07335378 -0.017809374 -0.08539109 0.048799116
0.00668889 0.005320196 0.10759782 -0.0059668315 0.012670031 0.068784185 -0.008601048 0.021026447
0.08363409 -0.052213512 0.039018277 0.02726 0.0071811914 -0.007942029 -0.001638186 -0.03732889
-0.09881847 -0.06015731 0.04858423 0.0667656 -0.02049965 0.056057062 0.054274406 0.078954786
00000000: 99c0 b4bc f5a5 be3d e099 bfbc 5b26 33bd
00000010: 823a 96bd f7e4 91bc 86e1 aebd 95e1 473d
00000020: 7a2e db3b 0a55 ae3b 3f5c dc3d 6985 c3bb
00000030: f695 4f3c b9de 8c3d 69eb 0cbc a83f ac3c
00000040: 5a48 ab3d d6dd 55bd a1d1 1f3d 5d50 df3c
00000050: 3350 eb3b 491f 02bc 67b8 d6ba 2ee6 18bd
00000060: 5761 cabd 8367 76bd 4200 473d 67bc 883d
00000070: e2ee a7bc 179c 653d d74e 5e3d 0cb3 a13d

layer_6.lin.weight f4 [32, 64]
0.05254718 0.08224566 -0.053399876 0.16284749 -0.032886535 -0.1334033 -0.050423816 -0.096518815
0.030012364 0.08298699 0.020860195 -0.014967363 -0.03319508 0.06743015 0.06521823 -0.19121405
-0.019664021 0.048315268 -0.1420559 -0.1802887 -0.06795736 0.10194219 -0.0036344228 0.1457435
-0.13886286 0.14655215 -0.12952715 0.020147169 0.019831296 -0.096397996 -0.040591124 0.018725535
0.10008946 -0.1245941 -0.089964345 -0.020848712 0.092465945 -0.030039214 -0.052538674 0.15964308
-0.046713233 -0.07578933 -0.06473492 0.09878535 0.0024147066 0.0120179355 0.067543976 0.023425722
0.07522379 -0.12603556 0.071803905 0.066090114 -0.15599519 -0.04158786 -0.034702208 -0.1797509
0.0817944 0.16661452 0.040171888 0.017661 -0.1177173 -0.031720214 0.07849929 -0.08252747
0.15579982 -0.13127671 0.023784969 -0.13295475 -0.035300672 0.09506511 -0.06852437 0.08119739
-0.07542242 0.015342931 -0.09268041 0.100444674 -0.17394814 -0.052066967 0.0062629892 -0.0987933
-0.08139895 0.05068889 0.03955625 -0.09419532 0.12011482 -0.09355558 -0.017298406 0.15041362
-0.20356786 -0.09309361 -0.18574375 -0.14830334 -0.007966263 0.080921456 -0.053383473 -0.052662335
0.11359153 0.05892044 0.20078415 -0.032512113 -0.08664406 -0.09147111 -0.087423064 -0.07760682
0.049026366 -0.0981411 0.02227687 0.005980485 0.13518266 -0.093083516 0.16747601 -0.028429326
0.011980229 -0.01936158 -0.17318445 0.23218723 -0.1022136 0.021577938 -0.1407465 -0.11211662
0.052655935 0.1812331 0.121042006 -0.062078003 0.15744986 -0.037853297 -0.044032387 0.12366507
0.04966343 -0.03668902 0.13430333 -0.05592862 0.0143089425 0.10375546 0.063263185 0.07492411
0.040752985 0.012760797 -0.06794771 -0.2084065 0.11436908 0.055552144 0.024732675 -0.18868153
-0.048734605 0.08802713 -0.05056106 -0.14388825 -0.07499566 -0.074154325 0.1265834 0.10000392
0.11904733 0.14062244 0.15184163 0.086813964 -0.004990902 -0.22765075 -0.047682613 -0.19603984
0.1556532 0.0065860297 -0.097483255 0.08186897 -0.08992684 -0.1851853 0.03106069 -0.16242425
0.0049234573 -0.061794255 -0.05292184 0.07877812 -0.0112517355 -0.16816962 -0.11694536 0.11887327
-0.0055786055 -0.12093798 0.0424909 0.07469948 0.083159454 -0.07510353 -0.014854206 -0.040148098
0.08020314 -0.018423958 -0.21463712 -0.099872194 -0.07729023 0.037442937 -0.06424581 0.07950161
-0.012100557 -0.0058745206 0.1383393 0.13297483 0.17083833 0.014965055 -0.029975388 -0.103885345
0.15712364 -0.020838378 0.08201042 0.18179218 -0.084460504 0.08187386 -0.14582594 0.11005247
-0.08710149 0.035771787 -0.053700328 -0.1211493 -0.051764816 -0.1136481 -0.01548753 -0.15638955
0.08955487 0.010096631 0.09332392 0.053523168 0.053747445 0.040680345 0.04923663 0.11912882
-0.24572057 0.080954 -0.08097288 0.098079205 -0.036076788 -0.14858887 0.042232934 0.13468921
-0.21561405 0.056968164 0.08205529 0.041718658 -0.050875314 0.046347965 0.12170152 0.09509672
0.1216469 0.14566314 0.065772966 -0.021554973 0.10446803 -0.09044734 -0.079397716 0.16489713
-0.08527401 -0.10047491 0.005607762 -0.16679442 -0.036453933 0.07049949 -0.124178335 0.06901352
00000000: b63b 573d 6a70 a83d d4b9 5abd 7ec1 263e
00000010: 08b4 06bd e09a 08be 3489 4ebd a8ab c5bd
00000020: 7ddc f53c 15f5 a93d 00e3 aa3c ac39 75bc
00000030: 90f7 07bd d218 8a3d 2391 853d 9ecd 43be
00000040: 7116 a1bc 3be6 453d 1a77 11be 9a9d 38be
00000050: 3a2d 8bbd 11c7 d03d 7f2f 6ebb c93d 153e
00000060: 1132 0ebe c411 163e c4a2 04be ad0b a53c
00000070: 3e75 a23c 506c c5bd e142 26bd 4b66 993c
00000080: b4fb cc3d 312b ffbd 3a3f b8bd ebca aabc
00000090: c95e bd3d cc14 f6bc cb32 57bd 7a79 233e
000000a0: 6056 3fbd 7037 9bbd be93 84bd f94f ca3d
000000b0: 0e40 1e3b e0e6 443c 7f54 8a3d 4de7 bf3c
000000c0: ee0e 9a3d 770f 01be ed0d 933d 415a 873d
000000d0: 34bd 1fbe 0858 2abd e723 0ebd 9f10 38be
000000e0: d383 a73d ff9c 2a3e 478b 243d cdad 903c
000000f0: c515 f1bd 0eed 01bd 3cc4 a03d 2a04 a9bd
00000100: fd89 1f3e 676d 06be b2d8 c23c 4a25 08be
00000110: 7097 10bd 7fb1 c23d 8156 8cbd d14a a63d
00000120: 1277 9abd eb60 7b3c 3acf bdbd f0b5 cd3d
00000130: 761f 32be 2c44 55bd c339 cd3b 2454 cabd
00000140: 7eb4 a6bd 279f 4f3d bc05 223d 7ae9 c0bd
00000150: c2fe f53d 119a bfbd 63b5 8dbc 0706 1a3e
00000160: 1874 50be dda7 bebd 9c33 3ebe d5dc 17be
00000170: ee84 02bc 26ba a53d a1a8 5abd 76b4 57bd
00000180: ada2 e83d 8f56 713d 5c9a 4d3e 6c2b 05bd
00000190: 7172 b1bd 3555 bbbd dd0a b3bd 53f0 9ebd
000001a0: dfcf 483d 33fe c8bd fc7d b63c f2f7 c33b
000001b0: 536d 0a3e 92a2 bebd d57e 2b3e 9ee4 e8bc
000001c0: b948 443c 2d9c 9ebc 4457 31be 7dc2 6d3e
000001d0: 5d55 d1bd 37c4 b03c da1f 10be 669d e5bd
000001e0: c0ad 573d 2b95 393e dfe4 f73d 8145 7ebd
000001f0: 893a 213e 0f0c 1bbd 4e5b 34bd 1d44 fd3d
00000200: e16b 4b3d 3a47 16bd d086 093e 6915 65bd
00000210: 0e70 6a3c be7d d43d 2190 813d d071 993d
00000220: 9aec 263d a912 513c 2b28 8bbd 8368 55be
00000230: 563a ea3d a58a 633d 2e9c ca3c bb35 41be
00000240: f09d 47bd 9147 b43d 1d19 4fbd 7157 13be
00000250: 5397 99bd 39de 97bd 149f 013e dbce cc3d
00000260: 16cf f33d 54ff 0f3e 5f7c 1b3e 85cb b13d
00000270: b88a a3bb 471d 69be d84e 43bd abbe 48be
00000280: 8d63 1f3e 9fcf d73b 4da5 c7bd ebaa a73d
00000290: 902b b8bd 37a1 3dbe fd72 fe3c 8b52 26be
000002a0: f454 a13b f91b 7dbd 92c4 58bd 6c56 a13d
000002b0: 3359 38bc a834 2cbe 0d81 efbd d473 f33d
000002c0: bccc b6bb 55ae f7bd f00a 2e3d 0afc 983d
000002d0: 814f aa3d e1cf 99bd 0e5f 73bc 5572 24bd
000002e0: 8b41 a43d d7ed 96bc d5c9 5bbe cb89 ccbd
000002f0: 574a 9ebd c45d 193d 4f93 83bd bdd1 a23d
00000300: 6a41 46bc 0d7f c0bb d1a8 0d3e 8e2a 083e
00000310: 3ef0 2e3e fd2f 753c f28e f5bc d7c1 d4bd
00000320: 05e5 203e 3fb5 aabc 14f5 a73d bb27 3a3e
00000330: a1f9 acbd 7bad a73d 6553 15be 3063 e13d
00000340: 4462 b2bd 7085 123d e0f4 5bbd 201d f8bd
00000350: 5807 54bd 56c0 e8bd 69bf 7dbc 9524 20be
00000360: 8b68 b73d 576c 253c 9d20 bf3d 1c3b 5b3d
00000370: 4826 5c3d 6fa0 263d 59ac 493d d0f9 f33d
00000380: 2c9e 7bbe 36cb a53d 1cd5 a5bd c0dd c83d
00000390: 41c5 13bd ae27 18be 71fc 2c3d f8eb 093e
000003a0: eec9 5cbe 7357 693d 9b0c a83d 2fe1 2a3d
000003b0: a262 50bd 5dd7 3d3d a63e f93d 12c2 c23d
000003c0: 0322 f93d b828 153e fab3 863d 0e94 b0bc
000003d0: 56f3 d53d 743c b9bd 459b a2bd cbda 283e
000003e0: 24a4 aebd cac5 cdbd 51c1 b73b 28cc 2abe
000003f0: b850 15bd 0962 903d 3651 febd f656 8d3d

layer_6.lin.bias f4 [32]
0.06380553 0.04529482 0.0013493254 -0.01057869 -0.08004459 0.03688935 0.024540478 0.0031033915
0.050640143 0.09381283 -0.051266845 0.051480018 -0.09658259 -0.047469333 -0.031417884 -0.006730049
-0.08229078 -0.04209421 0.08490039 0.046409156 0.07144296 -0.023404185 0.032073814 -0.041245397
0.01733046 -0.11793691 -0.06072178 -0.1000318 0.03072243 0.017132705 -0.018292379 0.041658442
00000000: 79ac 823d 1087 393d d9db b03a 3e52 2dbc
00000010: 6bee a3bd 4919 173d 1d09 c93c 4562 4b3b
00000020: 0a6c 4f3d f120 c03d 2ffd 51bd b6dc 523d
00000030: 18cd c5bd 346f 42bd 0ab0 00bd be87 dcbb
00000040: 1288 a8bd fa6a 2cbd 41e0 ad3d 8717 3e3d
00000050: b050 923d 22ba bfbc d55f 033d eff0 28bd
00000060: 9cf8 8d3c e888 f1bd 67b7 78bd 79dd ccbd
00000070: 9bad fb3c e359 8c3c e6d9 95bc 0ba2 2a3d
