training_runs/model_step9000.pt (torch, 108754 bytes, 24 tensors)

layer_0.lin.weight f4 [32, 64]
000000 03 50 8d bd 25 46 1b 3e 3a fb 3c 3e 38 7e 06 bc
       -0.06900027 0.15163477 0.1845521 -0.008208804
000010 08 d1 7c bd 51 e8 59 3c cb 86 cd 3d 8f 7a e3 bb
       -0.061722785 0.013300017 0.10035475 -0.0069421004
000020 9c f5 54 3d b6 95 d4 bd 4b f6 8a 3d 4f 3c ac 3d
       0.051992044 -0.103801176 0.06785258 0.084099405
000030 68 93 bc bd f5 b3 1e 3d 3c 6b 2b 3c ab 98 91 bd
       -0.09207803 0.03874584 0.010462578 -0.07109197
000040 23 cc 26 3e f7 0c 8f 3d 79 be 11 be ae ea ac bd
       0.1628881 0.06984895 -0.14232816 -0.08443199
000050 bd 6f 3a 3e 6a 32 46 3e 39 52 fe bd cd 9d 50 3d
       0.18206687 0.19355169 -0.124180265 0.05093174
000060 07 1f fb bd f4 cf 0e 3d ed 0a 26 3e d2 a6 ab bd
       -0.12261777 0.03486629 0.16215105 -0.08381428
000070 00 a3 d4 3d 56 ff 20 3d e5 fb 98 3d ae 28 bf 3d
       0.10382652 0.039306007 0.0746992 0.09333931
000080 56 2b d2 3d ad 9e 0f 3e fa e5 94 bd bd 14 6b be
       0.10262172 0.14025374 -0.07270427 -0.2295713
000090 ab 68 43 3e 1e 35 25 be 64 cc 19 3e 75 ee 4f 3e
       0.19082896 -0.16133544 0.15019375 0.20305808
0000a0 84 bd 63 3e f0 74 bf 3c c2 17 97 3d 81 8b a0 be
       0.22240263 0.02337119 0.07377578 -0.31356433
0000b0 8c ee f2 bd 17 bf 82 bd 01 6a a5 bc 1e b5 62 3d
       -0.118619055 -0.06384104 -0.020192148 0.055348508
0000c0 8f 43 1f 3d 1c 94 20 be 74 79 15 3e 54 cb 41 3e
       0.03888279 -0.15681499 0.14597112 0.1892522
0000d0 67 84 ab 3b f4 ad 42 be ac c9 a3 bd 7c 01 78 bc
       0.0052342894 -0.1901167 -0.0799745 -0.015137073
0000e0 9b 8b 0a 3e 94 ab 56 be 04 5b a1 bc d7 2a 8a bd
       0.13529818 -0.2096389 -0.01969672 -0.06746452
0000f0 6c 2f af bc e2 c1 68 be dc b1 dd 3c 93 80 0c be
       -0.021384917 -0.2273021 0.027062349 -0.13720922
000100 c6 19 24 3d dc 73 89 3d 1e f9 2d 3b 16 33 98 3b
       0.040063642 0.067115515 0.002654619 0.004644762
000110 a8 f0 a3 bd d3 29 42 3e a0 b4 80 3c c1 17 9b bd
       -0.08004886 0.18961267 0.015711129 -0.0757289
000120 70 c2 6a bd d7 c0 ec 3c eb d4 01 3d d1 a4 03 3e
       -0.057314336 0.028900547 0.031697195 0.12855841
000130 b6 20 93 3d a8 11 a7 bd bc 43 be 3d 33 60 04 bd
       0.071839735 -0.081576645 0.09290263 -0.032318305
000140 b7 ff 2d be ea 90 a1 3d 77 7b 8a 3c 09 9c 9b bd
       -0.16992079 0.07888968 0.016904576 -0.07598121
000150 e5 11 c3 3d d6 e0 26 3d 68 87 15 3e dc c6 83 3d
       0.095248975 0.040741764 0.14602435 0.06434414
000160 28 3d b0 3d 48 a6 b9 bb 81 46 20 bc 4b 80 74 3d
       0.08605415 -0.005665574 -0.009782434 0.059692662
000170 b1 84 9a 3c f1 91 4c 3e a3 59 a8 bd f8 1f be bb
       0.0188621 0.19977547 -0.08220222 -0.005802151
000180 82 d1 7d 3e 1e dc 4e 3e 19 84 1e be 59 cc 97 be
       0.24786952 0.20201156 -0.15480079 -0.29648092
000190 29 f3 35 3e b7 6b 11 bd 0e 7b 3d bd ee 71 67 3e
       0.1776854 -0.035503116 -0.046259932 0.22602054
0001a0 21 53 d6 bc c4 ea 91 3d 2b a3 63 bd 79 64 94 be
       -0.026162686 0.07124856 -0.05557553 -0.28982905
0001b0 74 d0 ed bd 60 94 03 3d d7 83 bb bd bb 06 cd 3d
       -0.11612025 0.032123923 -0.09156006 0.10011049
0001c0 ad b5 1d be 3c eb 80 bd 8a ef 96 3d a0 b2 d2 bd
       -0.15401335 -0.062948674 0.07369907 -0.10287976
0001d0 58 01 c0 3d a7 db db bd 1d 8d 69 bd e0 0f 68 3c
       0.09375256 -0.10735255 -0.05701934 0.014163941
0001e0 39 e6 3e 3e 92 ba 27 3e 11 cd d3 bd b6 8c 2c 3d
       0.1864251 0.16379765 -0.10341848 0.04212638
0001f0 9a 16 58 be 98 0e 67 be 24 69 06 bd ee 28 1c be
       -0.21102372 -0.22564161 -0.032815114 -0.15249988
000200 d0 79 65 bd 31 19 17 3d e9 60 9c 3d 06 be 31 3c
       -0.056024373 0.03688926 0.07635672 0.010848528
000210 1c ef 95 bc d7 b0 17 3d 0a 34 f8 3d 0a c7 c1 bd
       -0.018302493 0.037033882 0.12119301 -0.09461792
000220 d1 e2 6c bb 5e d9 31 be a7 e5 88 bc cd d2 5f 3d
       -0.0036145935 -0.17368075 -0.01671107 0.054644395
000230 4b 76 55 3d b9 46 96 3d 39 08 0d 3e eb ce af bc
       0.052114766 0.07337708 0.13772668 -0.02146097
000240 e0 84 15 bd 92 5b 8f bc 5f 80 9e bc 64 38 54 3c
       -0.036503673 -0.017499719 -0.019348321 0.012952898
000250 b9 a7 0b 3c c5 5f 0e 3c 8c 45 17 be 59 6e d7 bc
       0.008523875 0.008689825 -0.14772624 -0.026297735
000260 3f 03 ca bb 62 81 98 3c 60 7b 0c 3e 4f 2f a8 bd
       -0.0061649377 0.018616382 0.13718939 -0.082121484
000270 b1 33 47 3e cb 33 a5 3c 69 f5 51 bc 75 23 1e 3c
       0.19453312 0.020166298 -0.012814858 0.009652008
000280 cd a5 90 3d 6c 22 0b be c3 86 f0 bd 8d c9 8d bd
       0.07062874 -0.1358735 -0.11744454 -0.069232084
000290 31 f5 05 be 00 2b d8 3d b8 8c a7 bd e2 14 c1 bb
       -0.13081814 0.105550766 -0.08181137 -0.005892382
0002a0 8f e4 85 be 79 f6 18 3d 76 b7 cb 3d b4 be 16 3d
       -0.2615094 0.03734443 0.09947102 0.036802962
0002b0 a0 2c 7f 3d 48 45 a5 bd 82 0e 2c be ec 65 b2 3d
       0.062298417 -0.08069855 -0.1680241 0.08710846
0002c0 f3 40 4a be 7c 5c 1a bd 59 9d 12 bd 03 38 66 bd
       -0.19751339 -0.037685856 -0.03579459 -0.05620576
0002d0 15 e2 02 3e b1 81 72 3d 62 7a ae 3e 93 49 ff 3c
       0.12781556 0.059205715 0.34077746 0.031163013
0002e0 1b de 83 bb 56 e3 f3 3d df 8a bd bd 3d d5 4f bc
       -0.00402428 0.11908595 -0.09255003 -0.012685117
0002f0 62 9e ec bd 5b b2 0d 3e bf 01 a1 bd a3 61 0f 3d
       -0.115536466 0.13837568 -0.07861661 0.035005223
000300 2e 1b 89 be b4 c2 ea bd 56 36 ce bc bf dc 76 3d
       -0.2677855 -0.11462918 -0.025172394 0.060269114
000310 91 6e 2e bd 65 94 06 bc 51 c2 55 bd dc 46 27 bd
       -0.042585913 -0.008214091 -0.052187268 -0.04083906
000320 8e 16 6b 3d 0e d7 ba 3d 02 31 13 be e2 8f 65 bd
       0.057394557 0.0912305 -0.14374164 -0.05604542
000330 11 bd a4 3c d4 f9 d7 3d bd 3e d5 bc e3 2f 6a 3d
       0.020109685 0.10545698 -0.026030893 0.057174575
000340 67 a0 00 3e 3f 3b 3b 3e 4f 2a 92 3d e9 97 23 3d
       0.12561189 0.1828432 0.07136976 0.039939795
000350 39 3f e7 bc 59 ec b8 bd 90 ec bf 3a bb 97 9d bd
       -0.02822839 -0.09029455 0.0014642645 -0.07694956
000360 f9 d5 62 be 9b e9 0f be 7b c4 82 3d 0a 9e e2 bd
       -0.22151937 -0.14053957 0.06385132 -0.110653
000370 77 4b 79 3c 76 2b 33 3e 2e be a2 bc 05 3f 97 3c
       0.015215746 0.17497048 -0.019866075 0.018462667
000380 ea c8 af bd c1 77 45 bd 46 66 66 be f4 e5 ec bd
       -0.08583243 -0.04820991 -0.22499952 -0.115672976
000390 dd b4 bf 3d 5d 0f 0f be f4 e4 03 3d 6f 09 19 3e
       0.09360669 -0.13970704 0.03220077 0.14945005
0003a0 54 ab 68 3d 42 56 57 3e ad 74 1a 3d 01 1d 80 be
       0.056804016 0.21028998 0.037708927 -0.25022128
0003b0 33 53 de bb 5f b9 a2 bd eb 2e f5 bd ba 56 c8 3d
       -0.0067848205 -0.07945513 -0.119718395 0.09782167
0003c0 dd 5b e2 3c 93 83 93 3d a4 e4 92 3d dd d6 58 3d
       0.027631694 0.0720283 0.07172516 0.052939285
0003d0 ab d9 c5 bd 51 dd 80 be c7 6b d0 3d cb 90 f6 bd
       -0.096606575 -0.2516885 0.10176807 -0.12039336
0003e0 b3 87 0e 3d 8c 8d b4 bd ac 00 70 be 02 5c b2 bd
       0.03479738 -0.088160604 -0.23437756 -0.08708955
0003f0 d5 91 1c be 42 15 29 be 55 be ee bd 19 35 09 be
       -0.15290006 -0.16512015 -0.11657397 -0.13399161

layer_0.lin.bias f4 [32]
000000 9c 36 37 bc 6a 50 a9 bb be f4 88 bd b6 f0 54 3d
       -0.0111824535 -0.005167057 -0.06687306 0.051987372
000010 9b af 9d bc c8 f9 1d 3c e1 b3 0e bd e1 47 ba 3d
       -0.019248774 0.009642072 -0.034839515 0.09095741
000020 89 26 ad 3d 39 6a d2 3c 85 96 c0 bd 2a f7 8f 3d
       0.084546156 0.025685417 -0.09403709 0.07029565
000030 dc 70 e1 3c c8 90 f9 3b 71 0f 9a 3d 9c 6b b5 ba
       0.027519636 0.007616136 0.075224765 -0.0013841274
000040 4e 4d 94 3c ef 94 a2 3d d9 22 ba bd 81 2c 3f bd
       0.018103268 0.07938563 -0.09088678 -0.0466733
000050 f4 5c 84 bd dc 0f 7f bd 6d e0 49 bd 10 e6 ab bb
       -0.06463042 -0.062270984 -0.049286295 -0.0052459314
000060 80 2b b7 3a fa 42 c8 bb e5 a8 6d 3d bf 16 9b bb
       0.0013974756 -0.0061115 0.0580224 -0.004732936
000070 57 96 3c 3c 0a 2a ca bc e0 3a 35 bd ab 13 21 bb
       0.011510453 -0.024678249 -0.0442456 -0.0024578373

layer_1.lin.weight f4 [32, 64]
000000 6d 37 f4 bd 29 b4 af bd df 29 98 bd 1c 07 e1 3d
       -0.11924634 -0.08579285 -0.07429861 0.10987684
000010 7d ef c7 bd b9 11 94 3d 42 9e 07 be 30 e6 2f 3e
       -0.09762476 0.07229943 -0.13243964 0.17177653
000020 76 8b 82 bd bf 38 a5 bc 74 0e 04 be d5 4e 0d be
       -0.06374256 -0.02016866 -0.12896138 -0.13799603
000030 ad 96 d1 3d b5 a0 bf bd eb dd 23 3c 25 0b 9c bd
       0.10233817 -0.09356824 0.01000164 -0.07619313
000040 3f b3 24 3d 12 1f 31 3d 5c b5 ad bd 86 0c e2 3d
       0.040210005 0.04324252 -0.08481857 0.11037545
000050 14 37 52 be fa 34 97 bc 3f cf 0e 3e de 84 01 3c
       -0.20528823 -0.018457878 0.13946246 0.007905213
000060 fc 05 eb 3c 81 fd 16 3e 6d 83 03 3d 3f a3 85 bd
       0.028689377 0.14745142 0.03210776 -0.06525277
000070 80 25 23 3e 83 58 1e 3e 32 05 36 bd d0 65 4a bc
       0.15932274 0.15463452 -0.04443855 -0.012353376
000080 87 41 8f 3c b8 96 10 3e 2d 1e a5 bb 74 ec dd bc
       0.0174873 0.14119995 -0.0050389976 -0.027090289
000090 6a 76 c5 3b e4 d7 6d bd 02 9d 21 3e 5d 8c 1c be
       0.006026079 -0.058067217 0.1578255 -0.1528792
0000a0 12 ce 64 3c 9b e6 fb 3d 03 79 99 bd f6 73 56 3c
       0.013965147 0.12299844 -0.07493784 0.013089171
0000b0 68 ed ce bd ff ba e0 3d 80 77 8d 3e 02 73 2f 3e
       -0.101038754 0.10973167 0.27630234 0.17133716
0000c0 8a 01 c4 3d 0c a9 d8 bd f7 63 34 bd 79 07 9d 3c
       0.09570606 -0.10579118 -0.044040646 0.019168602
0000d0 4c 94 ea bd 68 6b fe 3c eb b1 23 be 4f cb aa 3d
       -0.11454067 0.031057075 -0.15985839 0.08339559
0000e0 a5 e4 b3 3d 7d 2b 19 be 8f c1 09 3e f9 a1 da 3d
       0.08783845 -0.14957996 0.13452743 0.10675425
0000f0 4a f3 73 be 35 9e 0b 3e 25 0e 75 bd 8f f2 e1 bd
       -0.23823276 0.1363457 -0.059827942 -0.110325925
000100 d8 88 bb bd ff ac 42 bd a8 95 25 bd 79 fb de 3b
       -0.0915696 -0.047528263 -0.040425926 0.00680488
000110 22 3d 00 bd 3c 26 85 bd 0e f4 8f 3e 01 14 3e 3d
       -0.0313083 -0.06501433 0.28115886 0.046405796
000120 83 59 98 3d 92 9b a4 3d 53 57 49 3d e6 a1 a3 bd
       0.07438948 0.08037485 0.049155544 -0.07989864
000130 2c 90 17 3c 9a 30 10 be d1 46 07 be fa ea a7 bd
       0.009250682 -0.1408104 -0.13210608 -0.08199115
000140 65 2e 82 3d dc d7 ab 3c 15 ca d9 bc ae 0d 91 3d
       0.06356505 0.020976953 -0.026585618 0.07082687
000150 6c f3 85 be c6 a9 82 bd b6 ba 90 bd 2f af fb bc
       -0.2616228 -0.06380038 -0.07066862 -0.030723182
000160 ca e8 bb bd c0 72 5d 3d 84 75 06 be f8 e1 90 bd
       -0.0917526 0.054064512 -0.13130766 -0.0707435
000170 38 c4 02 3e 69 4d cf 3d 58 72 63 be b1 5c bd 3d
       0.12770164 0.10122187 -0.22211587 0.09246195
000180 2c fd 08 3e bf da 7e 3d 8e 50 aa bd df 1f 93 3c
       0.13377827 0.06222033 -0.08316146 0.017959533
000190 49 23 c3 3d 07 c1 ec 3c 08 6c f2 bc 5e a6 e2 bd
       0.095282145 0.028900636 -0.029592529 -0.11066888
0001a0 f2 1c 06 bd 3b 10 0f 3e 55 1a a2 3b 3e 8f 24 3d
       -0.03274245 0.13971035 0.0049469867 0.04017567
0001b0 11 7c 2e bc d1 d9 cd 3b 83 aa 77 3d 89 36 5a 3d
       -0.010649697 0.0062820693 0.060465347 0.053274665
0001c0 33 b6 e2 3c be 96 dc bc 05 cb 00 bb 4e ed e1 3c
       0.02767477 -0.026927348 -0.001965226 0.027578976
0001d0 9f 3b de 3b ae c0 5c bd 50 fe 26 bc a6 ba 96 bd
       0.0067820097 -0.05389469 -0.010192469 -0.07359819
0001e0 e4 3c 50 3d f9 fe c7 bd 56 d0 09 3e 40 17 aa 3d
       0.05083932 -0.09765429 0.1345838 0.08305216
0001f0 7f 34 12 be de a5 8a 3d e6 92 7b bc 3f 51 9b 3b
       -0.14277838 0.06769918 -0.015354848 0.00473991
000200 a2 8c cb bd 65 72 16 be e8 23 f5 3c e1 05 f6 bc
       -0.09938933 -0.14692076 0.029924348 -0.0300321
000210 5b 7c 41 3e ac 3b 2b be d3 c9 39 3e f8 a7 54 3e
       0.18895094 -0.16721982 0.18143396 0.207672
000220 7f 0d b1 3d e7 f0 9c bd 0f e0 87 bd bd 64 dd bd
       0.08645152 -0.07663136 -0.06634533 -0.1081023
000230 2b 60 d3 3d 9a 1b 55 bd bf e9 06 be 49 32 d0 bd
       0.10321077 -0.052028276 -0.13175105 -0.10165841
000240 be 1c 96 bc 21 eb ca bd 94 8e f1 3d bb 42 76 bd
       -0.018324252 -0.099081285 0.11794773 -0.060122233
000250 40 cb 92 3d b8 5f 79 bd 57 6e 3e be 65 56 8d bb
       0.07167673 -0.0608823 -0.18596779 -0.0043132775
000260 61 9c 06 3d 30 7c 58 3b 19 81 1e be e6 50 53 3d
       0.03286398 0.0033033006 -0.15478934 0.051590823
000270 8c d7 6b 3e 52 f1 9e 3d d2 78 61 3d 71 a9 b5 3c
       0.23031443 0.07760872 0.055046864 0.022175523
000280 01 dd 76 3b 17 1b 91 bd df a7 fd bd 9e 4c ac bd
       0.003766835 -0.07085245 -0.123855345 -0.08413051
000290 fe 95 69 3d e5 f7 f5 3d 0c 41 d9 bd 85 15 1a bd
       0.05702781 0.12010173 -0.1060811 -0.03761818
0002a0 ac 80 2d bc 2e 6b a3 bd 94 e4 b6 3c 22 5e ca 3d
       -0.01058976 -0.07979427 0.022325791 0.09881236
0002b0 ba 64 38 3d 41 c5 f1 3d b2 2a 54 3d 0a f0 4b 3d
       0.045017935 0.11805201 0.05179853 0.049789466
0002c0 3b 91 2e 3e aa 30 12 bd 96 51 14 bd c4 df e4 3d
       0.17047589 -0.03569094 -0.03621062 0.111754924
0002d0 4f cc 10 3d 32 98 0c bd ec 6f 03 3e 84 40 bf 3c
       0.035351094 -0.034324832 0.12835664 0.023346193
0002e0 20 1d 54 3d 4d 6c fa bd 20 76 e8 3c a7 a0 88 3d
       0.05178559 -0.12227688 0.028376639 0.06671267
0002f0 bf ad e5 3c 13 0b 91 bd be fc 07 3e fa 19 aa 3d
       0.02803695 -0.0708219 0.13280007 0.08305736
000300 92 76 6b 3d 64 85 d3 3b 7f 07 1c 3c f6 4c 8a 3d
       0.057486124 0.0064551104 0.009523272 0.067529604
000310 09 7b 1e 3d b1 4f 60 bd a4 c1 53 3c 6e b7 1c 3e
       0.038691554 -0.0547635 0.0129245855 0.15304348
000320 dc 78 07 3d 58 92 6d bd 04 32 10 3b 17 67 97 bd
       0.033074245 -0.058000892 0.0022002468 -0.0739271
000330 0c bb a6 3d b9 63 bd bd 3a 1c 65 be 71 47 92 bc
       0.08141145 -0.09247536 -0.22374049 -0.017856332
000340 f4 3c c7 bc 44 16 c5 3b 6f fd 74 3d a0 01 c0 39
       -0.024321057 0.006014617 0.059812006 0.00036622304
000350 10 da 99 3d 0a 55 65 3d ae 14 cb 3b 30 57 7f bd
       0.07512295 0.055989303 0.0061975336 -0.062339008
000360 a8 0b 21 3d cb 17 7e 3d be 68 7c 3d 74 6f 14 be
       0.039317757 0.06203441 0.061623327 -0.14495641
000370 4f a4 4e 3c 16 89 f0 bd 54 28 51 bd aa 45 eb 3d
       0.012612416 -0.11744897 -0.05106385 0.11487897
000380 51 97 23 be 4d 45 10 be 9b d7 8a 3d c2 ea 1b be
       -0.15975691 -0.14088936 0.06779405 -0.15226272
000390 9b 2f e5 3d 98 c3 13 3e e4 f6 9e 3d 5c 2e bf 3d
       0.11190721 0.14430082 0.077619344 0.09335014
0003a0 f0 09 f7 bd f6 51 3d 3d 0f 90 93 3d bc eb d8 bd
       -0.12062442 0.046220742 0.07205211 -0.10591838
0003b0 d2 a7 a0 3b 03 c9 6a 3d 87 d7 50 3c 60 a2 18 3d
       0.0049028182 0.057320606 0.012746698 0.037264228
0003c0 a3 5f 93 bd 41 3c c6 3d 1b af f0 3d d4 37 0f 3d
       -0.07195976 0.09679461 0.11752149 0.03496535
0003d0 af 05 6a bd a7 31 f3 bb e4 fa 9a 3d e9 1b 04 3e
       -0.057134327 -0.0074216905 0.07567385 0.12901272
0003e0 d2 a4 bd 3c f4 27 07 bd f3 f4 f0 3c db b1 5b bd
       0.023149882 -0.032997087 0.029413676 -0.053636413
0003f0 e1 f0 b8 bd 3f 2c 69 bd f7 40 4f bd a7 fe 97 3c
       -0.09030319 -0.056926962 -0.050599065 0.018554045

layer_1.lin.bias f4 [32]
000000 50 5a 42 bd 4e 83 6f bd a9 fa 5d bd 0c 51 8c bc
       -0.04744941 -0.05847483 -0.054194126 -0.01712849
000010 bd 0a f3 bc f0 d3 ad bd 72 d0 8c 3d 79 9c 92 3c
       -0.029668206 -0.084876895 0.06875695 0.017896878
000020 88 80 b3 bd 67 35 ad 3b 42 b4 66 3d 27 4f d9 3b
       -0.0876475 0.005285907 0.05632425 0.00663175
000030 e2 20 04 3d 34 db c9 3c 34 34 9b 3d 3a 34 79 bd
       0.032257922 0.024640657 0.07578316 -0.060840823
000040 c5 79 f7 bc 54 20 93 3d b7 43 65 bd 9d 1d 9c 3d
       -0.030209431 0.071839005 -0.05597278 0.07622836
000050 1e 91 fc 3d e5 e6 94 bd b5 63 03 3b eb b5 93 3d
       0.123323664 -0.07270602 0.0020048444 0.072124325
000060 4a a7 a3 bc 51 24 1f 3d 0f 25 76 3c cf e7 1c 3d
       -0.01997723 0.038852993 0.015023484 0.038307007
000070 82 27 7a bd ca aa 9c bb 5d 98 c7 3d b5 ff d4 ba
       -0.061072834 -0.004781102 0.09745858 -0.0016250523

layer_2.lin.weight f4 [32, 64]
000000 56 df b6 3b 00 0b bc 3d 7e b5 c5 3c c2 f3 2d bb
       0.005580823 0.091817856 0.024134394 -0.0026542996
000010 0b b8 d1 3b b2 94 7a bc 3d de 97 bd 70 28 4d bc
       0.0064001135 -0.015294241 -0.074154355 -0.012521848
000020 c1 f1 85 bc aa 43 b2 bd 6e b8 39 3e fb 7b 93 bd
       -0.016350629 -0.08704312 0.1813676 -0.07201382
000030 e7 cd 35 3e d7 37 4a 3d e0 56 4d bc 91 8c f5 3c
       0.17754327 0.04936966 -0.01253292 0.029974254
000040 84 eb 5f 3c 81 94 f7 3d 54 9e 22 3d b5 36 04 3d
       0.013666991 0.12088872 0.039701775 0.032278735
000050 cc ac 94 bd 93 c3 fa 3c d2 d4 92 bd 0e ea db 3d
       -0.07259521 0.030610835 -0.071694985 0.10738002
000060 35 ac b3 bd 8a 21 3b 3d 78 17 5e 3e 4a f3 8f bd
       -0.0877308 0.045686282 0.2168864 -0.070288256
000070 04 d4 a2 3d 95 03 a2 bd bc b6 15 3e ba 04 15 be
       0.07950595 -0.079108395 0.14620489 -0.14552584
000080 f6 e0 13 be 77 5d a3 3d 19 2e fa bd b1 2e fe bd
       -0.14441285 0.079768114 -0.12215824 -0.124112494
000090 fb 4f cd bd e5 d6 0f 3e 95 dd a4 3d e7 26 f8 bd
       -0.10025021 0.1404682 0.08050076 -0.12116795
0000a0 74 41 1a 3e 5d 78 68 3d 01 ff 29 be f0 be 40 bd
       0.15064031 0.056755412 -0.16601183 -0.047057092
0000b0 0f b7 26 be c5 f5 f5 3c 33 0f ee 3c f7 50 66 bd
       -0.16280769 0.030024419 0.029059982 -0.056229558
0000c0 84 4f 0d 3c eb 59 8c 3d 28 2d 71 bd 43 5f ab bc
       0.008624915 0.06853088 -0.058880955 -0.020919448
0000d0 fc 81 b2 bc 1c 49 c1 be a0 04 50 3d 1e 39 62 b8
       -0.021790497 -0.3775109 0.05078566 -5.3935793e-05
0000e0 8e 22 e7 bd 26 5b b0 3c 2a 22 18 3e 70 01 c4 3d
       -0.11285888 0.021527838 0.14856783 0.09570587
0000f0 72 44 1f be 77 d5 b1 3d 17 13 0f be 0a 9a d8 3d
       -0.15553454 0.08683293 -0.13972126 0.105762556
000100 27 2a d6 3c 57 5b e2 3d 70 62 fb 3d 2f 46 85 3d
       0.026143147 0.11052578 0.12274635 0.06507527
000110 36 cf 8b bd 66 8e 06 3e f7 48 2d bd 99 d0 fc b9
       -0.06826632 0.13140258 -0.042305913 -0.00048220603
000120 be 50 07 3e ce 69 cb 3d 5b 34 34 be 81 01 26 bd
       0.13214394 0.0993229 -0.17598097 -0.040528778
000130 4a 4b 4b be 04 0b 10 3c 69 4a 4b bd 2d e7 17 be
       -0.19852939 0.008791689 -0.04963151 -0.1483428
000140 78 a0 ad bd b0 36 ef 3c 05 55 78 3c 12 a0 bc 3d
       -0.084778726 0.029200882 0.015156989 0.092102185
000150 1d 0a c6 3b 12 d4 59 bd f7 a0 f0 bc c5 22 e9 3c
       0.006043686 -0.05318076 -0.029373629 0.028458962
000160 57 7a 6a 3c 15 fa 1b bc 18 82 b3 3d 80 3c 58 bd
       0.014311395 -0.009520073 0.08765048 -0.052792072
000170 d8 a3 75 be 72 f7 12 be f5 c7 8d bd 20 8a 70 3e
       -0.23988283 -0.14352205 -0.069229044 0.2349019
000180 6f 54 c6 3d e0 15 17 3c c4 12 ea 3d ca 1d 3d 3c
       0.09684073 0.009221524 0.114293605 0.011542747
000190 f3 aa 95 be 75 78 48 3d e3 c4 c5 3d 03 99 08 3d
       -0.29231986 0.048943 0.09656694 0.03334905
0001a0 b6 e0 c7 bb ec 1f e2 3c 72 f3 0f be ec 65 4c bd
       -0.0060997857 0.027603112 -0.14057711 -0.049901888
0001b0 ad 5c d9 3d 2a 1d 4b bd a3 ed 2b bd 29 c3 62 bc
       0.106133796 -0.04958836 -0.041974675 -0.013840475
0001c0 13 43 60 bd d8 7d b3 3d 08 0a c4 bd d9 37 eb bd
       -0.054751467 0.08764237 -0.09572226 -0.114852615
0001d0 a2 62 49 bd eb 44 5b be ca 4c 84 3d 4c 3d 8d bd
       -0.04916633 -0.21413009 0.06459959 -0.06896457
0001e0 94 19 bf bd 39 38 c6 bb cb 7c 02 bc 1a 73 d1 3c
       -0.093310505 -0.0060491827 -0.007964323 0.02556758
0001f0 6b a0 e4 3d 78 16 b0 bc fa 57 89 3d 59 e3 41 3d
       0.1116341 -0.021495089 0.06706233 0.047335956
000200 11 6a b7 bd 44 6a bd 3d 19 8e 8d 3d 17 d6 81 3c
       -0.089557774 0.09248784 0.069118686 0.015849156
000210 1a 92 7f bd 77 93 9b bb eb 4b a8 3d b7 15 a4 3d
       -0.062395193 -0.004747804 0.08217605 0.08011954
000220 17 88 2a be 49 05 52 3d c4 19 67 3c b6 5b bd bc
       -0.16653477 0.05127457 0.014105264 -0.02311502
000230 82 b0 aa 3c 92 74 13 be cd 92 07 be 61 2e fe bc
       0.020836119 -0.14399937 -0.13239594 -0.031027975
000240 f0 ac 26 bd 03 1d 97 bd ee 4d ba bc 4d ee 86 bd
       -0.04069227 -0.073785804 -0.022742238 -0.06588421
000250 af ab aa 3d 9f ce ff bd 5c 81 74 bc a4 1f 96 3d
       0.08333527 -0.12490582 -0.01492342 0.07330254
000260 70 49 c4 bc 84 ca 1c 3e 7c 32 26 bd be 98 0e 3e
       -0.023960799 0.15311629 -0.04057549 0.13925454
000270 fc 64 d0 bb c8 63 75 3d 32 0a 21 be e0 94 1f 3e
       -0.0063596945 0.059909612 -0.15726545 0.15584135
000280 87 73 f5 3d 5e be 00 3e 22 b8 c3 3b 1f 1c 89 3c
       0.11984926 0.1257262 0.005972878 0.016737042
000290 8a 5f 1e bd 65 39 9c 3c c6 65 eb 3d 89 73 c7 bc
       -0.038665332 0.019070337 0.11494021 -0.024347084
0002a0 10 6b bf bc 8f 6a 23 be 7a 3c 05 3e d9 6a 4d 3d
       -0.023366481 -0.15958618 0.13011351 0.050150726
0002b0 58 17 51 bd bc 40 38 bd 86 1a 1a 3d 9e 39 32 bb
       -0.051047653 -0.04498361 0.03762295 -0.0027194987
0002c0 32 2b 21 be 87 a6 ad 3d ca ee 82 bd 79 b6 b0 bd
       -0.15739134 0.08479028 -0.06393202 -0.08628554
0002d0 b5 11 09 3d 5d 1d 18 3e 04 2a ae 3c 06 b0 76 bd
       0.033464152 0.14854951 0.021260269 -0.060226463
0002e0 d4 8c b0 bc 95 ea 57 ba 62 fe 06 bd 28 79 ac bd
       -0.021551527 -0.00082365546 -0.032957442 -0.08421546
0002f0 27 6e 9b 3d 70 cd a3 3b 51 4f bd 3d a1 ea 27 be
       0.07589369 0.0049988553 0.09243644 -0.16398098
000300 d8 5d f8 bc 83 e0 99 3d 98 f6 36 3e 42 30 2f 3d
       -0.030318186 0.07513525 0.17867506 0.04277063
000310 d9 06 05 be 43 c4 71 bd d4 90 00 be 93 c1 00 be
       -0.12990893 -0.05902506 -0.12555248 -0.12573843
000320 1c 06 2b 3c 79 08 b6 bd ef 0e 99 3d 6c 4f 9b 3b
       0.010438468 -0.08888335 0.074735515 0.0047396924
000330 7e 0a 55 3e ff 5a 15 3d a6 a5 99 3b f4 ed ce 3d
       0.20804784 0.036463734 0.0046889363 0.1010398
000340 17 c9 f0 3c ce 2e 87 bd 90 eb 99 bd 44 4f 49 3d
       0.029392762 -0.06600724 -0.07515633 0.04914786
000350 6a 1e 8c 3d 84 18 b4 bd 8d 8a 01 3d f2 0b d2 bd
       0.068417385 -0.087937385 0.031626273 -0.10256185
000360 5c 5e 73 bd 6c 4f 2b 3e d2 1b f3 3d e1 37 95 ba
       -0.05941616 0.16729516 0.11870541 -0.0011384451
000370 77 cc 13 3e d7 f0 65 3c 1c 6a 9c 3d 75 dd 47 be
       0.14433466 0.0140344715 0.07637426 -0.19518073
000380 15 43 fc 3d a0 a3 5f bd 9f 2d bc bd 19 8b d5 bd
       0.123174824 -0.054599404 -0.09188389 -0.104269214
000390 7a 3a 8d 3d db 35 72 bd 04 dd 71 bc e3 cc f4 bc
       0.06895919 -0.05913339 -0.014762167 -0.029882854
0003a0 c3 df 06 bc 3b 01 ae 3d 4b 9c aa bd c1 92 2a bd
       -0.00823206 0.084963284 -0.08330592 -0.04164386
0003b0 85 10 49 be 0e f9 4b bd 3e be 8e bd 92 63 0b 3d
       -0.19635208 -0.049798064 -0.069698796 0.034030505
0003c0 fb 09 1b bd e9 d9 da bd 50 ba c4 3d 38 d9 17 3c
       -0.037851315 -0.10686094 0.09605849 0.009268098
0003d0 76 ae 7e 3d 84 51 11 3d ea 1e 98 bc 4f 35 92 bd
       0.062178098 0.03547813 -0.018569428 -0.07139074
0003e0 15 ea 2a 39 20 a4 b2 bd 05 a0 c8 bd 02 f8 83 bc
       0.00016299666 -0.087227106 -0.09796146 -0.01610947
0003f0 3b 9f 1c be b1 b0 d0 bd 4b 4c c9 bd 50 63 8d 3e
       -0.15295117 -0.10189951 -0.09829005 0.27614832

layer_2.lin.bias f4 [32]
000000 bc 12 66 3d c2 4b e5 bc bd 0e ea bd 75 6c 33 3d
       0.05617021 -0.027990226 -0.11428592 0.043804605
000010 58 fb e1 bd 1b 1f 36 bd 2b 88 dd bc 69 46 63 bd
       -0.11034268 -0.04446326 -0.027042469 -0.05548707
000020 9d e6 93 bc 43 2e 25 bd ee ae 59 3c 83 1d 54 3d
       -0.0180543 -0.04032732 0.013286335 0.051785957
000030 e0 5d a2 3d 85 11 3f 3d 8d df 6e 3c 41 0d 60 3d
       0.079280615 0.046647567 0.014579666 0.05470014
000040 6b cc 65 bc ab 3c 18 bd c6 7e c1 bd 7f b9 82 bd
       -0.014025788 -0.037167232 -0.09448008 -0.06383037
000050 2f 80 9f 3c 25 f7 06 bd 81 9e 5b bd a9 f8 30 3d
       0.019470302 -0.03295054 -0.053617958 0.04320589
000060 35 78 e2 bc c9 7c e3 3c e2 ae a1 bc 09 0c a9 3c
       -0.02764521 0.027769463 -0.019736711 0.020635622
000070 82 b9 24 bd a8 a7 99 3d 3c 93 d8 bd a1 a7 e1 bd
       -0.040215977 0.07502681 -0.10574958 -0.11018301

layer_3.lin.weight f4 [32, 64]
000000 06 77 32 3d e3 2a 06 be fe 02 29 3e a8 3f 2d 3d
       0.04357054 -0.13102297 0.16505048 0.042297035
000010 c2 b0 a5 3c d7 7b 21 3c a6 12 ab 3b 4b 9b 6a 3c
       0.020225886 0.009856186 0.005220729 0.014319251
000020 d7 6c 0a be 34 4c a9 3d 44 18 37 3d ab 38 bb 3d
       -0.13518082 0.08266488 0.044700876 0.09141668
000030 e7 b8 c6 3d fe 20 95 bc ce 37 74 3d ac 20 4e be
       0.09703236 -0.018204208 0.059623532 -0.20129651
000040 fc a5 db 3b 65 95 58 bd 62 67 94 bd b6 a5 b5 3d
       0.0067031365 -0.05287685 -0.07246281 0.088694975
000050 9c 14 2a 3e 3a c5 1c be 98 15 26 be b5 04 2c 3d
       0.16609424 -0.15309611 -0.16219175 0.041996676
000060 7d f8 60 bc a6 71 9d 3d dc da 32 bd a8 48 f3 3d
       -0.013731119 0.07687692 -0.04366575 0.118790925
000070 1c 54 dd 3c af 50 88 3d 7b 5c 68 bc d4 ac 23 bb
       0.027017646 0.06656014 -0.014182205 -0.002497484
000080 0c 10 2b 3e 5e 7a 1b be d9 86 5b be 11 a3 19 3e
       0.1670534 -0.15183398 -0.21438159 0.15003611
000090 2e 78 2c be 0a dc 82 3d f4 6b 46 3d 86 55 5e 3d
       -0.1684272 0.06389625 0.048442796 0.05428078
0000a0 81 2c 95 3c 48 77 ae bd 7f 26 0e bd 3a eb fd 3d
       0.018209698 -0.08518845 -0.03470468 0.123983815
0000b0 3c 92 13 bd 9b 3d c9 bc 71 93 05 3e 55 7b 57 bd
       -0.03602813 -0.024565509 0.13044526 -0.052607853
0000c0 52 d3 bf 3d 51 30 8c bd 73 f4 93 bd d0 f4 13 be
       0.09366478 -0.06845153 -0.07224359 -0.14448857
0000d0 7f 02 04 bd 77 1a d8 3d 09 20 40 3e ec c4 0c 3e
       -0.032228943 0.10551923 0.1876222 0.13746995
0000e0 ee 91 15 3e 5b 43 f1 bd 03 3e 7e 3d e4 b4 50 be
       0.14606449 -0.11780425 0.062070858 -0.20381504
0000f0 fb cb 79 3d cb 0a 68 3d fd 2e 09 be 17 71 12 3e
       0.060985547 0.056650918 -0.13396831 0.14300953
000100 db b2 b8 bd e9 38 d8 3d 9f 67 51 bd d0 ee 53 3c
       -0.09018489 0.1055773 -0.05112421 0.012935355
000110 02 af fa bc ce 7c 45 bd 8e 46 00 3e 38 e6 3e bc
       -0.030601028 -0.048214726 0.12526914 -0.011651568
000120 63 4f 1b bc 92 23 eb 3d 1a 64 e9 3c 43 80 a9 bd
       -0.0094793765 0.11481394 0.028490115 -0.08276417
000130 9b b9 85 bd 5e 7d 9e bd 64 19 5f be 22 f5 03 be
       -0.06529542 -0.07738756 -0.2178703 -0.1288648
000140 8a bd 57 bd ca 3c ff 3d 68 43 41 bd 9d 0c 84 bc
       -0.052670993 0.124627665 -0.047183424 -0.016119296
000150 93 b6 00 bd 8e a1 5f bc 2f 30 c5 3d 01 9b 13 3e
       -0.031424116 -0.0136493575 0.09628331 0.14414598
000160 d7 ba 31 3d 4b 6a ec 39 24 ca c5 bd c0 ae b7 bc
       0.043391075 0.00045092622 -0.09657696 -0.022422194
000170 65 90 fa bc dc 6c f7 3d 17 51 7e 3d 36 a6 b3 bc
       -0.03058643 0.1208131 0.062089052 -0.021929841
000180 08 ce 1f 3d dd 0e 67 3d c9 32 02 3e 75 99 c1 bd
       0.039014846 0.05641066 0.12714685 -0.09453098
000190 0c 16 bb bd dd 43 01 3e f7 e6 e5 3d d1 aa 41 bd
       -0.091350645 0.12623544 0.11225694 -0.047282044
0001a0 68 a3 04 3c 7c 2d 12 be 97 95 ed bd 29 12 ab bc
       0.0080956 -0.14275163 -0.116007976 -0.020882683
0001b0 1c 0e 27 3e 1c d6 19 3e 28 53 95 bd 75 dc f6 3d
       0.16313976 0.15023082 -0.072912514 0.120537676
0001c0 45 12 fa bc 79 6f 9c bc 95 58 45 3d 79 46 aa bd
       -0.03052629 -0.019096123 0.04818018 -0.08314223
0001d0 e0 bf 51 3e d1 dd 65 bd a4 e5 01 be 28 09 69 bc
       0.20483351 -0.056119744 -0.12685257 -0.014223374
0001e0 f6 35 bc 3b 89 45 48 3e 87 dc 34 3d 2e 76 aa 3d
       0.0057437373 0.19557776 0.044155624 0.08323322
0001f0 f2 f2 c7 bd e9 83 56 3d 01 c9 27 3e da 50 78 bd
       -0.09763135 0.052371893 0.1638527 -0.06062398
000200 22 69 bf bd 24 75 41 be 1a 90 d4 3d 9b 96 15 be
       -0.09346224 -0.18892342 0.10379048 -0.14608233
000210 c2 af b2 bb ad 6d 67 be 70 1b f9 3d 54 0b cf 3d
       -0.005453081 -0.22600432 0.121634364 0.101095825
000220 64 f8 31 bd 14 8f a9 3a 29 ec 06 3e cc b4 67 3d
       -0.043449774 0.0012936317 0.13176025 0.056568906
000230 32 1e 8b bd 9d 58 08 3d 0a 62 91 bc b6 e0 c5 3d
       -0.06792869 0.033287633 -0.017746944 0.09662001
000240 68 39 f8 bd b4 ec 14 bb 2e 86 b1 3d 0b 9b c6 3c
       -0.121203244 -0.0022724094 0.08668171 0.024243852
000250 cb 0e 63 3c 37 c7 60 3d 34 36 34 be 3d de df bd
       0.013858507 0.054877486 -0.17598802 -0.109310605
000260 e1 79 4b bd ef b6 b0 bc e4 fe b3 bc 03 a5 01 3d
       -0.04967678 -0.021571605 -0.021972127 0.031651508
000270 5f 5d e9 3d 54 34 c3 3d d0 ca 9d bd 52 39 c8 3d
       0.11394762 0.09531465 -0.07704699 0.09776558
000280 3a fb 00 3e 2f 47 11 3c c1 6f 3b 3d fd 07 93 bc
       0.12595835 0.008867069 0.045760874 -0.017948145
000290 18 88 a8 3c a4 6a 60 3e 93 c0 a0 3c 25 fa 20 3d
       0.020572707 0.2191568 0.019623077 0.039301056
0002a0 12 dd 11 3e 38 97 ea bd d5 1d eb bd 3e c3 cb bd
       0.14244488 -0.11454624 -0.114802994 -0.09949349
0002b0 fc e1 81 3b fe 58 c8 bb b2 3e f1 bd b1 21 d1 bc
       0.003963707 -0.0061141243 -0.11779536 -0.02552876
0002c0 23 95 8c bc a1 cb 84 bc bf 02 71 3c ca 29 a9 bd
       -0.017160958 -0.01621038 0.014710127 -0.08259924
0002d0 c1 11 a9 bc 55 22 32 3d c3 3d 45 be 1c c1 21 3d
       -0.020638349 0.043489773 -0.19261841 0.039490804
0002e0 15 33 99 3d e4 c6 89 3b b0 84 9c 3d 62 7b 09 3e
       0.07480446 0.004204618 0.07642496 0.13425973
0002f0 14 66 ff 3c c0 a2 a7 bc 8c 2b 19 3e df 90 8c 3d
       0.031176604 -0.020463347 0.14958018 0.068635695
000300 9f 30 33 3d 85 69 49 bc ff 16 2d be 38 16 e0 3d
       0.04374754 -0.012293224 -0.16903304 0.10941738
000310 b2 bc 52 bd 1e 67 5d bd 16 32 b7 bd 8e a7 58 3d
       -0.051449485 -0.05405342 -0.089451 0.052894168
000320 42 93 2b bd 1f 97 a8 bd f1 35 f2 3c bf fd 31 bd
       -0.041888483 -0.08231949 0.029566737 -0.04345488
000330 7a 58 2c bc 1a 50 dd 3d 92 02 2a be c0 8f 3d bd
       -0.010519141 0.10806294 -0.16602543 -0.04627967
000340 74 f1 a8 bd 6d 3c d9 3d a4 34 5b bc b2 9a 98 bd
       -0.082491785 0.106072284 -0.01337925 -0.07451381
000350 b6 10 f0 bd 8b d9 85 3d 5f d1 1e 3e dd 7d 9a bd
       -0.11721937 0.06535634 0.15509556 -0.07543538
000360 95 0a ef 3d 3b 1c f5 bd 17 fd 8f 3d 60 f2 01 be
       0.1167194 -0.11968275 0.07030695 -0.12690115
000370 f7 9c bc 3d 6b 70 3b 3e ca a2 89 bb 84 21 3b 3c
       0.09209626 0.18304603 -0.004200314 0.011421565
000380 ee 5b d0 3d b1 ef 6d 3d 98 98 d5 bd 6e e0 88 bd
       0.10173784 0.058089916 -0.104294956 -0.066834316
000390 79 1d b1 bd 57 83 b5 3d 19 c4 24 be e4 65 ed 3d
       -0.086481996 0.08862942 -0.1609043 0.115917
0003a0 59 55 12 bc 29 67 ce bb 94 3f 45 bd e5 d8 d0 3c
       -0.008931481 -0.0062989187 -0.048156336 0.025494048
0003b0 c0 60 4f bd fe 88 31 bd f3 0d 31 bd d6 2c 29 bd
       -0.050629377 -0.043343537 -0.043226194 -0.041302525
0003c0 9b b3 89 3b 83 73 d5 3c cd 4f 05 3d d5 0e 14 bd
       0.004202319 0.026056057 0.032546807 -0.036146957
0003d0 f1 29 06 3e 89 58 0a bc 5a 49 d7 bd d6 a9 2c 3e
       0.13101937 -0.00844396 -0.105120376 0.16861662
0003e0 93 60 1f 3d bf 64 8f 3b 79 de a7 3d ca 8b f0 3d
       0.03891046 0.0043760235 0.0819673 0.11745413
0003f0 3f 65 0b be 09 0d 09 3e fc bb 1c 3e a8 3a 9a bd
       -0.13612841 0.13383879 0.15306085 -0.07530719

layer_3.lin.bias f4 [32]
000000 19 82 0c 3d d1 89 b3 3c 04 60 bf 3d 8a 83 87 bd
       0.03430376 0.021916302 0.093444854 -0.06616886
000010 fc 87 56 3d 25 ad a4 3d 80 c8 c0 3d 0c 12 a4 bd
       0.05237578 0.08040837 0.09413242 -0.08011255
000020 76 43 cc 3d 71 78 21 bc bf 71 1c 3b 44 98 ac 3c
       0.09973805 -0.009855376 0.002387151 0.0210687
000030 12 18 ae 3d f7 bb cb 3c eb 4e bb bd 46 22 e8 3a
       0.08500685 0.024869902 -0.09145912 0.001771041
000040 0b 50 3c 3c e9 e2 dc bb f4 4d e4 bb 82 f3 5f bc
       0.011493693 -0.006740917 -0.0069673005 -0.013668897
000050 12 b4 91 3d 8e de a2 3d 46 2e 79 3d 5e e5 7e bb
       0.07114424 0.07952605 0.060835145 -0.0038894038
000060 22 12 01 3d 11 df 0e 3d e3 c2 23 bd 47 30 a0 3d
       0.031511433 0.0348807 -0.03998078 0.07821708
000070 43 4a ab 3d 6b 71 41 3c 74 09 76 3d 10 bf 7e bd
       0.08363774 0.011806826 0.06006761 -0.06219393

layer_4.lin.weight f4 [32, 64]
000000 e7 74 b8 3d b1 53 e4 bc ee b1 40 3d 19 d6 09 be
       0.09006672 -0.027871938 0.047044687 -0.13460578
000010 37 d0 6b be 80 a3 d6 3d 5b c1 bd bc 35 4e c2 bd
       -0.23028646 0.10480404 -0.023163488 -0.09487573
000020 f2 04 37 bc c6 01 f4 3c 57 a5 a9 bb 80 5e 5f bc
       -0.011170613 0.029786002 -0.0051771807 -0.01363337
000030 b4 f7 a2 3d 23 19 4a 3b 3e 56 c9 3c 48 98 13 be
       0.07957402 0.0030837737 0.024577256 -0.1441356
000040 52 16 a4 bd fb 93 45 3d 22 9b f1 3c 90 b9 85 3d
       -0.0801207 0.04823683 0.029492918 0.06529534
000050 42 e2 a9 3d cd da 34 bd 3b 6d ae 3c 70 8f e6 bd
       0.082951084 -0.044153977 0.02129232 -0.11257827
000060 92 b0 38 bc 5a cf 04 3e 44 f4 d4 3d d7 c4 92 3d
       -0.011272566 0.12969723 0.103981525 0.071664505
000070 aa ca 8c bd f1 66 fe bd c9 2e 0d bc 0f 42 c5 bd
       -0.068745926 -0.12421978 -0.0086171115 -0.0963174
000080 76 52 93 bd cc ca b6 3d 8c 57 39 3d a9 4e c9 3d
       -0.071934626 0.08925399 0.045249507 0.09829456
000090 06 03 a8 3d a7 38 8d 3c f0 d8 93 bd a2 69 22 3e
       0.08203702 0.017238928 -0.07219112 0.15860608
0000a0 d6 90 ba 3d 5e 43 66 3d f8 2e 0f be ce 9f db bc
       0.091096565 0.05621659 -0.13982761 -0.0268096
0000b0 42 8e 07 be 33 1e 13 bb 3e 56 70 3d 48 c1 52 3e
       -0.13237861 -0.002244842 0.058675997 0.20581543
0000c0 1c bf 9c 3a b1 bc 99 3c 76 47 f6 bd 3c 1c fa 3c
       0.001195881 0.018766733 -0.12025349 0.030531041
0000d0 43 8e 01 3e 4f 1e 96 bb 71 ae d5 bd ae be 01 3e
       0.12651925 -0.00458125 -0.10433663 0.12670395
0000e0 ff d2 3d 3d f1 4c 0b be 7c 86 07 be da 34 8e bd
       0.0463438 -0.1360357 -0.13234895 -0.069436744
0000f0 ee 0c f8 bd aa d2 0f 3e 93 d7 17 3d f8 92 60 bd
       -0.12111841 0.14045206 0.037070822 -0.05482766
000100 61 7c 05 3e cb a2 0d bd d1 20 c7 bd 29 03 d8 bd
       0.13035728 -0.03457908 -0.09723056 -0.10547478
000110 78 1c f3 3b 75 20 2f bd 41 83 47 3e fd 2f 8e 3d
       0.007419165 -0.042755563 0.19483663 0.06942747
000120 4b 7d 66 be 58 8b 57 3d f9 48 64 3c b3 63 15 3e
       -0.22508733 0.052623123 0.013933414 0.14588813
000130 04 72 36 3e 91 ce 15 be de 6f 89 bc ac 7b a8 3d
       0.17816931 -0.1462958 -0.016776975 0.082267135
000140 dc 4b 44 bd bd f2 00 3e c6 c8 4a be 3d a3 32 bd
       -0.047923908 0.12592597 -0.19803151 -0.043612707
000150 a6 0d 0d bd f6 3d 0b bb d0 cf e2 3b ba e2 09 3e
       -0.034436844 -0.0021246648 0.006921746 0.13465396
000160 dd 9e a2 3c 5e 42 3c be 20 d1 f8 bd 51 f7 2a bc
       0.019851143 -0.18384692 -0.121492624 -0.010434941
000170 79 62 98 3d c2 e6 3e bc d1 d9 38 3e 00 36 29 bd
       0.07440657 -0.011651697 0.1805184 -0.041311264
000180 b0 43 3b 3d ef e2 2c 3d d4 38 2f bc ec 65 03 be
       0.04571885 0.04220861 -0.010694701 -0.12831849
000190 c8 74 98 bd 6f ea aa 3c 3b 42 fa 3c 92 88 d0 bd
       -0.07444149 0.02086374 0.03054916 -0.10182299
0001a0 63 72 c6 bd 2b 70 64 3d 3c d7 b7 bc 28 68 d4 bd
       -0.09689786 0.055771034 -0.022441499 -0.10371429
0001b0 32 df bd bb 8b aa 33 3d 6f cf ba 3c 77 1e 0b be
       -0.005794429 0.043863814 0.02280399 -0.1358584
0001c0 91 38 fc bd e5 47 ff 3d 6d 27 ce bd d7 96 23 be
       -0.12315477 0.12464885 -0.100661136 -0.1597551
0001d0 5d db 63 3d 3a 49 ac 3d 10 9d 15 3d 9d 0c bf 3d
       0.055629123 0.08412404 0.03652674 0.09328578
0001e0 20 88 15 3e ba 92 0e be af 11 96 ba 43 55 d9 bc
       0.14602709 -0.13923159 -0.0011449362 -0.026529914
0001f0 3d 00 e0 bd 7b 19 7e bd 93 e8 91 bd 68 cb b4 3d
       -0.109375454 -0.06203602 -0.07124438 0.08827859
000200 68 6f 60 bd 13 89 09 3e 46 84 97 bd d9 7d 04 3e
       -0.054793745 0.13431196 -0.07398276 0.12938632
000210 39 9b 6e bd 54 85 f6 bd c1 3b bb bd d0 8e d1 bd
       -0.0582535 -0.12037149 -0.091422565 -0.102323174
000220 43 8f 13 bd 5e 62 74 3c a5 2d 6f bd 32 f3 10 bd
       -0.036025297 0.014916031 -0.05839314 -0.03538818
000230 f1 8a 5f 3d 47 59 40 3d a3 2d f6 3b b6 c9 e0 bc
       0.054575864 0.04696014 0.0075127645 -0.027439933
000240 1c 4b a1 bd 1f aa ba bb 2a 29 b7 3d 9d 08 d8 bd
       -0.07875654 -0.0056965495 0.08943398 -0.10548518
000250 b8 1c ad bd b6 ff 96 3d 84 ff 7a bc 8e 9f 16 3d
       -0.08452743 0.07372992 -0.015319709 0.036773257
000260 6e 22 79 ba 27 ba 25 be f0 76 ad 3d 89 af be bc
       -0.00095037266 -0.16184293 0.08469951 -0.023277061
000270 17 3e 2a 3d 2b 02 59 3d 72 a6 a0 3d bd e1 4e 3d
       0.04156312 0.052980583 0.07844247 0.05050825
000280 66 2e 8b bd 61 1a 89 bd 6f db b5 bc 32 aa 3d 3c
       -0.06795959 -0.066944845 -0.02219936 0.011576222
000290 09 bc b5 3d fb ec 05 3e 62 48 30 bd 47 09 aa bb
       0.088737555 0.13078682 -0.04303778 -0.005189094
0002a0 73 e9 96 bd 4a 7e 08 be c5 1e 20 3d 1e 10 c8 bc
       -0.07368746 -0.13329425 0.039091844 -0.024421748
0002b0 82 33 56 bd 8c 55 00 bd a6 5e d3 3c 77 64 d5 3c
       -0.052295215 -0.031331584 0.025801968 0.026048882
0002c0 14 a8 1a 3e 85 48 9f bc 2c dd 8b bd 96 60 86 3d
       0.15103179 -0.01944376 -0.068292946 0.06561391
0002d0 a9 56 0e be ad 72 f1 bc 00 df 13 be 91 43 fd 3d
       -0.13900246 -0.029473627 -0.14440536 0.12366403
0002e0 d9 93 9d bd dd be 38 3d ca 33 1f bc 63 e3 72 3d
       -0.07694215 0.045103896 -0.009716937 0.059298884
0002f0 a8 86 e1 bc e6 d9 01 3e 26 c7 99 bd ff 6e 50 3d
       -0.02753003 0.12680778 -0.07508688 0.050887104
000300 34 ff 5b bd 0d e7 f1 bd 01 59 f3 bc f2 ae 5e 3d
       -0.053710178 -0.118116476 -0.029705526 0.05436606
000310 71 4e 12 3d 53 38 72 3c 68 c3 51 3d b8 e3 ff 3d
       0.03571934 0.014783937 0.051211745 0.12494606
000320 8b c1 47 3d f2 65 23 bd 77 eb 0a bc d6 09 bd 3d
       0.04876856 -0.039892145 -0.008478991 0.09230392
000330 18 7c 35 3d c7 fb 05 bc 2e 8a 0c 3e d1 7f ec bd
       0.0443078 -0.008177704 0.13724586 -0.115478165
000340 6e 48 99 3d 6b 59 bd bc 7e d8 ae 3d 75 83 2b 3e
       0.07484518 -0.023113927 0.08537386 0.16749366
000350 9c 92 27 3e ec 9e 33 bd 90 aa a1 3d 5b 75 9c 3d
       0.16364521 -0.04385273 0.0789386 0.07639571
000360 28 9f 9f bb 56 e7 e1 3d a5 30 f6 3c 84 9b 89 3d
       -0.004871268 0.11030452 0.030052492 0.067191154
000370 26 27 d8 3c 2e 1a ac bd 7b 32 e2 bd 26 aa b9 3d
       0.026385855 -0.08403431 -0.11044785 0.09065656
000380 9e 8d 63 3d 4e c2 1a 3d 6f f0 ab 3d e3 d7 4f 3b
       0.05555498 0.03778296 0.083954684 0.0031714372
000390 13 67 2d bc f1 ac 3b 3b ae 99 b4 bc 3f f3 6a 3d
       -0.010583657 0.0028637017 -0.022045936 0.057360884
0003a0 57 d3 89 bd c1 32 e6 3d 7b 9c 43 bd 42 ef 6b bd
       -0.06729763 0.11240149 -0.047756653 -0.05760122
0003b0 7f 10 bc bc dc 1c 8a bd 00 49 01 3e 96 62 d1 3c
       -0.022957085 -0.06743786 0.12625504 0.025559705
0003c0 2f 36 08 be a2 63 23 3c 97 84 98 3d 16 41 81 bd
       -0.1330192 0.009972485 0.074471645 -0.06311242
0003d0 f3 ec 5a 3c 7b 3d 50 bd 79 9c c1 3b 0d df a9 bd
       0.013362157 -0.050839882 0.0059085456 -0.08294497
0003e0 4c 08 1d 3e 6d 4f 11 bd 4e 65 02 3e e9 5e b5 3a
       0.15335196 -0.035476137 0.12733957 0.001383749
0003f0 5b 99 13 be c9 6b 12 3d 9b fc 63 bb 37 66 13 3e
       -0.14413969 0.035747323 -0.0034788016 0.1439446

layer_4.lin.bias f4 [32]
000000 2f a6 85 3c 6a e3 5c bd 0c 69 b6 3d d6 76 81 bd
       0.016314594 -0.053927816 0.08906755 -0.06321494
000010 1c 8d a6 bd 54 6a c0 bc 21 66 84 3b 34 07 38 bd
       -0.08132383 -0.023488201 0.004040495 -0.044928744
000020 43 57 96 bd 73 69 f8 3a cc c3 8b 3c 29 0f 2d 3d
       -0.073408626 0.0018952325 0.017061137 0.042250786
000030 c8 71 05 be 63 17 d2 bc b6 15 6e 3d 90 ae e3 3d
       -0.13031685 -0.025645917 0.058126174 0.111172795
000040 04 5f 2d 3d 82 8c 82 3d 3a af 7d 3d 4c c2 b1 bc
       0.042326942 0.06374456 0.061934687 -0.021699093
000050 d5 5b 9c bd 0a 76 0e bd 66 09 b7 3c 80 db 34 bd
       -0.07634703 -0.03478054 0.022343349 -0.044154644
000060 9e bb e3 3d 48 70 a3 bd f9 af a0 3d 8a 0a 22 3d
       0.111197695 -0.079804 0.07846064 0.039560832
000070 28 29 dd 3d 89 94 83 3d df 70 38 bd 64 4b a7 3d
       0.107988656 0.06424815 -0.045029517 0.081686765

layer_5.lin.weight f4 [32, 64]
000000 44 bc a9 bd 4d 1d 3e bd 06 18 62 3c be 74 a4 3d
       -0.08287862 -0.046414662 0.013799673 0.08030079
000010 0f d3 f4 bb 58 27 03 be 61 74 08 be 57 f3 cc bd
       -0.007471449 -0.12807977 -0.13325645 -0.10007351
000020 a4 51 6c bc 18 77 3a 3d 8a a9 e1 bc 50 3d d6 3d
       -0.0144237615 0.045523733 -0.027546663 0.10460913
000030 e6 36 8d bc a4 c7 b1 bd 39 67 3f 3e 64 e6 95 bd
       -0.017238092 -0.086806566 0.1869172 -0.07319334
000040 d9 7b e3 bc 45 af 01 3e b2 16 c5 bc 32 45 97 bd
       -0.027769016 0.12664516 -0.024058674 -0.07386245
000050 6c 44 50 bc c0 f9 79 3b 66 77 39 3e c7 1a 4b 3e
       -0.012711626 0.0038143247 0.18111953 0.19834433
000060 ec f1 a3 3d 82 cd aa bd 2a 39 a4 bd 92 d4 5a be
       0.08005127 -0.08339979 -0.08018716 -0.21370152
000070 17 c0 de 3d d5 86 e9 bd e3 e1 94 3d 85 c8 52 be
       0.10876482 -0.1140267 0.07269647 -0.20584305
000080 42 d3 0f 3d aa 18 ca 3d 91 56 cf bd bc d8 d4 bd
       0.03511358 0.098679855 -0.10123933 -0.10392901
000090 be 2c 48 3d f7 5f d1 3d fa 3f 6b bd 40 51 0d 3d
       0.048870794 0.10223382 -0.05743406 0.034501314
0000a0 a7 e5 9c bd ea 4d 8f 3d a0 32 e1 3d cf 3e 2b bc
       -0.0766099 0.06997283 0.10995984 -0.010451986
0000b0 73 62 a2 3b 11 f1 ee bb 9c 57 00 be 9c 0a 4b bd
       0.0049555837 -0.007291921 -0.1253342 -0.049570665
0000c0 df d1 27 3d 8d f4 0d 3e 9f 52 31 3d 3e d4 4d 3e
       0.040971633 0.1386282 0.043291684 0.20100495
0000d0 4e a6 2a 3e d6 32 0d 3e 99 9e c1 bd ed cd b7 bd
       0.16665003 0.13788924 -0.09454078 -0.08974824
0000e0 76 4a 6f bd 00 f8 9f 3d 14 9e 39 3e 2d a8 37 3e
       -0.05842062 0.07810974 0.18126708 0.17935248
0000f0 51 5e 9d bd 10 5e 02 3e cb 28 13 38 de 6f e2 3d
       -0.07684005 0.12731194 3.5085523e-05 0.11056493
000100 47 40 7a 3d 3b 34 d5 bd 1e 2e bf bd 52 57 a2 3d
       0.061096456 -0.10410353 -0.09334968 0.07926811
000110 8c dd ec bd b7 68 75 3d 63 35 bf 3d 4d 92 ec 3d
       -0.11565694 0.059914317 0.093363546 0.11551342
000120 2f 80 43 3d 7c 92 61 bd 4c 5f 84 3d a4 9a 7d 3d
       0.047729667 -0.05507134 0.06463489 0.061915055
000130 c5 d4 b5 bd 1a 68 d3 3d 47 06 fa bd 40 97 c4 3d
       -0.08878473 0.1032259 -0.122082286 0.09599161
000140 9c 28 5b 3d 12 73 e0 bc de 64 e2 bd 8e 67 f5 3d
       0.053505525 -0.02739862 -0.11054395 0.11982642
000150 21 6b 5a 3d 93 23 d0 3d 5f 77 51 3d 5a e7 9f bd
       0.053324822 0.10163035 0.05113923 -0.07807799
000160 c0 71 df 3d 81 50 3d 3d 20 c7 c0 3d b8 5a 5a 3c
       0.10910368 0.046219353 0.0941298 0.013327293
000170 fd a2 68 3d 43 19 89 bc 48 21 cc 3c da 2c 28 3d
       0.056796063 -0.016735679 0.024918213 0.0410584
000180 43 a7 cb bd 73 20 c7 3d 6b f2 cc 3c a7 7c d3 bd
       -0.09944012 0.09722986 0.025017938 -0.1032651
000190 68 ba 24 3e 9d 88 c3 bd dc 50 7f bc 40 68 a5 3d
       0.16086733 -0.09547541 -0.015583243 0.08076525
0001a0 79 f0 20 bc e3 64 cd bd 55 11 4e bd 09 72 32 3d
       -0.009822958 -0.10029008 -0.050309498 0.043565784
0001b0 da a2 38 3d 70 57 f8 3d 16 66 ae 3d 48 90 e4 bd
       0.045077182 0.121260524 0.08515565 -0.11160332
0001c0 6c af 21 ba 57 22 de bd 5b a2 fd bc fc f1 a2 3d
       -0.00061678025 -0.108463936 -0.030961206 0.07956311
0001d0 78 d5 cd bd e7 a8 a2 bc 30 4e 18 3d a7 b0 89 bd
       -0.100504816 -0.01985593 0.03718394 -0.06723147
0001e0 2a f0 5d 3d 2e ec 3b 3d 6c fa fd 3c c1 77 c9 bc
       0.054184116 0.045879535 0.0310032 -0.024593236
0001f0 8a ff 49 bc 9a 10 35 3a 61 1b 26 3c ea c2 24 bd
       -0.012328992 0.0006907076 0.010138364 -0.040224947
000200 3b 00 6d bd 7c f2 37 3e f4 23 05 3d ca 05 10 3e
       -0.057861548 0.17963594 0.03250499 0.14064708
000210 17 94 3d 3e 25 31 f1 3d 91 0a 98 bd e0 21 e9 3c
       0.18513523 0.11776952 -0.074238904 0.028458536
000220 81 e2 bd bd 01 b8 eb 3d 89 9c 70 bd 3b 66 42 bd
       -0.09271718 0.11509705 -0.058743034 -0.047460776
000230 c4 04 83 bd f6 aa 9c 3b 3c 3d c3 bd 34 d7 04 bd
       -0.06397393 0.0047811223 -0.09533164 -0.032431796
000240 c4 fa 4f 3c f6 20 cc bd 6c 05 c3 bd 76 61 20 be
       0.0126940645 -0.09967224 -0.095225185 -0.15662178
000250 20 32 07 ba 6b ce e6 bd 8d 85 3d be 59 2d 0d 3d
       -0.00051573105 -0.1126984 -0.18507977 0.034467075
000260 b3 6a 3d bd 93 b0 c9 3c 29 29 01 3d 83 48 82 3d
       -0.046244334 0.02462033 0.031533394 0.06361487
000270 b3 2d f7 3c c2 89 ed bd fb 89 16 3e 7e 43 04 3e
       0.030173158 -0.11598541 0.14701073 0.12916371
000280 bd a3 1b 3e 35 7f 99 bd dd 12 8a bd eb cc 0d 3c
       0.1519918 -0.07494966 -0.06741879 0.008654813
000290 6b db 04 be d8 6e 17 3d cb f5 cc 3c de 38 0c 3e
       -0.12974326 0.036970943 0.025019547 0.13693568
0002a0 02 27 83 bd cd f6 42 bc 99 cf 79 bc b1 7a 89 bc
       -0.064039245 -0.011899662 -0.015247249 -0.016782137
0002b0 bf 8d f8 3d 4c 0a c2 3d bc 14 6b 3d b4 cf 56 bd
       0.12136411 0.0947462 0.05739282 -0.052444175
0002c0 78 07 96 bc bc 02 a2 3d 00 6d 95 bc d8 43 5c bd
       -0.018314108 0.07910678 -0.018240452 -0.05377564
0002d0 5f a1 1e 3e 17 25 b4 bd 1d 28 03 be c9 e8 07 be
       0.15491246 -0.08796137 -0.12808271 -0.13272394
0002e0 28 f4 f3 3d e3 bd 07 bd a0 91 0c 3d f1 17 dd bb
       0.119118035 -0.033140074 0.034318566 -0.006747239
0002f0 6c e1 92 bd a8 83 9a 3d 8e fe cc bc 69 58 58 be
       -0.07171902 0.07544643 -0.025023725 -0.21127476
000300 9d 91 0a bd 89 b2 86 bd 43 76 22 be 4a a7 f8 3d
       -0.033830274 -0.06577022 -0.15865426 0.12141283
000310 72 d3 58 bd 1f 8f fc bb e2 10 0c 3e 44 00 bf 3c
       -0.052936025 -0.007707491 0.13678315 0.023315556
000320 27 59 53 3d f9 ef dc bd 37 9b 8b bc 82 27 13 be
       0.051598694 -0.10787959 -0.017041786 -0.1437054
000330 91 25 38 be c5 9e c9 3d f3 11 bc 3d 88 f7 75 3d
       -0.1798308 0.09844736 0.09183111 0.060050517
000340 66 44 59 3e ac 84 ed 3d 1a cb 21 3e f4 8d 94 bc
       0.21217498 0.11597571 0.15800133 -0.018134095
000350 13 ad 78 3d 4e c0 1a bc 47 02 d9 bc 65 d8 39 bd
       0.06071193 -0.009445263 -0.026490344 -0.045372386
000360 f2 3d b3 3d df eb b1 bc 6f 23 9e 3d c7 4b 8e be
       0.087520495 -0.021718917 0.07721602 -0.2779219
000370 c1 8a b1 3c b7 1d a3 bb d7 d0 1e 3e 12 c9 e5 bb
       0.021672608 -0.0049779075 0.15509354 -0.007012495
000380 38 5a f4 3d 8b 4f 17 bd d8 3f ec 3d 66 f1 0b bd
       0.1193127 -0.036941092 0.11535615 -0.034165762
000390 a0 4f fa 3d e7 3c e3 3d 0a 8d 87 bc 42 d1 22 bd
       0.122222185 0.110956006 -0.016546745 -0.039750345
0003a0 6f bd 56 3c 92 05 92 3d e4 ed 11 3b 06 f7 5e bd
       0.013106688 0.07129969 0.0022267038 -0.0544348
0003b0 6d b0 ac bb a4 fe 06 be e8 fa 01 3e 43 c7 c3 bd
       -0.005270055 -0.13183075 0.1269337 -0.095594905
0003c0 db 27 71 bd 94 09 7d 3d 9e 89 d6 3d 3d e1 96 bd
       -0.0588759 0.061776713 0.10475467 -0.073671795
0003d0 c4 7d 02 bd e1 d3 dd bc 7e b7 35 3d 71 14 c2 3d
       -0.03185822 -0.02707857 0.044364445 0.09476555
0003e0 c3 6b db bd 27 07 d6 bc f9 8f 95 3c 02 e5 1d 3e
       -0.10713913 -0.026126457 0.018257128 0.15419391
0003f0 55 a4 ac 3d c4 2d 9c 3d 39 0c 16 bd c0 b3 74 bc
       0.08429781 0.076259166 -0.03663275 -0.014935434

layer_5.lin.bias f4 [32]
000000 7f 33 c0 bc ad 00 c3 3d c6 19 e0 bc db d8 31 bd
       -0.023462055 0.09521613 -0.02735604 -0.0434197
000010 7c 6d a1 bd 27 6c a5 bc 74 e6 ae bd 8f 47 46 3d
       -0.078822106 -0.020193173 -0.08540049 0.048408087
000020 f7 93 f3 3b a8 d4 17 3c 64 ac e8 3d c1 dc cb ba
       0.0074334103 0.00926701 0.11361006 -0.0015553461
000030 a1 f3 49 3c 7a 1f 89 3d 42 77 22 bc f8 a3 c3 3c
       0.012326152 0.06695457 -0.009916129 0.023881897
000040 c1 7e 9a 3d 41 92 5e bd 6b cd 22 3d 08 91 d4 3c
       0.07543708 -0.054338697 0.039746683 0.025948063
000050 ac 83 d1 3b 4a 55 43 bc 40 b8 18 ba 0d bc 18 bd
       0.0063938703 -0.01192219 -0.0005825795 -0.037288714
000060 4c ab e4 bd 8e 7c 7f bd 54 ad 42 3d ad 5c 88 3d
       -0.11165485 -0.062374644 0.04752858 0.066583015
000070 55 d4 ba bc dc e1 59 3d 15 ab 6d 3d 90 46 a4 3d
       -0.022806326 0.053193912 0.058024485 0.08021271
