training_runs/model_step7000.pt (torch, 108754 bytes, 24 tensors)

layer_0.lin.weight f4 [32, 64]
-0.01777056 0.07642005 0.17240775 0.01652994 -0.04319875 0.0003669971 0.018398417 -0.046606645
0.03034548 -0.109862916 0.07278716 0.072651654 -0.11195396 -0.0147658605 -0.0127883125 -0.0022084257
0.11973533 0.07972361 -0.16592921 -0.094111554 0.18079095 0.16816163 -0.08802601 0.003544966
-0.13572183 0.076730825 0.12493637 -0.13157399 0.009052942 0.03673894 0.08349091 0.07395808
0.09423949 0.12958 -0.057120744 -0.21194276 0.13344182 -0.1279684 0.14683396 0.1724272
0.21441905 0.022549797 0.04741537 -0.2663227 -0.10314492 0.0007506281 -0.026033146 0.013242435
0.033098757 -0.1234302 0.1594724 0.18594638 0.03811915 -0.13229035 -0.079395875 0.008635592
0.12808946 -0.22262783 -0.048821613 -0.020340752 0.042976167 -0.16890143 -0.0020313167 -0.15186192
0.027155234 0.0046543563 -0.048022237 0.03526594 -0.04005399 0.12829028 0.03209505 -0.07588321
-0.03584564 -0.00083124614 -0.009814521 0.13624722 0.047683194 -0.067538746 0.09493924 -0.016690472
-0.11633948 0.07257279 0.036661606 -0.025094183 0.07728934 0.023751201 0.08563713 0.02280422
0.028935287 -0.047335528 -0.03260389 0.0072705457 -0.013714359 0.14452165 -0.025401367 0.012951416
0.24391976 0.17789896 -0.12534969 -0.3013814 0.17193817 0.0010525874 -0.064943515 0.15923122
-0.059374306 0.07185811 -0.09733668 -0.25679296 -0.11308026 0.03946693 -0.08856396 0.12904452
-0.1670181 -0.05485219 0.070524216 -0.10896388 0.05447644 -0.12766433 0.013122333 -8.765351e-05
0.20714925 0.17882097 -0.1330995 0.063600205 -0.21708971 -0.15838782 -0.07215377 -0.17061912
-0.08363042 0.006798498 0.07524572 0.0694924 -0.038986214 0.03408788 0.14414296 -0.062072564
-0.00936406 -0.16591442 -0.0013618377 0.07462388 0.054871242 0.11748779 0.14334139 -0.049502887
-0.016874034 -0.0066905357 0.021585777 0.05527432 0.020491987 0.009806058 -0.16744143 -0.01751601
-0.034906972 -0.018128254 0.15649568 -0.07175377 0.15570179 0.007220586 0.022713825 -0.02564099
0.076654784 -0.121505804 -0.1039085 -0.047640923 -0.049489852 0.09409945 -0.10198245 -0.037113726
-0.23256277 0.069715425 0.124640785 -0.006444908 0.06872622 -0.10723305 -0.20817646 0.11034255
-0.14276733 -0.027508698 -0.018995821 -0.053362064 0.062311098 -0.013061537 0.30433017 0.048758365
0.023394426 0.13575 -0.12554517 -0.037239067 -0.16402109 0.10479068 -0.021361548 0.035489183
-0.17868687 -0.030319858 -0.0116756065 -0.0075593884 -0.05988294 0.02756245 -0.06653549 -0.07541679
0.039506175 0.05288613 -0.14028615 -0.08967093 -0.01735117 0.07401188 -0.07120176 0.083343185
0.11812112 0.07063572 0.019860597 -8.79336e-05 0.047185123 -0.07715183 0.006769025 -0.0910096
-0.16800272 -0.105238296 0.071791284 -0.081586 0.02709275 0.10517641 0.009877592 -0.020124055
-0.080938786 -0.04453355 -0.20177376 -0.086082295 0.060442176 -0.075310186 0.026578581 0.13790077
0.03175935 0.20504749 0.03438197 -0.19034268 -0.016953066 0.0007578786 -0.075484075 0.057078637
-0.007486369 0.091763094 0.043986127 0.058783878 -0.08136411 -0.18467692 0.07260949 -0.09522198
0.048074536 -0.10048911 -0.20678897 -0.11817133 -0.10121935 -0.116416 -0.14451739 -0.098606355
00000000: 9193 91bc 1d82 9c3d a88b 303e cc69 873c
00000010: 2cf1 30bd 8469 c039 47b8 963c 9ce6 3ebd
00000020: 1697 f83c cfff e0bd 6f11 953d 64ca 943d
00000030: 1e48 e5bd 82ec 71bc 1286 51bc 3cbb 10bb
00000040: cc37 f53d 2246 a33d 59e9 29be 8fbd c0bd
00000050: 4321 393e 9032 2c3e fb46 b4bd a952 683b
00000060: aafa 0abe 0d25 9d3d a4de ff3d 55bb 06be
00000070: ca52 143c 927b 163d 48fd aa3d 5577 973d
00000080: a200 c13d 9fb0 043e 71f7 69bd 8607 59be
00000090: f9a4 083e 260a 03be a45b 163e c290 303e
000000a0: ab90 5b3e 5aba b83c 9e36 423d 735b 88be
000000b0: a53d d3bd cdc5 443a 7743 d5bc ccf6 583c
000000c0: 9092 073d f9c8 fcbd bc4c 233e ba68 3e3e
000000d0: d322 1c3d 1f77 07be 4e9a a2bd 4c7c 0d3c
000000e0: e229 033e 8df8 63be 2cf9 47bd a6a1 a6bc
000000f0: c707 303d 7ff4 2cbe d71f 05bb b181 1bbe
00000100: a774 de3c 9283 983b f7b2 44bd 0573 103d
00000110: a70f 24bd 875e 033e 1976 033d a868 9bbd
00000120: e1d2 12bd fce7 59ba 16cd 20bc 6484 0b3e
00000130: 744f 433d c151 8abd 816f c23d 75ba 88bc
00000140: 6543 eebd 0ba1 943d 7b2a 163d 5192 cdbc
00000150: e049 9e3d e191 c23c 8562 af3d eacf ba3c
00000160: b209 ed3c e6e2 41bd a88b 05bd c23d ee3b
00000170: 31b2 60bc 7cfd 133e 8716 d0bc 2d32 543c
00000180: 1ac6 793e 252b 363e ab5b 00be aa4e 9abe
00000190: 8f10 303e f9f6 893a 1b01 85bd 820d 233e
000001a0: 7932 73bd 582a 933d 7458 c7bd 5e7a 83be
000001b0: a096 e7bd 13a8 213d 0561 b5bd 3f24 043e
000001c0: cb06 2bbe b1ac 60bd 006f 903d 7428 dfbd
000001d0: b022 5f3d 70ba 02be 0eff 563c 9fd2 b7b8
000001e0: ef1e 543e d81c 373e 3c4b 08be d340 823d
000001f0: c44c 5ebe 6b30 22be 5bc5 93bd c7b6 2ebe
00000200: 6d46 abbd efc5 de3b 6e1a 9a3d 0852 8e3d
00000210: 02b0 1fbd bc9f 0b3d 369a 133e cd3f 7ebd
00000220: b76b 19bc 78e5 29be b17f b2ba 68d4 983d
00000230: abc0 603d 709d f03d 16c8 123e 8ac3 4abd
00000240: 6a3b 8abc 483c dbbb a8d4 b03c 5367 623d
00000250: d0de a73c 97a9 203c c475 2bbe bc7d 8fbc
00000260: 9dfa 0ebd b481 94bc 6740 203e a4f3 92bd
00000270: 4a70 1f3e aa9a ec3b 5812 ba3c 0e0d d2bc
00000280: 2ffd 9c3d 09d8 f8bd fbcd d4bd 2123 43bd
00000290: dfb5 4abd 36b7 c03d 2ddc d0bd 9004 18bd
000002a0: ef24 6ebe f6c6 8e3d ab43 ff3d cf2f d3bb
000002b0: 55c0 8c3d 009d dbbd 362c 55be 46fb e13d
000002c0: 9931 12be ec59 e1bc 209d 9bbc 2e92 5abd
000002d0: ec39 7f3d 0f00 56bc 2ad1 9b3e dab6 473d
000002e0: aba5 bf3c 0c02 0b3e ea8e 00be fe87 18bd
000002f0: 25f5 27be 7f9c d63d 6afe aebc 1b5d 113d
00000300: b1f9 36be 5a61 f8bc 0b4b 3fbc bfb4 f7bb
00000310: d047 75bd a6ca e13c c243 88bd 1e74 9abd
00000320: 3ad1 213d 209f 583d 2ca7 0fbe 64a5 b7bd
00000330: 0a24 8ebc 8a93 973d 3ad2 91bd d5af aa3d
00000340: 7ce9 f13d 76a9 903d b1b2 a23c fe68 b8b8
00000350: 3045 413d c701 9ebd b3ce dd3b 3e63 babd
00000360: e808 2cbe 2d87 d7bd 4f07 933d 9016 a7bd
00000370: 9df1 dd3c bb66 d73d a0d5 213c 34db a4bc
00000380: 3cc3 a5bd d068 36bd c89d 4ebe ea4b b0bd
00000390: 3792 773d 3a3c 9abd 53bb d93c dc35 0d3e
000003a0: 1816 023d f8f7 513e 1cd4 0c3d 31e9 42be
000003b0: 28e1 8abc 5fac 463a 6597 9abd 4acb 693d
000003c0: 3750 f5bb 4aee bb3d cc2a 343d 5dc7 703d
000003d0: 3aa2 a6bd f21b 3dbe 49b4 943d be03 c3bd
000003e0: cee9 443d 3ccd cdbd 7dc0 53be cf03 f2bd
000003f0: 174c cfbd 836b eebd 5efc 13be 21f2 c9bd

layer_0.lin.bias f4 [32]
-0.011725572 -0.008718859 -0.092196114 0.066576034 -0.010708575 -0.025371395 -0.03685029 0.05919256
0.108905576 0.03827226 -0.09450704 0.093194105 0.024963608 0.011046676 0.0575078 -0.018225305
0.02975013 0.093183465 -0.10774578 -0.04545223 -0.05473096 -0.07098391 -0.014932278 0.0135389855
-0.028570043 0.023540623 0.07571813 -0.033401087 0.006659918 -0.042338632 -0.057156667 -0.027544826
00000000: 9d1c 40bc 8cd9 0ebc 51d1 bcbd 0459 883d
00000010: 0573 2fbc acd7 cfbc 54f0 16bd e673 723d
00000020: e309 df3d 60c3 1c3d e88c c1bd 8ddc be3d
00000030: 7b80 cc3c 1efd 343c 4d8d 6b3d 3c4d 95bc
00000040: 8bb6 f33c f9d6 be3d d2a9 dcbd 1e2c 3abd
00000050: 922d 60bd 0360 91bd 83a6 74bc 9fd2 5d3c
00000060: b90b eabc 44d8 c03c 1b12 9b3d 94cf 08bd
00000070: 713b da3b 466b 2dbd 1c1d 6abd b0a5 e1bc

layer_1.lin.weight f4 [32, 64]
-0.08530054 -0.066377774 -0.076029174 0.08412186 -0.032845408 0.04624976 -0.08240824 0.15340517
-0.0697577 -0.03311233 -0.10427421 -0.14167978 0.101402774 -0.09410501 -0.022942552 -0.06638162
0.036105074 0.03872775 -0.07702259 0.115795486 -0.18083969 0.0009360534 0.08301388 -0.018461883
0.039459158 0.13473482 0.019852616 -0.0602636 0.1373161 0.14753595 -0.03529206 -0.0028295165
-0.002620388 0.15538378 0.010583119 -0.042904206 -0.023699133 -0.0268589 0.16435854 -0.15238419
0.0026686597 0.09737235 -0.06675709 0.004046196 -0.08633151 0.115972005 0.2622166 0.18639712
0.085192345 -0.12049963 -0.039277095 0.013111573 -0.09739526 0.03491991 -0.1414152 0.078319706
0.10909908 -0.15618911 0.13065103 0.11890382 -0.2055429 0.14340696 -0.051071726 -0.1128822
-0.07542127 -0.031267058 -0.023770638 0.00030978883 -0.052911755 -0.060417876 0.26908943 0.030370886
0.0642264 0.09065342 0.044057377 -0.0747694 -0.0033144352 -0.13028526 -0.12710835 -0.075409465
0.048304625 0.013826561 -0.022684118 0.07004793 -0.2493124 -0.05724281 -0.056631863 -0.01628429
-0.08810064 0.052342035 -0.13513443 -0.044685386 0.12628841 0.10527566 -0.1610152 0.068350784
0.09994334 0.043859437 -0.07928326 -0.0037482595 0.1049861 0.0547476 -0.010771512 -0.10892655
-0.03833549 0.119377635 0.013034278 0.030949255 -0.0040861177 -0.010659306 0.023562627 0.059256747
0.026009643 -0.02820805 6.341577e-05 0.035587408 0.011823115 -0.052963015 0.033220936 -0.06636377
0.046969723 -0.09830833 0.12958051 0.070781775 -0.104446106 0.07523559 -0.040461462 0.0031128558
-0.0833211 -0.13023096 0.038102154 -0.062686555 0.24371085 -0.10408397 0.17575966 0.13388407
0.07900903 -0.09212419 -0.049650434 -0.12335987 0.08700899 -0.053734653 -0.14998151 -0.0552146
-0.017664865 -0.109314434 0.13521995 -0.044670973 0.10311866 -0.034997314 -0.12289395 -0.0032918754
0.054806903 -0.017975379 -0.15842259 0.0656681 0.2038523 0.084861904 0.0897304 0.029842332
0.03797793 -0.043077596 -0.106735595 -0.09197801 0.046336718 0.120839894 -0.085953146 -0.058511656
-0.024038853 -0.07881454 0.028127586 0.09100439 0.034269057 0.066703655 0.019259633 0.056375694
0.16515486 -0.045054547 -0.020580895 0.1126636 0.046282265 -0.018805096 0.14803965 0.007311041
0.068876095 -0.11947126 0.018161165 0.09650612 0.026651178 -0.062495265 0.16768053 0.090378575
0.027550882 -0.019822512 0.00925042 0.056335576 0.02776448 -0.016349092 0.015275241 0.13834734
0.03575958 -0.065619156 -0.0046922998 -0.06823292 0.07227327 -0.08076416 -0.20325239 -0.01178965
-0.044401176 0.0047958526 0.05177348 0.0035759252 0.06978789 0.037862424 0.033296462 -0.034465086
0.030937454 0.038979203 0.06248209 -0.13888814 0.04579447 -0.10746091 -0.07437713 0.08909197
-0.14319645 -0.14213172 0.062925264 -0.1417073 0.11898445 0.1410325 0.09113095 0.11548493
-0.11994694 0.059518147 0.07037044 -0.09756302 -0.0006954739 0.005666016 0.0039221034 0.027465338
-0.06699201 0.10478303 0.11115532 0.033481512 -0.06912881 -0.017168604 0.047030393 0.12086434
0.0056973947 -0.021790877 0.025132386 -0.041309815 -0.06706496 -0.056224365 -0.07376985 0.011348558
00000000: 0db2 aebd 12f1 87bd 2fb5 9bbd 1548 ac3d
00000010: e888 06bd 6370 3d3d a7c5 a8bd 3f16 1d3e
00000020: 20dd 8ebd cba0 07bd b88d d5bd 8114 11be
00000030: 42ac cf3d 21ba c0bd 05f2 bbbc 16f3 87bd
00000040: eae2 133d fda0 1e3d 05be 9dbd 2f26 ed3d
00000050: 0a2e 39be 7b61 753a 2e03 aa3d 603d 97bc
00000060: ed9f 213d edf7 093e f4a1 a23c f7d6 76bd
00000070: 979c 0c3e aa13 173e 688e 10bd 696f 39bb
00000080: d1ba 2bbb ed1c 1f3e d164 2d3c 52bc 2fbd
00000090: af24 c2bc 3207 dcbc 9b4d 283e 9a0a 1cbe
000000a0: aee4 2e3b 286b c73d f1b7 88bd f495 843b
000000b0: 93ce b0bd bb82 ed3d 4141 863e e3de 3e3e
000000c0: 5379 ae3d 83c8 f6bd 05e1 20bd ecd1 563c
000000d0: 2b77 c7bd 2e08 0f3d 25cf 10be 1566 a03d
000000e0: 576f df3d 0af0 1fbe 62c9 053e d983 f33d
000000f0: d779 52be 46d9 123e 9630 51bd c82e e7bd
00000100: 7876 9abd e311 00bd a4ba c2bc 276b a239
00000110: ffb9 58bd bc78 77bd 17c6 893e 5dcc f83c
00000120: 2189 833d 80a8 b93d 8275 343d b320 99bd
00000130: ff36 59bb 8069 05be b128 02be 4770 9abd
00000140: 12db 453d cd88 623c 0bd4 b9bc 4a75 8f3d
00000150: c04b 7fbe 7077 6abd d0f6 67bd a266 85bc
00000160: 1c6e b4bd 9a64 563d ae60 0abe 0608 37bd
00000170: c051 013e c49a d73d 2be1 24be 7ffb 8b3d
00000180: 18af cc3d f4a5 333d 435f a2bd 5ca5 75bb
00000190: f402 d73d 053f 603d ff7a 30bc e214 dfbd
000001a0: ad05 1dbd 437c f43d b98d 553c 4b89 fd3c
000001b0: d7e4 85bb 5fa4 2ebc 6906 c13c 34b7 723d
000001c0: 2d12 d53c 9214 e7bc 15fe 8438 1ac4 113d
000001d0: bdb5 413c bfef 58bd ad12 083d bae9 87bd
000001e0: 5363 403d e155 c9bd c1b0 043e 09f6 903d
000001f0: d7e7 d5bd 1e15 9a3d ebba 25bd 0e01 4c3b
00000200: 41a4 aabd 445b 05be 0111 1c3d cf61 80bd
00000210: 568f 793e fa29 d5bd 57fa 333e e818 093e
00000220: 7ccf a13d 9bab bcbd 415e 4bbd 19a4 fcbd
00000230: c531 b23d de18 5cbd c194 19be b428 62bd
00000240: e8b5 90bc 3fe0 dfbd 1977 0a3e e9f8 36bd
00000250: e02f d33d 5859 0fbd d3af fbbd 81bc 57bb
00000260: 347d 603d 1a41 93bc 8839 22be ff7c 863d
00000270: a8be 503e 14cc ad3d 92c4 b73d e877 f43c
00000280: bf8e 1b3d 2272 30bd 3198 dabd f85e bcbd
00000290: 92cb 3d3d e87a f73d 3408 b0bd eba9 6fbd
000002a0: 21ed c4bc 8469 a1bd d36b e63c 8260 ba3d
000002b0: b65d 0c3d ed9b 883d 61c6 9d3c 33ea 663d
000002c0: 5b1e 293e 1e8b 38bd 4499 a8bc 2cbc e63d
000002d0: 7992 3d3d 250d 9abc b597 173e 7591 ef3b
000002e0: e90e 8d3d 59ad f4bd b9c6 943c 00a5 c53d
000002f0: 9253 da3c 09fb 7fbd 72b4 2b3e 6718 b93d
00000300: 63b2 e13c d262 a2bc 138f 173c 22c0 663d
00000310: 5672 e33c 88ee 85bc 0145 7a3c edaa 0d3e
00000320: a378 123d 5663 86bd ddc1 99bb b3bd 8bbd
00000330: 0204 943d ae67 a5bd 6521 50be 6029 41bc
00000340: 02de 35bd 8726 9d3b 6e10 543d 125a 6a3b
00000350: f4ec 8e3d a115 1b3d df61 083d 432b 0dbd
00000360: 8b70 fd3c a8a8 1f3d 38ed 7f3d b138 0ebe
00000370: fb92 3b3d 7714 dcbd 0953 98bd da75 b63d
00000380: 17a2 12be fa8a 11be f6de 803d b81b 11be
00000390: 1fae f33d d36a 103e dda2 ba3d 5d83 ec3d
000003a0: bea6 f5bd 4dc9 733d 611e 903d 1fcf c7bd
000003b0: 7750 36ba fda9 b93b fd84 803b fdfe e03c
000003c0: 1b33 89bd 7c98 d63d 67a5 e33d e923 093d
000003d0: 6893 8dbd 2ca5 8cbc f1a2 403d b987 f73d
000003e0: 36b1 ba3b c882 b2bc 6fe2 cd3c 7b34 29bd
000003f0: 5b59 89bd 854b 66bd a614 97bd 4def 393c

layer_1.lin.bias f4 [32]
-0.05643953 -0.06521248 -0.06991889 -0.011100457 -0.016133651 -0.048180323 0.051532216 0.002503214
-0.098058835 0.0071131173 0.059420988 0.009732568 0.06253897 0.009681329 0.059994746 -0.07312434
-0.009562458 0.07185113 -0.08923223 0.097051784 0.09498542 -0.10426726 -0.012232383 0.10885087
0.0024579247 0.020625494 0.022277467 0.057875425 -0.060757007 0.04289717 0.06556289 -0.007658415
00000000: 232d 67bd 1f8e 85bd a331 8fbd b1de 35bc
00000010: b82a 84bc bb58 45bd 7213 533d f60c 243b
00000020: 12d3 c8bd 2715 e93b 6c63 733d 5975 1f3c
00000030: 6e14 803d 709e 1e3c 0dbd 753d 37c2 95bd
00000040: dbab 1cbc af26 933d 63bf b6bd 16c3 c63d
00000050: b787 c23d 138a d5bd 556a 48bc 34ed de3d
00000060: 2215 213b ccf6 a83c 3c7f b63c c80e 6d3d
00000070: 57dc 78bd f1b4 2f3d d645 863d 71f3 fabb

layer_2.lin.weight f4 [32, 64]
0.0222277 0.097426504 0.04059661 0.00756427 -0.01215325 -0.037856854 -0.06439188 -0.011453662
-0.00033962983 -0.101955034 0.17111969 -0.064209476 0.17229192 0.050512876 -0.016368452 0.019080434
0.0007295371 0.12059759 0.05157207 0.023903044 -0.038875304 0.03483415 -0.07764075 0.08323668
-0.09870748 0.06095942 0.18732576 -0.07899441 0.08903894 -0.08983996 0.151912 -0.1133468
-0.1384689 0.07473881 -0.112606615 -0.12191396 -0.10699653 0.117784806 0.09267613 -0.10485011
0.16069672 0.054684676 -0.15522066 -0.028320486 -0.17027465 0.03303434 0.03032797 -0.06576734
-0.0060161934 0.071010515 -0.04607937 -0.029280186 -0.009928201 -0.36132288 0.049081616 -0.014732666
-0.11755245 0.03874152 0.13536073 0.079455934 -0.14404678 0.078998365 -0.12774158 0.100044765
0.034131758 0.090679206 0.09833231 0.059289332 -0.061315276 0.12078121 -0.07866684 -0.025793148
0.1177052 0.09106087 -0.1550273 -0.052857913 -0.17839098 0.01095196 -0.04596233 -0.13667642
-0.056484867 0.023348209 0.0027666374 0.11683393 -0.0027496228 -0.055919588 -0.017130503 0.039466005
0.017659958 -0.03563448 0.08836629 -0.040295586 -0.24425524 -0.12739371 -0.083385155 0.24538605
0.100339934 0.0076278984 0.09548423 -0.0016713561 -0.2684441 0.079492405 0.07783967 0.01756962
-0.024688896 0.01893451 -0.1359231 -0.055277564 0.11441056 -0.05006974 -0.036496233 -0.0016466819
-0.03709792 0.084615305 -0.11069936 -0.100136735 -0.06870261 -0.206765 0.074189715 -0.05272562
-0.088080764 -0.03130845 -0.004145536 0.04067502 0.100509435 -0.0068708346 0.05313166 0.04198104
-0.08757986 0.073307596 0.031666465 -0.012868742 -0.025808986 -0.0018283202 0.03330386 0.041339274
-0.1901203 0.0414253 0.06647795 -0.031052338 0.05708888 -0.13938458 -0.12101425 -0.01734462
-0.012678655 -0.078249216 -0.042600956 -0.024132797 0.056088936 -0.14847519 0.018671522 0.11017182
-0.018728336 0.12693599 0.0019518185 0.13594551 -0.05028546 0.09019999 -0.18447477 0.14636575
0.1143109 0.13087474 -0.02251374 -0.006049519 -0.01590828 0.057687495 0.09934045 -0.05879976
-0.05178361 -0.1876229 0.1758952 0.03358497 -0.018062372 -0.041141756 0.046885237 0.022321897
-0.13161029 0.07825208 -0.08892343 -0.058717754 0.008417041 0.11961217 0.062519394 -0.03712879
-0.016946765 -0.017259661 -0.0013438447 -0.059994157 0.047251105 0.029685142 0.05802239 -0.13624212
-0.04735718 0.052343525 0.19570994 0.04804369 -0.12836838 -0.068810366 -0.10441651 -0.10221841
0.02504653 -0.07712885 0.084049635 0.029296705 0.19569689 0.039671306 -0.0034128132 0.082655735
0.010581005 -0.07153359 -0.057091195 0.027106188 0.06883146 -0.10114392 0.024862846 -0.11861662
-0.06192065 0.19176835 0.102570705 -0.02482144 0.15589908 -0.00225874 0.08776481 -0.1837458
0.12219043 -0.0385483 -0.073541164 -0.10290514 0.014716242 -0.06868669 0.0058453265 -0.011046483
0.009730439 0.09169962 -0.09393496 -0.028102404 -0.19792983 -0.055448037 -0.07243464 0.01736834
-0.05141094 -0.09914862 0.11104134 -0.012211155 0.06911032 0.049197145 -0.03756912 -0.094590314
-0.005492971 -0.06547213 -0.10636406 -0.03545116 -0.13413115 -0.11637564 -0.08447767 0.25944203
00000000: de16 b63c 8c87 c73d a248 263d b2dd f73b
00000010: 6d1e 47bc ca0f 1bbd e4df 83bd 24a8 3bbc
00000020: 5810 b2b9 cdcd d0bd 003a 2f3e 4280 83bd
00000030: 4b6d 303e 97e6 4e3d 2217 86bc 924e 9c3c
00000040: 683e 3f3a dffb f63d 3c3d 533d 51d0 c33c
00000050: b63b 1fbd 41ae 0e3d 1d02 9fbd fe77 aa3d
00000060: 2627 cabd 96b0 793d 53d2 3f3e d2c7 a1bd
00000070: 0c5a b63d 03fe b7bd d28e 1b3e 5e22 e8bd
00000080: cbca 0dbe a910 993d 4c9e e6bd 07ae f9bd
00000090: ff20 dbbd 2939 f13d fccc bd3d a8bb d6bd
000000a0: ae8d 243e 0afd 5f3d 2af2 1ebe 5d00 e8bc
000000b0: 7a5c 2ebe 044f 073d 5d72 f83c 07b1 86bd
000000c0: 7d23 c5bb f66d 913d b9bd 3cbd 00dd efbc
000000d0: e5a9 22bc 50ff b8be ce09 493d 4861 71bc
000000e0: 57bf f0bd 6eaf 1e3d 019c 0a3e cbb9 a23d
000000f0: 0081 13be e5c9 a13d b0ce 02be 45e4 cc3d
00000100: becd 0b3d 05b6 b93d 7362 c93d 5fd9 723d
00000110: ba25 7bbd 245c f73d 151c a1bd 274c d3bc
00000120: 6d0f f13d 1f7e ba3d 7abf 1ebe 8a81 58bd
00000130: 20ac 36be da6f 333c ff42 3cbd e7f4 0bbe
00000140: ad5c 67bd be44 bf3c 7950 353b a146 ef3d
00000150: 0433 34bb f00b 65bd 4555 8cbc 1ba7 213d
00000160: 9eab 903c 76f5 11bd 63f9 b43d fc0c 25bd
00000170: 0c1e 7abe 7f73 02be d6c5 aabd 7b46 7b3e
00000180: 067f cd3d 73f3 f93b 3c8d c33d 6811 dbba
00000190: 8171 89be eacc a23d 686a 9f3d 2aee 8f3c
000001a0: 5e40 cabc 8c1c 9b3c 6d2f 0bbe ba6a 62bd
000001b0: 1550 ea3d ed15 4dbd 137d 15bd 7ad5 d7ba
000001c0: fdf3 17bd ca4a ad3d 59b6 e2bd 7d14 cdbd
000001d0: f4b3 8cbd 34ba 53be c7f0 973d d2f6 57bd
000001e0: b063 b4bd 4a3d 00bd 47d7 87bb da9a 263d
000001f0: e4d7 cd3d bd24 e1bb 95a0 593d 50f4 2b3d
00000200: 125d b3bd 4b22 963d b2b4 013d 6bd7 52bc
00000210: 5e6d d3bc 3fa4 efba a169 083d 5f53 293d
00000220: e5ae 42be 93ad 293d 9725 883d 7961 febc
00000230: 08d6 693d d5ba 0ebe 52d6 f7bd 4e16 8ebc
00000240: 22ba 4fbc 2041 a0bd 577e 2ebd 25b2 c5bc
00000250: 83bd 653d e109 18be 05f5 983c c3a1 e13d
00000260: 2b6c 99bc 82fb 013e 29d4 ff3a 4d35 0b3e
00000270: 20f8 4dbd c6ba b83d f4e6 3cbe e7e0 153e
00000280: d51b ea3d 0704 063e bc6e b8bc 0b3b c6bb
00000290: 1552 82bc b949 6c3d 0173 cb3d 04d8 70bd
000002a0: 0d1b 54bd 3820 40be df1d 343e 6590 093d
000002b0: 8af7 93bc 4284 28bd bc0a 403d 69dc b63c
000002c0: d9c4 06be a042 a03d 7d1d b6bd 0782 70bd
000002d0: a1e7 093c 3af7 f43d 2b0a 803d 5c14 18bd
000002e0: f1d3 8abc 2264 8dbc f223 b0ba 6fbc 75bd
000002f0: 608a 413d 412e f33c e3a8 6d3d 0e83 0bbe
00000300: 9af9 41bd 2a66 563d 3068 483e 76c9 443d
00000310: 0073 03be 73ec 8cbd 53d8 d5bd e357 d1bd
00000320: 612e cd3c bbf5 9dbd 3722 ac3d a5ff ef3c
00000330: c464 483e 617e 223d 81a9 5fbb 6947 a93d
00000340: f45b 2d3c 3480 92bd 75d8 69bd cc0d de3c
00000350: 82f7 8c3d 8b24 cfbd 2bad cb3c 45ed f2bd
00000360: 82a0 7dbd ec5e 443e 9710 d23d 5556 cbbc
00000370: 02a4 1f3e 5e07 14bb 09be b33d dc27 3cbe
00000380: fa3e fa3d d2e4 1dbd c09c 96bd eebf d2bd
00000390: 651c 713c 9bab 8cbd 278a bf3b 4ffc 34bc
000003a0: 6b6c 1f3c 03cd bb3d f960 c0bd 0337 e6bc
000003b0: 1eae 4abe 7b1d 63bd 9d58 94bd 0d48 8e3c
000003c0: 4794 52bd 6f0e cbbd a469 e33d 4c11 48bc
000003d0: b689 8d3d f282 493d 14e2 19bd 91b8 c1bd
000003e0: 61fe b3bb 4116 86bd 66d5 d9bd 3c35 11bd
000003f0: ad59 09be 5a56 eebd a102 adbd 96d5 843e

layer_2.lin.bias f4 [32]
0.046970386 -0.015132291 -0.09019383 0.028057 -0.1234594 -0.060618035 -0.04448162 -0.09691013
-0.033750277 -0.041470986 -0.0063607316 0.070342295 0.06876076 0.06450158 0.003600493 0.03631547
0.0043851025 -0.05338973 -0.11432277 -0.06919351 0.040263318 -0.06293561 -0.07442212 0.037739262
-0.04937868 0.011177058 -0.038809244 0.04680527 -0.033038817 0.10217759 -0.124242656 -0.102277525
00000000: 0564 403d 6eed 77bc 8bb7 b8bd cbd7 e53c
00000010: 48d8 fcbd 9e4a 78bd 5c32 36bd d178 c6bd
00000020: bb3d 0abd 7bdd 29bd af6d d0bb 9f0f 903d
00000030: 71d2 8c3d 6819 843d 40f6 6b3b 88bf 143d
00000040: e8b0 8f3b 31af 5abd 0e22 eabd 54b5 8dbd
00000050: 26eb 243d 63e4 80bd a06a 98bd 7c94 1a3d
00000060: 4c41 4abd fb1f 373c 71f6 1ebd e2b6 3f3d
00000070: b653 07bd 7c42 d13d ef72 febd e176 d1bd

layer_3.lin.weight f4 [32, 64]
0.03596368 -0.11739096 0.12947208 0.05862782 0.04250087 0.03949967 0.042464115 0.0340957
-0.10021233 0.07617723 0.051211964 0.07269908 0.092011146 -0.035363033 0.07368417 -0.11562779
-0.029458852 -0.02094009 -0.027829785 0.10520979 0.14135428 -0.14625713 -0.1454088 0.026847612
0.0004852555 0.06676336 -0.020064164 0.09652589 0.017184995 0.058892433 0.0030806304 0.005276597
0.14970595 -0.13661109 -0.17852852 0.16468243 -0.14322469 0.08936779 0.0758578 0.07251168
0.037623458 -0.071722366 -0.0031590546 0.10719744 0.003508596 -0.044067584 0.15576306 0.0028729315
0.07633876 -0.045891684 -0.030437503 -0.12441923 -0.046388887 0.1185079 0.19408691 0.12275111
0.15631439 -0.08553112 0.08641538 -0.2041507 0.057574306 0.042417947 -0.11194531 0.12971981
-0.102265164 0.100753754 -0.031250823 0.017214622 -0.026368655 -0.02376724 0.12450545 -0.022662772
0.0036979115 0.112618275 0.043521367 -0.114330105 -0.052881863 -0.086728014 -0.21330608 -0.13706057
-0.058912568 0.15973786 -0.06286841 -0.0039091683 -0.025262523 0.030317668 0.08643081 0.11986702
0.040619586 -0.0038144568 -0.06529737 -0.0018085806 -0.03838892 0.09749916 0.066583134 -0.022551976
0.041871216 0.038670603 0.1208412 -0.06556238 -0.08321558 0.1527419 0.12304356 -0.039799135
-0.01759313 -0.11486881 -0.091880396 -0.027517105 0.14738064 0.14641817 -0.051118594 0.09380094
-0.047694467 -0.030162208 0.040044878 -0.07322197 0.16582946 -0.035548776 -0.0848109 -0.017687771
0.041924786 0.1572821 0.05874491 0.052904945 -0.102337144 0.03981637 0.13518822 -0.055640824
-0.09260405 -0.1702518 0.08661489 -0.122367665 0.008277304 -0.20403789 0.1513594 0.119635776
-0.04158078 0.015231373 0.12619281 0.024293952 -0.05301895 0.019796077 0.0027048204 0.1201957
-0.1304535 0.015205834 0.12470618 0.040768076 -0.019771203 0.06966445 -0.15347715 -0.11031608
-0.03544164 -0.01961685 -0.0066255745 -0.0061027175 0.098135784 0.059439868 -0.061540395 0.10293271
0.11491137 0.016245406 0.047500394 0.004749675 0.03911793 0.23987219 0.04005259 0.050608363
0.16449822 -0.113774374 -0.08498261 -0.11859872 0.015664691 -0.020302597 -0.10054804 0.005277692
-0.034006488 0.01272474 0.025334701 -0.068259075 -0.045328684 0.067494385 -0.17675734 0.03727067
0.08699102 -0.004470652 0.09334824 0.120046206 0.011509438 -0.031431437 0.16247927 0.06479781
0.04308317 -0.047787827 -0.17427301 0.0986824 -0.061352003 -0.06569939 -0.0883595 0.06153755
-0.06966243 -0.041981805 0.038174756 -0.044283424 -0.002623808 0.10572857 -0.16342162 -0.092057854
-0.06385091 0.09638888 -0.010950269 -0.07086674 -0.104804784 0.062472444 0.15023711 -0.08641758
0.13298135 -0.1091159 0.06621167 -0.12830025 0.12271706 0.16663672 -0.0031647251 0.012707438
0.080988325 0.05712689 -0.09980641 -0.06951542 -0.09600255 0.07952518 -0.16675656 0.10748732
-0.0189426 0.019804582 -0.01715869 0.02278347 -0.07646416 -0.043771848 -0.046450995 -0.087333284
0.002303378 0.010264298 0.005952939 -0.02899708 0.116816156 -0.016359435 -0.099609114 0.13846035
0.036539495 -0.025547659 0.076020636 0.10309499 -0.116613396 0.13290119 0.14563055 -0.07292693
00000000: a74e 133d ac6a f0bd 5494 043e ba23 703d
00000010: 6415 2e3d 68ca 213d daee 2d3d efa7 0b3d
00000020: 1f3c cdbd cf02 9c3d a3c3 513d 41e3 943d
00000030: 5770 bc3d d4d8 10bd bae7 963d 43ce ecbd
00000040: b153 f1bc 8d8a abbc 4afb e3bc 3b78 d73d
00000050: 2dbf 103e 6ec4 15be 0be6 14be 86ef db3c
00000060: e469 fe39 3abb 883d 9a5d a4bc 5eaf c53d
00000070: 8cc7 8c3c 3139 713d 67e4 493b 4ee7 ac3b
00000080: 844c 193e c7e3 0bbe 2ed0 36be 83a2 283e
00000090: 7ea9 12be 7606 b73d 565b 9b3d 0181 943d
000000a0: 0e1b 1a3d 2de3 92bd 2408 4fbb 558a db3d
000000b0: 79f0 653b 3680 34bd 5a80 1f3e cb47 3c3b
000000c0: 7f57 9c3d ebf8 3bbd 1258 f9bc 82cf febd
000000d0: 4602 3ebd 45b4 f23d b8be 463e ef64 fb3d
000000e0: e110 203e f12a afbd 8cfa b03d e20c 51be
000000f0: 09d3 6b3d 71be 2d3d 9543 e5bd 45d5 043e
00000100: 6670 d1bd fc57 ce3d dd00 00bd ae05 8d3c
00000110: 1403 d8bc 84b3 c2bc b7fc fe3d 47a7 b9bc
00000120: a958 723b 69a4 e63d 7643 323d e725 eabd
00000130: a79a 58bd 759e b1bd e96c 5abe 9b59 0cbe
00000140: 4e4e 71bd 5292 233e 27c1 80bd 7b18 80bb
00000150: 5af3 cebc c25c f83c a302 b13d d77c f53d
00000160: b960 263d f7fb 79bb a1ba 85bd e50d edba
00000170: b33d 1dbd a4ad c73d bd5c 883d ecbe b8bc
00000180: 2781 2b3d 1165 1e3d 977b f73d 9245 86bd
00000190: ee6c aabd 5f68 1c3e 43fe fb3d 6b04 23bd
000001a0: 781f 90bc 5740 ebbd ca2b bcbd 8d6b e1bc
000001b0: f3ea 163e a5ee 153e bb61 51bd b51a c03d
000001c0: 465b 43bd bc16 f7bc 1906 243d 66f5 95bd
000001d0: 33cf 293e 989b 11bd 56b1 adbd f2e5 90bc
000001e0: 53b9 2b3d 8f0e 213e 819e 703d dbb2 583d
000001f0: 2396 d1bd 7d16 233d c86e 0a3e a2e7 63bd
00000200: 31a7 bdbd 7d56 2ebe 2663 b13d e69b fabd
00000210: 879d 073c 4fef 50be f5fd 1a3e 9a03 f53d
00000220: 9c50 2abd 028d 793c b038 013e 1c04 c73c
00000230: 662a 59bd 622b a23c 5b43 313b 2a29 f63d
00000240: 9a95 05be e421 793c f465 ff3d 6dfc 263d
00000250: 38f7 a1bc 3cac 8e3d 1d29 1dbe 66ed e1bd
00000260: 412b 11bd 84b3 a0bc 591b d9bb 4ef9 c7bb
00000270: 6afb c83d 3877 733d c811 7cbd 62ce d23d
00000280: a756 eb3d 1615 853c c68f 423d 29a3 9b3b
00000290: 1f3a 203d 0ea1 753e 2f0e 243d b74a 4f3d
000002a0: 3972 283e 8a02 e9bd 5d0b aebd e3e3 f2bd
000002b0: 3d53 803c a251 a6bc 21ec cdbd 7df0 ac3b
000002c0: 634a 0bbd 6e7b 503c b88a cf3c 6acb 8bbd
000002d0: 92aa 39bd 7f3a 8a3d e0ff 34be 21a9 183d
000002e0: 5928 b23d 8c7e 92bb 5d2d bf3d c9da f53d
000002f0: 1592 3c3c 40be 00bd f760 263e b7b4 843d
00000300: fa77 303d 2bbd 43bd a074 32be 001a ca3d
00000310: 3d4c 7bbd 678d 86bd d3f5 b4bd cc0e 7c3d
00000320: 2dab 8ebd 1df5 2bbd 225d 1c3d 8962 35bd
00000330: 32f4 2bbb 3888 d83d ff57 27be d488 bcbd
00000340: 44c4 82bd 8867 c53d c268 33bc 9522 91bd
00000350: e4a3 d6bd 1be3 7f3d c2d7 193e b3fb b0bd
00000360: 432c 083e 2878 dfbd fc99 873d 2461 03be
00000370: 1553 fb3d d1a2 2a3e 4767 4fbb dc32 503c
00000380: 35dd a53d e3fd 693d 4e67 ccbd 1a5e 8ebd
00000390: fc9c c4bd 19de a23d 3bc2 2abe 5022 dc3d
000003a0: 832d 9bbc 383d a23c 6290 8cbc 66a4 ba3c
000003b0: 3e99 9cbd 1c4a 33bd 6643 3ebd cbdb b2bd
000003c0: 45f4 163b 962b 283c df10 c33b 498b edbc
000003d0: 4f3d ef3d 3904 86bc ddff cbbd 8dc8 0d3e
000003e0: 70aa 153d 5349 d1bc b5b0 9b3d 7723 d33d
000003f0: 01d3 eebd 4017 083e 2d20 153e b75a 95bd

layer_3.lin.bias f4 [32]
0.018514004 0.008981712 0.08057653 -0.07084595 0.06878742 0.06537398 0.119445555 -0.09514544
0.11946839 -0.025941212 0.023016375 0.0035127825 0.10135022 0.03846757 -0.10398871 0.010437086
-0.002127721 0.007173573 0.016078927 -0.0035789143 0.05493589 0.1138347 0.080807045 -0.014557815
0.02203743 0.018531628 -0.014543298 0.06849145 0.097145475 0.022165235 0.04672155 -0.045924377
00000000: aeaa 973c 0828 133c 4f05 a53d ae17 91bd
00000010: 6be0 8c3d cbe2 853d df9f f43d 9ddb c2bd
00000020: d8ab f43d aa82 d4bc d68c bc3c b636 663b
00000030: b490 cf3d 2c90 1d3d 08f8 d4bd 5000 2b3c
00000040: 3c71 0bbb 4b10 eb3b f4b7 833c 388c 6abb
00000050: 7504 613d 2b22 e93d 2a7e a53d e783 6ebc
00000060: d787 b43c a4cf 973c 0347 6ebc 3f45 8c3d
00000070: 35f4 c63d de93 b53c 195f 3f3d 331b 3cbd

layer_4.lin.weight f4 [32, 64]
0.0566 -0.021702489 0.016264915 -0.13378012 -0.23662388 0.07739966 -0.0069035636 -0.11750476
-0.008543067 -0.01308589 -0.023969868 -0.025077302 0.061518203 0.030173086 0.040315047 -0.11712104
-0.07026554 0.039081898 0.047496807 0.062674366 0.066298425 -0.006062355 -0.0067397486 -0.1294698
-0.006952998 0.09356782 0.08093567 0.03970954 -0.04901796 -0.0934534 0.021298086 -0.083343804
-0.078752235 0.060307585 0.02526409 0.096023396 0.06986343 0.010626919 -0.070825085 0.13263148
0.08400669 0.029419458 -0.13790558 -0.050274145 -0.14074032 0.028906582 0.0763448 0.19556187
0.015682964 0.015018816 -0.07938783 0.022533983 0.09367231 0.012765006 -0.10057323 0.13099569
0.031634063 -0.14411588 -0.10495517 -0.06846568 -0.09574591 0.1420836 0.046958078 -0.046524495
0.08464765 -0.03973646 -0.101593934 -0.06525948 0.0058081117 -0.078281626 0.20505098 0.04415885
-0.17830586 0.024550188 0.019877559 0.08919057 0.16921194 -0.094900616 -0.027195416 0.110543564
-0.08596946 0.12724364 -0.17604442 -0.05125512 -0.056428224 0.007523568 -0.013659639 0.11544423
0.026858382 -0.23114945 -0.14196736 -0.027597712 0.071743414 0.04271912 0.17388073 -0.036159642
0.05456709 0.031350754 -0.033005163 -0.13563487 -0.06305747 0.03136784 0.016708655 -0.13892737
-0.058092564 0.019712873 -0.021080522 -0.090312906 0.000529909 0.0578187 -0.0011043863 -0.10677696
-0.097864024 0.10462689 -0.079118945 -0.1526176 0.053063333 0.10970011 0.03731161 0.06821152
0.10871936 -0.16434814 -0.035006262 -0.03186809 -0.08347965 -0.051034406 -0.08397379 0.086126834
-0.0179431 0.14249028 -0.034681212 0.10487026 -0.048356134 -0.0879266 -0.11068102 -0.054320958
-0.08043686 0.061744522 -0.07494811 -0.020537749 0.061197635 0.021772236 0.037730027 -0.050481945
-0.061550885 -0.021109698 0.069159605 -0.0991348 -0.05658126 0.04043919 -0.011315441 0.03223015
0.025134483 -0.10860386 0.055469625 -0.013241229 0.018039938 0.019766072 0.101520695 0.013716436
-0.062050384 -0.056723487 0.027003245 0.0039484766 0.10727373 0.12306505 -0.027711272 0.03276125
-0.108550675 -0.102672525 0.06716608 -0.0067661894 -0.050793737 -0.05130297 0.028367808 -0.011312432
0.15035033 0.0022448543 -0.098888725 0.070131816 -0.12894008 -0.04946182 -0.1176041 0.14248596
-0.035224434 0.08520738 0.017162694 0.07405505 -0.04656683 0.0953362 -0.07152949 0.038970105
-0.058437746 -0.080895685 0.007744423 0.059741963 0.03571456 0.00757922 0.031973343 0.086647384
0.07428884 -0.06058239 0.015638012 0.05332445 0.053961683 0.009763635 0.11740738 -0.10708594
0.07810137 -0.05594656 0.11524108 0.13171817 0.13799234 -0.011513319 0.07957948 0.06719737
0.014677675 0.090071574 0.05373978 0.036807403 0.0553311 -0.08655311 -0.12008608 0.084201664
0.04987884 0.044691153 0.07440822 0.003257436 -0.03250103 -0.0073858663 -0.04198651 0.027416829
-0.057085875 0.08457517 -0.082512245 -0.08249868 -0.013392001 -0.039373167 0.1211562 0.0541785
-0.13863018 -0.018088028 0.09116894 -0.09283357 -0.012161751 -0.03006434 -0.022601299 -0.095118076
0.14688149 -0.05234536 0.09327286 -0.03263439 -0.122009195 0.04337872 0.019597631 0.12386447
00000000: 67d5 673d 6bc9 b1bc 003e 853c a8fd 08be
00000010: 884d 72be b783 9e3d 4a37 e2bb 56a6 f0bd
00000020: 38f8 0bbc 3366 56bc 755c c4bc ea6e cdbc
00000030: 83fa 7b3d 8c2d f73c 6421 253d 28dd efbd
00000040: 61e7 8fbd 5714 203d 038c 423d 6b5b 803d
00000050: 78c7 873d b8a6 c6bb 1cd9 dcbb bb93 04be
00000060: fad5 e3bb 7ca0 bf3d 9ac1 a53d 78a6 223d
00000070: 0ec7 48bd 7f64 bfbd 5379 ae3c 28b0 aabd
00000080: da48 a1bd 1605 773d a3f6 ce3c eaa7 c43d
00000090: 8f14 8f3d 871c 2e3c be0c 91bd 8cd0 073e
000000a0: b30b ac3d 1301 f13c 1f37 0dbe 43ec 4dbd
000000b0: 3b1e 10be 7fcd ec3c aa5a 9c3d 5f41 483e
000000c0: 8f79 803c 7b11 763c 1696 a2bd 3099 b83c
000000d0: 45d7 bf3d 5124 513c 56f9 cdbd bc23 063e
000000e0: b892 013d 1d93 13be bcf2 d6bd bc37 8cbd
000000f0: 6f16 c4bd 5d7e 113e 1d57 403d 7890 3ebd
00000100: bf5b ad3d b3c2 22bd 7b10 d0bd c3a6 85bd
00000110: f951 be3b 1e52 a0bd e2f8 513e e9df 343d
00000120: d095 36be 7a1d c93c 43d6 a23c 8ca9 b63d
00000130: e545 2d3e 415b c2bd ecc8 debc aa64 e23d
00000140: c210 b0bd 284c 023e fd44 34be e4f0 51bd
00000150: 4821 67bd 4388 f63b aecc 5fbc 066e ec3d
00000160: 1c06 dc3c 71b2 6cbe e45f 11be 9914 e2bc
00000170: 36ee 923d 3efa 2e3d ca0d 323e 221c 14bd
00000180: be81 5f3d a669 003d 6c30 07bd dee3 0abe
00000190: 4624 81bd 907b 003d 97e0 883c fa42 0ebe
000001a0: 78f2 6dbd e47c a13c 0fb1 acbc f9f5 b8bd
000001b0: 97e9 0a3a 4dd3 6c3d 0ec1 90ba e1ad dabd
000001c0: ef6c c8bd 9f46 d63d 1d09 a2bd ca47 1cbe
000001d0: f058 593d 74aa e03d 0fd4 183d 7bb2 8b3d
000001e0: 41a8 de3d e14a 28be ba62 0fbd 1d88 02bd
000001f0: 61f7 aabd 7409 51bd 73fa abbd 4463 b03d
00000200: 68fd 92bc f9e8 113e e30d 0ebd 38c6 d63d
00000210: 1511 46bd dc12 b4bd bbac e2bd a77f 5ebd
00000220: 15bc a4bd d3e7 7c3d 657e 99bd c83e a8bc
00000230: 5faa 7a3d b05b b23c cd8a 1a3d 28c6 4ebd
00000240: c81c 7cbd 3fee acbc 8da3 8d3d 3007 cbbd
00000250: c0c1 67bd 90a3 253d 6664 39bc c303 043d
00000260: d5e6 cd3c b36b debd 1e34 633d bdf1 58bc
00000270: 7ec8 933c 75ec a13c 15ea cf3d e7ba 603c
00000280: 8b28 7ebd e356 68bd e935 dd3c 3962 813b
00000290: 54b2 db3d 8709 fc3d c002 e3bc a930 063d
000002a0: d14f debd f945 d2bd 5f8e 893d e9b6 ddbb
000002b0: 180d 50bd 1023 52bd 9b63 e83c c757 39bc
000002c0: 70f5 193e 681e 133b 2c86 cabd 45a1 8f3d
000002d0: de08 04be 7a98 4abd 6bda f0bd d7e7 113e
000002e0: 7f47 10bd 3581 ae3d c798 8c3c 2daa 973d
000002f0: dcbc 3ebd a03f c33d 0e7e 92bd 1e9f 1f3d
00000300: 6b5c 6fbd a3ac a5bd eec4 fd3b fdb3 743d
00000310: 6e49 123d 1b5b f83b 7bf6 023d 2f74 b13d
00000320: bf24 983d 3d25 78bd 4a1b 803c bd6a 5a3d
00000330: ed06 5d3d a7f7 1f3c 4873 f03d e04f dbbd
00000340: 9cf3 9f3d 3828 65bd 8403 ec3d 21e1 063e
00000350: dd4d 0d3e 5ca2 3cbc 91fa a23d c69e 893d
00000360: a27a 703c 7277 b83d 3e1e 5c3d 5cc3 163d
00000370: dda2 623d c242 b1bd b1ef f5bd ec71 ac3d
00000380: c14d 4c3d 120e 373d 5663 983d b57a 553b
00000390: cd1f 05bd 2305 f2bb 0cfa 2bbd 4299 e03c
000003a0: e1d2 69bd bf35 ad3d 2efc a8bd 11f5 a8bd
000003b0: 206a 5bbc c245 21bd be20 f83d 46ea 5d3d
000003c0: 12f5 0dbe 582d 94bc c8b6 ba3d 871f bebd
000003d0: 1542 47bc 7e49 f6bc 5c26 b9bc 44cd c2bd
000003e0: 1a68 163e 1768 56bd d705 bf3d a3ab 05bd
000003f0: f5df f9bd e2ad 313d 368b a03c a8ac fd3d

layer_4.lin.bias f4 [32]
0.025789011 -0.03893199 0.07706446 -0.03980751 -0.08404763 -0.01922718 -0.0047993395 -0.03917496
-0.06740456 -0.012488957 0.01453681 0.040262584 -0.124713294 -0.016414018 0.0265844 0.10614832
0.058188308 0.060311235 0.047429908 -0.018819615 -0.05679419 -0.04360404 0.014889621 -0.059170872
0.09353648 -0.07190681 0.0432718 0.043831676 0.08715839 0.06569877 -0.0399112 0.08128376
00000000: 7a43 d33c 2677 1fbd f9d3 9d3d 330d 23bd
00000010: 2a21 acbd 5282 9dbc c743 9dbb ec75 20bd
00000020: 670b 8abd 7b9e 4cbc cd2b 6e3c 61ea 243d
00000030: af69 ffbd b176 86bc 87c7 d93c 4a64 d93d
00000040: dd56 6e3d ea08 773d dd45 423d 982b 9abc
00000050: 06a1 68bd 269a 32bd 99f3 733c 285d 72bd
00000060: 0e90 bf3d e143 93bd c53d 313d d888 333d
00000070: 1980 b23d 148d 863d ed79 23bd 1a78 a63d

layer_5.lin.weight f4 [32, 64]
-0.08531114 -0.0481793 0.026358603 0.0996029 -0.0051353476 -0.15817071 -0.113124125 -0.107427396
-0.016526045 0.03627441 -0.046166033 0.09463865 0.009323294 -0.06526423 0.13889974 -0.09436554
-0.009654316 0.08037873 -0.05580307 -0.056105934 -0.01737849 0.050140783 0.1456829 0.18914606
0.06984687 -0.04049193 -0.08546316 -0.17851622 0.09632524 -0.10670987 0.053884625 -0.19804852
0.026138887 0.109359324 -0.10447854 -0.050792888 0.056096006 0.06993555 -0.04908018 0.0131116845
-0.059740927 0.07077691 0.091291666 -0.01716116 0.035620537 -0.017892689 -0.11252356 -0.07974473
0.029378075 0.077845834 -0.0006519829 0.19213559 0.14465871 0.1539098 -0.08434837 -0.08966689
-0.09864958 0.10405903 0.1354281 0.17733149 -0.08125358 0.10494804 -0.03593595 0.09240911
0.042325255 -0.11575982 -0.10785713 0.076602176 -0.107280195 0.06321042 0.10406642 0.1524029
0.0394046 -0.020004733 0.046241883 0.05048127 -0.11158183 0.062098384 -0.10661234 0.12513736
0.042051136 -0.037442036 -0.08622969 0.09849688 0.04496821 0.1032664 0.06488771 -0.111215815
0.11811209 -0.013619419 0.093939364 -0.026092213 0.03303881 -0.025886059 0.022934474 0.040067215
-0.12974066 0.09604831 -1.1575503e-05 -0.10935035 0.16672596 -0.10635153 0.0043316204 0.120287985
-0.0040808995 -0.07296129 -0.052264493 0.02618002 0.016064776 0.10208266 0.10437308 -0.07735135
0.003707011 -0.11568307 -0.012299684 0.03900031 -0.10986934 -0.016382482 0.05012988 -0.10359034
0.06486237 -0.0033363895 0.034248002 -0.06277981 -0.03680774 -0.011823435 0.014799496 -0.051476497
-0.045346107 0.17482851 0.05995775 0.12749854 0.1576501 0.08367768 -0.09433445 -0.0171144
-0.088770844 0.085523196 -0.019667098 -0.036078725 -0.033526283 0.030348169 -0.10192225 -0.057846747
0.031068973 -0.0910632 -0.123138115 -0.13728194 0.01140793 -0.10032834 -0.19895698 0.07621173
-0.03945774 0.05376398 0.035917528 0.094682544 0.06253879 -0.101262465 0.15107097 0.13946728
0.16169478 -0.07950565 -0.048818324 -0.0056292284 -0.14765596 0.017762013 -0.0035519714 0.10776926
-0.05335499 -0.035175487 -0.014259221 -0.0052262624 0.15601347 0.11318133 0.017223198 -0.08607252
-0.0074156434 0.086227134 -0.06524868 -0.024617929 0.17456321 -0.09282701 -0.14683305 -0.11147455
0.13384108 -0.009198477 0.022996027 0.024288535 -0.046289466 0.08863088 -0.021992544 -0.1947718
-0.027658837 -0.07364634 -0.1488877 0.11866651 -0.05552069 -0.017306937 0.12622195 -0.0073574292
0.030381462 -0.11997948 -0.02911465 -0.14203832 -0.15700433 0.11533011 0.092878275 0.04869229
0.20078957 0.11763771 0.14369598 -0.007248285 0.06494241 -0.010949956 -0.030654475 -0.03439695
0.09066739 -0.023246637 0.077727675 -0.25315318 0.037700467 0.006653138 0.14245568 0.0009752082
0.11972149 -0.03644834 0.11853385 -0.042973265 0.114774175 0.089714885 -0.02258339 -0.07486554
0.026490755 0.06560496 0.0006567844 -0.045763098 0.009568009 -0.11832299 0.07977564 -0.110003754
-0.03491583 0.061435487 0.066296265 -0.05030404 -0.019846532 -0.0073350477 0.016977921 0.09901683
-0.09150493 -0.014177063 0.023490278 0.19707927 0.09607156 0.083116606 -0.045684677 -0.0048729638
00000000: 9bb7 aebd a857 45bd ffed d73c 9bfc cb3d
00000010: 6b46 a8bb 81f7 21be 9fad e7bd e502 dcbd
00000020: a161 87bc 7a94 143d 9818 3dbd e9d1 c13d
00000030: bbc0 183c 41a9 85bd bc3b 0e3e b842 c1bd
00000040: 232d 1ebc 9b9d a43d c391 64bd 56cf 65bd
00000050: 565d 8ebc 6c60 4d3d e62d 153e 81af 413e
00000060: e00b 8f3d deda 25bd 4f07 afbd f5cc 36be
00000070: 2b46 c53d b48a dabd 20b6 5c3d 3bcd 4abe
00000080: 3821 d63c c8f7 df3d d8f8 d5bd 340c 50bd
00000090: edc4 653d 5f3a 8f3d 4c08 49bd 64d2 563c
000000a0: e7b2 74bd 7cf3 903d 20f7 ba3d 9095 8cbc
000000b0: d7e6 113d b093 92bc c172 e6bd 3451 a3bd
000000c0: 4aaa f03c a36d 9f3d d5e9 2aba 31bf 443e
000000d0: 6a21 143e 889a 1d3e d7be acbd 46a3 b7bd
000000e0: ca08 cabd e71c d53d aaad 0a3e 6396 353e
000000f0: 4768 a6bd ffee d63d 9331 13bd fd40 bd3d
00000100: 3f5d 2d3d 7c13 edbd 33e4 dcbd 9ae1 9c3d
00000110: b8b5 dbbd 7774 813d c620 d53d 810f 1c3e
00000120: b866 213d f7e0 a3bc 2168 3d3d 73c5 4e3d
00000130: 0485 e4bd e05a 7e3d 9257 dabd 0224 003e
00000140: d03d 2c3d d25c 19bd 3199 b0bd bbb8 c93d
00000150: 9630 383d 567d d33d d9e3 843d 1ec5 e3bd
00000160: c0e4 f13d fc23 5fbc 4863 c03d 56bf d5bc
00000170: b453 073d 000f d4bc 14e1 bb3c 851d 243d
00000180: bcda 04be fab4 c43d 6834 42b7 14f3 dfbd
00000190: 36ba 2a3e d5ce d9bd 44f0 8d3b 8c59 f63d
000001a0: 11b9 85bb bb6c 95bd 4b13 56bd 7b77 d63c
000001b0: 479a 833c b710 d13d 8ec1 d53d 626a 9ebd
000001c0: 53f1 723b 3feb ecbd 9d84 49bc cabe 1f3d
000001d0: 2d03 e1bd 8e34 86bc fd54 4d3d 2c27 d4bd
000001e0: 90d6 843d 54a7 5abb a247 0c3d b392 80bd
000001f0: b6c3 16bd 15b7 41bc 9679 723c 05d9 52bd
00000200: d7bc 39bd 3f06 333e 4296 753d fa8e 023e
00000210: 076f 213e 345f ab3d 6c32 c1bd 8033 8cbc
00000220: 7dcd b5bd c926 af3d e51c a1bc 49c7 13bd
00000230: db52 09bd b99c f83c 9dbc d0bd b6f0 6cbd
00000240: 5c84 fe3c 587f babd d62f fcbd a393 0cbe
00000250: 54e8 3a3c f278 cdbd 61bb 4bbe e514 9c3d
00000260: 709e 21bd 9e37 5c3d 421e 133d ece8 c13d
00000270: 5614 803d b262 cfbd 59b2 1a3e 83d0 0e3e
00000280: 5193 253e dcd3 a2bd b9f5 47bd 6475 b8bb
00000290: 2033 17be a481 913c 31c8 68bb 21b6 dc3d
000002a0: c38a 5abd 2c14 10bd 829f 69bc 1141 abbb
000002b0: ffc1 1f3e 9dcb e73d aa17 8d3c ca46 b0bd
000002c0: edfe f2bb da97 b03d 1aa1 85bd 8aab c9bc
000002d0: b3c0 323e 161c bebd 675b 16be c54c e4bd
000002e0: a30d 093e 35b5 16bc 2a62 bc3c c0f8 c63c
000002f0: 069a 3dbd 1b84 b53d b529 b4bc 4272 47be
00000300: c994 e2bc e4d3 96bd 0476 18be 6d07 f33d
00000310: aa69 63bd 47c7 8dbc 5440 013e 9716 f1bb
00000320: 8be2 f83c cdb7 f5bd d981 eebc 7e72 11be
00000330: bec5 20be 3132 ec3d f736 be3d 9171 473d
00000340: c89b 4d3e 0aec f03d 0a25 133e 0683 edbb
00000350: 8700 853d 7267 33bc 181f fbbc d1e3 0cbd
00000360: d3af b93d bb6f bebc b02f 9f3d 4b9d 81be
00000370: ce6b 1a3d 9102 da3b e7df 113e 1da5 7f3a
00000380: 8a30 f53d db4a 15bd e0c1 f23d bc04 30bd
00000390: b90e eb3d 70bc b73d cd00 b9bc 1b53 99bd
000003a0: 2403 d93c e55b 863d 0e2c 2c3a 1672 3bbd
000003b0: 23c3 1c3c 5353 f2bd 6961 a33d a649 e1bd
000003c0: e703 0fbd c7a3 7b3d 56c6 873d 9c0b 4ebd
000003d0: 3295 a2bc d75a f0bb 4815 8b3c 56c9 ca3d
000003e0: f066 bbbd e946 68bc af6e c03c 26cf 493e
000003f0: 2bc1 c43d 0a39 aa3d db1f 3bbd 62ad 9fbb

layer_5.lin.bias f4 [32]
-0.070139274 0.09216225 -0.017749187 -0.040916502 -0.06396525 -0.020721752 -0.07494333 0.065568015
0.026077827 -0.004458243 0.1096631 -0.026070131 0.00044899984 0.07123779 -0.009758906 0.01300195
0.07499656 -0.063949525 0.05275684 0.030731304 -0.00044857562 0.0041490328 -0.013636138 -0.053102303
-0.10592128 -0.053181704 0.06043135 0.09420129 -0.040953837 0.045931563 0.05537753 0.064120814
00000000: 2ea5 8fbd 90bf bc3d be66 91bc 1098 27bd
00000010: 3700 83bd aac0 a9bc e37b 99bd 8648 863d
00000020: 2ba1 d53c 7416 92bb 0c97 e03d 0791 d5bc
00000030: bd67 eb39 1ee5 913d d2e3 1fbc 2206 553c
00000040: cc97 993d f8f7 82bd 8e17 583d 37c0 fb3c
00000050: cd2e ebb9 9cf4 873b 1c6a 5fbc cd81 59bd
00000060: 42ed d8bd 0fd5 59bd dd86 773d 9bec c03d
00000070: 36bf 27bd bc22 3c3d 8dd3 623d c651 833d

layer_6.lin.weight f4 [32, 64]
0.047690224 0.12059689 -0.11960309 0.20774177 -0.07024622 -0.18930517 -0.042596254 -0.13190486
-0.019999433 0.12262369 0.054720845 -0.019307844 6.825629e-05 0.061850503 0.09543212 -0.14726737
0.009624742 0.08242065 -0.09308589 -0.14923768 -0.045568705 0.07243562 -0.004485669 0.19753626
-0.15084094 0.10431266 -0.15835899 -0.012661222 0.021160027 -0.10530355 -0.102883376 0.06954338
0.085210934 -0.10897285 -0.11523531 -0.017896008 0.13623372 -0.024235932 -0.05465803 0.15660672
-0.035508454 -0.04877651 -0.030202964 0.098409615 0.038947053 0.041128792 0.10524648 0.049427222
0.10440421 -0.11131672 0.096779175 0.015998857 -0.1446242 -0.05486877 -0.020338384 -0.16814141
0.046962745 0.14257473 0.015833417 0.0076899403 -0.11895014 -0.05819022 0.08003567 -0.08009216
0.140682 -0.1183291 0.0026777643 -0.117284104 -0.049086753 0.07698959 -0.04400576 0.049006358
-0.07037033 0.023117233 -0.08151247 0.0613698 -0.13445129 -0.01211186 0.01845252 -0.08015908
-0.067986175 0.06704927 0.04803102 -0.100562215 0.10696039 -0.09877004 0.00076844485 0.16498043
-0.19719683 -0.09733793 -0.18797417 -0.15698634 0.025881877 0.056413673 -0.06751453 -0.05261245
0.098037295 0.06211107 0.19496869 -0.014442772 -0.055723798 -0.10187578 -0.07731174 -0.10204597
0.079673424 -0.085954875 0.034610037 -0.0053963037 0.13410766 -0.055842217 0.061821185 -0.012997364
0.0067028967 -0.028143281 -0.15107696 0.16837694 -0.07742316 0.028888086 -0.120607905 -0.080736995
0.049984355 0.1701243 0.08343109 -0.08058763 0.1748954 -0.045202482 -0.05272665 0.12645435
0.0926501 -0.0874058 0.14180246 -0.066191226 0.04568981 0.08929173 0.029386308 0.13014685
0.03454296 -0.039248817 -0.09292085 -0.19841202 0.08596424 0.017969992 0.030314824 -0.21610707
-0.06809375 0.0045976616 -0.041818555 -0.124508366 -0.087354094 -0.036656763 0.106494464 0.028047713
0.10719376 0.15728444 0.177971 0.13150233 -0.07058263 -0.20592488 -0.0034621737 -0.24281792
0.1553163 -0.03288188 -0.0014110995 0.05228573 -0.10911163 -0.10106301 -0.011370907 -0.122296154
0.017993318 -0.09850554 -0.09263189 0.101585165 -0.040466074 -0.15711324 -0.06385945 0.06827274
-0.03963009 -0.103840716 -0.020555524 0.103517674 0.055366468 -0.032803606 -0.021796066 -0.050819382
0.07398886 0.014204676 -0.1769127 -0.07243782 -0.07508729 0.047982294 -0.03187943 0.051353615
0.04526036 -0.014717387 0.14727013 0.17691316 0.14005329 -0.008291184 -0.0418563 -0.14010645
0.12686893 -0.026561102 0.085578844 0.21104485 -0.09776071 0.037506938 -0.23059711 0.10339733
-0.11293337 0.030909302 -0.05678847 -0.11289356 -0.0939109 -0.1156699 -0.0066745197 -0.14953388
0.06855137 0.020696087 0.08338324 0.06912225 0.021063246 0.05039602 0.06358484 0.09439767
-0.22187546 0.08105874 -0.05870632 0.07286473 -0.05603342 -0.13573204 0.019051993 0.14769188
-0.18258978 0.041178446 0.08319008 0.03937247 -0.055051237 -0.0030368152 0.088699706 0.08649436
0.11329348 0.091593206 -0.01578624 0.01935741 0.07873999 -0.10178484 -0.083012134 0.10479579
-0.088128924 -0.089790195 0.04093361 -0.12595055 -0.07184651 0.07755259 -0.09126275 0.058766633
00000000: d356 433d 81fb f63d 77f2 f4bd 42ba 543e
00000010: 40dd 8fbd 37d9 41be 6979 2ebd 1112 07be
00000020: dad5 a3bc 2122 fb3d f722 603d 7c2b 9ebc
00000030: d124 8f38 f456 7d3d ea71 c33d 42cd 16be
00000040: 18b1 1d3c 28cc a83d d1a3 bebd c3d1 18be
00000050: 40a6 3abd 2059 943d 85fc 92bb f246 4a3e
00000060: 0c76 1abe e0a1 d53d dc28 22be 0471 4fbc
00000070: cb57 ad3c 63a9 d7bd 85b4 d2bd c26c 8e3d
00000080: 1283 ae3d 282d dfbd 7d00 ecbd a69a 92bc
00000090: da80 0b3e 6f8a c6bc 19e1 5fbd 835d 203e
000000a0: 5071 11bd e1c9 47bd 356c f7bc fb8a c93d
000000b0: f286 1f3d aa76 283d 778b d73d 3374 4a3d
000000c0: e0d1 d53d 05fa e3bd 2934 c63d 0910 833c
000000d0: 5e18 14be 13be 60bd af9c a6bc 432d 2cbe
000000e0: 025c 403d 1cff 113e 15b5 813c e5fb fb3b
000000f0: 229c f3bd de58 6ebd bee9 a33d 5c07 a4bd
00000100: f10e 103e 8756 f2bd 6e7d 2f3b a632 f0bd
00000110: 310f 49bd b8ac 9d3d 623f 34bd e4ba 483d
00000120: 521e 90bd 5a60 bd3c 03f0 a6bd e65e 7b3d
00000130: 99ad 09be d370 46bc bd29 973c 722a a4bd
00000140: 563c 8bbd 2151 893d 2dbc 443d 90f3 cdbd
00000150: 0d0e db3d f247 cabd 7671 493a a1f0 283e
00000160: f7ed 49be 1c59 c7bd 4d7c 40be 07c1 20be
00000170: 3b06 d43c 0612 673d 0f45 8abd 2780 57bd
00000180: c7c7 c83d 2d68 7e3d dfa5 473e 60a1 6cbc
00000190: a33e 64bd 40a4 d0bd 9e55 9ebd 7afd d0bd
000001a0: d22b a33d 1c09 b0bd 41c3 0d3d 7ad3 b0bb
000001b0: 8553 093e cfba 64bd 3638 7d3d e5f2 54bc
000001c0: f9a3 db3b bd8c e6bc ebb3 1abe 016b 2c3e
000001d0: 0990 9ebd b5a6 ec3c 4701 f7bd 7059 a5bd
000001e0: 65bc 4c3d 1135 2e3e ebdd aa3d 210b a5bd
000001f0: c817 333e 3d26 39bd e6f7 57bd 407d 013e
00000200: 56bf bd3d d001 b3bd aa34 113e 448f 87bd
00000210: 3d25 3b3d 95de b63d 8ebb f03c 3745 053e
00000220: eb7c 0d3d 5ec3 20bd 494d bebd 852c 4bbe
00000230: 050e b03d ce35 933c cb56 f83c 2c4b 5dbe
00000240: bc74 8bbd fba7 963b ef49 2bbd 3efe febd
00000250: b4e6 b2bd 6725 16bd c519 da3d 51c4 e53c
00000260: 6788 db3d 2c0f 213e 083e 363e 8ca8 063e
00000270: a08d 90bd f9dd 52be a3e5 62bb 43a5 78be
00000280: 3c0b 1f3e 26af 06bd a4f4 b8ba 9029 563d
00000290: eb75 dfbd 20fa cebd 0a4d 3abc 6876 fabd
000002a0: b966 933c 46bd c9bd cab5 bdbd e20b d03d
000002b0: c1bf 25bd 4be2 20be bec8 82bd 94d2 8b3d
000002c0: 2953 22bd 71aa d4bd 0f64 a8bc 1301 d43d
000002d0: f3c7 623d 135d 06bd aa8d b2bc fc27 50bd
000002e0: 7987 973d bbba 683c 9a28 35be 485a 94bd
000002f0: 5dc7 99bd 1589 443d 0194 02bd 2b58 523d
00000300: ed62 393d 3221 71bc fbcd 163e b928 353e
00000310: 216a 0f3e bfd7 07bc 8371 2bbd 1178 0fbe
00000320: eee9 013e ab96 d9bc f643 af3d 241c 583e
00000330: c436 c8bd e0a0 193d a621 6cbe fbc1 d33d
00000340: 9c49 e7bd 8135 fd3c 079b 68bd bd34 e7bd
00000350: 5c54 c0bd 57e4 ecbd eeb5 dabb 691f 19be
00000360: a964 8c3d d78a a93c d5c4 aa3d f78f 8d3d
00000370: d48c ac3c 0f6c 4e3d c538 823d 9153 c13d
00000380: 5233 63be 2002 a63d 0a76 70bd 1b3a 953d
00000390: 4d83 65bd 57fd 0abe ed12 9c3c 8a3c 173e
000003a0: d1f8 3abe bbaa 283d 905f aa3d 0745 213d
000003b0: 687d 61bd 4e05 47bb 31a8 b53d f423 b13d
000003c0: 6906 e83d 3895 bb3d 2552 81bc 6e93 9e3c
000003d0: 6f42 a13d 9274 d0bd 4402 aabd 2d9f d63d
000003e0: f07c b4bd ece3 b7bd 00aa 273d 2ef9 00be
000003f0: 4324 93bd e4d3 9e3d f7e7 babd 48b5 703d

layer_6.lin.bias f4 [32]
0.06317521 0.027229933 0.027316816 0.001741673 -0.06061811 0.026812186 0.025740976 0.01721763
0.044536736 0.11473417 -0.056637775 0.03570173 -0.095301405 -0.022336248 -0.057737883 -0.006440954
-0.068906076 -0.030044548 0.0757557 0.035477206 0.039316375 0.010402116 0.05614811 -0.06144995
0.044920936 -0.12031206 -0.07313254 -0.075949125 0.041200172 0.022555439 -0.050545327 0.03532692
00000000: 0162 813d 4f11 df3c 84c7 df3c d948 e43a
00000010: b24a 78bd 3ba5 db3c bdde d23c fd0b 8d3c
00000020: 276c 363d c0f9 ea3d 03fd 67bd fa3b 123d
00000030: 622d c3bd 82fa b6bc 8f7e 6cbd a30e d3bb
00000040: a11e 8dbd fc1f f6bc ce25 9b3d 8c50 113d
00000050: 350a 213d a36d 2a3c 90fb 653d f1b2 7bbd
00000060: 04ff 373d 2b66 f6bd 83c6 95bd 378b 9bbd
00000070: 83c1 283d 2fc6 b83c 9e08 4fbd f6b2 103d
