training_runs/model_step13000.pt (torch, 108782 bytes, 24 tensors)

layer_0.lin.weight f4 [32, 64]
00000000: 6b45 01be 0664 9e3d 0b9e 1e3e e694 893c
00000010: 97ad e2bd 7566 1a3c 345e fd3c 030e 4dbd
00000020: 866e bd3d f865 bebd 2af3 033d 5399 3f3e
00000030: fdaa 06be a740 d33c 35ad 1abd 457d 9abd
00000040: 1457 3a3e ab89 e43d c58d 21be 0260 04be
00000050: d0c6 2b3e 9f30 4e3e 2719 bfbd ad71 b63c
00000060: db6a 37be eb74 fb3d 6bcc 4a3e f10d 22bd
00000070: 079a 073e 0937 713d 56ad 743c 4f5b c03d
00000080: d599 da3d 9ec5 293e 52ac c4bd 22a4 25be
00000090: 596f 523e 163c 0abe ed64 2b3e 6301 6d3e
000000a0: b1c5 183e b4a9 92bc 7579 8e3d f8a7 bfbe
000000b0: d4c9 37bd def0 3dbd 22d1 24bd bc1c 6e3d
000000c0: efb6 6b3b 03fa 27be 04ae f73d 0678 863e
000000d0: 2909 383c 1ed6 6dbd 9945 dabd 6721 b9bc
000000e0: c919 fc3d d3ac 4fbe 2cdd d4bc 7a81 99bd
000000f0: 1a42 53bc ed06 3dbe 8090 e33d 1fc1 01be
00000100: 1616 5fbb 6bbe c7bc 1b89 ce3b e31d 013d
00000110: c76e e7bd 8cef 7c3e 7bca e2bc 02ee 08be
00000120: 4a49 2dbd f684 d23b 90be 9dbb 32a1 8c3e
00000130: 0c16 113e 8709 f7bc 01e1 c83d d820 99bd
00000140: 562f aebd 0348 603d fc8d 803d d63c 19be
00000150: 8e83 d53d 4e07 513c c1b8 2b3e e299 9a3c
00000160: 70ac a53d 397f 823d 9efb ec3c f1e4 cf3d
00000170: 4de9 a53d 9342 513e 68ac 6fbd 4ec6 643d
00000180: d6e5 433e 1b05 1f3e 66e6 20be 5c1d 8fbe
00000190: d834 103e f560 69bd 3829 6fbd 177f 873e
000001a0: 53ab 3bbe cba4 353d a8f8 30bd ccdb d3be
000001b0: 92c3 dbbd d23f b63d cd1e 92bd eb1b 233e
000001c0: 4b2b 62be 90ac 12be d972 a83c 076e 04bd
000001d0: 6672 163e 2d61 38bd 4c1d 11bd 6da3 8f3c
000001e0: c5d7 5e3e 4e0a 373e b9b0 27be e6c5 0cbd
000001f0: e84f 86be d516 43be ae31 e1bc 343f 23be
00000200: 053b 0dbe 6437 f03d eeb4 253e aecc 73bc
00000210: abed 17bc f9c9 013e 23b0 d23d 02b9 11be
00000220: e28d 223d 8f80 6abe 0adc bfbd 1536 863d
00000230: 89ba 0b3e 721a c23d f8a0 a43d 9f13 c6bd
00000240: 9806 2b3d 79a7 36bd cf4c 313d 3e14 713c
00000250: 921d 893b be82 723d 050b 65be 08f3 77bd
00000260: e64f 33bd 7a5b 27bd 01ee 603e 1ec2 6db9
00000270: 0e91 c03e 5f7e 073d 7880 873d b894 ab3d
00000280: 621a afbc 5884 73be 8068 08be 35c6 02be
00000290: 0231 20be 9c89 9f3d e1ee 12be 51d1 04bd
000002a0: f5c2 94be 5fc8 a53c cb69 123e 770e 723d
000002b0: e45c a73d 8565 45bd f868 c8bd 9ecf 2d3e
000002c0: b121 40be 66b0 93bd 47e1 38bd 82a4 28bd
000002d0: 56e6 2c3e e9df e0ba d969 ab3e 6a16 113d
000002e0: 734a b13c 122c f73d ef28 16be f273 7ebd
000002f0: 52ee dcbd 9f50 1c3e 97d4 b3bd 0e10 9a3d
00000300: c013 c8be 5e20 dcbd 0a18 63bd ce0c db3d
00000310: 9c15 ffbc 1f15 63bd af5f 0bbd d67f c8bd
00000320: c4e9 1f3e 55bc 0a3e dab6 15be e95b 10bd
00000330: 130f 693c fb40 c83c dd69 46bd 132f 463d
00000340: f5d7 783e d664 883e d373 ed3d 4d6d ed3c
00000350: a8f1 dfbd da85 32be e7be 443c 008d d8bd
00000360: a6be 8bbe 5088 82be 1602 df3d 133d 04be
00000370: cd2b 0cbd 68e9 0e3e 05ee 11bd 57dc 483d
00000380: f3c1 4bbd 16b6 85bd 7c55 49be e377 ccbd
00000390: 53d2 cf3d 1d73 cebd 17d9 003d 8d5c 363e
000003a0: 4466 7c3c a97e 463e c207 1a3d 5a5b 79be
000003b0: 24c9 ab3b 7f7f 46bd 2844 76bd 893f 953d
000003c0: 836a 98bc 98e0 013e 6eb0 9f3c e50a c23d
000003d0: 6da4 cebd 3ea1 8dbe b034 613d aba3 92bd
000003e0: be8f 773d 4700 4abd 7970 73be 0fdf 10be
000003f0: 622c 4ebe 302d 2abe 9101 aabd 66e4 20be
-0.12624137 0.07733922 0.15489976 0.016794633 -0.11068266 0.009423842 0.030928709 -0.05006219
0.09249596 -0.09296793 0.03221432 0.18710832 -0.13151164 0.025787665 -0.03776284 -0.075434245
0.1819728 0.111590706 -0.15776737 -0.12927249 0.1677506 0.20135735 -0.09330969 0.022271002
-0.17911856 0.1227816 0.19804542 -0.039564077 0.1324235 0.058890376 0.014933905 0.09392416
0.106738724 0.16579291 -0.0960318 -0.16175893 0.20550288 -0.13499483 0.16737719 0.2314506
0.14919163 -0.017903186 0.0695676 -0.37432837 -0.044870213 -0.046372287 -0.040238507 0.058132872
0.0035967191 -0.16403966 0.12093738 0.26263446 0.011232653 -0.058065526 -0.10657806 -0.022598935
0.12309606 -0.20280771 -0.02598437 -0.07495399 -0.012894178 -0.18459673 0.111115456 -0.12671326
-0.0034040264 -0.02438279 0.0063029653 0.031522643 -0.11300426 0.24700755 -0.02768444 -0.13372043
-0.042306222 0.0064245416 -0.0048139766 0.27466732 0.14168566 -0.03015591 0.09808541 -0.074769676
-0.08505122 0.054756176 0.06277081 -0.14964613 0.10425483 0.012758089 0.16769697 0.018872205
0.080895305 0.06371922 0.028928574 0.10151089 0.08101139 0.20435552 -0.05851403 0.05585318
0.19130644 0.15529291 -0.1571289 -0.27952087 0.14082658 -0.05697723 -0.05838892 0.2646415
-0.18327074 0.044346612 -0.043205887 -0.4137863 -0.107306615 0.088988915 -0.07134781 0.15928619
-0.22086827 -0.1432364 0.020562576 -0.032331493 0.14692077 -0.04501455 -0.03542833 0.017533982
0.21761997 0.17875025 -0.16376008 -0.03436842 -0.2623284 -0.19051678 -0.02748951 -0.15942079
-0.13792045 0.11729315 0.161823 -0.014880342 -0.009272973 0.12674703 0.10287502 -0.14230731
0.03968609 -0.22900604 -0.09368141 0.06553284 0.13645376 0.094777 0.08038515 -0.09671711
0.041754335 -0.044593308 0.04328614 0.014714299 0.0041844333 0.059206717 -0.22367485 -0.060534507
-0.04377737 -0.040858723 0.21965791 -0.00022674396 0.37610668 0.0330795 0.066163 0.08377975
-0.021374885 -0.23780954 -0.13321114 -0.12770922 -0.15643695 0.07789919 -0.14348938 -0.032426182
-0.2905499 0.020237146 0.1429817 0.059095826 0.08172014 -0.04819252 -0.09785646 0.16973731
-0.18762852 -0.0721138 -0.045136716 -0.041172512 0.16884741 -0.0017156574 0.33479193 0.035421766
0.021641945 0.120689526 -0.14664052 -0.062122293 -0.107876435 0.1526513 -0.08780783 0.075225934
-0.39077568 -0.10748361 -0.055442847 0.10695802 -0.031138234 -0.055440065 -0.034026798 -0.09790008
0.15616518 0.13548405 -0.14620534 -0.035243902 0.014224785 0.024445048 -0.048440803 0.048384737
0.24301131 0.26639432 0.11594357 0.028982783 -0.10934764 -0.17433873 0.012008405 -0.105737686
-0.2729389 -0.25494623 0.1088907 -0.12913923 -0.03422146 0.13956225 -0.035627384 0.049038257
-0.04974551 -0.06528871 -0.19661516 -0.09983804 0.10147538 -0.1008055 0.031457033 0.17808743
0.015405241 0.19384255 0.037605055 -0.24351254 0.0052424837 -0.048461434 -0.060123593 0.07287509
-0.018605476 0.12683332 0.019493308 0.09474734 -0.100899555 -0.2766208 0.054981887 -0.071601234
0.060439818 -0.04931667 -0.23773374 -0.1414759 -0.20134118 -0.166188 -0.0830108 -0.15712127

layer_0.lin.bias f4 [32]
00000000: 2752 dabb 97fc a93c 5942 88bd 3613 2b3d
00000010: bbb0 a83b 6a25 213d ac9b febc 197b 1a3e
00000020: 9601 133e 14a3 6a3c 44a1 dcbd 3824 e23d
00000030: d61f c03c c6d2 a0bc 0dfc ab3d 9e8f b6bc
00000040: aefd ce3c 8809 1f3e 5204 d5bd 4d90 fabc
00000050: 9242 91bd ec88 89bd d107 dbbd 4137 53bc
00000060: 034f 123c a99c f4bc 85c9 423d f4bf 5d3c
00000070: 9afe d73c 81a6 59bd 4043 bcbc 52e7 533c
-0.0066626254 0.020750327 -0.0665328 0.041766368 0.005148021 0.03934232 -0.03108009 0.1508602
0.14356074 0.014321107 -0.107729465 0.110420644 0.02345268 -0.019631755 0.08397684 -0.022285279
0.025267448 0.1553098 -0.10401215 -0.030586386 -0.070927754 -0.06715569 -0.1069485 -0.0128915915
0.008929971 -0.029859858 0.047555465 0.013534535 0.02636652 -0.053137306 -0.022981286 0.012933569

layer_1.lin.weight f4 [32, 64]
00000000: efb7 01be c475 92bd 42b8 87bd efb4 e83d
00000010: 276c dabd c6f1 0d3e d0ad 1ebe 396f 343e
00000020: 5c50 bebd 377f fabc b93d e6bd 19c5 25be
00000030: 7176 dc3d b72e 8bbd 8a67 1abb 53dc 5dbd
00000040: 6120 943d 01fb 183d b2b0 59bd 5c34 f73d
00000050: 056d 37be 2a45 22bc 29b9 f23d cbd1 a3bc
00000060: 8969 053d a08e 243e c9d9 133d d510 81bd
00000070: 45d2 1d3e 8a0e 383e 9518 87bc 5340 d9bb
00000080: 71a1 0a3d c37c 313e 3d65 e53c 5fb1 0abd
00000090: 4ccc b73c 8e31 24bd 2942 3b3e c63f 2abe
000000a0: 5aa1 863b f96c f73d 1c32 89bd b572 393c
000000b0: 04a6 e0bd ecab f53d 5cb6 873e f17e 283e
000000c0: ad0f b53d 8426 f2bd 489f 0abd a50e 803c
000000d0: a715 cbbd 04f2 1a3d 0b84 19be 7e2d b03d
000000e0: 275b a73d 4c81 1fbe 6eb0 ef3d bd78 183e
000000f0: 926a 96be 06a9 143e fce7 37bd 9807 b1bd
00000100: 6863 86bd f528 80bb 4cd0 31bd f34c 5cbc
00000110: 541a be3a e2b1 cebd 2142 ab3e 900b 9a3c
00000120: 001c be3d ad2f a43d 7e0c 5c3d ca68 92bd
00000130: 5d33 143d af3b 87be 5e81 2bbe 13fd 1ebe
00000140: c01b ac3d 9c22 b63c 181a 08bd df30 a33d
00000150: ac5f 8ebe 73d7 85bc a20b 07be 415d 87bd
00000160: a6f7 03be 063b 903d 1128 06be 9920 99bd
00000170: 9c43 203e 29e1 b73d 4fd0 64be 7741 003e
00000180: b2ff e03d 7bf0 bc3d 8b4a 89bd e78b 523c
00000190: 352a a13d 9482 8d3d 052a 68bd 61ef d4bd
000001a0: a57d 03bd ba68 e63d 376b 8b3b 9c05 213d
000001b0: 9e49 04bc 703f 0c3d 58b0 b23d ba2e 9e3d
000001c0: 5207 653d c42d 13bd 8b61 8e3a ff60 1d3d
000001d0: 9a4e b03c b92e 29bd e2b5 bd3c 8916 86bd
000001e0: 15d3 853d 36f1 dbbd 3507 143e d5f0 973d
000001f0: cdcf 2bbe 3401 703d 0b62 7c3c dafd a33c
00000200: 4b6d 1cbe 485d 31be 53ed 063c 78fb 78bc
00000210: 03ee 233e 6c6c 6bbe 1e7f 3c3e 9087 833e
00000220: 8066 cb3d 11d8 dbbd 3bc1 c0bd 476f c7bd
00000230: e68b 563e 53f7 63bd aecf 0bbe 5129 43be
00000240: 6841 7ebd 475a 98bd 6b9f e13d c41e d5bd
00000250: ed4d 783d de9d 9fbd 5c61 6abe 7370 9abc
00000260: 0c7b 0f3d 37eb f73c 9560 12be ee60 b2bb
00000270: f91d 883e df81 783d 85cc 863c 4c25 2abb
00000280: e899 123c e062 28bd 09d7 20be 18c9 87bd
00000290: e073 293d 09d2 103e 1a30 17be a70f b8bb
000002a0: 3267 6d3c 2891 58bd 2f68 bebb 7288 f93d
000002b0: 034b 4e3d bc49 443e 5a90 d83d c513 b63d
000002c0: cb94 403e f260 2bbc 344b 85bd 5849 cc3d
000002d0: 266b 073d 6818 36bd 9632 c53d b4b0 193d
000002e0: 46cc 1a3d 3b59 06be 16d9 9e3d 6d48 a43d
000002f0: 9aea 7ebc be56 9ebd 1327 f13d b4b3 993d
00000300: 1155 133d 5866 afba b7f1 f339 65a0 953d
00000310: 362d 933b e175 19bd 7dc7 febc a5c3 3d3e
00000320: 55e4 363d 0bdd 9dbd e3ee e9bb 6ac1 9abd
00000330: 61f7 113e c0df a4bd 1097 70be 5934 fbbc
00000340: bbeb 82bc 8f94 c53c 0438 103d ab46 91bc
00000350: f4c3 b83d 8dc7 303d 3784 73bc 0005 8bbd
00000360: e3f2 4d3c 38ce 7d3d 7184 ab3d efca 2fbe
00000370: 914f 103d c16e 07be a49b b6bd 177e ee3d
00000380: a797 3fbe 7d9d 16be 5fd8 593d 0636 24be
00000390: 99a2 ec3d bc6a 263e e25a 9e3d 259f d33d
000003a0: 9528 d1bd d69c 363d 5f22 963d 5806 c3bd
000003b0: 8d77 bc3c 276d 193e 7676 283d 1f0a c13d
000003c0: 8d18 6abd 5f99 ec3d d766 c53d 0ae4 083d
000003d0: 8b15 4fbd f064 5ebc f41e 2a3d 1db6 0f3e
000003e0: bf54 d63b 5cd8 93bd 372e 4b3d c34b 35bd
000003f0: 175f ecbd 8bee 62bd 4b78 b7bd 9389 a53c
-0.12667821 -0.07151368 -0.06626941 0.11362635 -0.1066516 0.1386176 -0.15495992 0.17620553
-0.09292671 -0.030578239 -0.112422414 -0.16188468 0.107647784 -0.067960195 -0.002356025 -0.054165196
0.07232738 0.03734875 -0.053147025 0.12070534 -0.17912681 -0.009904185 0.11851723 -0.019997498
0.03257135 0.16070032 0.036096368 -0.063020386 0.15412243 0.17974296 -0.016491214 -0.0066299825
0.03384537 0.17332749 0.028002376 -0.03386056 0.022436284 -0.04008632 0.18286957 -0.1662589
0.00410859 0.12081332 -0.06699011 0.011318852 -0.10969165 0.11995682 0.26506317 0.16454674
0.088408805 -0.118237525 -0.03384331 0.015631983 -0.09916239 0.03782846 -0.14991777 0.08602427
0.08171683 -0.15576667 0.11703573 0.14889808 -0.29378182 0.14517602 -0.044898972 -0.086440265
-0.06561929 -0.0039111325 -0.043411538 -0.0134460805 0.0014503696 -0.10092522 0.3344889 0.018804342
0.09282684 0.08016906 0.05372285 -0.07148893 0.036181796 -0.26412722 -0.16748568 -0.15526228
0.084037304 0.0222333 -0.03322801 0.07968306 -0.27807367 -0.016338086 -0.13188031 -0.06609584
-0.12887439 0.07042508 -0.13101222 -0.07476921 0.15650791 0.08978493 -0.22345088 0.12524973
0.1098627 0.092255555 -0.06703671 0.012850738 0.078693785 0.069096714 -0.056680698 -0.103972204
-0.032102246 0.11250444 0.0042547244 0.03931199 -0.008074192 0.034240186 0.08725041 0.07723756
0.055915184 -0.035932317 0.001086281 0.03842258 0.021521855 -0.041304324 0.023158018 -0.06547267
0.06534401 -0.10739367 0.14455874 0.07418982 -0.16778488 0.058594897 0.015404235 0.020018507
-0.15276067 -0.1732074 0.008235293 -0.015196674 0.16008763 -0.22990578 0.18407866 0.25689363
0.0993166 -0.10734571 -0.09411856 -0.09738021 0.20951805 -0.05565579 -0.13653442 -0.1905873
-0.062074095 -0.07439094 0.11016735 -0.10406259 0.06062119 -0.07793783 -0.22888702 -0.018852448
0.035029456 0.030263526 -0.14294656 -0.005443684 0.26585367 0.06067073 0.016454944 -0.0025962172
0.008947827 -0.04110992 -0.1570703 -0.066301525 0.041370273 0.14142622 -0.14764443 -0.0056171003
0.014489936 -0.052872807 -0.0058107595 0.12184228 0.050364505 0.19168752 0.10574408 0.088904895
0.1880676 -0.010460125 -0.065084845 0.09974927 0.03306117 -0.04445687 0.09628789 0.037522033
0.037792467 -0.13119976 0.077562496 0.080216266 -0.015558863 -0.077313885 0.11775031 0.07504979
0.035969798 -0.0013381941 0.00046528663 0.073059835 0.0044914735 -0.037465934 -0.031100983 0.18531664
0.04465135 -0.07708176 -0.007139073 -0.07556422 0.14254524 -0.080504894 -0.23495126 -0.03066461
-0.015981546 0.02411869 0.03520967 -0.017733892 0.0902175 0.043159056 -0.014863065 -0.06788063
0.012570116 0.061964244 0.083748706 -0.17167257 0.03523213 -0.13225843 -0.08916405 0.116451435
-0.18710195 -0.14708515 0.053184863 -0.16036233 0.115544505 0.16251653 0.07732178 0.10333089
-0.102128185 0.044583164 0.073307745 -0.09522694 0.023006225 0.14983045 0.0411286 0.094257586
-0.05715232 0.11552691 0.09638756 0.0334206 -0.050557654 -0.01357387 0.041533425 0.14034314
0.0065408642 -0.07219002 0.04960462 -0.044261705 -0.115415744 -0.055403274 -0.08958491 0.020207202

layer_1.lin.bias f4 [32]
00000000: 7899 6abd abd6 61bd 6f49 00bd ba78 5fba
00000010: 0e7e 33bd 2481 c2bd 8c1d 693d b035 2b3d
00000020: 1cc0 cfbd b645 563c 2a84 f93c 7d1a 4f3c
00000030: be1b 863c 0df4 053c da20 933d 1498 c5bd
00000040: b521 f7bc c545 a43d 2214 52bd 8650 9e3d
00000050: 08fd f23d 88c0 97bd 511b 16bd 6d63 9a3d
00000060: fba1 803c 3576 c63c 1764 4bbb ad57 373d
00000070: 8ce2 2abd cf8f 35bc 248d ad3d 95d7 333c
-0.057275265 -0.055136364 -0.03132003 -0.00085247646 -0.043821387 -0.09497288 0.056912944 0.041799247
-0.10144064 0.013078144 0.030458529 0.012640593 0.01637065 0.008175862 0.07184 -0.09648147
-0.03016744 0.0802112 -0.05128873 0.077302024 0.11864668 -0.07409769 -0.036647145 0.07538495
0.015702238 0.024226287 -0.0031035 0.04476135 -0.04171996 -0.01108165 0.08474186 0.010976692

layer_2.lin.weight f4 [32, 64]
00000000: 5a7c 3b3c 698a 983d b687 e53c d5df b63a
00000010: 4c4d 44bc c9e3 f03b 0b81 b3bd 5ebb febb
00000020: ec41 7dbc a0b2 c2bd d812 2f3e 4451 c2bd
00000030: 07ea 393e 1e36 053d 31f3 10bd 0762 d03c
00000040: 02eb 8e3c f02e 083e 8c6c 063d d00a dc3c
00000050: 29d4 afbd 7e2c e13c f695 abbd 041e e03d
00000060: 8db9 88bd 492f 1b3d 593d 6e3e 312e 97bd
00000070: d8d4 c33d 2936 9abd cd77 213e 590d 01be
00000080: 3fbf 18be 6484 893d 465e 00be 179b 09be
00000090: 9208 e6bd d6a2 1f3e 0369 9e3d c02d f2bd
000000a0: fed0 1a3e 194d 723d 070f 3ebe bed0 95bd
000000b0: f545 29be 578d 093c dcb8 2c3c 0cf9 78bd
000000c0: 9dfd 583c 83cd 8a3d 233c 7dbd bb2b d0bc
000000d0: 07fc 0abd 62db c3be d67c 323d 3477 92bb
000000e0: 13d3 cebd 9188 0b3c 2ca6 173e b5af be3d
000000f0: c4f6 15be a57c af3d fdb5 06be 870b 123e
00000100: 4344 3e3d 77e2 ae3d 78eb fd3d d025 9c3d
00000110: 3a31 88bd ed5f ee3d d459 30bd 1f49 29bc
00000120: 80cf 333e b4c6 043e ade0 3bbe 9dc7 1fbd
00000130: 888d 5cbe 09c6 383d 2e7b 69bd 8c5d 16be
00000140: 2ff5 c6bd bb7c 093d f3c1 813c 7858 cb3d
00000150: 0117 0e3d 752d cbbd 07c6 d5bc 6d50 823d
00000160: a104 d0bb adb2 273b ef89 de3d 1fa0 3fbd
00000170: bbb8 90be 1587 1abe 6198 bebd 32d8 933e
00000180: 76f7 fa3d 658f 163d c892 ed3d 0ff8 373c
00000190: 2ccb 9cbe 3471 0d3d fe07 db3d 9886 fe3c
000001a0: a7b4 ef3b 0743 263d 39c9 f1bd 303b 17bd
000001b0: 4816 de3d 09f4 26bd c397 25bd a4aa 15ba
000001c0: 5d7c 82bd 3374 c43d 0d06 b9bd 60c0 f6bd
000001d0: a498 37bd 994d 73be 80d0 8c3d 32c8 64bd
000001e0: 1b5a e3bd 1d41 8a3c 5654 e53c 36fd 843c
000001f0: e803 b13d 3f31 c3bc 548f 5c3d c823 943c
00000200: fa17 e4bd 9a03 0b3e f5df ea3d d1cd 423d
00000210: a0d2 0abe 8c07 14bc 9adc 293e f7e0 a03d
00000220: dc44 44be d435 e23c ba25 fb3c 8689 d8bb
00000230: 6424 053d 2e17 1bbe dbd0 d5bd f339 15bd
00000240: 784d 89bd 212a f3bd 6208 b1bc 5aaf 6ebd
00000250: 4caf 173e efa7 86bd f584 863a f011 6d3d
00000260: e615 c8bc 9cbc 233e 073c 92bc a791 1c3e
00000270: 6eac adbb cf46 553d 9806 1bbe 9c02 813d
00000280: b417 d43d 4b0c 903d d14d a43c 4ef8 063d
00000290: b46e 87bd 26da 04bb d9e5 d13d 0d96 8fbc
000002a0: 26d4 d03b 2192 0ebe 470e 1b3e 4ee7 863d
000002b0: 2fee 12bd 7548 55bc c42d 3c3d cd15 1abc
000002c0: e2e6 28be fd7d 8b3d da2c 8dbd 6b28 92bd
000002d0: c875 543d e006 003e 1cb2 3b3c 484c 14bc
000002e0: 3f99 c1bc 601d 923b cb66 b33c 03f1 ecbd
000002f0: 9ba9 823d 9a74 083d d30d cc3d 5df3 69be
00000300: a5d4 89bd a629 9a3d de77 393e 9766 563d
00000310: 867a 16be 1d68 03bd 401e 14be 6d88 f8bd
00000320: 56f0 8a3c 89ec 94bd b864 7d3d e57f 55bc
00000330: 52f3 5f3e cf87 be3c 2a09 cabc 6f4c ba3d
00000340: a4ed 183d 8961 79bd 9391 a6bd 5da8 103d
00000350: eac6 ff3c d4c1 24be ac34 8a3c 222c a9bd
00000360: 4ac7 1abd 633f 343e 98bc 093e 8178 6b3b
00000370: 004e 233e 15f9 a03c a0ca 8f3d 7007 50be
00000380: 04b8 6e3d 7af6 b5bd 117e c6bd 31af ccbd
00000390: 7d47 c33d b525 19bd d228 c5bc 036f c0bc
000003a0: 316c d8bb 5716 e93d af00 d9bd 96ad 46bd
000003b0: 5c4b 47be 35fc 82bd 4155 babd 8179 a23c
000003c0: 2dc2 00bd c6e7 ddbd 98c4 be3d 5ef1 7f39
000003d0: f776 a93c b444 973b d10e 03bd b5cc 48bd
000003e0: 9321 da3c 9c3c b1bd 8a5f d7bd 418c 84bc
000003f0: bce8 0ebe f7f7 bfbd 88a2 d2bd bb2e 913e
0.011443222 0.07448275 0.028018814 0.0013952205 -0.01198132 0.007351373 -0.08764847 -0.0077738008
-0.0154576115 -0.09506726 0.17097032 -0.094881564 0.1815568 0.032522313 -0.035388175 0.025437368
0.017446045 0.13299155 0.032818362 0.026860625 -0.08585388 0.027487036 -0.08378212 0.10943225
-0.06676016 0.03788689 0.2326559 -0.07381857 0.09562081 -0.075298615 0.15768357 -0.12602748
-0.14916705 0.06714705 -0.12535962 -0.13438068 -0.112321034 0.1558946 0.07734873 -0.11825132
0.15118787 0.059155557 -0.1856042 -0.07315205 -0.16530593 0.008395514 0.010542121 -0.060784385
0.01324406 0.067774795 -0.06182493 -0.025411477 -0.03393176 -0.38253313 0.043576084 -0.0044697765
-0.10098853 0.008516447 0.14809483 0.09310857 -0.14644915 0.08568696 -0.1315536 0.1426221
0.04645182 0.085392885 0.12398428 0.076244 -0.06650014 0.1163939 -0.043054417 -0.010332375
0.17559624 0.12966424 -0.18347426 -0.039008725 -0.21538365 0.045110736 -0.05700224 -0.14684123
-0.09714734 0.033566218 0.015839553 0.099289834 0.034689907 -0.099207796 -0.026095403 0.06362996
-0.006348208 0.0025588677 0.108661525 -0.046783563 -0.28265938 -0.15090592 -0.09306408 0.2887588
0.12254231 0.036757845 0.11600262 0.011228575 -0.30623758 0.034531787 0.10694884 0.031070039
0.0073152366 0.040591266 -0.11805958 -0.03692168 0.108440936 -0.040760074 -0.040427934 -0.00057093264
-0.06371377 0.09592476 -0.09034357 -0.12048411 -0.044823304 -0.2376007 0.06875706 -0.055854984
-0.11101171 0.016876752 0.027994316 0.016234022 0.08643323 -0.023827193 0.053847626 0.018083468
-0.11137386 0.13575593 0.11468498 0.047559563 -0.1355691 -0.009035002 0.16588059 0.07855409
-0.19166893 0.027613558 0.030657638 -0.006608191 0.032505408 -0.15145561 -0.10440227 -0.036432218
-0.06704229 -0.1187327 -0.021610443 -0.058272697 0.14812964 -0.065749995 0.0010263013 0.057878435
-0.024424504 0.15989918 -0.017850889 0.15289937 -0.0053000962 0.05206948 -0.15139234 0.06299326
0.103560835 0.07033595 0.020056637 0.032951646 -0.06612912 -0.0020271628 0.10248918 -0.017527604
0.0063729463 -0.13922931 0.15142165 0.065870866 -0.03587168 -0.013017763 0.045942083 -0.009404612
-0.16494325 0.0681114 -0.068933204 -0.07136615 0.051870137 0.12502623 0.011456039 -0.00905139
-0.023632644 0.004459068 0.021899601 -0.11569407 0.06380006 0.033314325 0.09963574 -0.22846742
-0.06730012 0.07527475 0.18112132 0.05234393 -0.14695176 -0.032081712 -0.14464664 -0.12135396
0.016960304 -0.07271678 0.06186363 -0.013030981 0.21870163 0.023258118 -0.024662573 0.0909661
0.037336007 -0.060884032 -0.08133235 0.035316814 0.03122278 -0.16089565 0.016870819 -0.08260371
-0.037787713 0.17602305 0.13450849 0.003592998 0.15947723 0.019650022 0.070210695 -0.20315337
0.05828096 -0.08884902 -0.09692014 -0.099943526 0.0953512 -0.037389476 -0.024067316 -0.023490435
-0.0066046943 0.11381214 -0.105958335 -0.04850539 -0.19462341 -0.06395761 -0.09098292 0.019833328
-0.03143518 -0.10835223 0.09314841 0.00024408611 0.02068661 0.0046163443 -0.031996552 -0.04902335
0.026627338 -0.086541384 -0.105162695 -0.01618016 -0.13955969 -0.093734674 -0.102849066 0.28355965

layer_2.lin.bias f4 [32]
00000000: 92d7 333d e0f7 88bc f0fb c9bd 2417 fd3c
00000010: 36c1 f6bd b131 5ebd 5733 c9bc 1a7b abbd
00000020: 082a 22bd bd04 1bbd 642a 78bc 9488 5b3d
00000030: 9adb c03d f841 df3c 25b7 ae3c ca31 393d
00000040: 7c08 47bc a141 82bd 4a2f d1bd f841 88bd
00000050: d37c 9e3c d4fe 7dbd 113f 29bd 30c5 123d
00000060: 40b0 11bd b069 d53c 6ab4 01bd e1bf e83b
00000070: 21ea 90bd 4d45 643d f206 ebbd 94a0 a4bd
0.043906756 -0.016719759 -0.098625064 0.030894823 -0.12048571 -0.05424661 -0.024560614 -0.08373089
-0.039590865 -0.037846316 -0.015146825 0.053597048 0.09416886 0.027253136 0.021327564 0.0452135
-0.012148019 -0.06360174 -0.10214098 -0.066532075 0.01934663 -0.0620106 -0.04131991 0.035832584
-0.035568476 0.026051372 -0.031666197 0.007102952 -0.070759065 0.055730153 -0.11475934 -0.0803844

layer_3.lin.weight f4 [32, 64]
00000000: 2d48 4b3d 9ba3 0ebe 14d5 4d3e 43db 2e3d
00000010: 2e70 333d 6b41 573c 79a4 303c a416 2c3d
00000020: 4003 dabd b98b b43d 519c 2b3d dafa c23d
00000030: 9c07 ef3d ffc4 d3bc e004 af3d 3b0f 36be
00000040: 261b 923b 99fc dcbc 64cc a0bd a821 c73d
00000050: 3e1c 373e 4ea6 05be d49a 20be 23c0 353d
00000060: 39e3 d5bb 3263 be3d 71e5 eabc 6b15 103e
00000070: ac44 1f3d 76f4 0e3d 5fd9 093d df37 b13c
00000080: 6fe8 323e d330 13be 4817 46be bf02 263e
00000090: 1c56 1fbe c3db 803d 6ecb 503d 50c8 ae3d
000000a0: 6cb9 3e3d 73fd c5bd 9f2b 3fbd f188 f53d
000000b0: c363 7dbd e9ca 93bc fa1a 103e bca9 f8bc
000000c0: bc6b cc3d 4efc 7abd 2926 77bd d581 16be
000000d0: 2ec5 4cbd 63fc 003e 8edc 5e3e a970 163e
000000e0: f074 0d3e 8439 06be 3c25 953d 4304 67be
000000f0: f3ed 823d 0d1f 1a3d fa7e c2bd 2bf9 263e
00000100: 4d86 fabd f2f5 b53d 09d2 fcbd 4baf ffbc
00000110: 840b 133d f90c b6bd ca33 2a3e be75 ae3b
00000120: 31e6 9e38 a732 213e 52ed 053c e7a7 73bd
00000130: 5979 e2bd 6bb2 a1bd aeda 88be e7a7 20be
00000140: b259 aabd c6dc 2b3e fb5e c7bc 321e bfbc
00000150: 55ea 28bd 859c 3cbd f1e9 ed3d 535d 193e
00000160: 218b 8f3d 77b2 e93b 93f9 3fbe c8ce 28bd
00000170: d299 cdbc cb5c e43d f516 363d 47b9 84bd
00000180: 5302 87ba 7e01 503d 61fa 073e 6911 dcbd
00000190: 952f 81bd faf6 f73d 4f21 3f3e 626b 3fbd
000001a0: e010 803c eadf 15be f599 e7bd 7752 a3bb
000001b0: d7be 3b3e 26a1 fc3d 21e2 90bd ae0a fd3d
000001c0: 25f9 09bd 7384 2fbc 7544 953d 0b1e 86bd
000001d0: d00f 5c3e 6ed9 5ebd 542c 2bbe 38bb e4bc
000001e0: 98dc 23bc 72bd 643e 286a 103d 2748 df3d
000001f0: ebc6 8abd 0f2b 933d 0913 2d3e 95bc 85bd
00000200: b82c dfbd 62ab 4bbe 9cd5 fb3d 5d85 1fbe
00000210: ba19 8b3b be1c 6abe bcbb 0c3e b43d c43d
00000220: ca42 3dbd 7c8a 94bb c58c dd3d 7fad 7b3d
00000230: b1c0 69bd 1a8c 003d f7fe 223b ca39 d83d
00000240: cff4 0dbe 2ec2 19bd df7a bf3d a710 cf3c
00000250: d3d7 283c aec4 6e3d 75f7 2abe 203f f3bd
00000260: 0f8e 4fbd 20c0 59bc 9471 85bc 1fa8 e13b
00000270: 9838 e23d bd94 d73d aafe 86bd 1ecd 073e
00000280: f6e8 033e 1c0a c13c 889a 713d 0cdd d5bc
00000290: c6d7 b23c d16e 6c3e c29a 223c aa09 163d
000002a0: e383 0d3e b128 fdbd 9e94 13be 69c7 cbbd
000002b0: b4da 20bd 01a5 1bbc 7220 d9bd 5dd4 ccbc
000002c0: cb7d cabc 87ff f8bc 9edb 153b d514 abbd
000002d0: cc3b 3cbc 76bf 1e3d d086 48be 4972 2b3d
000002e0: 3c20 aa3d c198 cfbb 8418 ad3d 6f83 023e
000002f0: db84 a83c b038 cebc e2c0 253e 53fa c33d
00000300: a9de 013d b607 06bd c9cf 30be 8b66 d73d
00000310: d955 07bd 1e34 38bd 84e3 80bd fbbd 343c
00000320: da60 28bd 453d ddbd 9461 3c3d 2e0d e9bc
00000330: 1a44 5fbd cf22 013e a1f6 29be a46e 4fbd
00000340: f294 d3bd aa1e fc3d 8956 6abc f67a 82bd
00000350: 7f1a 21be fd38 573d 89f2 463e 260a bcbd
00000360: d993 d13d c92d 09be 4adb 293d 9b23 2cbe
00000370: 9f09 a93d 50a9 293e 7c89 11bc 9027 cf3c
00000380: 6a5b 9d3d 0e43 303d ebf6 30bd 5e24 95bd
00000390: 8e8b adbd 60f5 c03d 6d39 dfbd 5cc8 823d
000003a0: d56a efbb 5808 eabc 2374 90bc b5b2 c83c
000003b0: dc44 e8bb d2bd 25bd fee1 b0bc 47d6 6ebc
000003c0: cffe 91bb 3995 6a3c c9cf 4c3d d5d5 84bc
000003d0: 65a4 053e ee13 cbbb a998 0cbe f44e 023e
000003e0: b205 1eb9 96da 3e3d 8299 a63d d1e7 1d3e
000003f0: d233 05be b123 fa3d 9271 293e f920 5ebd
0.04962938 -0.13929598 0.20100814 0.042689573 0.043808155 0.013138155 0.010781401 0.04201378
-0.10645151 0.088157125 0.04189712 0.095205024 0.11671373 -0.025850771 0.08545852 -0.17779247
0.0044588028 -0.026975917 -0.078514844 0.09723216 0.17881867 -0.13051721 -0.15684062 0.04437269
-0.006527331 0.09296264 -0.02867386 0.1407067 0.03888385 0.034901105 0.033654567 0.021633087
0.17471479 -0.14374094 -0.19344819 0.16211985 -0.15560192 0.06291916 0.050975256 0.085343
0.04656355 -0.09667482 -0.04667246 0.1198901 -0.06186272 -0.018041091 0.1407279 -0.030354373
0.09981486 -0.061275773 -0.060339127 -0.14697964 -0.049992733 0.12596278 0.21763822 0.14691414
0.1381414 -0.13107878 0.072824925 -0.2256022 0.063930415 0.03762727 -0.09496875 0.16305988
-0.12232647 0.08884801 -0.123447485 -0.031211516 0.035899654 -0.08889193 0.16621318 0.0053240946
7.5769036e-05 0.15741979 0.008174257 -0.059486296 -0.110583015 -0.07895359 -0.2672934 -0.1568905
-0.08317889 0.16783437 -0.024337282 -0.023329828 -0.0412391 -0.046047706 0.116168864 0.14977007
0.070089586 0.0071318704 -0.18747549 -0.041212827 -0.025097761 0.11150511 0.044455487 -0.06480651
-0.0010300375 0.050782673 0.13279106 -0.10745508 -0.06307904 0.12107654 0.1866505 -0.046733268
0.015633047 -0.14636198 -0.11308662 -0.004984196 0.18334518 0.12335424 -0.07074381 0.123555526
-0.03368487 -0.010712731 0.07288448 -0.06548699 0.21490407 -0.054406576 -0.16716129 -0.027921304
-0.010001324 0.22337893 0.03525749 0.10902434 -0.06776222 0.07185947 0.16901793 -0.0653011
-0.10897201 -0.19889596 0.12296602 -0.15578218 0.00424501 -0.22862527 0.1374349 0.095820814
-0.046206273 -0.00453311 0.10817865 0.061444756 -0.05706853 0.03138361 0.002487121 0.105578974
-0.13862918 -0.0375387 0.09349608 0.025276495 0.010305363 0.058293037 -0.1669596 -0.118772745
-0.050672587 -0.013290435 -0.01628951 0.0068864967 0.11045951 0.105264165 -0.06591542 0.1326184
0.12881836 0.02356439 0.058985263 -0.02610638 0.021831404 0.23089148 0.009924592 0.03663031
0.13819842 -0.12361277 -0.14412162 -0.09950144 -0.03927107 -0.009499789 -0.106018916 -0.025003606
-0.024718186 -0.030395282 0.0022866498 -0.08353583 -0.011488866 0.03875681 -0.19582677 0.041857038
0.083069295 -0.0063353484 0.084519416 0.1274545 0.020571163 -0.025173515 0.1618686 0.0956923
0.031706486 -0.032722197 -0.17266764 0.105176054 -0.033040855 -0.044971578 -0.06293395 0.011031623
-0.04110799 -0.10802702 0.045991495 -0.028448667 -0.054508306 0.12610935 -0.16597988 -0.050642624
-0.103311434 0.12310536 -0.014302858 -0.06371109 -0.15732764 0.052544583 0.19428457 -0.09181623
0.10233278 -0.13396372 0.041468896 -0.16810457 0.08253788 0.16568494 -0.0088828765 0.02528742
0.076834515 0.0430327 -0.04320423 -0.07282327 -0.084738836 0.094218016 -0.10899625 0.06385872
-0.0073064365 -0.028568432 -0.017633503 0.024499277 -0.007088287 -0.04046423 -0.021592136 -0.014577455
-0.0044554244 0.014317804 0.050002847 -0.016215244 0.13050993 -0.006197444 -0.1373011 0.1272543
-0.00015070176 0.04659518 0.08134748 0.15420462 -0.13008049 0.12213839 0.1654723 -0.054230664

layer_3.lin.bias f4 [32]
00000000: 2bca d53c a003 f73c 6772 993d aba2 8ebd
00000010: 8f49 193d 6aab 9d3d ffb8 ce3d 2061 9fbd
00000020: 14f8 c43d d58e b1bc eff0 a1ba 5ba3 b33c
00000030: 3fa3 873d 56a5 223d 7b41 b7bd 85e8 9d3b
00000040: 3064 843c 275b 013b 7bf6 20bd b34c 2abc
00000050: 34c0 813d 0670 8f3d 6419 473d 1be1 a8bb
00000060: 00ec 503c 8094 e13c 270b 2bbd ac42 753d
00000070: 5c2d b43d beec 723c 68c8 843d fd4e 76bd
0.026097378 0.030153096 0.07492524 -0.0696462 0.037423667 0.0769871 0.10093879 -0.07782197
0.0961763 -0.021674553 -0.0012355129 0.02192848 0.066229336 0.039708458 -0.08948036 0.0048189783
0.016161054 0.001973817 -0.039297562 -0.010394263 0.06335488 0.07003789 0.0486082 -0.005153788
0.012751579 0.02753663 -0.041758683 0.059878036 0.08797714 0.014826952 0.06483537 -0.060133923

layer_4.lin.weight f4 [32, 64]
00000000: 4fbd f23d 3a1d 8cbd 8e9d 1c3d 872d febd
00000010: c52d 81be a138 0a3e 116e 88bd 3882 f5bd
00000020: 37ff 0cbc f202 793d e025 24bd bd17 f7bc
00000030: f586 aa3d c989 e1bc 966a 283c 566a f8bd
00000040: fc60 0bbe 6c10 a13d b891 e33c 6478 863d
00000050: 4d7b 9a3d e945 62bd 928d 0abc 90d5 14be
00000060: 3a19 22bb 7962 e73d 1e7d a43d cc0f f43c
00000070: 1979 c0bd 3a60 b6bd 8b47 08bd 9e4b 0dbe
00000080: 731b ccbd 8ca0 003e 2a99 083d df56 a23d
00000090: cdab c23d 1e96 aa3c 81d8 babd 0d6b 1d3e
000000a0: ffe4 bc3d e37d 783d 8ad8 11be 0edf d03a
000000b0: 3a62 08be 23ec 0dbd db28 bb3c 8e6a 743e
000000c0: 2a33 a3bc e47a 693d 4301 fcbd 5924 3c3d
000000d0: 3d99 e73d 5614 863c 2767 cabd 15cc 163e
000000e0: d4aa 963d e6b7 3ebe 4ef3 28be 6a01 efbd
000000f0: 0069 dbbd 70d5 103e 6c7e 8f3d 7c09 9dbc
00000100: 6f07 223e 5f3e f2bd 7297 2bbe b8d9 fabd
00000110: ddca 9bbc 352f cbbc acfb 073e da7b 953d
00000120: 04ff 63be 4c72 1cbc 0267 9839 fcd7 093e
00000130: cfd0 153e 3c26 0cbe 3b52 88bc 17a8 9a3d
00000140: 8b40 82bc 526f 003e 72f8 1ebe 845c dabc
00000150: e8bf 77bd 49f7 8abc dc7b 67bd 7a23 d13d
00000160: 66ce abbd b32e 2cbe 9725 2cbe 29e5 52bc
00000170: 8b98 f33d 3788 893c 95bc 123e 198e 5bbc
00000180: e69d 8a3d bcc9 fc3c 5967 1bbd f672 06be
00000190: 8d0c 08be e953 1a3d f30e 893c 87a4 03be
000001a0: 4fad 9fbd ee7c ca3b 1f88 afbd 7db0 cebd
000001b0: 58c3 43bd 88fa 9e3d 4e14 363d 6ccd 2ebe
000001c0: 1076 a3bd d4e8 d93d db8b 81bd a591 08be
000001d0: b244 033d bc33 803d 2682 3dbb 2805 a23d
000001e0: 53a6 f73d 7853 24be 4bcc 6abc 0535 c83b
000001f0: 1cb5 cbbd 05cc f7bc 7a28 c5bc acd6 023e
00000200: 037e e3bd 859f 2b3e 2295 8bbd eaf0 243e
00000210: 0f7c 11bd bb47 1ebe 84c3 93bd a35d c2bd
00000220: e6a1 1cbd cbba 183d 4eb4 a0bc 22a4 1dbd
00000230: 732f 613d 0c07 3e3d d65b fabc 50a8 2439
00000240: 0bd5 24be 21e4 433d 5f32 603d eb72 01be
00000250: a88e b5bd 4c72 3e3d cc2d 273d a37a 7e3d
00000260: 1847 f33c 2023 30be 5416 223e f8bd 5abd
00000270: 08c4 4a3c e0d6 253d a860 7e3d 5dc4 673d
00000280: 762a 9dbd 57fe b8bd 0ce2 c63b 4d60 c53b
00000290: 187c e13d be29 cb3d 2857 a6bc 9d40 c43c
000002a0: 8ba8 a2bd a345 dcbd 84df 8d3d 3dac 13bc
000002b0: 64a3 13bd a3a6 4abd dd7a 963c 8239 253d
000002c0: 2550 d53d ea0d f23b a00b b5bd 5153 ad3d
000002d0: 8a23 0cbe 2f18 79bd 923d c1bd 8f50 013e
000002e0: 751d 64bd 295c 1f3d 98ac 633d 88cb 893d
000002f0: b5a1 1abd 9b0b da3d 54ec dcbd b1b4 063d
00000300: 712c 09bd b401 eebd 55aa aabd 1729 a13d
00000310: 7e6f 05bc c484 c23b 12d2 973d 38bd 9c3d
00000320: 8f3a a23d c9a4 2dbd f424 55bc a3dc 983d
00000330: 579a 0c3d e7a7 033d 7fed e73d cbbd 16be
00000340: cf34 e53d 0a99 c6bc 7993 653d bc98 103e
00000350: 1d6e 123e 88dc 9f3c 8330 ac3d 6d9c ff3d
00000360: 0425 1ebd f40c f73d 8c6f 10bd 73c3 983d
00000370: 1b40 933d b70f 01be 9d0a 15be b98c d93d
00000380: 053a 9f3d 4431 d23d 42c4 bc3d 2664 063d
00000390: b1e4 12bd 1d3b 203d 17d7 17bd 5235 f23c
000003a0: 3303 71bd 6519 083e 230d cdbd 63f9 86bd
000003b0: 233c ddbc b295 0fbd 6bad f23d eebd 833c
000003c0: a39a 13be b831 043b 29ec 193d 31f6 c2bd
000003d0: 577f 6f38 f93e babc 2db1 08bd d5e6 0abd
000003e0: f43e 533e 1f27 00bd f791 a83d 6923 10bd
000003f0: 3ae2 d5bd b32b 99bd 148e 6bbc 6c86 023e
0.11852514 -0.06841512 0.038236193 -0.124110274 -0.25230232 0.13498165 -0.066616185 -0.11987728
-0.00860577 0.060793824 -0.040075183 -0.030162686 0.08326522 -0.027531521 0.010279318 -0.12129657
-0.13611215 0.0786446 0.027779445 0.065659314 0.07543049 -0.055242453 -0.008456605 -0.14534593
-0.0024734274 0.11298079 0.08031677 0.029792689 -0.093980975 -0.089050725 -0.033271354 -0.13798377
-0.09966173 0.12561244 0.033349194 0.079267256 0.09505425 0.020823535 -0.09123326 0.15372868
0.09223365 0.06066693 -0.1424276 0.0015935616 -0.1331872 -0.034649026 0.02284663 0.23868772
-0.019921858 0.057001963 -0.12304928 0.0459331 0.11308525 0.016367119 -0.09882956 0.14726289
0.07356802 -0.18624839 -0.16499063 -0.116701916 -0.107133865 0.1414392 0.07006535 -0.019169562
0.15823148 -0.118283026 -0.1675699 -0.12248558 -0.019017631 -0.024802784 0.13279599 0.072990134
-0.2226525 -0.009548735 0.00029068446 0.13461298 0.14630435 -0.1368646 -0.016640773 0.07551592
-0.015899917 0.12542465 -0.15524462 -0.026655443 -0.06048575 -0.016963618 -0.056514606 0.10211845
-0.08388977 -0.1681469 -0.16811214 -0.012872019 0.1189433 0.016788585 0.14329751 -0.013400578
0.06768398 0.030857913 -0.037940357 -0.13129792 -0.13286038 0.03767768 0.016730761 -0.12855731
-0.07796728 0.0061794436 -0.08570885 -0.10092256 -0.047793716 0.07762629 0.044452958 -0.1707055
-0.07981503 0.106401116 -0.063255034 -0.13336809 0.032047935 0.062598675 -0.0028916686 0.0791114
0.12092271 -0.16047466 -0.014330934 0.006109836 -0.09946653 -0.030248651 -0.024067152 0.12777203
-0.11108019 0.1676007 -0.06815554 0.16107526 -0.035518702 -0.1545705 -0.07215026 -0.09490516
-0.038240336 0.037287515 -0.019617226 -0.038486607 0.05497689 0.04639344 -0.030561369 0.0001570296
-0.16096894 0.047824983 0.054735538 -0.12641494 -0.088651 0.04649572 0.04081516 0.062128674
0.029696986 -0.17200899 0.1582883 -0.053403825 0.012375839 0.040488124 0.062103897 0.05658375
-0.076741144 -0.090328865 0.0060694274 0.006023443 0.11009997 0.09920071 -0.020305231 0.023956591
-0.07942303 -0.1075547 0.06927398 -0.009013233 -0.036044493 -0.049475323 0.018369133 0.040338047
0.10415677 0.0073869126 -0.08840108 0.08463157 -0.13685432 -0.06081408 -0.09435572 0.12628387
-0.055692155 0.03890625 0.05558452 0.06728274 -0.037751872 0.10646745 -0.107872635 0.032887165
-0.03348965 -0.116214186 -0.083332695 0.078691654 -0.008144258 0.005936237 0.074131146 0.07653278
0.079213254 -0.04239348 -0.013009299 0.07463958 0.034326877 0.032142546 0.11324596 -0.14720838
0.11191713 -0.024242897 0.056048844 0.14120764 0.14299817 0.019514337 0.084076904 0.12481008
-0.03860952 0.120630175 -0.03526263 0.07459154 0.071899615 -0.12603651 -0.1455483 0.10622544
0.07774738 0.10263303 0.09217121 0.032810353 -0.03586263 0.039118875 -0.03707036 0.02956644
-0.05884094 0.13290937 -0.10012271 -0.065905355 -0.027006214 -0.03505487 0.11849483 0.016081776
-0.14414458 0.0020171236 0.037578736 -0.095196135 5.7100635e-05 -0.022735106 -0.033372093 -0.033911545
0.20629483 -0.03128731 0.082309656 -0.03519002 -0.1044354 -0.07479038 -0.014377136 0.1274659

layer_4.lin.bias f4 [32]
00000000: 8761 01bc 067c a1bd 33fe b83d df04 6ebd
00000010: 356f 9abd e272 02bd 079f 2f3c 48f3 1dbd
00000020: c4b1 6abd bb3c 9dbc 4fdc ee3c e902 db3c
00000030: d08a fcbd 04dc 88bc f3ce 843d 1759 e33d
00000040: cfc6 1a3d 9568 8b3d deb7 993d 5ff6 37bd
00000050: e675 74bd 9bb6 1cbd 9f8a 063d 4f7f 2dbd
00000060: fbb1 c23d c5dd 60bd 15b9 383d 0e7e 5b3d
00000070: d788 e83d 93ba 413d b868 56bd 24c5 903d
-0.0078967875 -0.07884984 0.0903286 -0.058110114 -0.07540742 -0.031847842 0.010719067 -0.03856209
-0.057298437 -0.019193998 0.029157786 0.026734786 -0.12331164 -0.016706474 0.06484785 0.11100977
0.037787255 0.06807057 0.07505773 -0.044912692 -0.05968275 -0.038260084 0.032847043 -0.04235774
0.09506603 -0.054898996 0.045098383 0.053587012 0.11354225 0.04729707 -0.05234596 0.070688516

layer_5.lin.weight f4 [32, 64]
00000000: 8e33 04be db1b 94bd a67a 703c 4e46 d43d
00000010: d8af 433c 6b0e e7bd b2aa d8bd ae28 25be
00000020: 5e1c 253d cd49 093e 1771 5bbd 335a 2c3e
00000030: 0dd1 2fbd ef7a 6ebe f07d 813e 8056 9abd
00000040: 50b3 dabd e1d4 a53d f06f 12bc 2d40 05be
00000050: 9761 873c b484 44bd 008e 8b3e 0eb3 133e
00000060: d69b 8b3d e712 80bd 714a 09be 4d88 a5be
00000070: cef8 eb3d 5887 67be f32a 413d 0058 5dbe
00000080: e0f4 e33c 050c 993d 5c48 a6bd cc42 c4bd
00000090: f89a 423d f17e b63d 2408 59bc 8081 093c
000000a0: 0952 76bd ca85 2e3d df7d a63d bed3 40bc
000000b0: b5c8 26bb 9299 ae3c b3e6 29be b4f1 38bd
000000c0: 6df7 403d 07dc e13d b224 223d 3d99 413e
000000d0: 684b 4d3e ab18 093e 94bc fbbd f585 09be
000000e0: 1d5f 15bd 3159 ce3d 3eff 1f3e 2fcc 3c3e
000000f0: 059c 9cbd b373 f03d 7149 eabb 083f f03d
00000100: f017 6b3d e93a ecbd d659 7ebd 0713 ad3d
00000110: 9d4b b5bd c696 cf3d d24e 323c e219 c73d
00000120: be7b af3d 65a2 ebbd f77b ac3d 300b 1d3c
00000130: e674 6cbd ce68 183e 241d 03be e050 4b3d
00000140: dc58 e93d 5ead 74bd 3bf9 dcbd 9700 063e
00000150: 1180 cb3c 1685 ed3d e2f3 483d 5e8b 89bd
00000160: 8964 8b3d 7ac7 923d e7eb a43d cf94 a33d
00000170: 2530 a53d 463e c0bc be4f 4a3d 0539 6d3d
00000180: 6022 dbbd fc38 a53d c3b1 093d 8569 e0bd
00000190: 2a0c 303e 5a06 aebd d106 0fbd 1c5c 9c3d
000001a0: 69e0 433c 64df a6bd 93f1 b6bc 95ee a33c
000001b0: 890a 623d d263 eb3d 0dd7 b13d adba ebbd
000001c0: 79ab da3c ab9d fdbd 9786 40bd 565e ad3d
000001d0: 53b8 d8bd 41e3 a83c 3b8e 9c3c e39b 8abd
000001e0: f0b6 d23c ccd4 933d fe84 61bc b6e8 113c
000001f0: a05a 33ba 742c 69bc 6799 90bc 0205 2cbd
00000200: 0c74 85bd d461 2f3e d99b fbbb b2c1 103e
00000210: efd8 2b3e 0bad e83d e77e 72bd 084e 4e3d
00000220: 554e 11be a864 1c3e 173a 39bd ada3 5bbd
00000230: f3da afbd b4d4 cfbb 5936 cabd cbb8 c0bc
00000240: ad89 8c3d d6d6 b2bd 9e01 e0bd 29c4 16be
00000250: de2b 4d3c 0f4e c4bd b324 47be 2ece 32bc
00000260: 0415 0bbd 6a10 8b3b 61df 13bc 2bef 843d
00000270: 6213 a03c 1af5 dcbd c363 073e 032a 013e
00000280: ea9a 343e 7bdc 95bd 528d a7bd 2eed d73c
00000290: b791 11be a929 b43c 97b0 003d a741 173e
000002a0: 2ef3 f8bd eba8 07bc 90fc 883b 9d4a f5bc
000002b0: 5e9d ea3d 808e d33d 5d1b 3e3d e5b6 21bd
000002c0: 7cca 2b3d 6fda b53d ff6b 31bc 1c0e 83bd
000002d0: e568 0b3e d1d4 a4bd 862c 21be 7e2d 11be
000002e0: cafe bc3d 0785 4cbd 7b25 2f3d 9af4 b33b
000002f0: e5be a9bd dcb5 e23d 8e0a d8bc 12ca 5fbe
00000300: 008d 3abd 0136 0cbd 90ee 2cbe fa45 f93d
00000310: c7d0 c1bd b3a0 47bd 08cb ef3d d97b 313d
00000320: 135b 5b3d bbb6 f5bd 2e3d 21bc d8b9 29be
00000330: 34fb 41be 6e19 f43d 0c18 983d ac9c 5c3d
00000340: 95a3 c03e 8d93 fe3d ba5d 0d3e b42f 0cbd
00000350: 024d 653d 7b9a 583d 9e7a 9cbd 6baa 37bd
00000360: 5909 c33d 7894 82bd 1d63 6c3d f733 93be
00000370: 0f61 403a 8baf d1bb 8264 483e 9a8f a5bc
00000380: 9055 013e 4cca cfbc 1a0d d73d d32a 76bd
00000390: b8bb cb3d eb69 863d 3533 46bd b00c cbbc
000003a0: d278 8f3b fa27 0a3d 4d2c 3dbd 0420 97bd
000003b0: eff9 1d3c a0ed 94bd b7ca be3d e92e 9fbd
000003c0: 8df4 cb3c 17bf 8f3d 8449 b33d 74be 9cbd
000003d0: fe8a 38bd 2ed8 253d 7ded 473d 10a1 cc3d
000003e0: d2eb 1abe 8409 9abc 5171 f3bb db35 3e3e
000003f0: b7e9 9d3d 4e73 a03d 9146 74bd b399 80bc
-0.12910292 -0.072318755 0.014677679 0.10364972 0.01194378 -0.11282047 -0.105794325 -0.161288
0.040310256 0.13407059 -0.053574648 0.16831283 -0.042923976 -0.23289083 0.25291395 -0.0753603
-0.106787324 0.08097244 -0.008937821 -0.13012762 0.016526027 -0.047978118 0.27256775 0.14423773
0.06816833 -0.06253605 -0.13407303 -0.32330552 0.11522065 -0.22610223 0.0471601 -0.216156
0.027826726 0.07472996 -0.0811927 -0.09583053 0.04751107 0.08910931 -0.01324657 0.008392692
-0.06013683 0.04260806 0.08129477 -0.011769233 -0.002544922 0.021313462 -0.16591911 -0.04515238
0.047110964 0.11028295 0.039585777 0.18906112 0.20048296 0.13388316 -0.12291828 -0.13430007
-0.03646766 0.10075606 0.15624711 0.18437265 -0.07646946 0.11740818 -0.007149868 0.11730772
0.057395875 -0.11534674 -0.062097393 0.08450895 -0.08852313 0.101361796 0.01088305 0.09721734
0.08568524 -0.11505584 0.08422082 0.009585187 -0.05772867 0.1488373 -0.12804085 0.049637675
0.11393902 -0.05973565 -0.107897244 0.13086163 0.02484134 0.1159765 0.04906071 -0.06716035
0.06806285 0.071669534 0.08052807 0.07987367 0.080658235 -0.023467194 0.049392454 0.057915706
-0.10699916 0.080675095 0.033616792 -0.10957626 0.1719214 -0.08497305 -0.03491861 0.07634756
0.011955359 -0.08148077 -0.022331988 0.020011226 0.05518583 0.114936486 0.08683596 -0.11510215
0.026693093 -0.123835884 -0.047003355 0.08465259 -0.10582032 0.020616176 0.01911079 -0.06768014
0.025721997 0.07218322 -0.013764618 0.00890558 -0.0006841812 -0.01423179 -0.017651273 -0.041996963
-0.06516275 0.17127162 -0.0076784906 0.14136389 0.16781972 0.1136113 -0.059203055 0.050367385
-0.14190038 0.15272772 -0.045221414 -0.05362289 -0.08586683 -0.006342495 -0.09873647 -0.023525616
0.06862197 -0.08732383 -0.109378085 -0.14723267 0.012522666 -0.09585201 -0.19447593 -0.010913415
-0.03395559 0.0042439 -0.009025426 0.0649093 0.019540492 -0.10788937 0.1322165 0.12613682
0.1763722 -0.07317444 -0.081812516 0.026358213 -0.14215742 0.021992521 0.03141841 0.14771138
-0.12155758 -0.008280019 0.0041804984 -0.029942805 0.11455797 0.10329914 0.046412814 -0.039481062
0.04194115 0.088795535 -0.010828971 -0.063991755 0.13614233 -0.08048404 -0.1573964 -0.1417751
0.09228285 -0.049931552 0.042760354 0.0054918053 -0.08288363 0.11069843 -0.02637222 -0.21854427
-0.045544624 -0.03423119 -0.1688788 0.1217155 -0.09463649 -0.04873724 0.11708647 0.043331
0.053553652 -0.11997744 -0.0098412465 -0.165748 -0.18943483 0.11918913 0.074264616 0.05386035
0.37624803 0.12430487 0.13805285 -0.03422518 0.055981643 0.0528817 -0.07640575 -0.044840258
0.09523267 -0.063759744 0.05771171 -0.28750584 0.00073386816 -0.0063991 0.1956959 -0.020210076
0.12630296 -0.025365017 0.10500546 -0.060099434 0.09947914 0.06563171 -0.04838868 -0.024786323
0.0043784166 0.03372953 -0.046184827 -0.07379153 0.009642108 -0.07271886 0.093160085 -0.07772619
0.024896884 0.07018869 0.08754256 -0.076535136 -0.04505443 0.04048937 0.04881047 0.09991658
-0.15129021 -0.018803366 -0.00742928 0.18575232 0.07710593 0.078344926 -0.05963761 -0.01569829

layer_5.lin.bias f4 [32]
00000000: c580 07bd 01f0 bf3d 54b0 6ebc 61d0 2bbd
00000010: 2d07 19bc e740 bebc 7e3f 96bd 4b5d 893d
00000020: 5c50 c23b 1dcf d63b 5210 db3d 6129 abbc
00000030: eddf ccba 7e71 bf3d 1d47 9b3b fc22 923c
00000040: c846 c73d 8476 18bd 4914 313d 40b3 063d
00000050: b266 d13c 242e 32bc 1f12 b3bc 15a8 b2bc
00000060: ec4c a9bd 6516 9dbd fa2f 4f3d 05fe 283d
00000070: 8f56 243c 45dc 603d 43e0 3d3c 0214 8e3d
-0.03308179 0.09371949 -0.014568407 -0.041946772 -0.00934009 -0.023224307 -0.07336329 0.06707247
0.0059299897 0.0065554515 0.10696472 -0.020893754 -0.00156307 0.09347819 0.004738702 0.017838947
0.09730297 -0.0372224 0.043232236 0.03288579 0.025561664 -0.010875259 -0.021859227 -0.021808663
-0.08266625 -0.07670287 0.050582863 0.041257877 0.010030403 0.054897565 0.011589113 0.0693741

layer_6.lin.weight f4 [32, 64]
00000000: f1d5 5b3d 210b 583d 0ade ccbc 7136 013e
00000010: df02 753c 37c7 31bd 0bd2 3cbd fdb7 dbbd
00000020: e5bf 933d f98c de3d 8f04 1dba e79b 7bbc
00000030: 913e bcbc 3d1a b53d eef0 753d d4af 5bbe
00000040: 542c d7bc dce2 3d3d d0bb 35be 700b 51be
00000050: 4b9e 39bd cb21 ee3d 3388 38bc 4fe9 1a3e
00000060: 97df 1fbe 22a0 153e 79da d6bd 0087 1e3c
00000070: 50b7 033d 108b aebd 8c15 49bd ca01 723b
00000080: 6afc ff3d f881 06be d90a d3bd c5af 20bc
00000090: db10 6d3d b3eb 84bc 600a 36bd 635f fb3d
000000a0: 1bcf 0ebd d455 2abd c4c9 90bd 91b2 963d
000000b0: 5b0c 2f3d a89e e8bb 0810 cb3c 0f82 3a3d
000000c0: 554a 933d e372 09be bc63 a53d 1728 cb3d
000000d0: e74c e0bd 250c a7bc 0651 33bc cf9f 37be
000000e0: 8ad0 823d 843a 053e 1129 de3c 05a3 bf3c
000000f0: 0697 09be 5e9b 75bb 5a35 583d c3dd 96bd
00000100: fecf 363e 9403 24be be83 043d e04e 21be
00000110: 9bd6 c0bc 228a 153e 9115 bbbd 6fe0 a73d
00000120: 857f 6dbd 7776 14bc 8f0c b1bd ee02 db3d
00000130: 36d4 33be bf67 b4bd e0c9 d8bc 1402 afbd
00000140: ea60 82bd 3961 493b db1d 813d 74d0 b2bd
00000150: 92b4 fe3d 49b6 afbd 83ec 373c fd22 f53d
00000160: 9048 48be 2e5a d3bd 3b1e 1fbe a551 d1bd
00000170: 2968 70bd 7467 9d3d 6b58 1fbd a04f 38bd
00000180: aa52 033e 31dd 373d 22b6 5a3e d9dc 90bd
00000190: 6755 e1bd 8975 40bd cb45 d1bd 1fe5 a9bd
000001a0: 435d 6d3d 8be7 d9bd 6553 2c3d 06b7 4d3c
000001b0: 2168 2f3e f7d7 aebd b0e4 153e 1442 f9bb
000001c0: 7abd 493d 6fde 50bd bd58 17be e2fd 863e
000001d0: efa6 10be 2280 77bb e493 d0bd d07d 0ebe
000001e0: 792f 653d 28f6 313e d7fe 353e 61ec 90bb
000001f0: 9b10 223e 12a0 89bd 0301 2fbd c0b4 0e3e
00000200: 4adc 293c 2166 57bd 9f0a 1f3e 212d 46bd
00000210: 2458 d6bc 1959 033e 0a35 923d dc0b 9c3d
00000220: be53 803d 23ea 623c 66aa 98bd ccf6 4dbe
00000230: 13d1 e83d 74fa 7c3d 8b17 163d 18a6 53be
00000240: ab37 5fbd e2dd 113e 65b7 6cbd 6d3b 18be
00000250: 3763 b5bd 927b 8dbd 8081 173e edc5 dc3d
00000260: 3948 033e fdd5 113e 0637 1d3e 20ce c03d
00000270: b2fa ce3c 39e5 73be 25cf 5abd 96fd b2bd
00000280: 0852 0f3e 9e3a f5ba 440f b3bd ec30 ad3d
00000290: eb3f adbd c049 3abe d6c4 db3c 187c 28be
000002a0: 97a9 003c 6467 77bd 76de d4bc 061e ca3d
000002b0: 75a1 debc 77f4 47be 012e 17be e113 083e
000002c0: b7f5 9dbc 6cc2 17be ebb3 483d f404 783d
000002d0: f3dc 9c3d 7859 9fbd 021e 093b 8cd5 78bd
000002e0: b13e 9a3d 9fc5 93bc 21a2 5abe c8c2 c1bd
000002f0: 15ee abbd 0a31 653d 80f0 81bd 8947 013e
00000300: 031f 8bbc 069d 863b 94c7 2f3e 7197 b63d
00000310: 7887 4b3e 0d2a 843c 1c1c 35bd 230d 49bd
00000320: 6aac 603e eb49 ea3b 5c64 bb3d 1464 273e
00000330: 1322 b4bd 4259 cc3d 2d55 0dbe 8234 003e
00000340: c2b9 b6bd 0236 8b3d 6d35 17bd 5028 85bd
00000350: bb57 4fbd 4e7b 14be 0858 52bd 00bf febd
00000360: 6cd6 f23d 8fec 4f3c 9f38 f13d bebc 5c3d
00000370: b5b7 db3d c874 bb3d 27af c43c 732d 613e
00000380: a7fe 79be 3927 ba3d 63ce 46bd ec92 c13d
00000390: 7277 8dbc 236c 30be b94e 113c 0269 213e
000003a0: 7db6 3ebe 8f7f c33d 0173 e93d b9e7 233d
000003b0: ee2b a0bd e7d7 863d d27b 653d 17c2 063e
000003c0: 57f6 ac3d 5e07 f63d c5c6 1a3e b8ba 80bc
000003d0: 120a fb3d 0948 cebd 4a07 31bd 224b 3a3e
000003e0: bcf6 a9bd 7800 e5bd f99a f2bb 5b6e 1bbe
000003f0: 5407 18bd fae1 fc3d 8136 ecbd ad05 cb3d
0.053670827 0.05274499 -0.02500822 0.12618424 0.014954298 -0.043402877 -0.04609875 -0.10728452
0.07214335 0.10866732 -0.0005989754 -0.015356994 -0.022979053 0.08842895 0.06004422 -0.21453792
-0.026266254 0.046358928 -0.17747426 -0.2041452 -0.045316976 0.11627539 -0.011262941 0.15128063
-0.15612637 0.14611867 -0.10490889 0.009675741 0.032157242 -0.08522618 -0.049092814 0.0036927336
0.12499316 -0.13135517 -0.103048034 -0.009807532 0.057877403 -0.016225671 -0.044443488 0.12274053
-0.03486548 -0.04158576 -0.07069734 0.073582776 0.042736392 -0.0070989914 0.024787918 0.04553419
0.07191912 -0.13422732 0.080756634 0.09919756 -0.10952168 -0.020391533 -0.01094461 -0.17932056
0.06387432 0.13010603 0.027119191 0.023393163 -0.13436517 -0.003747664 0.052785255 -0.073665164
0.1785278 -0.1601699 0.0323522 -0.15752745 -0.023539832 0.14603475 -0.09134973 0.08197104
-0.05798294 -0.009061447 -0.086449735 0.10693918 -0.17561421 -0.088088505 -0.026463449 -0.08545318
-0.06366141 0.0030728115 0.063045226 -0.087311655 0.12436785 -0.0857969 0.011225822 0.11969564
-0.1955893 -0.10319935 -0.15538876 -0.102206506 -0.058693085 0.07685748 -0.03890268 -0.04499781
0.12824503 0.04488868 0.2135854 -0.07073373 -0.11002617 -0.04698709 -0.1021839 -0.082956545
0.05795027 -0.106398664 0.04207172 0.012555843 0.17129566 -0.08537286 0.14638019 -0.007606754
0.049252965 -0.05099338 -0.14779945 0.26365572 -0.1412618 -0.0037765582 -0.10184458 -0.13915181
0.055953477 0.17379057 0.17772995 -0.00442271 0.15826647 -0.06719984 -0.042725574 0.13936138
0.010367462 -0.052587632 0.15531395 -0.048382882 -0.026165076 0.12826957 0.07139023 0.076194495
0.062659726 0.013849768 -0.07454376 -0.20113677 0.11368003 0.06176229 0.036643546 -0.20668828
-0.05449645 0.14244798 -0.057792086 -0.14866419 -0.08856814 -0.06908335 0.14795494 0.10779939
0.1282052 0.14241786 0.15353021 0.09414315 0.025266025 -0.2381791 -0.053420205 -0.08739774
0.13996136 -0.0018709486 -0.08743146 0.08456597 -0.08459457 -0.18192196 0.026827257 -0.16453588
0.007852933 -0.060401335 -0.025984984 0.09869008 -0.027176598 -0.1952685 -0.14763643 0.13288833
-0.019282205 -0.1482026 0.04899971 0.0605516 0.0765933 -0.07780737 0.0020922427 -0.06075053
0.07531489 -0.018038569 -0.2135091 -0.0946098 -0.0839502 0.05595497 -0.063447 0.12624945
-0.016982561 0.004108074 0.17165977 0.08915604 0.19875896 0.016133333 -0.04421626 -0.049084794
0.21940771 0.007149925 0.091500014 0.1634677 -0.08795562 0.09977962 -0.13802023 0.1252003
-0.08922149 0.067974105 -0.036916185 -0.065018296 -0.050620776 -0.14500162 -0.051353484 -0.12438774
0.11857304 0.012690677 0.11778378 0.053890936 0.10728399 0.09153134 0.0240093 0.21989994
-0.24413548 0.090895124 -0.04853667 0.09451851 -0.01726887 -0.17228751 0.008868867 0.15762714
-0.18624301 0.09545814 0.113988884 0.04001591 -0.07820879 0.06584149 0.056026287 0.13159977
0.08445423 0.12013124 0.15114887 -0.015714034 0.1225778 -0.10072333 -0.043219842 0.18192723
-0.08299014 -0.1118173 -0.007403728 -0.15178816 -0.037116364 0.12347789 -0.11533833 0.09913192

layer_6.lin.bias f4 [32]
00000000: 4d7d 873d a522 5a3d e295 ff3b d01e ab3c
00000010: 0786 a2bd f2bf 853c 3140 a13c 7f4e 2e3c
00000020: 7663 e83c 7b98 b93d b442 5cbd c61a 173d
00000030: 2cca a0bd 06b4 08bd fffb 09bd b63c 2a3c
00000040: a04a cabd 883b e9bc 606c c53d eec3 cf3c
00000050: a943 593d 34ed d8bb 8767 123d 64cd 05bd
00000060: ee67 6b3c 405e d6bd 2ef7 64bd 4be5 ccbd
00000070: b6f8 7f3c 5fc3 3e3d fb07 5eba 03a3 c63c
0.06615696 0.053255696 0.00779985 0.020888716 -0.0793572 0.016326878 0.01968393 0.010638832
0.02836774 0.090622865 -0.05377455 0.036890768 -0.07851061 -0.03337481 -0.033687588 0.010390451
-0.09877515 -0.02847077 0.096398115 0.025361981 0.05304304 -0.0066200737 0.035743263 -0.03266658
0.0143680405 -0.104671955 -0.05589979 -0.10004672 0.015623262 0.04657304 -0.0008469817 0.024247652
