training_runs/model_step3000.pt (torch, 108754 bytes, 24 tensors)

layer_0.lin.weight f4 [32, 64]
000000 00 d1 57 bd 60 eb cd 3d d3 2e d6 3d 2d 8d 70 bc
       -0.052689552 0.1005466 0.1045815 -0.014682096
000010 0a 4d 60 bd 6d 9a 90 b9 e2 13 32 3d e5 25 5a bd
       -0.05476097 -0.00027580876 0.043475993 -0.053258795
000020 db ca b5 3b bf 64 d3 bd 1f 6b 11 3d ab a9 0d 3d
       0.005547864 -0.1032195 0.03550255 0.034585636
000030 87 98 cc bd 5a 9e 4c 3c 34 14 23 bc 2f 87 e6 3a
       -0.0999003 0.012488926 -0.009953547 0.0017587895
000040 2d 43 05 3e b4 6a cd 3d c2 b9 46 be 46 fd a9 bd
       0.13013907 0.10030118 -0.19406798 -0.08300261
000050 14 0c 0f 3e 71 06 0f 3e d2 63 c9 bd fe 7d 06 3d
       0.13969451 0.13967301 -0.09833492 0.032835
000060 1a 2d be bd 57 ac 77 3d 82 76 36 3e b9 15 08 be
       -0.09285946 0.06046709 0.17818645 -0.13289537
000070 12 2a 1c bd a6 5f 40 3d 98 5a b6 3c f1 ab 00 3e
       -0.03812606 0.046966217 0.022259995 0.1256559
000080 43 b0 3a 3d 6e 0e 96 3d d7 74 cf bd 2c 5b 2f be
       0.045578253 0.07326971 -0.10129707 -0.17124623
000090 b3 f1 f7 3d 17 0a 79 bd b3 30 84 3d 9e 53 4d 3e
       0.12106647 -0.060800638 0.06454601 0.20051429
0000a0 4e 8d 31 3e 8d fc e0 3c d4 ee 01 3d 3d 3c 7d be
       0.1733906 0.027464176 0.031721905 -0.2473001
0000b0 0b c8 6e bd 03 c8 a5 3c ff 5f a2 3b b4 68 16 3d
       -0.058296245 0.020236975 0.0049552913 0.036720946
0000c0 75 8c 04 bd 93 b7 ef bd 72 16 37 3e b3 be cc 3d
       -0.032360513 -0.11704936 0.17879656 0.099973105
0000d0 a2 cd 81 3d 60 46 eb bd e6 eb be bc 69 ae 8d bd
       0.063380495 -0.11488032 -0.023305845 -0.06918032
0000e0 87 10 b9 3d 0f ff 4d be d0 14 30 bd 72 1e a1 3c
       0.090363555 -0.20116828 -0.0429886 0.019667838
0000f0 3b 7b 71 3d e9 c2 15 be fe ad 19 3c 25 79 f9 bd
       0.058955412 -0.14625134 0.009379862 -0.121813096
000100 2f 8a 09 3d b2 02 58 bc 9d 89 85 3b 68 b2 b4 3c
       0.033579048 -0.013184236 0.0040752427 0.022057727
000110 45 9d 82 3c 35 1e a0 3d ac 98 f0 3c 05 79 d2 bd
       0.015944133 0.078182615 0.029369675 -0.10276989
000120 c3 8e 94 3c 70 6f 14 3d 6e 45 b4 3d 4c 0c dc 3d
       0.01813448 0.036239088 0.08802305 0.10744533
000130 e5 1a 80 3d cc 9f 9f bd 56 87 66 3d bb 96 ff bc
       0.0625513 -0.07794151 0.05628141 -0.031199804
000140 ef 71 56 bd 9f 53 72 3d be 38 b1 3d cc e6 18 bd
       -0.05235475 0.05916178 0.08653401 -0.03732948
000150 1b c3 04 3d 61 54 d5 bc ca 39 00 3d 6c f9 1b bc
       0.03241263 -0.026041212 0.031305112 -0.009519916
000160 3d 61 d9 bb 7a a2 71 bd de b4 1d 3a 1a b7 20 ba
       -0.006633906 -0.05899284 0.0006016026 -0.00061308
000170 46 be 0c bc 2e df a9 3d e6 eb c1 bd d0 7d e5 bc
       -0.008590287 0.08294521 -0.09468822 -0.028014094
000180 d9 40 df 3d 0f 0b bd 3d 6a ee 13 be 70 46 47 be
       0.109010406 0.09230625 -0.14446416 -0.19460464
000190 a1 04 4a 3e 3d 5a 5a bc 32 a9 55 bc be 51 39 3e
       0.19728328 -0.013327179 -0.013040828 0.18097588
0001a0 5c 2f 2d 3b d0 ab 01 3e 1b b6 a3 bd b4 93 4d be
       0.0026425933 0.12663198 -0.07993718 -0.20075876
0001b0 22 4d de bc 27 7e 44 3d 74 07 91 bd e1 2b d2 3c
       -0.02713639 0.04797187 -0.070815 0.025655689
0001c0 99 29 72 bd 14 1a c4 bb 1e 74 1c 3e 3a a7 a2 bd
       -0.059121702 -0.005984554 0.1527867 -0.07942052
0001d0 31 99 f8 bc bd 7a df bd bf 50 f7 bc 5a 7d c5 bc
       -0.030346485 -0.10912082 -0.03018987 -0.024107624
0001e0 e2 24 e0 3d ce e0 93 bb dc 43 ab bd 75 28 3c 3d
       0.10944535 -0.004512883 -0.083625525 0.04593702
0001f0 9c 58 db bd 22 d4 2a be 4f 98 fd bc 91 dc c2 bd
       -0.1071026 -0.16682485 -0.030956415 -0.09514726
000200 08 c0 ff bd e9 8a 9f bd 0b fd 81 3d 3d 0d ad 3d
       -0.12487799 -0.07790167 0.06347092 0.084497906
000210 1e 3d 38 bd b6 d7 49 3d 1b 1d e2 3d 42 09 4f bd
       -0.04498016 0.049277984 0.11040708 -0.05054594
000220 be 51 32 bc 00 c3 0c be 10 80 fa 3c f9 aa ae 3d
       -0.010883747 -0.13746262 0.030578643 0.08528704
000230 3f 34 66 3d 00 c3 fe 3d 2c a6 0c 3e bb 11 b0 bb
       0.05620217 0.12439537 0.13735265 -0.0053732074
000240 a2 b1 94 bd 7b 46 35 bc ac 73 d3 3c fa 0e cd 3c
       -0.07260443 -0.011064167 0.025811993 0.025031555
000250 5c 72 45 bd 73 98 2f bd e9 78 22 be bc 45 6a bd
       -0.048204765 -0.042869996 -0.15866436 -0.05719541
000260 9a a5 aa bd ee e6 fb 3c 76 cb b9 3d b2 ff 99 bd
       -0.08332367 0.030749764 0.0907201 -0.07519473
000270 79 87 b5 3d 80 ca ea bc af cf cf 3b 56 52 38 bd
       0.0886373 -0.028661013 0.0063418965 -0.045000397
000280 11 ab 32 bd d2 bb f5 bd 70 d7 f1 bd e0 3c 55 bd
       -0.043620173 -0.119987145 -0.118086696 -0.052060008
000290 a6 12 61 bd c5 2d be 3d da c3 ab bd 88 eb 53 bd
       -0.054949425 0.092860736 -0.08386965 -0.051738292
0002a0 3f b2 2c be 7e 67 97 3d c6 52 35 3d f6 14 a6 3b
       -0.1686487 0.073927864 0.044268392 0.0050684167
0002b0 af 53 c6 3d 91 15 85 bd af 4b 2d be 0d e7 ff 3d
       0.0968393 -0.06498254 -0.16923402 0.12495241
0002c0 2b fc 1a bd 60 cc d7 3b a5 f9 7f ba d3 e9 99 bc
       -0.037838142 0.0065856427 -0.0009764678 -0.018788254
0002d0 d6 fa 74 bb d1 af 39 bd ed 12 7c 3e 8b 43 7f 3d
       -0.0037380955 -0.045333687 0.24616595 0.062320273
0002e0 6c 6b ba bc ca e7 67 3d 73 77 db bd 75 9b 9a bd
       -0.0227563 0.056617536 -0.107161425 -0.07549182
0002f0 6d 7a e5 bd f1 ba bf 3d 4c 2e 6e 3b 9e 88 82 3d
       -0.112049915 0.09361828 0.0036343513 0.06373714
000300 fc 2b eb bd 15 e3 55 3c 95 85 82 bd 18 b6 68 bd
       -0.11482999 0.013054629 -0.06373135 -0.056814283
000310 cc b4 af bd 53 88 8b 3c f0 12 62 bd dc eb 0d bd
       -0.08579406 0.017032778 -0.05519384 -0.03464876
000320 35 15 d2 3c aa d2 87 3d e9 a1 b5 bd d4 a3 c8 bd
       0.025644878 0.06631978 -0.088687725 -0.09796873
000330 36 19 3b bd 60 a9 98 3d 86 2a 18 bd 05 7b 09 3e
       -0.04567834 0.07454181 -0.03714993 0.13425834
000340 dc d4 80 3d 7b 26 12 3d d0 28 c3 3b db 89 35 bd
       0.062906 0.03568123 0.005955793 -0.044320922
000350 fd 52 88 3d ee c4 3b bd 55 9a 69 3c 0c e0 08 bd
       0.06656454 -0.045842104 0.014257987 -0.033416793
000360 0f a3 18 be 8b 64 3f bd b5 de b2 3d f6 43 be bd
       -0.14905952 -0.046726745 0.08733884 -0.09290306
000370 8d 93 7a bd c1 7c 11 3e 8d 01 88 bb 82 a1 b0 3c
       -0.06117587 0.14207746 -0.0041505755 0.021561388
000380 0a 95 53 bd 3d 60 84 3c 03 2d 1c be 36 ba b9 bd
       -0.051655807 0.016159171 -0.15251546 -0.0906872
000390 00 65 fa 3b ad 15 17 bc d9 db 63 bc e2 4d 1b 3e
       0.0076414347 -0.0092214765 -0.013907396 0.15166429
0003a0 c9 d7 86 3c 0f a4 45 3e 65 4b 0e 3d 5d 74 e3 bd
       0.016460316 0.19300865 0.03473987 -0.11106179
0003b0 67 b6 31 3d d3 d5 aa bd 4e a0 d6 bd 41 6c 5b 3d
       0.043386843 -0.08341565 -0.104797944 0.053570036
0003c0 15 59 47 3c 58 a8 e4 3c b2 c9 ae 3c d3 53 6d 3d
       0.012167235 0.027912304 0.02133641 0.05794127
0003d0 3d 9d 11 ba b3 7c 2d be e7 16 eb 3d 3c 63 5d bd
       -0.00055547414 -0.169421 0.11478978 -0.054049715
0003e0 f5 53 b4 3c 4b 38 50 bd 97 bc 21 be 84 a6 2a bd
       0.02201269 -0.050834935 -0.15794598 -0.041662708
0003f0 01 4d 36 3d b7 14 c3 bd 4f 8b cd bd dd dd a2 bd
       0.04450703 -0.095254354 -0.10036337 -0.07952473

layer_0.lin.bias f4 [32]
000000 47 95 b4 bc 24 55 5f bd a4 13 a5 bd a3 ff 16 3d
       -0.022043837 -0.054524556 -0.08060387 0.036864888
000010 91 98 f9 bc 93 7d 60 bc 08 0f 64 bc aa 0d 1e 3c
       -0.030468257 -0.013701814 -0.013919599 0.009646812
000020 7c ad c3 3d 7a 77 8b 3d 58 e7 ee bd db 19 bd 3d
       0.09554574 0.06809898 -0.11665219 0.09233447
000030 0d a7 37 3d 69 63 ae 3c f1 cc e3 3c e0 54 0c 3b
       0.044837046 0.021287637 0.027807685 0.0021412894
000040 f1 d3 48 3d e4 b2 c6 3d d5 73 b7 bd 7b 11 97 bd
       0.049030248 0.097020894 -0.0895764 -0.07376381
000050 72 08 62 bd d0 fa 99 bd 4e 82 87 3c 14 c7 48 3d
       -0.055183835 -0.07518542 0.016541626 0.04901798
000060 0e 17 31 bd 70 58 18 3d 22 1c 9f 3d 2d ed d5 bc
       -0.043234877 0.037193716 0.07769038 -0.02611407
000070 3c 1c df bb 89 b0 91 bd bf 25 6b 3c 2e 31 4e bd
       -0.0068087857 -0.071137495 0.014352261 -0.05033987

layer_1.lin.weight f4 [32, 64]
000000 7f 71 b1 bd 2d c7 6c bd 77 2d c0 bd 89 fd 95 3d
       -0.08664226 -0.057807136 -0.09383672 0.073237486
000010 ae d9 16 bd 55 fe 95 3c eb 44 b2 bd e3 80 ed 3d
       -0.03682869 0.018309752 -0.08704551 0.11596849
000020 1f af 6a bd 15 25 98 bc 9b 43 e8 bd 24 89 0d be
       -0.057295915 -0.01857237 -0.1134102 -0.13821846
000030 cf bc f4 3d cd e3 6a bd 1c 8a 8c bc 5c 9a e4 bc
       0.11950075 -0.057346154 -0.0171557 -0.027905636
000040 df 03 78 3d 0a fb f9 3c c7 cd bf bd 64 2f d3 3d
       0.060550567 0.030515213 -0.09365421 0.103117734
000050 86 c2 32 be 66 36 48 bc 54 61 26 3c 26 44 90 bc
       -0.17457017 -0.012220001 0.010155041 -0.01761062
000060 51 51 77 3d e0 97 de 3d 3e 32 37 3d af e2 63 bd
       0.060380284 0.108688116 0.04472565 -0.055636104
000070 46 cb b8 3d 3e e0 dc 3d ec 6a df bc 93 32 9a bc
       0.09023146 0.10784958 -0.027272664 -0.018822944
000080 60 98 24 bb d9 3a 01 3e aa f7 29 bc 91 fe f1 bc
       -0.0025115237 0.12620105 -0.010373989 -0.029540332
000090 f9 72 cb 3c 73 86 78 bd fd d6 40 3e 58 ae 00 be
       0.024835097 -0.060675096 0.18832012 -0.12566507
0000a0 5d f0 0f 3c d9 ae ba 3d 38 cd 89 bd fd 10 8f 3c
       0.008785334 0.09115381 -0.067285955 0.017464155
0000b0 ce e8 8e bd 78 d5 ad 3d be 14 46 3e e9 48 0b 3e
       -0.06977998 0.084879816 0.1934385 0.13602032
0000c0 90 53 c8 3d 42 10 c4 bd ab c0 35 bd cb 39 96 3b
       0.09781563 -0.095734134 -0.044373196 0.004584526
0000d0 a9 12 d7 bd 5b e2 00 3d 4c 04 1b be 32 2a a2 3d
       -0.10501606 0.03146587 -0.15138358 0.07918204
0000e0 c9 b7 b4 3d f4 09 00 be f2 5e ff 3d 3b e8 9d 3d
       0.08824117 -0.12503797 0.12469281 0.0771031
0000f0 bc 00 1a be 1f 0c 04 3e c3 ad 9d bd be 69 ea bd
       -0.15039343 0.12895249 -0.07699158 -0.1144595
000100 5f 8a bb bd dc 78 0e 3d 2c e7 47 bb b7 e0 96 bc
       -0.091572516 0.03478323 -0.003050278 -0.0184177
000110 9c 36 e8 bd e7 b6 aa bc 5f 91 01 3e cf af 6a 3d
       -0.11338541 -0.020839168 0.12653111 0.05729657
000120 30 f7 a9 3d 56 36 ac 3d 41 46 6b 3c f8 5c d9 bd
       0.082991004 0.08408801 0.014360012 -0.106134355
000130 f9 b5 02 3d c8 a3 9c bd b3 b9 44 bd a7 44 b9 3b
       0.031911824 -0.07648426 -0.04802866 0.005653936
000140 08 ae af 3d 19 75 8f bb 18 50 3b bd 9e b9 f0 3c
       0.08578116 -0.004377973 -0.04573068 0.029385384
000150 5c 7f 4f be fc 0c 4b bd bb 85 13 ba 0f 63 8a 3c
       -0.20263427 -0.04957293 -0.00056275324 0.016892938
000160 40 45 e0 bc 9e df 5b 3d de 5a 6a bd 6d 60 95 bd
       -0.027376771 0.053680055 -0.057215564 -0.072937824
000170 7b 94 a0 3d d8 21 88 3d 54 a4 ae bd a3 bf 6f 3d
       0.078408204 0.0664708 -0.08527437 0.05853237
000180 33 d4 cd 3d 37 ee 8e 3c 37 d5 c5 bd 91 6e 20 3c
       0.100502394 0.017447574 -0.09659808 0.009791986
000190 77 4d 22 3e 17 f1 31 3c a1 61 b6 3c c3 5f 25 be
       0.15849863 0.010860703 0.02226335 -0.16149811
0001a0 39 a3 1e bd f9 ba fd 3d 4c 17 a9 3c 1c b3 16 3d
       -0.03872988 0.12389178 0.020640992 0.036791906
0001b0 4c 00 2b 3c 68 ff 08 bd c6 43 d8 3c 88 cc 85 3d
       0.0104370825 -0.0334467 0.026399504 0.06533152
0001c0 db 17 0c 3d f9 53 45 bc 6f 0e c8 3b 47 89 15 3d
       0.034202438 -0.012043946 0.0061052362 0.03650787
0001d0 f3 23 58 bb 96 6e 4e bd f6 11 87 3c 16 f1 58 bd
       -0.0032980412 -0.05039843 0.016488057 -0.052964292
0001e0 5c 1e 2a 3d 2a 34 9a bd 4d 4c 05 3e fa bd 17 3d
       0.04153286 -0.07529481 0.13017388 0.03704641
0001f0 54 85 f1 bd 4e fa 90 3d 27 f8 80 bd a6 e3 c6 bb
       -0.117930084 0.07078992 -0.06297331 -0.0060696183
000200 5b 01 f7 bd 2e a1 02 be 6c b6 9d 3b 2e 78 0d bd
       -0.120608054 -0.12756798 0.004813006 -0.03453844
000210 3b 8d a4 3d e7 c2 d0 bd 0a c1 d2 3d 9f 26 c9 3d
       0.0803475 -0.10193425 0.102907255 0.098218195
000220 f7 c0 fa 3d 9c b8 44 bd 9f df b8 bd 50 99 9d bd
       0.122438364 -0.04802762 -0.09027027 -0.07695258
000230 a4 2c e8 3d f0 b2 2c bc 00 68 8e bd dc c1 08 3d
       0.113366395 -0.010540709 -0.0695343 0.033388004
000240 dd 69 15 3d 51 1c b5 bd bc b9 b1 3d db 7f 9f bd
       0.036477912 -0.088432916 0.08678004 -0.07788058
000250 f5 15 a3 3d 33 a3 9d bd 6e 0b ce bd e9 99 0b 3d
       0.07963172 -0.076971434 -0.10060774 0.034082327
000260 25 db 19 3d cc 78 89 bb 75 52 d6 bd a6 e1 2f 3d
       0.037562508 -0.0041953083 -0.10464946 0.042939804
000270 dd 88 ed 3d 48 62 52 3d 3f 57 a6 3d 65 a6 df bb
       0.1159837 0.05136326 0.081221096 -0.0068252557
000280 ce 07 40 bc 0a 12 b9 bd af e3 0f be d3 2e 84 bd
       -0.011720611 -0.09036644 -0.14051698 -0.064542435
000290 7d 9d af 3b 74 df b9 3d 58 bf 62 bd 35 cc 0e bd
       0.0053593502 0.090758234 -0.05535826 -0.034862716
0002a0 d0 16 33 3c 0f 48 52 bd c0 a6 f5 bb 86 c2 0b 3e
       0.010930732 -0.05133825 -0.007496685 0.13648424
0002b0 fb 06 98 3d 4f 7c c4 3d 31 21 32 bc 03 bd c9 3c
       0.074232064 0.095940225 -0.010872171 0.02462626
0002c0 8a a2 2c 3e a4 25 56 bc d2 e3 6f bd 6f 11 a5 3d
       0.16858879 -0.013070498 -0.058566876 0.08059966
0002d0 69 dc ae 3b 09 9c 85 bd 18 4e af 3d 82 fc 1c 3d
       0.0053363335 -0.06523902 0.08559817 0.038326748
0002e0 c9 30 19 3d 38 d7 ca bd db 44 3d 3d 1b a1 67 3d
       0.03740004 -0.09904331 0.046208244 0.056550127
0002f0 81 da 7e 3c 6f 9f b1 bd 60 22 b5 3d cf bf 61 3d
       0.015555025 -0.08672988 0.08844447 0.055114564
000300 ac ce 4b 3d f6 a1 24 3d db 4a c5 3b 15 23 8e 3d
       0.049757645 0.04019352 0.0060208864 0.06940285
000310 21 99 c1 bc 8a a8 01 bd a1 cd e8 bc c0 2e a2 3d
       -0.023632588 -0.031654872 -0.028418364 0.07919073
000320 a6 1e 38 3d 85 95 ed bc ca 7a 47 bc 52 5c 7d bd
       0.044951104 -0.02900196 -0.012175271 -0.06185562
000330 c4 45 60 3d b7 9b db bd 62 fb f5 bd 24 d1 4e 3d
       0.054754034 -0.107230596 -0.12010838 0.05049242
000340 9a e2 a2 bc 87 4c 64 3a 7b 7c 3b 3d ab c6 74 3c
       -0.019883443 0.0008708913 0.04577301 0.014939944
000350 32 94 98 3d 2d 39 55 3d cb 3b 81 3d 96 d5 b2 bc
       0.07450141 0.05205648 0.06310233 -0.021830361
000360 f1 f4 fd 3c fa c5 44 3d 86 bb c2 3d 35 2a 09 be
       0.031000586 0.048040368 0.095084235 -0.13395007
000370 b4 9d 14 bd bd 5f e6 bd 03 55 37 bd 81 09 cd 3d
       -0.03628321 -0.112487294 -0.044758808 0.10011578
000380 ca 5e 08 be a5 18 09 be 03 8d 62 3d 0b 0e 07 be
       -0.13317409 -0.13388307 0.05531026 -0.1318895
000390 81 44 33 3e d9 fe e9 3d 34 ba 87 3d ee cb 8e 3d
       0.17506601 0.114255615 0.06627312 0.0697249
0003a0 35 60 f5 bd 9c f3 97 3d c0 cd 90 3d 4a 0b d9 bd
       -0.11981241 0.07419512 0.07070494 -0.10597856
0003b0 2d 4d ce bb df 56 72 bc a4 c2 8c 3c 45 69 83 3c
       -0.006295821 -0.0147912195 0.017182656 0.016041407
0003c0 cc 86 4f bd b8 30 e1 3d 42 d4 e4 3d b6 5b 2c 3d
       -0.05066566 0.109956205 0.111732975 0.04207965
0003d0 c0 41 a5 bd a6 1f e6 bb 65 72 64 3c 7b 28 f8 3d
       -0.080691814 -0.0070228158 0.013943289 0.12117096
0003e0 e8 fa 17 bb 1b f7 99 bb 38 0e e2 3c e6 36 88 bd
       -0.0023190323 -0.0046986467 0.02759467 -0.06651096
0003f0 5a 7f a5 bd 24 8d 61 bd 80 85 69 bd d2 24 78 3c
       -0.08080931 -0.055066243 -0.05701208 0.015145497

layer_1.lin.bias f4 [32]
000000 18 a7 45 bd 28 d4 78 bd cf 12 0b bd e3 47 25 bc
       -0.048255056 -0.060749203 -0.033953484 -0.01008794
000010 da 64 40 bd d1 c8 8d bd 77 26 98 3d db df 09 3d
       -0.04697118 -0.06923068 0.074292116 0.03366075
000020 28 b9 ab bd 46 a3 f4 3c 32 ea 25 3d bd 8c c9 3c
       -0.08384925 0.029863011 0.04050655 0.024603242
000030 8f 1b e2 3c 6b 08 04 3d 59 d8 ad 3d 4d 42 5e bd
       0.027601032 0.03223459 0.08488531 -0.054262448
000040 1e ae 64 bc 48 98 d7 3d 07 aa 0e bd ca dd b3 3c
       -0.013957528 0.10527092 -0.03483012 0.021956343
000050 92 4c 03 3e b9 a2 bd bd af 89 06 bd 54 82 a1 3d
       0.12822178 -0.092595525 -0.03284615 0.07886186
000060 e1 c9 00 bd b5 0a e4 3c a5 a2 e2 3c 2b d5 09 3d
       -0.031442527 0.027837137 0.027665446 0.03365056
000070 a1 5b 4b bd 60 54 e8 bc 1d 54 ce 3d 26 73 ea bb
       -0.04964793 -0.028360546 0.10074637 -0.00715484

layer_2.lin.weight f4 [32, 64]
000000 99 eb c1 bc 10 1a 87 3d 48 37 e9 3b 18 e0 ec bc
       -0.023671912 0.06596768 0.0071171857 -0.02891545
000010 95 21 47 3c bb 6a 11 bd c7 90 b5 bd 26 e1 a0 bc
       0.012154003 -0.035502177 -0.08865505 -0.01963861
000020 8a 8b 85 3b de f9 70 bd 55 ea d2 3d 23 6b b7 bd
       0.0040754722 -0.058832042 0.102986015 -0.089559816
000030 0a a3 02 3e 07 c0 40 3d d0 27 e7 bb 91 4f 74 3c
       0.12757507 0.04705813 -0.0070543066 0.014911548
000040 d1 cf 76 3b 5a 2c f7 3d ca 85 36 3d 71 a2 2f 3d
       0.003766049 0.12069006 0.044561185 0.042879526
000050 89 96 37 bd 25 cc dc 3b 8a 8b d0 bd ca 33 bb 3d
       -0.044821296 0.006738203 -0.10182865 0.09140737
000060 b4 c6 ce bd 05 8b f0 3c fc c4 44 3e 05 bf a3 bd
       -0.10096493 0.029363165 0.19215769 -0.079954185
000070 5b c8 78 3d 1f 62 a7 bd 19 79 22 3e a8 cd 2a bc
       0.06073795 -0.08173012 0.15866508 -0.010425009
000080 5b ba 2a be 38 59 e6 3c 1f 73 ee bd a7 b3 0c be
       -0.16672651 0.028118715 -0.11643051 -0.13740407
000090 69 b8 07 be 12 b3 1a 3e 98 79 86 3d 16 9b f4 bd
       -0.1325394 0.15107372 0.06566161 -0.11943643
0000a0 f3 b6 1e 3e 69 de 22 3d f4 fd 38 be c6 f4 e9 bc
       0.15499477 0.039762888 -0.18065625 -0.0285591
0000b0 93 46 f8 bd 17 19 93 3c b8 84 1d 3d df 26 ad bd
       -0.12122836 0.0179563 0.03845665 -0.0845468
0000c0 e9 58 4b bb 95 14 92 3d 85 ee 55 bd 5a 70 fa bc
       -0.0031028336 0.07132832 -0.052229423 -0.030571152
0000d0 27 14 20 bc 40 1a bc be 48 c8 e9 3c 22 04 43 bc
       -0.00977043 -0.36738777 0.028537884 -0.011902841
0000e0 80 38 f5 bd 62 8f bf 3c 40 48 0a 3e f1 99 b8 3d
       -0.11973667 0.0233838 0.13504124 0.09013737
0000f0 e2 88 0f be 14 37 bd 3d 6f 0a 05 be 14 94 ed 3d
       -0.1401706 0.09239021 -0.12992261 0.11600509
000100 8a a2 f0 3d 7a e8 ca 3d 6a 7f fd 3d 2a a0 aa 3d
       0.11749752 0.09907623 0.12377818 0.0833133
000110 32 9f 9f bd 33 34 c8 3d 2d cf a2 bd 2c 3e ae bb
       -0.07794036 0.09775581 -0.07949672 -0.00531747
000120 95 92 f5 3d 6c 65 8e 3d a3 3b 0d be 0c 53 4b bd
       0.11990849 0.069529384 -0.13792281 -0.049639747
000130 c4 c0 1d be 06 4f 24 3d c9 e3 36 bd d6 4c db bd
       -0.15405566 0.040114425 -0.044650827 -0.10708015
000140 ea 3a 23 bd 63 2a 03 3d 11 1c 15 3c c2 18 df 3d
       -0.039851107 0.032022845 0.00910093 0.10893394
000150 b4 19 da 3b 1e cc ef bc 08 bd 1d bd a6 f2 5b 3c
       0.006655896 -0.029272135 -0.038510352 0.013424551
000160 02 2b 66 3c 73 90 1e 3c 85 fc 11 3d 68 aa 57 bd
       0.01404834 0.009677994 0.035641212 -0.052652746
000170 a3 82 6f be 1a eb 06 be 3b df a4 bd 7f a0 34 3e
       -0.23389678 -0.13175622 -0.0805039 0.1763935
000180 97 f9 9e 3d 9d 54 0c bd 6b 4f 84 3d 4d 5f 27 3d
       0.07762449 -0.03426038 0.0646046 0.04086237
000190 d1 e4 c1 bd de 38 f7 bc 3b b5 85 3d 94 f6 3c 3d
       -0.094674714 -0.030178484 0.065287076 0.046133593
0001a0 d3 6c 2e bd 5a cf 31 3d fa 51 93 bd 96 92 91 3c
       -0.04258425 0.043410636 -0.0719337 0.017770093
0001b0 00 fa 4a 3b df b8 8a bc 81 ad b4 bc f6 1d 00 3d
       0.0030971766 -0.016933857 -0.02205539 0.031278573
0001c0 2a 25 0f bd 70 cf af 3d e4 48 c3 bd 68 4b 8e bd
       -0.03494755 0.085844874 -0.09535387 -0.06947976
0001d0 95 93 cf bd 79 7b 34 be 17 20 eb 3d 48 54 16 bd
       -0.10135571 -0.17625226 0.1148073 -0.03670147
0001e0 99 f5 ab bd c3 16 08 bd 13 7d a6 bd 43 4c 19 3c
       -0.083964534 -0.033224832 -0.08129325 0.009356561
0001f0 db 0c a0 3d 0f 57 a0 bc 2b 91 78 3d 20 2d 4e 3d
       0.07814952 -0.019572763 0.060685318 0.050336003
000200 68 44 88 bd 89 c2 4c 3d 94 4d 46 3d 8c 2d d3 3b
       -0.066536725 0.04999021 0.048413828 0.0064446386
000210 00 f6 15 3b 89 09 7b bc 71 41 ff 3c 35 31 81 3d
       0.0022882223 -0.015322098 0.031159135 0.063082136
000220 b2 46 19 be ab ae 55 3d c1 84 68 3d 6c 4f 05 3b
       -0.14968374 0.05216853 0.05676723 0.0020341529
000230 6e a6 58 3d 11 67 be bd fb ad a1 bd ec 6c 52 bc
       0.052893095 -0.09297002 -0.07894512 -0.012843352
000240 87 5c 05 3c 9e 23 3d bd af 70 bf 3a 76 9c c6 bc
       0.008139736 -0.046176545 0.0014605726 -0.024244528
000250 05 ca b2 3d 89 bf eb bd 84 5a 1e bb 96 a8 b4 3d
       0.087299384 -0.11511142 -0.0024162838 0.08821218
000260 63 95 7d bd 8f b5 91 3d af fb e1 bb 32 f9 aa 3d
       -0.061910044 0.07114708 -0.006896458 0.083483115
000270 49 a6 aa bd 23 34 93 3d 9d 9e 06 be 71 0e ee 3d
       -0.083324976 0.07187679 -0.13146444 0.11623848
000280 f8 c6 b8 3d b6 fe d6 3d 6d d8 9b ba 4c 15 d8 3c
       0.09022325 0.10497801 -0.0011890061 0.026377343
000290 17 8e e7 bb 02 7a 55 3d 1b 05 01 3e 42 91 85 bd
       -0.007066499 0.05211831 0.12599604 -0.06521846
0002a0 af 56 b9 bc fd 30 1a be 30 16 08 3e 1d 5b 8e 3d
       -0.022624342 -0.1505775 0.13289714 0.06950972
0002b0 13 24 17 bd 32 33 13 bc 03 66 a2 3d 0e 1e 4b 3d
       -0.036899637 -0.008984374 0.079296134 0.04958921
0002c0 e1 a2 e3 bd 04 78 e4 3d 62 65 58 bd c4 6e 9c bd
       -0.11115051 0.11155704 -0.05283106 -0.07638314
0002d0 e1 28 57 3d 34 77 17 3e bd 99 14 3d 00 e2 94 bd
       0.05252922 0.14791566 0.03627943 -0.072696686
0002e0 f8 dd 5e bd 7a 6e 1b bd 96 f8 3d 3c 22 62 ba bd
       -0.054410905 -0.037947156 0.011594912 -0.091007486
0002f0 2c e8 1a 3c 13 3c 79 bb 06 e2 b8 3d 9f c5 d0 bd
       0.009454768 -0.0038030192 0.090274855 -0.10193943
000300 c7 76 bf bd dd 20 05 3c d8 48 35 3e 10 2c 84 3c
       -0.09348827 0.008125511 0.17703569 0.016134292
000310 23 d1 c0 bd 8c e3 5d bc 5d f6 03 be b4 d8 f3 bd
       -0.0941489 -0.013543021 -0.12886949 -0.11906567
000320 d4 17 d7 3c e6 bc 70 bd 5b bc 5a 3d 57 4a 03 3d
       0.02625648 -0.058773898 0.053402286 0.032053318
000330 6b 42 34 3e df c6 06 3d 71 14 e4 3b 1f 79 7a 3d
       0.17603461 0.032904502 0.0069604446 0.061150666
000340 29 a2 10 3c 75 e6 95 bd 51 f8 66 bd f5 57 3a 3d
       0.0088277245 -0.07319347 -0.056389157 0.04549404
000350 b6 b2 4b 3d e0 38 f0 bd e2 c5 b1 3b b6 64 cc bd
       0.04973098 -0.11729598 0.005425201 -0.099801466
000360 d2 2c 89 bd a2 3d 33 3e 58 ff ea 3d 7f b1 04 bd
       -0.06698002 0.1750398 0.11474484 -0.032395836
000370 93 4c 13 3e d7 15 8a 3b 0b 0e b0 3d e1 43 0b be
       0.1438468 0.0042140293 0.085964285 -0.13600112
000380 c8 4f e3 3d ad ba 6b bd 4a a4 8e bd 38 bc 19 be
       0.110992014 -0.057551075 -0.069649294 -0.15013206
000390 d9 f9 db bd 60 70 0d bc 16 2c fe b9 fa 1b bd bc
       -0.10741014 -0.008632749 -0.00048479502 -0.02308463
0003a0 c0 3a 91 3c e0 0b c0 3d 3f 07 e2 bd 28 64 57 bd
       0.01772821 0.09377265 -0.11036538 -0.05258575
0003b0 8e 93 05 be ac 3c 90 bd 6b d3 80 bd 6d fe 5f ba
       -0.13044569 -0.07042822 -0.06290325 -0.00085446873
0003c0 9a a5 47 bd 42 78 c9 bd d0 87 d7 3d 4f dc ae bc
       -0.048741914 -0.098373905 0.10523951 -0.021345286
0003d0 24 83 99 3d 57 48 2c 3d 55 fb 8f bd 8c 94 cf bd
       0.07495716 0.042061176 -0.0703036 -0.10135755
0003e0 fb e9 90 bc f0 b0 a5 bd 00 46 32 bd 88 03 ee bc
       -0.017689696 -0.08090389 -0.04352379 -0.029054418
0003f0 1a d2 02 be c1 50 de bd 18 12 9a bd e6 11 6a 3e
       -0.1277546 -0.10855246 -0.07522982 0.2285839

layer_2.lin.bias f4 [32]
000000 88 07 39 3d 83 2e c1 bb 80 07 67 bd a6 84 e1 3c
       0.045173198 -0.005895437 -0.056403637 0.027529072
000010 c2 84 b0 bd 6c a2 9b bd 65 9d 3e bd 8e ef c4 bd
       -0.086190715 -0.07599339 -0.046536822 -0.09616004
000020 9d 9f 72 bd 86 95 48 bd 5d 5f 6f bc 84 96 9b 3d
       -0.05923425 -0.04897072 -0.014610139 0.07597068
000030 92 64 a1 3d b3 82 b1 3d 7c bc 89 3c 09 e3 fb 3c
       0.078805104 0.08667507 0.01681351 0.030747907
000040 44 b7 7b bc 93 bb 91 bd b6 b7 d2 bd 68 09 c6 bd
       -0.015363518 -0.07115855 -0.10288946 -0.09669763
000050 ce 05 02 3d 90 95 a2 bd 36 c5 89 bd 3e ca 93 3d
       0.031743817 -0.07938683 -0.06727068 0.07216309
000060 6b c1 5f bd fc 33 e3 3c df 16 aa bc 00 e5 46 3d
       -0.054627817 0.027734749 -0.020762859 0.048558235
000070 4e 99 7f bd 05 1a c1 3d 78 ec e7 bd 8b c8 ed bd
       -0.062402062 0.09428791 -0.113244 -0.11610516

layer_3.lin.weight f4 [32, 64]
000000 69 cd a0 3d ba f5 ea bd fe 1a b4 3d 9a b2 9f 3d
       0.07851679 -0.1147265 0.08794211 0.077977374
000010 b9 79 16 3d b9 ca a9 3c 29 02 e4 3c 4c 0c 19 3d
       0.036737178 0.020726549 0.027833061 0.037365243
000020 6a 31 d9 bd e2 31 b3 3d fa 2f 93 3c c2 a7 75 3d
       -0.10605128 0.08749749 0.017967213 0.05997444
000030 37 0a a8 3d 8a 58 dc bc a7 3e f2 3c 6c bf f3 bd
       0.08205073 -0.026897687 0.02957089 -0.11901745
000040 f1 67 a9 3b 4f 02 03 be 9a 94 68 bd f5 5d b4 3d
       0.0051698615 -0.1279385 -0.056782342 0.088069834
000050 88 d6 04 3e 11 65 e8 bd e5 d9 bf bd 33 08 e1 3d
       0.12972462 -0.11347402 -0.09367732 0.10987892
000060 99 9a 82 3b 28 55 11 3d 19 38 86 3c a0 da 6d 3d
       0.0039857146 0.035481602 0.016384171 0.058069825
000070 36 d7 07 3d 94 cb 4a 3d 3d 41 b9 3a b8 2d 51 3b
       0.033164226 0.049510553 0.0014133822 0.003191812
000080 c6 ad 36 3e 4d 3f 62 bd 80 30 31 be fe bf 18 3e
       0.17839727 -0.05523615 -0.17303658 0.14916989
000090 a9 01 17 be 6b ec 96 3d 66 66 62 3d c4 97 a2 3d
       -0.14746727 0.07369312 0.055273436 0.07939103
0000a0 d0 47 c2 3c d6 08 14 bd 6e c0 8e bc d6 ba ca 3d
       0.023715883 -0.03614124 -0.017425742 0.098989174
0000b0 2e 44 e3 3b 67 37 75 bd d7 e0 15 3e 8f 14 66 3c
       0.006935618 -0.05986729 0.14636551 0.0140429875
0000c0 75 0a f9 3d 6e f0 08 be ff 7e 79 bd aa 92 09 be
       0.12160198 -0.13372967 -0.06091213 -0.13434854
0000d0 1a 7a 83 bc ef 99 14 3e e9 54 5b 3e 91 cf 30 3e
       -0.016049433 0.14511846 0.2141911 0.1726668
0000e0 01 98 f9 3d 8c f8 b0 bd ef cc e8 3d 1f 8d 25 be
       0.121871956 -0.086411566 0.11367213 -0.16167115
0000f0 36 eb 82 3d 34 bf 7e 3d 58 ae b7 bc a6 ec 09 3e
       0.06392519 0.062194064 -0.022422 0.1346918
000100 d7 85 b7 bd 76 9a 46 3c 23 0e 45 bd c5 3a f2 3c
       -0.08961075 0.012121787 -0.048109185 0.02956904
000110 f8 5a 86 bd c2 61 21 bb 2c 35 a7 3d 8d 2d 38 bc
       -0.0656032 -0.0024624919 0.081644386 -0.011241329
000120 da a6 05 3d af ca 96 3d 6f 98 28 3d ee 24 d4 bd
       0.032629825 0.073628776 0.041160997 -0.10358606
000130 af 4b a7 bd 96 39 bc bd b2 c0 54 be 83 92 13 be
       -0.081687324 -0.09190671 -0.20776632 -0.14411359
000140 0a 8d 1a bd c9 67 13 3e db 7b c3 bd 39 be 0f 3b
       -0.03773216 0.1439506 -0.09545108 0.002193345
000150 58 7d 16 bd 1c b3 1c 3d 36 c2 ab 3d 20 38 70 3d
       -0.03674063 0.03825675 0.08386652 0.058647275
000160 39 05 9b 3d 6d 08 6e bd c1 e2 a9 bd 2f 8f 0d bd
       0.075693555 -0.058113504 -0.08295203 -0.03456038
000170 a4 de 2f 3b 35 f0 0c 3e 48 ec 9f 3c 88 bb 0b 3d
       0.0026835585 0.13763507 0.019521847 0.03411439
000180 c8 4d ea 3c 57 ec 28 bc 55 d5 d5 3d 3f 23 a8 bd
       0.028601542 -0.010310254 0.104410805 -0.08209848
000190 31 1e e4 bd 30 dc 04 3e c4 43 d1 3d a0 65 c9 bc
       -0.11138571 0.1297462 0.102180034 -0.024584591
0001a0 ab dd 9f bc 0b 53 b6 bd 84 d1 9a bd c1 bc b8 bc
       -0.01951488 -0.08902558 -0.07559493 -0.022550942
0001b0 4e 83 03 3e af a0 fb 3d ef 5c cc bd 9f 2a 84 3d
       0.12843058 0.12286507 -0.09978663 0.06453442
0001c0 43 64 ed bc 36 4c 12 bd 86 77 17 3c ad e3 48 bd
       -0.028978473 -0.03571721 0.009244805 -0.049045254
0001d0 79 73 25 3e ac 7f 90 bd 35 74 ca bd 6d 49 79 bd
       0.1615733 -0.070556015 -0.09885446 -0.06086104
0001e0 e3 d3 8f 3d 15 af ed 3d a3 d1 cf 3c 12 aa 9c 3c
       0.07022836 0.1160566 0.025368517 0.019124065
0001f0 d6 55 8f bd c5 62 4b 3d e8 17 98 3d 05 e8 23 bd
       -0.06998794 0.04965474 0.07426435 -0.040016193
000200 66 fe 7b bd 6f 8d 48 be e1 d2 44 3d 0e 1c c7 bd
       -0.06152191 -0.19585203 0.048052672 -0.09722148
000210 1f 1a a0 3b 08 f4 2d be 53 57 db 3d d1 94 e6 3d
       0.0048859264 -0.16987622 0.10710015 0.11258853
000220 be 71 8c bc ee 30 44 3c 5f 64 dc 3d 9d f0 92 3c
       -0.01714408 0.011974556 0.10761332 0.017936999
000230 1d ca 9e bd 4d 90 45 3c a4 be 11 bc f6 e6 a7 3d
       -0.07753394 0.01205833 -0.00889555 0.08198349
000240 9b cd 06 be 30 34 1c bd 1e 5a b9 3d e9 a7 11 3d
       -0.1316437 -0.038135707 0.090503916 0.035560522
000250 e0 0a 67 bd 6a 17 c4 3d d1 c9 f0 bd 08 d2 cb bd
       -0.056406856 0.095747784 -0.117572434 -0.0995217
000260 59 cd 58 ba e7 38 a6 bd 01 bf ee bb a7 52 15 bd
       -0.0008270345 -0.08116322 -0.007285953 -0.036455777
000270 6e ca 03 3e f3 57 a7 3d 99 c9 cb bd 97 6c cd 3d
       0.1287019 0.08171072 -0.09950561 0.100304775
000280 13 1d 0c 3e 37 b0 0e bd 84 12 f0 bb 77 1c 2e 3c
       0.13682966 -0.03483602 -0.007326426 0.010626904
000290 4b 51 3a 3d 14 8b 7c 3e 4b 72 25 3d 19 fd 25 3d
       0.045487683 0.24662429 0.0403922 0.040524576
0002a0 64 a0 31 3e 1c a9 ae bd d7 aa 8d bd 9a 8c 09 be
       0.1734634 -0.08528349 -0.06917351 -0.13432541
0002b0 3f 9e f9 3b d2 65 84 bc ca f8 e3 bd 99 ef b8 bc
       0.0076177414 -0.016161833 -0.11131437 -0.022575187
0002c0 03 63 10 bd 80 0a 11 bd e3 e6 c4 bb 81 bb a3 bd
       -0.035250675 -0.035410404 -0.006008969 -0.07994748
0002d0 ae 7e 9b bd ff 63 cf 3d 78 19 0b be eb e6 cc 3c
       -0.075925216 0.101264946 -0.13583934 0.025012454
0002e0 e1 4b b4 3d 0f cc 38 bd 3d a5 ec 3d 1f c8 bf 3d
       0.08803535 -0.04511648 0.11554954 0.09364342
0002f0 57 c7 56 3d cf a6 2b bc 7c ae 06 3e e9 4d 5d 3d
       0.0524362 -0.010476782 0.13152498 0.05402938
000300 37 45 0b 3d 27 93 f1 3d 6f 89 e4 bd 36 67 c6 3d
       0.034001555 0.11795645 -0.11159026 0.09687655
000310 47 43 68 bd 8a b8 46 bd 33 9e 81 bd 84 24 6a 3d
       -0.056704786 -0.048515834 -0.06329002 0.05716373
000320 65 42 d3 bd 18 54 5e bd 32 1a 2d 3d ae d2 41 bd
       -0.10315398 -0.054279417 0.04226131 -0.04732006
000330 5e 1a e9 3c c6 1c f0 3d ff be 14 be b6 fe a0 bd
       0.028454956 0.11724238 -0.14525984 -0.07861082
000340 9c 73 a4 bd 61 d4 ec 3d 29 67 02 3d 25 1d a8 bd
       -0.08029863 0.115639456 0.031836662 -0.08208684
000350 d6 8e cd bd c8 74 95 3d fe ac 02 3e be cb a0 bd
       -0.100370094 0.07297665 0.12761304 -0.07851361
000360 44 98 73 3d b0 47 47 bd 4d a2 94 3d ad 76 bb bd
       0.059471384 -0.04865235 0.07257519 -0.09153495
000370 5c 4c a5 3d 5f 7a 03 3e bb b2 72 3d cc e8 a0 3a
       0.08071205 0.1283965 0.059252482 0.001227641
000380 28 0a 28 3d 3e 21 60 3d 88 f0 a4 bd e2 c9 7a bd
       0.04102531 0.054719202 -0.0805369 -0.061227687
000390 0c 05 e8 bd 3e 9f bb 3d 9a 23 fc bd 34 1e b4 3d
       -0.113290876 0.091612324 -0.12311478 0.08794823
0003a0 d6 86 fe bc fd ac c0 bc d6 68 e8 3c ab a2 b1 3b
       -0.031070154 -0.023519987 0.028370302 0.005421003
0003b0 78 c1 94 bd 2b 43 01 bd c5 bf 8c bd 06 00 d3 bd
       -0.07263464 -0.031558197 -0.06872515 -0.10302739
0003c0 2e 14 5f bd 9e 63 64 3d 60 a9 85 3c 3f ab 1b bd
       -0.054462604 0.055759065 0.016316116 -0.03800511
0003d0 2b 17 bc 3d ac 54 7f bd 67 74 06 be 46 27 90 3d
       0.091841064 -0.06233661 -0.13130341 0.07038741
0003e0 70 86 f4 3c e4 56 0c bd cd d1 8c 3d 4a bc e0 3d
       0.029849261 -0.034262553 0.06875954 0.10973413
0003f0 33 c7 0b be 1c 38 cf 3d 0e ce bc 3d b5 23 a7 bd
       -0.13650207 0.10118124 0.09218989 -0.081611075

layer_3.lin.bias f4 [32]
000000 f5 b0 b5 3c 3c 15 6c bc 59 ac ac 3d 77 8c 8b bd
       0.022179106 -0.01440936 0.0843131 -0.06813901
000010 c8 22 9a 3d fd 35 5b 3d 0e 2f a5 3d 53 36 bc bd
       0.07526165 0.053518284 0.080656156 -0.09190049
000020 71 12 d3 3d 14 28 5b bd ac a1 d8 bb 45 a3 31 bc
       0.10306252 -0.05350502 -0.0066110697 -0.010842149
000030 8c 3e b0 3d 93 7c 98 3d dd 7d 96 bd 99 63 25 3d
       0.0860568 0.07445636 -0.07348225 0.040378187
000040 3c ab 3b bb 22 02 d0 3b 03 d1 06 3d 07 0c b8 bc
       -0.0028636 0.0063479105 0.032914173 -0.022466673
000050 d9 d7 fc 3c 8d 57 05 3e e6 e8 28 3d 0a 4d cc bc
       0.030864643 0.13021679 0.041237734 -0.024939079
000060 8c ec fe 3b 30 c2 a0 3c a2 27 8b bd 6b 75 6e 3d
       0.0077796634 0.019623846 -0.06794669 0.058217447
000070 81 9e be 3d 88 a7 6b 3d 58 a9 a8 3d 3b f5 24 bd
       0.09307576 0.057532817 0.08235425 -0.040272932

layer_4.lin.weight f4 [32, 64]
000000 a2 44 9d 3d f0 6b e2 bb b8 95 8d 3d 0e ef a3 bd
       0.07679106 -0.00690984 0.06913322 -0.080045804
000010 03 29 14 be 95 a9 31 3d 29 4e f7 3c f6 ab e4 bd
       -0.1446877 0.043374617 0.030188637 -0.111656114
000020 5d 6e 3f 3d b4 1b 79 bb 25 1d 87 3d bb 2d 87 3d
       0.04673611 -0.0038010897 0.06597356 0.06600519
000030 fc ca a4 3d 1b 1d 9c bb 47 75 7b 3d 24 b9 96 bd
       0.08046529 -0.004764212 0.06139114 -0.073595315
000040 d9 72 e3 bc da aa 4c 3d ef 89 75 3d 43 54 75 3d
       -0.027764725 0.049967624 0.059945997 0.05989481
000050 4a d9 c2 3d 28 31 35 3a 73 bb 86 3c ae 54 23 be
       0.09514101 0.0006911927 0.016446805 -0.15950271
000060 fe 5b 2b bd db 7f 9b 3d 76 3d 59 3d eb fb 21 3d
       -0.041835777 0.07592746 0.05303713 0.03954689
000070 23 e3 39 3d a9 6d 66 bd fa b2 b4 3c e4 8e c7 bd
       0.04538263 -0.056256924 0.022057999 -0.09744051
000080 25 92 f1 bb 8b eb e9 39 51 85 86 3d 2d 4d c4 3d
       -0.007372158 0.00044616716 0.06568397 0.095850326
000090 22 fc 7e 3d 64 36 68 bd 75 8d 7b bb b2 f8 72 3d
       0.06225217 -0.056692496 -0.0038383876 0.059319206
0000a0 61 d6 e7 3d b0 01 54 3d 22 7a eb bd df 5f 3b 3d
       0.113201864 0.05175942 -0.11497904 0.045745727
0000b0 5a c3 f0 bd b9 03 4b 3b 5f 13 a5 3d c5 a6 ed 3d
       -0.1175601 0.003097756 0.08060335 0.116040744
0000c0 da 53 a4 3d b1 05 d6 3d 89 84 ef bd dd 99 f0 3c
       0.08023806 0.10450304 -0.11695201 0.029370243
0000d0 d9 54 44 3d b8 68 35 bd 4d 8e bf bd 8a 94 d8 3d
       0.04793248 -0.04428932 -0.093533136 0.105752066
0000e0 75 13 88 bd 71 00 c9 bd 80 b9 d1 bd 1c 18 80 bd
       -0.06644336 -0.09814537 -0.102404594 -0.062545985
0000f0 ea f5 5d 3b 26 11 92 3d 75 68 f8 bc f5 bb bd bd
       0.00338685 0.07132177 -0.030323246 -0.092643656
000100 b5 05 a5 3d d8 1c eb bc 3f 71 74 bc 9a a5 10 3c
       0.08057729 -0.028700277 -0.014919578 0.008828545
000110 d0 56 26 3d 9d 49 89 3c 19 1e bd 3d 86 84 12 3d
       0.040610135 0.016758734 0.09234256 0.035770915
000120 0e 80 f3 bd 74 e0 9b 3d 7c 99 82 3d 62 61 9d 3a
       -0.11889659 0.076111704 0.06376931 0.0012007172
000130 71 13 f3 3d a6 77 c0 bc c0 9a 4e bd d4 e7 69 3d
       0.118689425 -0.023494553 -0.05044055 0.057105854
000140 ba 20 d8 bd 89 15 37 3d 82 6e d5 bd 9f 41 35 bd
       -0.10553117 0.044698272 -0.10421468 -0.044252034
000150 f5 58 96 bd 87 1c d2 bc b5 ab 6f bc fd 2c fa 3d
       -0.07341186 -0.025648369 -0.0146283405 0.12215612
000160 96 24 20 3d c6 94 13 be 00 3b c6 bd 4e c4 56 bb
       0.03909739 -0.14412221 -0.09679222 -0.0032770815
000170 9c 38 7a 3d 5e 74 26 3d ef e7 fc 3d 6e 18 98 bd
       0.061089143 0.04063832 0.12348925 -0.074265346
000180 e9 fa 7e 3d 81 e3 9a 3d ea 17 96 bd 9d 81 e3 bd
       0.062251005 0.07562924 -0.0732878 -0.11108706
000190 bb 22 dc bd e9 35 20 3d 90 1a f1 bb 6b 53 03 be
       -0.10748812 0.039113913 -0.007357903 -0.1282479
0001a0 b7 2a 81 bd 0f f4 21 3d e5 a8 35 bd da b5 bf bd
       -0.06306975 0.039539393 -0.044350524 -0.09360857
0001b0 62 24 49 bd 35 55 8e 3d 81 de 55 3b 73 4d 83 bd
       -0.049106963 0.06949846 0.0032633843 -0.06411257
0001c0 69 ea f2 bd 6f 0f be 3d bd 73 d1 bd 25 b8 07 be
       -0.118611164 0.092802875 -0.102271535 -0.1325384
0001d0 5d 2f 39 3d 3f a7 8c 3d 81 ab d2 3a 16 e4 94 3d
       0.045211185 0.06867837 0.0016072841 0.072700664
0001e0 8a 2e ca 3d 43 e3 10 be 5e 97 85 bc fc e1 08 bd
       0.09872158 -0.14149193 -0.016307529 -0.03341864
0001f0 65 89 d1 bd 19 3b 67 3b 47 8c e3 bd 77 4d 59 3d
       -0.10231284 0.0035283028 -0.1111074 0.05305239
000200 63 f0 fd 3c 38 b9 dd 3d 85 aa 60 bc f0 1d a7 3d
       0.030998414 0.10826343 -0.01371253 0.08160007
000210 34 42 c4 bb 6d 30 cb bd 3f cb db bd 30 f4 91 bd
       -0.0059893373 -0.09921346 -0.107321255 -0.07126653
000220 e9 a5 1b bd 16 af 86 3d 71 43 43 bd 97 f3 5c bc
       -0.03800002 0.06576364 -0.04767174 -0.013485811
000230 ff d8 cd 3d 4f 5d 22 bc 87 6d 40 3d 99 4d 5f bb
       0.10051154 -0.009909942 0.046979453 -0.0034073351
000240 18 fa 0c bd 0c 98 8b bd 80 6b d3 3d b2 d0 b6 bd
       -0.034418195 -0.0681611 0.103232384 -0.08926524
000250 72 ed ac bc c5 83 3c 3d 0b 1f df 3c 63 df 50 3b
       -0.021109316 0.046024103 0.027236482 0.003187143
000260 10 1f 9e bc c7 7d 89 bd d7 f1 ba 3c ea f6 37 bd
       -0.019301921 -0.06713443 0.022820396 -0.04491321
000270 67 cc 5d 3d 9d 26 e9 3c 95 cd 9c 3d 27 25 c5 bc
       0.05415001 0.028460795 0.07656399 -0.024065567
000280 a3 e7 53 bd 0c eb 84 bd db dd 55 3d 5d b6 f8 bc
       -0.051734578 -0.06490144 0.05221353 -0.030360395
000290 88 d3 14 3e 97 b9 ce 3d 9b f4 aa bc e5 a2 92 3d
       0.14533818 0.10093992 -0.02086859 0.07159976
0002a0 96 bd c4 bd 0f 89 ac bd 30 71 a2 3d a0 8d 8b 3c
       -0.09606473 -0.08424579 0.07931745 0.017035306
0002b0 5b 0b 61 bc 2e 08 ae bd 9b aa 46 3d 39 85 c2 3d
       -0.0137356175 -0.08497654 0.048502546 0.094980665
0002c0 4c 6b 21 3e 93 2d 6b bb f6 0f e9 bd 4d cb 55 3d
       0.15763587 -0.0035885319 -0.113799974 0.052195836
0002d0 16 9f c3 bd 03 31 21 bd 77 fb c2 bd c9 42 05 3e
       -0.095518276 -0.03935338 -0.09520619 0.13013758
0002e0 f3 cb f3 bc 87 d4 f0 3b 10 31 a9 bc 22 9f 1b 3d
       -0.029760337 0.007349554 -0.020653278 0.037993558
0002f0 f5 93 2d bd 1e 79 e4 3d 85 90 9c bd 19 72 ef 3c
       -0.04237743 0.11155914 -0.076447524 0.02922921
000300 7e ff 8a bd e9 c0 7c bd 7a 3b 3a 3d aa a7 d0 3d
       -0.067870125 -0.06170741 0.045466878 0.101882294
000310 d9 a4 a5 3d b9 0b 7f bc 9b 08 dd 3c d2 bb da 3d
       0.08088083 -0.01556676 0.026981642 0.10680355
000320 7d f3 02 3d e5 8d d6 bc 9e 36 8b 3d 86 2c 61 3d
       0.03197049 -0.026190707 0.06797527 0.0549741
000330 5d d4 5c 3d 6d d1 b9 bc 2c a1 21 3e 9f bd 92 bd
       0.053913463 -0.02268287 0.15784138 -0.071650736
000340 35 78 55 3d e7 c9 11 ba 21 ad 8a 3d c6 db fe 3d
       0.05211659 -0.0005561397 0.06771303 0.12444262
000350 d2 25 2c 3e 9b 6c c0 bd 01 8d 50 3d 2a 20 01 3d
       0.16811302 -0.09395715 0.05091572 0.031524815
000360 f9 20 81 3c ed 3a ae 3d aa 9c 3f 3d ee 2b 05 3d
       0.015762793 0.08507333 0.046780266 0.032512598
000370 51 23 00 3d f3 5a 33 bd 97 2d 18 be 58 84 61 3d
       0.03128368 -0.043787908 -0.14861141 0.055057853
000380 20 13 b3 3d 2d 4d b0 3c a7 ed d5 3d 0d a4 35 3c
       0.08743882 0.021521175 0.10445719 0.011086476
000390 99 27 b7 bb 88 fc 4e bd e1 40 6b bc d0 38 ac bc
       -0.005589437 -0.0505338 -0.01435873 -0.021023184
0003a0 2b 25 97 bd 41 00 bc 3d d3 a7 4e bd 25 c1 01 bc
       -0.07380136 0.09179736 -0.05045302 -0.007919584
0003b0 b4 6d 1c bc 09 58 9e bd 55 f5 15 3e 3d 9a 0f 3d
       -0.00954764 -0.07731635 0.14644368 0.035059202
0003c0 f9 95 cc bd 6c 47 c1 3c db c9 43 3d 5e c8 87 bd
       -0.099895425 0.023593627 0.047799926 -0.06630014
0003d0 5f 33 0a 3b a6 37 04 be 5e eb c1 bc 4c 79 f2 bd
       0.0021087748 -0.12911853 -0.023671802 -0.11839542
0003e0 34 76 e7 3d f8 f8 90 3d fb be e7 3d 37 03 d6 bc
       0.11301842 0.07078737 0.113157235 -0.02612458
0003f0 f9 c7 af bd 01 79 27 3d e3 91 93 bb b6 c2 bf 3d
       -0.08583064 0.040886883 -0.004503475 0.0936331

layer_4.lin.bias f4 [32]
000000 70 e7 4a 3d fc 60 a3 bd 3f cd e8 3d 64 94 35 bd
       0.049537122 -0.07977483 0.113672726 -0.04433097
000010 98 92 b5 bd 2c 74 60 bc 29 39 e2 bc bd 12 2e bd
       -0.08865851 -0.0136995725 -0.027615147 -0.04249834
000020 8c c7 7e bd 5d a9 f2 bb 62 73 aa 3c 39 0d 70 3d
       -0.06220202 -0.0074054436 0.020806972 0.05860636
000030 61 fd c8 bd 94 5c 4c bb 84 2c 45 3d 73 ba cb 3d
       -0.09813953 -0.003118311 0.048138157 0.09947672
000040 bf 2b a8 3c ea 2e ab 3d 58 56 b6 3c 7d 2f bc 3c
       0.020528672 0.083585575 0.022257969 0.022971863
000050 56 89 1f bd 21 85 82 bd 10 26 1e 3d 6e f8 31 bd
       -0.038949333 -0.063730486 0.038610518 -0.04344981
000060 f6 76 ed 3d c9 b5 a7 bd 59 e4 4b 3d de d9 a4 3d
       0.115949556 -0.0818897 0.049778316 0.08049367
000070 16 ab e6 3d 94 f1 78 3d b4 a7 4a bd 04 a6 b3 3d
       0.11263101 0.06077726 -0.04947634 0.08771899

layer_5.lin.weight f4 [32, 64]
000000 8d e6 c3 bd 49 4b 80 bd 97 75 52 3c d8 89 dc 3d
       -0.095654584 -0.062643595 0.012845418 0.10768479
000010 69 25 32 bc 09 cb 2d be a1 9e f5 bd 7c ae 81 bd
       -0.010873177 -0.16971983 -0.11993147 -0.063321084
000020 f9 78 11 bb 22 e0 90 3c cc 58 4b bd 1a 06 a6 3d
       -0.002219735 0.017685 -0.04964523 0.081066325
000030 e2 97 e3 3c 1b 94 14 bd 11 d1 ea 3d d9 41 b8 bd
       0.027782384 -0.036274057 0.114656575 -0.089969344
000040 2a be 3b bd 9f b5 4e 3d 33 51 68 bd 8f fe 2c bd
       -0.04583565 0.050466176 -0.056718063 -0.042234953
000050 d9 75 1b bc 4c 79 6e 3d 22 f4 04 3e 74 22 26 3e
       -0.009488546 0.058221146 0.12983754 0.1622408
000060 eb 55 7a 3d 71 11 5e bd ab f0 93 bd cf cd 32 be
       0.061117094 -0.054215852 -0.07223638 -0.17461322
000070 57 8b a4 3d 1c 67 c2 bd f4 1d 9e 3d f0 df 38 be
       0.080343895 -0.09492323 0.07720557 -0.18054175
000080 37 84 b7 3c 87 41 da 3d 3e 0d e8 bd d6 01 00 bd
       0.022401912 0.106570296 -0.11330651 -0.03125175
000090 ed ed 36 3d ab 92 f6 3c 91 59 48 bd 17 2f 35 3d
       0.044660497 0.030099234 -0.048913542 0.04423436
0000a0 8d 60 26 bd ef d6 96 3d ce e3 b9 3d 9b 5f 3b bc
       -0.04061942 0.07365214 0.090766534 -0.011436368
0000b0 e9 1b 1c 3d 51 22 cf bc 52 85 92 bd 59 1d 91 bd
       0.038112555 -0.025284918 -0.07154335 -0.07085676
0000c0 0f 8e ca ba 04 6c 90 3d c6 99 9f 3c c3 51 2d 3e
       -0.0015453714 0.07051852 0.019482505 0.16925721
0000d0 02 6c 14 3e d0 2f 1b 3e 3a dd a1 bd 8d 56 c3 bd
       0.14494327 0.15154958 -0.07903524 -0.095379926
0000e0 ae 3b b8 bd 48 d6 ba 3d 10 08 28 3e 88 79 0e 3e
       -0.08995758 0.09122902 0.16409326 0.13913548
0000f0 2a d2 ca bd 4c ed cd 3d 29 50 4f bc 05 fc ae 3d
       -0.09903367 0.100550264 -0.012653389 0.08544163
000100 93 1c 23 3d 2e f5 de bd e7 4c e6 bd 62 78 7a 3d
       0.039822172 -0.10886608 -0.11245137 0.061149962
000110 96 18 6d bd c5 dd d5 3d 6d 03 fd 3d ae db e1 3d
       -0.057884775 0.1044269 0.12354169 0.11028229
000120 13 5d 01 bd ac fc b4 3c 23 b6 07 3d 4e 58 64 3d
       -0.031582903 0.02209314 0.033132683 0.055748276
000130 fc 42 11 be d9 1b 2b 3c f6 b2 0e be 80 78 1a 3e
       -0.14185709 0.010443651 -0.13935456 0.1508503
000140 26 e8 00 bd 45 23 9b bd c9 2e 9d bd 21 33 d1 3d
       -0.031471394 -0.075750865 -0.07674939 0.1021483
000150 4e ed e7 3d d6 d1 bf 3d 74 28 92 3d d1 a2 e4 bd
       0.11324559 0.09366195 0.07136622 -0.11163867
000160 a8 3f c5 3d 1d 27 c7 bc 58 3f ce 3d 9c cf fb bb
       0.09631282 -0.024310643 0.100706756 -0.007684661
000170 3d 24 0f 3d 75 5b 4d bd c5 d3 2f bc d2 70 e2 3d
       0.03494667 -0.05013605 -0.010731642 0.11056675
000180 b3 6d e0 bd 66 ea c2 3d d4 95 b6 bc 6e 04 b6 bd
       -0.109584235 0.09517364 -0.02228824 -0.08887564
000190 2f 84 39 3e 89 28 89 bd 26 c0 76 3d d7 2c be 3d
       0.1811683 -0.066971846 0.06024184 0.09285896
0001a0 a5 52 62 bd 44 c6 b4 bd 2b 3f 94 bd 91 cd e6 3c
       -0.055254597 -0.08826879 -0.07238611 0.028174194
0001b0 7e ba c3 bc 3c 19 b1 3d c4 6e c9 3d 37 e0 44 bd
       -0.023892637 0.08647391 0.0983558 -0.04806539
0001c0 66 17 a5 3c ea df 03 be 1c 6c c7 3c 6f 3a 56 3c
       0.020152759 -0.12878385 0.024343543 0.013075455
0001d0 01 58 6a bd 96 73 e4 bc 80 33 70 3d 48 bb d1 bd
       -0.057212833 -0.027887147 0.058642864 -0.10240799
0001e0 ad 1f 88 3d f3 44 16 3d 1a 26 d8 3c 86 1c c7 bd
       0.06646667 0.03668685 0.026385356 -0.09722237
0001f0 fe 76 47 bd 3e 69 1d bd 8a 44 04 bc 9f 7b 16 bd
       -0.048697464 -0.038430445 -0.008072982 -0.036738988
000200 84 a0 b7 bd 7f 1d 1b 3e 67 ba b7 3d 8f 10 1a 3e
       -0.08966163 0.1514797 0.089711 0.15045379
000210 7e 96 ec 3d 07 52 c3 3d f5 02 93 bd 02 91 a2 bd
       0.115521416 0.0953713 -0.071782984 -0.07937814
000220 c8 a0 60 3c 4c b4 22 bc dc 21 c9 3b 50 38 04 3d
       0.013710208 -0.009930681 0.0061380696 0.032280266
000230 35 9f 6d bd a2 25 ae bb 7c db b1 bd e0 cb 9e bd
       -0.05801316 -0.005314545 -0.086844414 -0.0775373
000240 df df 8e 3a 73 5a b0 bd 95 88 df bd 9c 59 99 bd
       0.0010900459 -0.08611002 -0.10914723 -0.07487795
000250 38 c1 b0 bc 7b 63 a8 bd ec d9 06 be c5 18 e9 3d
       -0.021576509 -0.082220994 -0.13169068 0.113816775
000260 48 c1 52 bd c2 09 f2 3d 98 90 03 3c d5 7e de 3c
       -0.05145386 0.118182674 0.008030079 0.027160088
000270 72 37 c0 3d 79 19 e2 bd be 32 b8 3d 99 80 d9 3d
       0.09385575 -0.11040015 0.08994053 0.10620231
000280 83 cd b6 3d d0 bf 8a bd 86 ee 1a bd 54 bd e0 bb
       0.08925917 -0.067748666 -0.03782513 -0.006858507
000290 2f ed ed bd 9b 6f 99 3d a7 7a e5 bc 6d a1 41 3d
       -0.11617505 0.0749199 -0.028012587 0.04727309
0002a0 0e de 47 bd 94 da 1c bd 3f cc 64 3c f0 ae 27 bd
       -0.048795752 -0.03829439 0.013964712 -0.040938318
0002b0 5f 6e d6 3d 06 5d a5 3d 9e b8 85 3d 1f 8a fc bd
       0.1047027 0.080743834 0.065293536 -0.12331032
0002c0 52 7d ab 3d 31 40 5d 3d be 4e 81 bd 18 80 df bc
       0.08373512 0.054016296 -0.06313847 -0.02728276
0002d0 a5 2a 0b 3e 7c e8 92 bd 5e f1 13 be e3 42 e4 bd
       0.13590486 -0.07173249 -0.14447543 -0.1114557
0002e0 46 6f 8a 3d 9a 2b de 3c 29 23 8a bd ff 06 6a 3d
       0.06759505 0.0271204 -0.067449875 0.05713558
0002f0 9d b1 c4 b9 fc 42 1e 3d 42 c6 39 bd 7f 3c 0d be
       -0.00037516365 0.0386381 -0.04535509 -0.13792609
000300 d4 74 c2 bd d7 35 71 bd 2f ad 23 be 47 88 a4 3d
       -0.094949394 -0.058889236 -0.15984033 0.08033805
000310 bf e7 fa bd 1f d9 6e bd 61 6c e3 3d 0d dd ef 3c
       -0.12251233 -0.05831253 0.11104656 0.02928021
000320 e0 69 ea 3c c8 5f ad bd 4e 2e 9b bc 7c b5 17 be
       0.028614938 -0.084655344 -0.018942978 -0.14815325
000330 78 b1 07 be a9 03 b3 3d b1 d7 8b 3d 03 95 36 3d
       -0.13251293 0.087409325 0.06828249 0.044575702
000340 aa e9 16 3e eb f6 f9 3d 3d d2 0d 3e ef 29 1c 3d
       0.14737573 0.12205299 0.13849731 0.03812593
000350 c3 5f 3c 3d d0 d6 14 bb c2 58 a0 bd 53 de e0 bd
       0.045989763 -0.0022711046 -0.07829429 -0.10979905
000360 ed 93 fc 3d 7b c3 a2 bd c9 19 aa 3d a1 8a 87 be
       0.12332902 -0.07947441 0.083056994 -0.26472953
000370 60 0c f6 3c 30 66 b3 3c 0a 9a 23 3e e5 d0 81 bc
       0.030035198 0.021899313 0.1597673 -0.015846679
000380 44 1e bb 3d e7 76 fb bc cc 5c df 3d 2b 29 90 bd
       0.09136632 -0.030696345 0.109063715 -0.07039102
000390 3e 59 98 3d 15 75 a6 3d 93 12 59 bd 6b 5c c7 bc
       0.074388966 0.081278004 -0.05299623 -0.02433606
0003a0 b7 57 20 3d d5 40 82 3d f6 54 0b 3d 38 c5 b2 bd
       0.03914615 0.06360022 0.034016572 -0.08729023
0003b0 a9 48 12 3c 9e 45 f4 bd 38 b6 91 3d 1f b2 07 be
       0.008928456 -0.11927341 0.071148336 -0.13251542
0003c0 93 69 24 bd 95 c2 91 3d 12 5a ca 3d b4 5c 7e bc
       -0.040139746 0.07117192 0.09880461 -0.015525032
0003d0 35 ee 57 bd fd de 3d bc 48 a2 8c bc 7f 5e 85 3c
       -0.052717406 -0.011588809 -0.017167225 0.01628041
0003e0 bf 67 89 bd a3 74 7e bd 10 81 97 3c 33 4d 5a 3e
       -0.06709241 -0.062122952 0.018494159 0.21318512
0003f0 09 fa a4 3d fa ce ff 3d 81 91 f3 3b 01 64 d9 bc
       0.08055503 0.124906495 0.007433117 -0.026536943

layer_5.lin.bias f4 [32]
000000 d1 f3 82 bd c3 5f a8 3d 54 9d 2f bd 77 a6 2b bd
       -0.063941605 0.0822139 -0.04287465 -0.0419068
000010 15 89 3a bd a3 87 c1 bc cd 72 a0 bd 69 5e 89 3d
       -0.045540888 -0.023624247 -0.078343965 0.067074604
000020 99 0c ae 3c 53 f8 95 bc ba 34 d3 3d ff d3 ff bc
       0.021246241 -0.018306887 0.10312791 -0.031229017
000030 8b bf a0 3b cd 48 8d 3d 8f 0c 93 3b ce f1 03 3c
       0.004905646 0.06898651 0.004487581 0.008053256
000040 2c c3 a7 3d 8f 7c 4e bd ef 87 80 3d 0a 55 a6 3c
       0.08191523 -0.050411757 0.06275927 0.020304222
000050 c7 76 83 3a d1 60 88 3c 17 3d 55 bc ea 6d 68 bd
       0.0010029905 0.016647728 -0.013015053 -0.056745447
000060 7d 8c b9 bd bd 36 25 bd 0f 46 6f 3d a1 a8 9c 3d
       -0.09059999 -0.040335406 0.058416422 0.07649351
000070 ca c3 14 bd 47 ea 85 3d 04 14 ab 3d ba 72 83 3d
       -0.03631953 0.065388255 0.08353427 0.06418367
