training_runs/model_step8000.pt (torch, 108754 bytes, 24 tensors)

layer_0.lin.weight f4 [32, 64]
0	0xbdda8c11	-0.10671247
1	0x3de7b8c0	0.11314535
2	0x3e26d367	0.16291581
3	0x3cace81e	0.021106776
4	0xbd2ab03d	-0.04167198
5	0x3c87c9bf	0.016575692
6	0x3c6d9062	0.014499756
7	0xbc8ff4ac	-0.017572723
8	0x3d0b18a4	0.033959046
9	0xbdc6617e	-0.09686564
10	0x3d67e529	0.05661503
11	0x3d80ec58	0.06295079
12	0xbdd11578	-0.10209173
13	0xbb2532f3	-0.002520737
14	0x3c9d1e35	0.019179443
15	0xbd153728	-0.036429554
16	0x3e2e5e0a	0.1702806
17	0x3daa1d64	0.08306387
18	0xbe25b2ec	-0.16181535
19	0xbda17cd9	-0.07885141
20	0x3e2b5000	0.16729736
21	0x3e2f8353	0.1713994
22	0xbdf3a18b	-0.11896046
23	0x3ca050df	0.019569812
24	0xbe2b00a5	-0.16699465
25	0x3d1f9c67	0.038967516
26	0x3e14b891	0.14523531
27	0xbdc47290	-0.095921636
28	0x3d6ec58a	0.058293857
29	0x3d38c37d	0.045108307
30	0x3d14c3a4	0.03631939
31	0x3dd12d9a	0.10213776
32	0x3dd6e89c	0.104935855
33	0x3de87895	0.11351124
34	0xbd734613	-0.059393
35	0xbe58c75e	-0.21169803
36	0x3e03624a	0.12830463
37	0xbe189177	-0.1489924
38	0x3e250104	0.16113669
39	0x3e216e92	0.15764835
40	0x3e554aca	0.20829311
41	0x3c24eccb	0.0100662215
42	0x3d9c78b7	0.07640212
43	0xbe828a85	-0.25496307
44	0xbdc22b5e	-0.09480928
45	0xbbde7fbe	-0.0067901304
46	0xbd35ee08	-0.044416457
47	0x3d441095	0.047867376
48	0x3d052c14	0.03251274
49	0xbdea3c99	-0.11437339
50	0x3e17a85e	0.1481032
51	0x3e24804b	0.16064565
52	0x3cb04f8e	0.02152231
53	0xbe253eab	-0.16137187
54	0xbd969655	-0.07352892
55	0xbb761bbb	-0.003755315
56	0x3e0eaa85	0.13932236
57	0xbe531ae6	-0.2061573
58	0xbd87ac1c	-0.06624624
59	0xbcdab8f9	-0.02669953
60	0x3cd16158	0.025559112
61	0xbe2ebd72	-0.17064455
62	0x3d466859	0.048439357
63	0xbe180449	-0.14845385
64	0x3ce69194	0.028145589
65	0x3d15e06a	0.03659097
66	0xbb8cf339	-0.0043014553
67	0x3ccef770	0.025264472
68	0xbd4c36a8	-0.04985681
69	0x3e4107ff	0.18850707
70	0x3b7fbbf6	0.0039021946
71	0xbddabc49	-0.10680444
72	0xbd7620fa	-0.060090043
73	0x3b433dad	0.00297914
74	0x3cafdc2d	0.021467293
75	0x3e0a3fb1	0.13500859
76	0x3daa0bea	0.08303054
77	0xbd5ede8d	-0.05441146
78	0x3df31908	0.11870009
79	0xbcae3a6a	-0.021268088
80	0xbdf8009c	-0.12109491
81	0x3d706698	0.05869159
82	0x3c6f0238	0.014587931
83	0xbd53f217	-0.051744547
84	0x3daed440	0.08536577
85	0x3c3eca78	0.011644952
86	0x3db03486	0.08603768
87	0x3d0026a1	0.03128684
88	0x3d17392c	0.036919758
89	0xbcdd7038	-0.02703105
90	0xbcd7f338	-0.026361093
91	0x3cdd219a	0.026993562
92	0xbc266c53	-0.010157662
93	0x3e0f5fa4	0.14001328
94	0xbd083a73	-0.033258867
95	0x3c83c515	0.016085187
96	0x3e773f4b	0.24145238
97	0x3e244a4a	0.16043964
98	0xbe1870a4	-0.14886719
99	0xbe9d9b76	-0.3078267
100	0x3e1fdeea	0.15612379
101	0xbca89577	-0.020579083
102	0xbd61d931	-0.05513877
103	0x3e495299	0.19660415
104	0xbd4e1ec7	-0.05032232
105	0x3d97a2f9	0.074041314
106	0xbddb11d3	-0.10696759
107	0xbe82d5cf	-0.25553748
108	0xbe00542f	-0.12532113
109	0x3cd1c267	0.025605394
110	0xbdd55312	-0.10416235
111	0x3e0519dd	0.12998147
112	0xbe23b312	-0.15986279
113	0xbce9c201	-0.028534891
114	0x3d95c3ef	0.07312762
115	0xbdbf3534	-0.093363196
116	0x3d55477a	0.05207012
117	0xbdde65ec	-0.10859284
118	0x3c44670f	0.011987462
119	0x3c336ee5	0.010951732
120	0x3e59bf40	0.21264362
121	0x3e2e37bb	0.17013447
122	0xbe083549	-0.13301577
123	0x3d942cdc	0.07235119
124	0xbe506d22	-0.20354131
125	0xbe22e62b	-0.15908115
126	0xbd353506	-0.04424002
127	0xbe39e479	-0.18153562
128	0xbda36497	-0.0797817
129	0x3cf54d45	0.029944072
130	0x3dc82db0	0.09774339
131	0x3d856e56	0.065151855
132	0xbd505005	-0.050857563
133	0x3d2f8cf3	0.04285903
134	0x3e15b01b	0.1461796
135	0xbdb4a588	-0.08820635
136	0xbbe6be14	-0.007041702
137	0xbe3ad7d5	-0.18246396
138	0xbbf94ded	-0.0076081664
139	0x3d86be82	0.06579305
140	0x3db490ae	0.08816658
141	0x3e064065	0.13110502
142	0x3e2a0d70	0.16606688
143	0xbcc27a59	-0.02373998
144	0xbd02cefd	-0.03193568
145	0xbc5a61e8	-0.013329007
146	0x3c5e5f8d	0.013572586
147	0x3ced77fe	0.02898788
148	0x3cb893a4	0.022531338
149	0x3ad88173	0.0016518071
150	0xbe25acb2	-0.1617916
151	0xbd3a8704	-0.045538917
152	0xbb8bb7ec	-0.0042638686
153	0x3b42ce07	0.0029724853
154	0x3e1ce6d2	0.15322426
155	0xbd978832	-0.07399024
156	0x3e2da68e	0.16958067
157	0x3ae0ac85	0.0017141259
158	0x3cf1cff2	0.029518101
159	0xbbffdb2c	-0.0078081097
160	0x3d752d3c	0.059857592
161	0xbdf651e4	-0.12027338
162	0xbdf0f489	-0.117653914
163	0xbd66433c	-0.056216463
164	0xbda38a00	-0.07985306
165	0x3dd2beb9	0.10290284
166	0xbdf8b07f	-0.12143039
167	0x3a635b7d	0.00086729956
168	0xbe5ebf96	-0.21752772
169	0x3d81b833	0.06333961
170	0x3da73281	0.0816393
171	0xbc103f16	-0.008804103
172	0x3d960b79	0.07326407
173	0xbdbcc119	-0.09216518
174	0xbe35959a	-0.1773285
175	0x3dcde421	0.10053278
176	0xbe3191a3	-0.17340712
177	0xbce4b5f2	-0.02791879
178	0xbc72fb63	-0.014830443
179	0xbcc1b5d2	-0.023646269
180	0x3d8cd8d3	0.068772934
181	0x3c939743	0.018016463
182	0x3ea4b02a	0.32165653
183	0x3d2fafb1	0.04289216
184	0x3b94fb97	0.0045465934
185	0x3deb8e34	0.115017325
186	0xbdd8b774	-0.10581866
187	0xbc4ea644	-0.012612883
188	0xbe18a89e	-0.14908072
189	0x3df62b23	0.120199464
190	0xbd4e7c06	-0.050411247
191	0x3d0a018d	0.033692885
192	0xbe7c366c	-0.24630135
193	0xbda07754	-0.0783526
194	0xbcb2d928	-0.021832064
195	0x3cab43c2	0.020906333
196	0xbd15e72b	-0.036597412
197	0x3bc9c397	0.0061573493
198	0xbd502988	-0.050820857
199	0xbd861a51	-0.06547988
200	0x3d44b393	0.048022818
201	0x3d8863bc	0.06659648
202	0xbe1026b8	-0.1407727
203	0xbdca2a18	-0.0987131
204	0xbb9c5634	-0.0047710184
205	0x3dcb71a6	0.09933786
206	0xbd1dbdcc	-0.038511083
207	0x3d55dd62	0.05221308
208	0x3e101c98	0.14073408
209	0x3e1890ab	0.14898936
210	0x3d3025a2	0.04300464
211	0x3ca24933	0.019810295
212	0x3a77328b	0.0009429834
213	0xbdcc4aeb	-0.09975227
214	0xbc3d0bc2	-0.011538448
215	0xbda776c6	-0.08176951
216	0xbe54ac8f	-0.20768951
217	0xbe0166fd	-0.12636943
218	0x3d7f4682	0.0623231
219	0xbdf62c8c	-0.120202154
220	0x3bd8abda	0.006612283
221	0x3df6b7e7	0.12046795
222	0xbce47d27	-0.027891709
223	0x3c6c83e4	0.014435742
224	0xbd94b762	-0.0726154
225	0xbd11ac86	-0.03556492
226	0xbe418a09	-0.18900312
227	0xbdcf9792	-0.101363316
228	0x3d84ce94	0.06484714
229	0xbdc8442b	-0.09778627
230	0x3ca2c22c	0.019867979
231	0x3e0b5fb7	0.13610731
232	0x3d2c615d	0.04208504
233	0x3e44d24e	0.1922085
234	0x3d11cca7	0.035595562
235	0xbe4792d7	-0.19489609
236	0xbcbb110a	-0.022835273
237	0xbcc80849	-0.024418013
238	0xbdd51443	-0.10404255
239	0x3d98839e	0.07446979
240	0x3c056808	0.008142479
241	0x3d5fdad8	0.054652065
242	0x3d297cda	0.041378833
243	0x3d2f8f07	0.04286101
244	0xbda908fa	-0.08253665
245	0xbe44a5e6	-0.1920391
246	0x3d9ca713	0.076490544
247	0xbdb47e56	-0.08813159
248	0x3d5d739d	0.054065336
249	0xbdad3747	-0.08457809
250	0xbe6497ab	-0.22323482
251	0xbdd5a387	-0.10431581
252	0xbde89e46	-0.11358313
253	0xbdfd3c82	-0.123650566
254	0xbdc21015	-0.09475724
255	0xbdd9114b	-0.105990015

layer_0.lin.bias f4 [32]
0	0xbc392359	-0.011299931
1	0xbbafe894	-0.0053683016
2	0xbdbc58d3	-0.091966294
3	0x3da614e4	0.08109453
4	0xbc87acd5	-0.016561905
5	0xbcf45e97	-0.02983026
6	0xbcff8e7f	-0.031195877
7	0x3d90f925	0.070787705
8	0x3de00dee	0.10940157
9	0x3d33e60e	0.04392057
10	0xbdd74c03	-0.10512545
11	0x3dc714b8	0.09720749
12	0x3cc39903	0.023876673
13	0x3c58237b	0.013192053
14	0x3da69a6f	0.081349246
15	0xbc915830	-0.017742246
16	0x3cdc3bdb	0.02688401
17	0x3dbdc4cf	0.09266054
18	0xbdf561a7	-0.11981516
19	0xbd473419	-0.04863367
20	0xbd6b4a11	-0.057443682
21	0xbd987a44	-0.07445195
22	0xbcff82c2	-0.03119028
23	0x3c565509	0.013081797
24	0xbce0e6b2	-0.027453754
25	0x3caac68a	0.020846624
26	0x3da00968	0.07814294
27	0xbcda9c09	-0.026685731
28	0x3bdf1380	0.0068077445
29	0xbd251567	-0.040303614
30	0xbd710d75	-0.058850724
31	0xbcf3202e	-0.02967843

layer_1.lin.weight f4 [32, 64]
0	0xbdbd06f1	-0.092298396
1	0xbd8a684f	-0.067581765
2	0xbd94feba	-0.07275148
3	0x3dbe753a	0.09299703
4	0xbd6b9f5c	-0.057525024
5	0x3d4b9c47	0.049709585
6	0xbdc38335	-0.0954651
7	0x3e1bae4c	0.15203208
8	0xbd8a4caa	-0.06752904
9	0xbcae36c7	-0.021266354
10	0xbde5f3ee	-0.112281665
11	0xbe0f199d	-0.13974614
12	0x3dcc8f14	0.099882275
13	0xbdb0007c	-0.085938424
14	0xbc2261ef	-0.0099110445
15	0xbd74db91	-0.059779707
16	0x3cd5be82	0.026091818
17	0x3d0fd00a	0.03511051
18	0xbd9bd2d3	-0.07608571
19	0x3de9ecd3	0.11422124
20	0xbe419b3d	-0.18906875
21	0xbb540c62	-0.0032356014
22	0x3db141a2	0.086550966
23	0xbc130fd0	-0.008975938
24	0x3d3208a0	0.043465257
25	0x3e02794b	0.12741582
26	0x3ccc4326	0.024934363
27	0xbd47cbd3	-0.048778366
28	0x3e09591b	0.13412897
29	0x3e1af854	0.15133792
30	0xbd2bee75	-0.041975457
31	0xbc14562b	-0.009053747
32	0x3c1f2b6a	0.009714941
33	0x3e23f3b4	0.16010934
34	0x3bfb7332	0.0076736445
35	0xbd10df20	-0.03536904
36	0xbca50a53	-0.020146525
37	0xbd42f52f	-0.047597107
38	0x3e265e03	0.162468
39	0xbe1da2d2	-0.15394142
40	0x3b97686a	0.0046206014
41	0x3dd645f5	0.10462562
42	0xbd8ebca2	-0.069695726
43	0x3c060abb	0.008181269
44	0xbdb533d7	-0.08847778
45	0x3de8eda5	0.11373452
46	0x3e875af2	0.26436573
47	0x3e32e792	0.1747115
48	0x3db5f4cc	0.08884582
49	0xbdf06021	-0.11737085
50	0xbd21338c	-0.0393558
51	0x3c479924	0.012182508
52	0xbdcaeea2	-0.09908797
53	0x3d10f632	0.03539104
54	0xbe1b800e	-0.15185568
55	0x3d978ba4	0.07399681
56	0x3dd5130f	0.10404026
57	0xbe1c071e	-0.1523709
58	0x3e059a5d	0.13047166
59	0x3ded2845	0.115799464
60	0xbe662a87	-0.2247716
61	0x3e0f1363	0.13972239
62	0xbd43a4e8	-0.04776469
63	0xbde1a775	-0.11018268
64	0xbd8d60bd	-0.06903217
65	0xbd107360	-0.03526628
66	0xbcfb848a	-0.030702848
67	0x3b09122f	0.002091538
68	0xbd1d1fe1	-0.03836048
69	0xbd95f61a	-0.07322331
70	0x3e9148e1	0.28375915
71	0x3cef3db2	0.029204223
72	0x3d908a2e	0.07057606
73	0x3dbccca2	0.09218718
74	0x3d321196	0.043473803
75	0xbd96579c	-0.07340929
76	0x3ab0e053	0.0013494588
77	0xbe153367	-0.1457039
78	0xbe0450d2	-0.12921456
79	0xbda98709	-0.08277709
80	0x3d500c8b	0.050793212
81	0x3c8e147a	0.017343748
82	0xbcbcdc75	-0.02305434
83	0x3d8cef3e	0.06881569
84	0xbe832c5b	-0.25619778
85	0xbd608c91	-0.054821555
86	0xbda50428	-0.08057433
87	0xbc97a9c2	-0.018513564
88	0xbdbe7668	-0.09299928
89	0x3d50a0c3	0.050934564
90	0xbe094d28	-0.13408339
91	0xbd3d4b61	-0.046214465
92	0x3df907b8	0.12159675
93	0x3dd077c5	0.10179094
94	0xbe506181	-0.20349695
95	0x3d9702fd	0.07373617
96	0x3de062cd	0.10956345
97	0x3d5080bd	0.050904024
98	0xbda4fdb7	-0.08056205
99	0x3bc64935	0.0060512074
100	0x3db9e318	0.09076518
101	0x3d2853d5	0.041095573
102	0xbce77784	-0.028255232
103	0xbddc216a	-0.10748561
104	0xbd13d9fc	-0.036096558
105	0x3e00b823	0.12570243
106	0x3c11aa06	0.008890634
107	0x3d1356f2	0.03597159
108	0xbbb937e7	-0.005652416
109	0xb79148d5	-1.7319262e-05
110	0x3d34f5a8	0.04417959
111	0x3d69692e	0.056985073
112	0x3cefe7e1	0.029285373
113	0xbcdd4355	-0.027009645
114	0xbb245cf9	-0.002507983
115	0x3d078519	0.033085916
116	0x3c3c5cf9	0.011496776
117	0xbd5b9000	-0.053604126
118	0x3cc8f16a	0.024529178
119	0xbd8bac37	-0.06819957
120	0x3d3b31e9	0.045701895
121	0xbdc6869e	-0.09693645
122	0x3e084de9	0.1331097
123	0x3d877c3a	0.06615491
124	0xbdfb1ae4	-0.12260988
125	0x3d9062d0	0.07050097
126	0xbcf79e31	-0.030226799
127	0x3b2238ad	0.002475302
128	0xbdb80c91	-0.08986772
129	0xbe0489bc	-0.12943166
130	0x3d1bed5a	0.038068153
131	0xbd5fd900	-0.054650307
132	0x3e4c95a0	0.19978952
133	0xbdf48943	-0.11940243
134	0x3e305b0a	0.17222229
135	0x3e417d4f	0.18895458
136	0x3da0f8d7	0.078599624
137	0xbdb22f59	-0.08700437
138	0xbd57c36e	-0.05267661
139	0xbdf2bbb5	-0.118522085
140	0x3db70722	0.08936907
141	0xbd3a31c0	-0.0454576
142	0xbe11f682	-0.14254192
143	0xbd71e418	-0.059055418
144	0xbc604ef4	-0.013690699
145	0xbddb42ef	-0.10706126
146	0x3e040679	0.12893094
147	0xbd3f3236	-0.046678744
148	0x3dc8eeb3	0.09811153
149	0xbd336b98	-0.04380378
150	0xbe0c8bb7	-0.13725172
151	0xbbcc1f88	-0.0062293448
152	0x3d464096	0.048401438
153	0xbc878c4d	-0.016546393
154	0xbe1f87ef	-0.15579198
155	0x3d868166	0.065676495
156	0x3e5513e9	0.20808376
157	0x3dab3232	0.08359183
158	0x3da3cc9c	0.079980105
159	0x3cdefd53	0.027220404
160	0x3d3a185b	0.045433383
161	0xbd2f7a88	-0.042841464
162	0xbddf4615	-0.10902039
163	0xbdbdac81	-0.09261418
164	0x3d6af632	0.057363696
165	0x3df4a988	0.11946398
166	0xbdbf8e8b	-0.0935336
167	0xbd5d44fd	-0.05402087
168	0xbcc255b4	-0.023722507
169	0xbda04331	-0.07825316
170	0x3cee2c57	0.029073877
171	0x3db902fe	0.09033774
172	0x3d11b797	0.035575476
173	0x3d8c623c	0.06854674
174	0x3cfa0351	0.03051916
175	0x3d735c89	0.05941442
176	0x3e2d8d2d	0.16948386
177	0xbd359a10	-0.04433638
178	0xbc96e243	-0.018418437
179	0x3de8b6c9	0.113629885
180	0x3d3f521e	0.046709172
181	0xbc7a29fc	-0.015268799
182	0x3e109e36	0.14122853
183	0x3bde510e	0.006784565
184	0x3d88b0a9	0.0667432
185	0xbdf59266	-0.11990814
186	0x3ca2abd3	0.019857323
187	0x3dc5993c	0.09648368
188	0x3cb4ac70	0.02205488
189	0xbd8266e7	-0.06367283
190	0x3e246c17	0.16056858
191	0x3dba25f8	0.09089273
192	0x3d316ab8	0.043314666
193	0xbc89e66b	-0.016833505
194	0x3bb12b64	0.005406784
195	0x3d728922	0.05921281
196	0x3d01dc69	0.03170434
197	0xbc6deaba	-0.014521295
198	0xbb061435	-0.0020458822
199	0x3e29fb6e	0.16599819
200	0x3d137c57	0.03600725
201	0xbd88928c	-0.066685766
202	0xbabc029c	-0.0014344039
203	0xbd886904	-0.06660655
204	0x3d90f6b7	0.07078307
205	0xbda43ea2	-0.08019759
206	0xbe4dbcdb	-0.20091574
207	0x3c265eb4	0.010154415
208	0xbd0e7d33	-0.034787368
209	0x3c1b1849	0.009466239
210	0x3d4570bb	0.04820321
211	0x3be6f8fa	0.0070487233
212	0x3d9e1dc5	0.07720522
213	0x3d1dc9c3	0.038522493
214	0x3d2123f3	0.039340924
215	0xbd23cd06	-0.039990447
216	0x3cc12a76	0.023579817
217	0x3d2c41e0	0.04205501
218	0x3d8149e6	0.06312923
219	0xbe0ec204	-0.13941199
220	0x3d38f4a5	0.045155186
221	0xbde5f06f	-0.112275
222	0xbd8884f0	-0.06665981
223	0x3dbf274c	0.09333667
224	0xbe075d8a	-0.13219276
225	0xbe0df42c	-0.13862675
226	0x3d7b9a91	0.061426703
227	0xbe11324b	-0.14179341
228	0x3e03b071	0.12860276
229	0x3e0cf8c9	0.13766779
230	0x3db0ab44	0.08626416
231	0x3dd01607	0.101604514
232	0xbdf2526d	-0.11832128
233	0x3d7e8cc9	0.062145982
234	0x3d8f9626	0.070110604
235	0xbdc977b4	-0.09837285
236	0xbb09a796	-0.002100443
237	0x3c0c7abc	0.008574184
238	0x3c83805e	0.016052421
239	0x3d0b8f5a	0.034072258
240	0xbd87a89c	-0.066239566
241	0x3dd4b890	0.10386765
242	0x3deb3414	0.114845425
243	0x3d0ad7ab	0.033897083
244	0xbd869914	-0.06572166
245	0xbc461746	-0.01209051
246	0x3d2cf104	0.042222038
247	0x3df8e635	0.121532835
248	0x3c207963	0.009794566
249	0xbcb826e3	-0.02247948
250	0x3cda0ff7	0.02661894
251	0xbd17e592	-0.03708417
252	0xbd98d8e0	-0.074632406
253	0xbd6a01e4	-0.05713071
254	0xbd8d33b5	-0.06894628
255	0x3c18a6d4	0.009317119

layer_1.lin.bias f4 [32]
0	0xbd5fc55d	-0.05463158
1	0xbd7bc8c0	-0.061470747
2	0xbd87ae45	-0.06625036
3	0xbc2f1095	-0.010685106
4	0xbca8c066	-0.020599555
5	0xbd480089	-0.048828635
6	0x3d57db5f	0.052699443
7	0x3bcfe1eb	0.00634407
8	0xbdc97dfe	-0.09838484
9	0x3bd5b022	0.006521241
10	0x3d6a57df	0.057212707
11	0x3bdb4a14	0.0066921804
12	0x3d7185b7	0.05896541
13	0x3c18db3e	0.009329615
14	0x3d7281f5	0.059205968
15	0xbd92e4b8	-0.07172531
16	0xbc17b6f1	-0.009259925
17	0x3d940b80	0.07228756
18	0xbdbfad26	-0.09359197
19	0x3db60ec6	0.088895366
20	0x3dc7e210	0.09759915
21	0xbdd27e3d	-0.10277984
22	0xbc5ad8ee	-0.013357384
23	0x3dd23eda	0.10265894
24	0x38bdada5	9.044566e-05
25	0x3c9d0463	0.01916713
26	0x3cb42783	0.021991497
27	0x3d7277f5	0.05919643
28	0xbd7a4671	-0.061102334
29	0x3d1f29b1	0.03885812
30	0x3d8aacc8	0.06771237
31	0xbbf53b2a	-0.0074838595

layer_2.lin.weight f4 [32, 64]
0	0x3bc13a29	0.005896826
1	0x3da58a25	0.080829896
2	0x3d0dcb34	0.034617618
3	0x3b2991ac	0.002587418
4	0xbc8764ff	-0.01652765
5	0xbd008b26	-0.031382702
6	0xbd72a6eb	-0.059241217
7	0xbb99f6d3	-0.004698613
8	0x3a842272	0.0010081066
9	0xbda76758	-0.08174008
10	0x3e28ea46	0.16495618
11	0xbd810fd9	-0.06301851
12	0x3e273c05	0.1633149
13	0x3d4f8a06	0.05066874
14	0xbc7d38c0	-0.015455425
15	0x3c801307	0.015634073
16	0xbaca410b	-0.0015430761
17	0x3df36ad0	0.11885607
18	0x3d5e76cf	0.054312523
19	0x3cad9474	0.021188952
20	0xbd2c3c81	-0.04204989
21	0x3d088cbf	0.03333735
22	0xbda459f2	-0.08024968
23	0x3daae267	0.08343964
24	0xbdcb50c7	-0.099275164
25	0x3d67339e	0.05644571
26	0x3e46870b	0.19387452
27	0xbda407c4	-0.08009294
28	0x3db56c32	0.08858527
29	0xbdb91cbb	-0.09038683
30	0x3e1dbbe9	0.15403713
31	0xbdfb3a10	-0.12266934
32	0xbe149b7d	-0.14512439
33	0x3d88be29	0.06676895
34	0xbde381b7	-0.111087255
35	0xbdf6e1f7	-0.12054818
36	0xbde93c23	-0.11388423
37	0x3e006022	0.12536672
38	0x3dc4a5ec	0.096019596
39	0xbde16cdb	-0.11007091
40	0x3e2627ad	0.16226073
41	0x3d783a60	0.060602546
42	0xbe2c8f83	-0.1685162
43	0xbcdd6a4d	-0.027028227
44	0xbe33650c	-0.17519015
45	0x3d08f609	0.033437762
46	0x3cf2b5b8	0.029627666
47	0xbd8a912f	-0.06765973
48	0xbc061461	-0.00818357
49	0x3d8ccf8c	0.06875524
50	0xbd382059	-0.044952724
51	0xbd007f66	-0.031371497
52	0xbc124244	-0.008926932
53	0xbeba4ee1	-0.36388305
54	0x3d3081d6	0.04309257
55	0xbc683a4a	-0.014174053
56	0xbdf0f46b	-0.11765369
57	0x3d067ad8	0.032831997
58	0x3e08ea7f	0.13370703
59	0x3da60c82	0.081078544
60	0xbe168165	-0.14697798
61	0x3da0a2b9	0.07843537
62	0xbe048e8b	-0.12945001
63	0x3dcfbec7	0.1014381
64	0x3d1ee811	0.038795535
65	0x3dd1a6e6	0.102369115
66	0x3dd32d75	0.103114046
67	0x3d6ef22d	0.058336426
68	0xbd95e18f	-0.073184125
69	0x3e140b37	0.14457403
70	0xbd8c72b7	-0.068578176
71	0xbc9d9167	-0.019234372
72	0x3df4c7ce	0.11952172
73	0x3db9edee	0.090785846
74	0xbe287ac9	-0.16453089
75	0xbd684c81	-0.056713585
76	0xbe35daf2	-0.17759302
77	0x3c1d992a	0.009619037
78	0xbd444e6b	-0.047926348
79	0xbe0aba03	-0.1354752
80	0xbd7b7024	-0.061386243
81	0x3ccfc9c7	0.02536477
82	0x3adc483d	0.0016806197
83	0x3de19637	0.11014979
84	0x3aba0fa9	0.0014195341
85	0xbd7e11f5	-0.062028844
86	0xbc8cf361	-0.017205896
87	0x3d18f570	0.037343442
88	0x3c89c575	0.016817788
89	0xbcd71285	-0.026253948
90	0x3dd4be3e	0.10387848
91	0xbd13d7df	-0.036094543
92	0xbe7f39db	-0.24924414
93	0xbe05256a	-0.13002554
94	0xbdae58bf	-0.08513021
95	0x3e7d85e4	0.24758106
96	0x3ddb543a	0.10709424
97	0x3c36c830	0.011156127
98	0x3dca8631	0.09888876
99	0x3ba5e0c6	0.0050621955
100	0xbe8885e7	-0.2666466
101	0x3d8d8d05	0.06911663
102	0x3d957be1	0.07299019
103	0x3c9cbe55	0.019133726
104	0xbcd29749	-0.025706904
105	0x3c50206b	0.012703042
106	0xbdfbbb96	-0.122916386
107	0xbd629314	-0.055316046
108	0x3dfa7ef2	0.12231244
109	0xbd4b16bf	-0.04958224
110	0xbd162f36	-0.036666118
111	0x382fde8e	4.193052e-05
112	0xbd1301be	-0.035890333
113	0x3db0afed	0.08627305
114	0xbde31435	-0.110878386
115	0xbdc9018b	-0.098147474
116	0xbd8d0247	-0.068852
117	0xbe522965	-0.20523603
118	0x3d9ceb59	0.076620765
119	0xbd53b656	-0.05168756
120	0xbdb2f1f0	-0.08737552
121	0xbcc53067	-0.024070932
122	0x3b75811f	0.0037460995
123	0x3d1ff5d2	0.039052792
124	0x3dd010e6	0.10159473
125	0xbbd7547e	-0.0065713516
126	0x3d5e8e40	0.05433488
127	0x3ce283cd	0.027650738
128	0xbd98ed62	-0.07467152
129	0x3dbafb81	0.09130002
130	0x3d10a907	0.035317447
131	0xbc70e61b	-0.014703299
132	0xbd41b507	-0.04729178
133	0x3c764f6b	0.015033583
134	0x3d48a696	0.048986994
135	0x3d6403e8	0.055667788
136	0xbe400bae	-0.18754455
137	0x3d1228a7	0.0356833
138	0x3d495658	0.04915461
139	0xbd38afcd	-0.04508953
140	0x3d51779a	0.05113945
141	0xbe147a35	-0.14499743
142	0xbdf58dd4	-0.11989942
143	0xbc440f40	-0.0119665265
144	0xbc6aa279	-0.014320963
145	0xbd9a4264	-0.07532194
146	0xbd3d1339	-0.04616091
147	0xbd12c0d7	-0.035828438
148	0x3d88125d	0.066441275
149	0xbe11a777	-0.14224039
150	0x3c31abcc	0.010844182
151	0x3dc8a187	0.09796434
152	0xbcb4b35d	-0.022058183
153	0x3df59848	0.11991936
154	0xbc1e2cfa	-0.009654278
155	0x3e1ea08f	0.15490936
156	0xbd100b06	-0.035166763
157	0x3db4e62e	0.08832966
158	0xbe37f540	-0.17964649
159	0x3e0de6a3	0.13857512
160	0x3ddbe8ea	0.10737784
161	0x3dd31f97	0.1030876
162	0xbccde82e	-0.025135126
163	0xbc28a621	-0.0102935145
164	0xbbdcb9f0	-0.0067360327
165	0x3d3e82f1	0.046511594
166	0x3db4fc71	0.08837212
167	0xbd59870d	-0.05310731
168	0xbd44bd55	-0.048032124
169	0xbe37a825	-0.17935236
170	0x3e20bb64	0.15696484
171	0x3d0bb00b	0.034103435
172	0xbcda6bcd	-0.026662732
173	0xbd270a2b	-0.04078118
174	0x3d43a3c5	0.047763605
175	0x3ca34e83	0.019934898
176	0xbe08b86b	-0.133516
177	0x3d9db8ae	0.077012405
178	0xbdb2d863	-0.08732679
179	0xbd70f8d4	-0.05883105
180	0x3c4b176a	0.012395719
181	0x3df6708b	0.120331846
182	0x3d565206	0.052324317
183	0xbd062e8f	-0.032759245
184	0xbc94641f	-0.018114148
185	0xbceca98f	-0.028889446
186	0xbbb6e6de	-0.0055817207
187	0xbd77b2f4	-0.060473397
188	0x3d4aa7dc	0.04947649
189	0x3cf5e1c9	0.03001489
190	0x3d84ad61	0.06478382
191	0xbe0abdc0	-0.13548946
192	0xbd0f161d	-0.0349332
193	0x3d3e9fa9	0.046538983
194	0x3e47606d	0.19470377
195	0x3d427969	0.047479067
196	0xbe1c7321	-0.15278293
197	0xbd943b41	-0.07237864
198	0xbddc0530	-0.10743177
199	0xbddcf2be	-0.10788487
200	0x3cf6053f	0.030031798
201	0xbd928869	-0.071549244
202	0x3d700664	0.058599845
203	0x3cd1185f	0.025524316
204	0x3e418d9e	0.18901679
205	0x3d28b043	0.04118372
206	0xbb926db1	-0.0044686426
207	0x3da93d2d	0.082636215
208	0x3c10326a	0.008801082
209	0xbd95c97c	-0.07313821
210	0xbd67d18d	-0.056596328
211	0x3cec22b3	0.02882514
212	0x3d9f2ca0	0.077721834
213	0xbdd7cecd	-0.10537491
214	0x3c63fa26	0.0139146205
215	0xbdf44ef9	-0.11929125
216	0xbd81ee27	-0.06344252
217	0x3e3a87c8	0.18215859
218	0x3dc5ff99	0.09667892
219	0xbca358d8	-0.019939825
220	0x3e1dd814	0.15414459
221	0xbae6467d	-0.0017568615
222	0x3db04a97	0.08607977
223	0xbe32f806	-0.17477426
224	0x3debfac0	0.11522436
225	0xbd4346cd	-0.047674943
226	0xbd9a1a18	-0.07524508
227	0xbdc9cf71	-0.098540194
228	0x3d10e4e3	0.035374533
229	0xbd94aa19	-0.07259006
230	0x3c0a1283	0.008427265
231	0xbc4855b2	-0.012227463
232	0x3c1f3555	0.009717305
233	0x3dc86bf3	0.09786215
234	0xbdc7e6d4	-0.09760824
235	0xbccb09f3	-0.024785018
236	0xbe56c646	-0.20974073
237	0xbd5de2b6	-0.054171287
238	0xbd95b500	-0.07309914
239	0x3c85fabc	0.016354911
240	0xbd67a485	-0.056553382
241	0xbdcf0f05	-0.101102866
242	0x3de5fffc	0.11230466
243	0xbc22f454	-0.009945948
244	0x3d8ff331	0.07028807
245	0x3d492349	0.049105916
246	0xbd126b92	-0.03574712
247	0xbdbbbff0	-0.091674685
248	0xbbb6c1c5	-0.0055772983
249	0xbd95e2ea	-0.07318671
250	0xbde9ce71	-0.11416329
251	0xbd09cdc0	-0.033643484
252	0xbe0b89f8	-0.1362685
253	0xbded01fb	-0.11572643
254	0xbdab7d49	-0.083735056
255	0x3e715cf3	0.23570614

layer_2.lin.bias f4 [32]
0	0x3d3cc54c	0.046086594
1	0xbc73584b	-0.014852594
2	0xbdb9d9ea	-0.09074767
3	0x3ce3622e	0.027756777
4	0xbdfba39a	-0.12287064
5	0xbd766cb4	-0.06016226
6	0xbd2de462	-0.04245413
7	0xbdbe8a15	-0.09303681
8	0xbcf8aa97	-0.030354781
9	0xbd22fea7	-0.039793637
10	0xbc01a294	-0.007912297
11	0x3d8d62b0	0.06903589
12	0x3d841a2c	0.064503044
13	0x3d7a7859	0.06114993
14	0x3b8111ef	0.0039389054
15	0x3d2105b8	0.039312094
16	0x3b261e1a	0.0025347532
17	0xbd54e247	-0.051973607
18	0xbde75bea	-0.11296828
19	0xbd880a97	-0.06642645
20	0x3d2301d8	0.03979668
21	0xbd79f913	-0.06102855
22	0xbd96b3ea	-0.07358535
23	0x3d0f39f1	0.034967367
24	0xbd4578cd	-0.048210908
25	0x3c46c2c5	0.012131398
26	0xbd1b838f	-0.03796726
27	0x3d3c322a	0.045946278
28	0xbd085f97	-0.033294287
29	0x3dc51701	0.09623528
30	0xbdf9b46c	-0.12192616
31	0xbdcdf58f	-0.10056602

layer_3.lin.weight f4 [32, 64]
0	0x3d2b369e	0.041800134
1	0xbdf84454	-0.121224076
2	0x3df5bb7d	0.11998651
3	0x3d89542a	0.06705506
4	0x3d16ad56	0.0367864
5	0x3d133840	0.035942316
6	0x3d09addb	0.033613067
7	0x3d10e001	0.035369877
8	0xbde55d78	-0.111994684
9	0x3db1556d	0.08658872
10	0x3d675ac1	0.056483034
11	0x3d8fdc13	0.07024398
12	0x3dba9939	0.09111256
13	0xbd0632d8	-0.032763332
14	0x3d9a4e49	0.07534463
15	0xbe12b325	-0.1432615
16	0xbc818f0c	-0.01581528
17	0xbc94c5e2	-0.018160764
18	0xbd281d8b	-0.0410438
19	0x3dd3fc0d	0.10350809
20	0x3e1030ac	0.14081067
21	0xbe0be580	-0.13661766
22	0xbe0ea070	-0.1392839
23	0x3cfc5875	0.030803898
24	0x3c195e78	0.009360902
25	0x3d647eec	0.055785105
26	0xbcc1ac86	-0.023641836
27	0x3dc3bf3c	0.095579594
28	0x3c36e65a	0.0111633185
29	0x3d50bcf9	0.05096147
30	0xbba2e1c5	-0.0049707615
31	0x3be068b0	0.006848417
32	0x3e1b5642	0.15169623
33	0xbe08ed1e	-0.13371703
34	0xbe4c1ac5	-0.19932087
35	0x3e2d015d	0.16895051
36	0xbe15c64c	-0.14626426
37	0x3dafd351	0.08585227
38	0x3d91f073	0.0712594
39	0x3d943d96	0.07238309
40	0x3d1ecf5c	0.038771972
41	0xbd9ce1ea	-0.07660277
42	0xbc18376b	-0.009290556
43	0x3dd6a9a3	0.104815744
44	0xbb9d8a6c	-0.004807761
45	0xbd306aa8	-0.043070465
46	0x3e170db9	0.14751329
47	0xbacb44f3	-0.0015508219
48	0x3d97be58	0.07409352
49	0xbcfbfa76	-0.030759078
50	0xbd164727	-0.03668895
51	0xbe022e41	-0.12712957
52	0xbd5a79b4	-0.05333872
53	0x3df9da88	0.12199885
54	0x3e4eb1f3	0.2018507
55	0x3e005eeb	0.12536208
56	0x3e24c49a	0.16090623
57	0xbdd10e46	-0.102078006
58	0x3da781c9	0.081790514
59	0xbe56d0e4	-0.20978123
60	0x3d2a42f8	0.041567773
61	0x3d211526	0.03932681
62	0xbdf4ab11	-0.11946691
63	0x3e038f3b	0.12847607
64	0xbdf05718	-0.11735362
65	0x3e14c349	0.1452762
66	0xbcb1594d	-0.021649027
67	0x3c0450a8	0.008075871
68	0xbcbe7463	-0.023248857
69	0xbccb171b	-0.024791291
70	0x3e07453b	0.13210003
71	0xbcc2fde2	-0.023802701
72	0xbaae4ce3	-0.001329806
73	0x3df21107	0.11819654
74	0x3d2abf6d	0.041686464
75	0xbdf1a125	-0.11798314
76	0xbd5b2f74	-0.05351205
77	0xbdb89dae	-0.0901445
78	0xbe6019db	-0.21884863
79	0xbe0be504	-0.13661581
80	0xbd6de96a	-0.05808393
81	0x3e1708ab	0.147494
82	0xbd631ed5	-0.055449326
83	0x3afce725	0.0019294961
84	0xbcba61f2	-0.022751782
85	0x3c0e69ec	0.008692246
86	0x3d9bc335	0.07605592
87	0x3de5d5c2	0.11222412
88	0x3ccb364e	0.024806168
89	0x3c5456f2	0.0129601825
90	0xbd8a7ff9	-0.0676269
91	0x3b27837e	0.0025560553
92	0xbd3e71a2	-0.046495087
93	0x3dc4283c	0.095779866
94	0x3da130b4	0.078706175
95	0xbcce7bbf	-0.025205491
96	0x3d2bc11d	0.041932214
97	0x3d156d98	0.03648147
98	0x3df7942c	0.120888084
99	0xbd88d2b7	-0.06680816
100	0xbda90d31	-0.08254469
101	0x3e1ce6f1	0.15322472
102	0x3dfc7b95	0.12328259
103	0xbd243db6	-0.040097915
104	0xbc37d773	-0.011220801
105	0xbdfd40d2	-0.12365879
106	0xbdc6eb13	-0.097128056
107	0xbcc41622	-0.023936335
108	0x3e19b382	0.15009883
109	0x3e1447a4	0.14480454
110	0xbd45d251	-0.048296276
111	0x3dc8d2bd	0.0980582
112	0xbd3f9d03	-0.046780597
113	0xbd1a21cc	-0.037629887
114	0x3d2ee244	0.042696252
115	0xbd954296	-0.07288091
116	0x3e2e9e9c	0.17052692
117	0xbd1f66ff	-0.038916584
118	0xbdbb486d	-0.091446735
119	0xbc8c0f30	-0.017097086
120	0x3d2bb937	0.04192468
121	0x3e257b7b	0.16160385
122	0x3d793fbd	0.0608518
123	0x3d56e688	0.052465945
124	0xbdcd23a4	-0.100165635
125	0x3d360843	0.044441473
126	0x3e0c7e9d	0.13720174
127	0xbd5e57d6	-0.054282986
128	0xbdbe42a8	-0.092900574
129	0xbe2fc572	-0.17165163
130	0x3da4b47f	0.080422394
131	0xbdf6de7f	-0.120541565
132	0x3c2f7a99	0.010710382
133	0xbe4fa81b	-0.20278971
134	0x3e12e955	0.14346822
135	0x3df982fa	0.12183185
136	0xbcde2f08	-0.027122036
137	0xbb44bae4	-0.0030018622
138	0x3df53831	0.11973608
139	0x3d1273eb	0.03575508
140	0xbd6d40a0	-0.05792296
141	0x3c9cc32f	0.01913604
142	0x3a8f3e43	0.001092859
143	0x3e043857	0.12912117
144	0xbe09b85d	-0.13449235
145	0x3c9261f4	0.017868973
146	0x3dfef441	0.124489315
147	0x3d1d2805	0.038368244
148	0xbc8067e5	-0.01567454
149	0x3d8f0408	0.06983191
150	0xbe1e537f	-0.15461539
151	0xbdde3829	-0.108505554
152	0xbd0049ee	-0.031320505
153	0xbcafbfa5	-0.021453688
154	0xbb9be445	-0.0047574365
155	0xbb73279e	-0.003710247
156	0x3db81e28	0.08990127
157	0x3d961733	0.07328644
158	0xbd8114f8	-0.063028276
159	0x3dd12769	0.10212595
160	0x3dede62f	0.1161617
161	0x3cbfb469	0.023401456
162	0x3d2906ad	0.041266132
163	0x3bbd4024	0.0057754684
164	0x3d1b2d1f	0.037884828
165	0x3e76ca67	0.24100648
166	0x3d1c5b26	0.038172863
167	0x3d4f410b	0.05059914
168	0x3e262bfc	0.16227716
169	0xbde9897d	-0.11403177
170	0xbdc29eae	-0.09502922
171	0xbdf0ccb5	-0.11757795
172	0x3c566406	0.013085371
173	0xbca604b8	-0.020265922
174	0xbdd043c2	-0.10169174
175	0xb8d870ca	-0.00010320691
176	0xbd0a6b7d	-0.033793915
177	0x3c4d270b	0.012521516
178	0x3cc03078	0.023460612
179	0xbd8d64fa	-0.069040254
180	0xbd3f03de	-0.046634547
181	0x3d6d7774	0.057975248
182	0xbe341a05	-0.1758805
183	0x3d0d72b0	0.034533203
184	0x3db8986f	0.090134494
185	0xbc01aa5d	-0.007914153
186	0x3dbbd03d	0.09170578
187	0x3df1b88b	0.11802777
188	0x3bd8040e	0.00659228
189	0xbd0d3e1f	-0.03448307
190	0x3e20e4e5	0.15712316
191	0x3d851c37	0.06499522
192	0x3d28599f	0.041101094
193	0xbc283eeb	-0.010268907
194	0xbe2aab31	-0.16666867
195	0x3dc1650e	0.09443103
196	0xbd58b3dc	-0.052905902
197	0xbd85842d	-0.06519351
198	0xbdcdd457	-0.10050266
199	0x3d8471b8	0.06467003
200	0xbd2b52a1	-0.041826848
201	0xbd74ae62	-0.059736617
202	0x3cc5fdd7	0.024168892
203	0xbd2a3c5e	-0.041561477
204	0xbba48b26	-0.0050214706
205	0x3dd3a06b	0.10333332
206	0xbe29b6d2	-0.16573647
207	0xbd898c1f	-0.06716179
208	0xbd850bd8	-0.064964
209	0x3dc8d3dc	0.09806034
210	0xbc1cd0be	-0.009571252
211	0xbd917a48	-0.071034014
212	0xbdc0f175	-0.09421054
213	0x3d93cc42	0.072166935
214	0x3e17caea	0.148235
215	0xbd9a4d47	-0.07534271
216	0x3e0668fb	0.13125984
217	0xbdc8e972	-0.09810151
218	0x3d914811	0.07093824
219	0xbdf0f742	-0.11765911
220	0x3dd3aa5d	0.103352286
221	0x3e325db9	0.17418565
222	0x3cedb43d	0.029016608
223	0x3c3092d5	0.010777195
224	0x3da4b5a7	0.0804246
225	0x3d8434d9	0.064553924
226	0xbdb045d8	-0.08607072
227	0xbd92022b	-0.0712932
228	0xbdbfdb81	-0.09368039
229	0x3da265d0	0.079295754
230	0xbe277ed5	-0.16356976
231	0x3ddd63c6	0.10810046
232	0xbc8932c5	-0.016747842
233	0x3cafd97b	0.021466007
234	0xbc57ae85	-0.013164167
235	0x3ca2e3a2	0.019883934
236	0xbd8e2bd6	-0.06941955
237	0xbd373606	-0.044729255
238	0xbd2166b8	-0.0394046
239	0xbd9f8f67	-0.07791024
240	0x3bb0307c	0.0053768735
241	0xbc0690d0	-0.008213237
242	0x3c06bb17	0.008223317
243	0xbce1aca1	-0.027548136
244	0x3df8a107	0.121400885
245	0xbbb0094f	-0.0053722034
246	0xbdd04310	-0.10169041
247	0x3e0e08be	0.13870522
248	0x3d03f5e3	0.032216918
249	0xbc845f65	-0.016158769
250	0x3da5e11c	0.08099577
251	0x3ddf22b3	0.1089529
252	0xbdf7671c	-0.120802134
253	0x3e00f606	0.1259385
254	0x3e23b127	0.15985547
255	0xbd923c55	-0.07140414

layer_3.lin.bias f4 [32]
0	0x3c98b925	0.018642971
1	0x3c18024e	0.009277893
2	0x3da4a52e	0.08039318
3	0xbd935616	-0.07194154
4	0x3d8ad215	0.06778351
5	0x3d8c8451	0.06861175
6	0x3ded0b07	0.11574369
7	0xbdc9f012	-0.09860243
8	0x3df3bea8	0.11901599
9	0xbcd510f2	-0.026009057
10	0x3ca37e07	0.019957555
11	0x3b797d7d	0.0038069182
12	0x3dce5261	0.10074306
13	0x3d1f3778	0.03887126
14	0xbdce0a50	-0.10060561
15	0x3c28df82	0.010307195
16	0xbaa4fb40	-0.0012587085
17	0x3bf736d3	0.0075443774
18	0x3c6ce637	0.014459184
19	0xbb872f36	-0.004125501
20	0x3d63da98	0.05562839
21	0x3de5ec03	0.11226656
22	0x3da17815	0.07884232
23	0xbc6ccd00	-0.014453173
24	0x3cae941d	0.02131086
25	0x3ca3b524	0.019983836
26	0xbc8be87d	-0.017078632
27	0x3d8ed64a	0.06974466
28	0x3dc402da	0.095708564
29	0x3cc02421	0.023454728
30	0x3d44b104	0.048020378
31	0xbd394957	-0.045235958

layer_4.lin.weight f4 [32, 64]
0	0x3d79fbd5	0.06103118
1	0xbc70e0a6	-0.014701998
2	0x3cc62270	0.024186343
3	0xbe02d299	-0.12775649
4	0xbe76d720	-0.24105501
5	0x3ddaee1d	0.10689948
6	0xbd338e18	-0.043836683
7	0xbde467af	-0.111525886
8	0xbb22a497	-0.0024817341
9	0x3b360c60	0.0027778372
10	0xbd016260	-0.03158796
11	0xbd172778	-0.036902875
12	0x3d86eacc	0.06587753
13	0x3cbb1e53	0.022841608
14	0x3d3340f0	0.0437631
15	0xbddf69f0	-0.10908878
16	0xbdca16bf	-0.0986762
17	0x3d089560	0.03334558
18	0x3d1b4463	0.037907016
19	0x3d565358	0.052325577
20	0x3d9873a4	0.07443932
21	0xbc8259f8	-0.015912041
22	0xbc882274	-0.016617991
23	0xbe074e4a	-0.13213459
24	0xbb3232eb	-0.0027190994
25	0x3dd34889	0.10316569
26	0x3d9399e2	0.07207085
27	0x3d12c9a6	0.03583684
28	0xbda1aa3e	-0.07893799
29	0xbdbbb049	-0.09164483
30	0x3c33b252	0.010967808
31	0xbda9c4e8	-0.0828951
32	0xbdab781b	-0.08372518
33	0x3d91beb7	0.07116454
34	0x3ccfe657	0.02537839
35	0x3dbd9762	0.092573896
36	0x3d9ed54a	0.077555254
37	0x3c04006f	0.008056744
38	0xbd88ac84	-0.0667353
39	0x3e076554	0.13222247
40	0x3dcdb20e	0.10043727
41	0x3ce43f9a	0.027862359
42	0xbdfcc05d	-0.12341378
43	0xbd28d8eb	-0.041222494
44	0xbe0df840	-0.13864231
45	0x3ccafebe	0.024779674
46	0x3d6f6441	0.05844522
47	0x3e4fdfdf	0.20300244
48	0x3c5dc016	0.013534566
49	0x3c8f9351	0.0175263
50	0xbdbe647c	-0.092965096
51	0x3cf6a52c	0.030108057
52	0x3dc6c1a9	0.097049065
53	0x3c932239	0.017960655
54	0xbdbcc8ca	-0.09217985
55	0x3e131ef1	0.14367272
56	0x3d03fca3	0.032223355
57	0xbe15b3c0	-0.1461935
58	0xbde80121	-0.1132834
59	0xbd95cf1e	-0.07314895
60	0xbdc7b52c	-0.09751353
61	0x3df37eaa	0.11889394
62	0x3d56755d	0.05235802
63	0xbd24c6a7	-0.040228512
64	0x3dc0bb65	0.09410743
65	0xbd3ede31	-0.046598617
66	0xbdf3e244	-0.11908391
67	0xbd9d47de	-0.07679723
68	0x39cc5349	0.00038971964
69	0xbd64fe30	-0.055906475
70	0x3e47307c	0.19452089
71	0x3cf2b957	0.029629393
72	0xbe4b32b0	-0.19843554
73	0x3ca8e26c	0.020615779
74	0x3cb2ced0	0.021827132
75	0x3de3afc4	0.11117509
76	0x3e2f41df	0.17114972
77	0xbde7c8aa	-0.113175705
78	0xbcd43238	-0.025902852
79	0x3dcc50f6	0.099763796
80	0xbda7593c	-0.08171317
81	0x3e106d56	0.14104208
82	0xbe33f741	-0.17574789
83	0xbd8188dd	-0.06324933
84	0xbd636083	-0.055511963
85	0x3c59e0e0	0.013298243
86	0xbbd4c2e4	-0.0064929593
87	0x3dfe16d4	0.12406698
88	0x3a53c5af	0.00080784684
89	0xbe5209d8	-0.20511568
90	0xbdfc840f	-0.12329876
91	0xbce0b9fb	-0.027432432
92	0x3daa73fc	0.083229035
93	0x3c8e32d3	0.01735822
94	0x3e174843	0.1477366
95	0xbcc8cfa4	-0.024513073
96	0x3d52aeeb	0.051436346
97	0x3d17c587	0.03705361
98	0xbcc59a12	-0.024121318
99	0xbe0c50d3	-0.13702707
100	0xbd96a84b	-0.07356318
101	0x3d25818b	0.040406745
102	0x3c7aba86	0.01530326
103	0xbe072925	-0.13199289
104	0xbd85dace	-0.06535874
105	0x3cb23ad6	0.02175657
106	0xbd2fbb2b	-0.042903107
107	0xbdf335cf	-0.118754975
108	0xbad955d6	-0.0016581367
109	0x3d88d6fb	0.06681629
110	0x3c492147	0.012276
111	0xbde01b42	-0.10942699
112	0xbdced548	-0.10099274
113	0x3dc5420c	0.09631738
114	0xbd92de0d	-0.07171259
115	0xbe1fa07f	-0.15588568
116	0x3d5f1052	0.054458924
117	0x3dd1fc3c	0.10253188
118	0x3cd57a5f	0.026059328
119	0x3d815a22	0.063160196
120	0x3dea7e58	0.114498794
121	0xbe23a908	-0.15982449
122	0xbcde6f31	-0.02715263
123	0xbd08549e	-0.033283822
124	0xbdb9520a	-0.09048851
125	0xbcfd5104	-0.03092242
126	0xbd9ea3ab	-0.07746061
127	0x3dbb1107	0.09134107
128	0xbc931268	-0.017953113
129	0x3e0e91cf	0.13922809
130	0xbd2e9bd4	-0.042629078
131	0x3dda02db	0.10645076
132	0xbd4b8b0c	-0.049693152
133	0xbdc1e271	-0.094670184
134	0xbdd79b16	-0.10527627
135	0xbd820d3d	-0.06350181
136	0xbd931f3d	-0.071836926
137	0x3d6d9ff6	0.05801388
138	0xbd96d629	-0.073650666
139	0xbc480d60	-0.01221022
140	0x3d7c4380	0.06158781
141	0x3cb34c95	0.021887103
142	0x3cee6576	0.029101115
143	0xbd3da9be	-0.046304457
144	0xbd6624e9	-0.056187544
145	0xbc8139bb	-0.015774598
146	0x3d86eacc	0.06587753
147	0xbdcb5f81	-0.09930325
148	0xbd74ec19	-0.059795473
149	0x3d3ff348	0.04686287
150	0xbbdad235	-0.0066778907
151	0x3d13ab24	0.036051884
152	0x3c93274c	0.017963074
153	0xbe011065	-0.1260391
154	0x3d5f517d	0.054521073
155	0xbc84cd68	-0.016211227
156	0x3cc1a950	0.023640305
157	0x3c901460	0.01758784
158	0x3dc9559e	0.09830783
159	0x3c9c9fcd	0.019119168
160	0xbd6f322d	-0.05839746
161	0xbd786922	-0.060647137
162	0x3cb39b1b	0.021924546
163	0x3c87dfa6	0.016586136
164	0x3dd98d43	0.10622647
165	0x3df7b79c	0.120955676
166	0xbce985ee	-0.028506245
167	0x3cf89e55	0.030348936
168	0xbdc7e042	-0.09759571
169	0xbdc701b1	-0.097171195
170	0x3d88e91b	0.06685086
171	0xbb9b6c22	-0.004743115
172	0xbd4c78d1	-0.049919907
173	0xbd59622f	-0.05307215
174	0x3ce0a4db	0.02742236
175	0xbbdb8cde	-0.0067001423
176	0x3e1973a4	0.1498552
177	0xbb817a16	-0.0039513214
178	0xbdc64c58	-0.0968253
179	0x3d9041c5	0.070437945
180	0xbe02d380	-0.12775993
181	0xbd501a60	-0.050806403
182	0xbdf500ff	-0.119630806
183	0x3e0eb592	0.13936451
184	0xbd311bae	-0.043239288
185	0x3d957aea	0.072988346
186	0x3c09a328	0.008400716
187	0x3da31732	0.079634085
188	0xbd3c8b4b	-0.046031278
189	0x3dc8a149	0.09796388
190	0xbda1ce0b	-0.07900628
191	0x3d1a06ab	0.037604015
192	0xbd67e23e	-0.056612246
193	0xbdb38c11	-0.0876695
194	0x3bae4a30	0.0053189024
195	0x3d7c54a2	0.06160415
196	0x3ced29e7	0.028950645
197	0xbb4898a9	-0.003060857
198	0x3d28348c	0.041065738
199	0x3dca7c43	0.09886982
200	0x3d9d6f1f	0.0768721
201	0xbd726fbc	-0.05918859
202	0x3cbddc12	0.023176227
203	0x3d59cd7c	0.05317448
204	0x3d68894a	0.056771554
205	0x3c16359c	0.009168055
206	0x3df0ebd2	0.11763729
207	0xbdda7d4c	-0.1066843
208	0x3d8d7f5f	0.0690906
209	0xbd490f2e	-0.049086742
210	0x3de985fb	0.11402508
211	0x3e0b1afe	0.13584515
212	0x3e0ce196	0.13757929
213	0xbc54f0ac	-0.012996834
214	0x3d8bee49	0.06832559
215	0x3d8ae7d7	0.06782501
216	0x3c9e56b7	0.019328458
217	0x3d9d06f3	0.07667341
218	0x3d695e9b	0.05697499
219	0x3d183b80	0.03716612
220	0x3d6aaf16	0.05729588
221	0xbdb44682	-0.08802511
222	0xbdfd467f	-0.12366962
223	0x3da31cca	0.079644755
224	0x3d4cb137	0.049973693
225	0x3d42eca3	0.047588956
226	0x3d91612f	0.070986144
227	0x3b840185	0.0040285015
228	0xbd062825	-0.03275313
229	0xbb74863a	-0.003731145
230	0xbd3ca1ee	-0.046052866
231	0x3cf4bf73	0.029876446
232	0xbd560209	-0.052248035
233	0x3dabf8b0	0.08397043
234	0xbd9d28e0	-0.07673812
235	0xbdaf61ae	-0.08563553
236	0xbc4b86f4	-0.012422312
237	0xbd22f2c8	-0.039782315
238	0x3deae183	0.11468794
239	0x3d5ab4da	0.05339513
240	0xbe0cd082	-0.13751414
241	0xbca8ff3d	-0.02062952
242	0x3dcc5e61	0.09978939
243	0xbdbcef42	-0.09225322
244	0xbc65f804	-0.014036182
245	0xbcddbbfb	-0.027067175
246	0xbcaa2b2c	-0.02077254
247	0xbdbfe76b	-0.09370311
248	0x3e17b62e	0.1481559
249	0xbd82d869	-0.06388933
250	0x3dcb252c	0.09919199
251	0xbd184c5c	-0.037182197
252	0xbdf58e89	-0.11990077
253	0x3d134675	0.035955865
254	0x3c6bacf4	0.014384497
255	0x3dfec0a1	0.12439085

layer_4.lin.bias f4 [32]
0	0x3cd68d8f	0.026190547
1	0xbd210c60	-0.039318442
2	0x3d9cc738	0.076551855
3	0xbd1d113a	-0.038346507
4	0xbdabd0f6	-0.083894655
5	0xbc9a4036	-0.018829446
6	0xbbf625a8	-0.007511813
7	0xbd24a8b7	-0.04019996
8	0xbd8a5f0f	-0.06756412
9	0xbc596dc4	-0.013270799
10	0x3c7714f4	0.015080679
11	0x3d0e7908	0.034783393
12	0xbdfcf690	-0.123517156
13	0xbc740e0b	-0.014895926
14	0x3cfef8ea	0.03112455
15	0x3dd1ef4b	0.1025072
16	0x3d643a24	0.05571951
17	0x3d78cee8	0.060744196
18	0x3d49167a	0.0490937
19	0xbc99d105	-0.018776426
20	0xbd607ae8	-0.054804713
21	0xbd2fbbb0	-0.042903602
22	0x3c2ba7a6	0.010476982
23	0xbd725679	-0.059164498
24	0x3dba4d2f	0.09096753
25	0xbd952fdb	-0.07284518
26	0x3d329c6b	0.043606203
27	0x3d4a2791	0.04935414
28	0x3db42dd5	0.08797804
29	0x3d850d86	0.0649672
30	0xbd210ab0	-0.039316833
31	0x3da26d0d	0.07930956

layer_5.lin.weight f4 [32, 64]
0	0xbdae3f0f	-0.08508121
1	0xbd384bf7	-0.04499432
2	0x3ce09bb4	0.027417995
3	0x3dc252c7	0.09488445
4	0x3bbc4b2a	0.005746265
5	0xbe0ea079	-0.13928403
6	0xbdf0089b	-0.11720391
7	0xbde30fcf	-0.110869996
8	0xbb655c73	-0.003499773
9	0x3d1a5273	0.037676286
10	0xbd34f07c	-0.044174656
11	0x3dc8216f	0.09772002
12	0x3b8ef4e2	0.0043626884
13	0xbda735ce	-0.08164559
14	0x3e0c8de2	0.13725999
15	0xbdc788e6	-0.09742908
16	0x39b8a454	0.0003521765
17	0x3da3c983	0.0799742
18	0xbd5d9f0f	-0.05410677
19	0xbd73dd8f	-0.059537467
20	0xbc7b63e0	-0.015343636
21	0x3d3d0ccd	0.046154786
22	0x3e1c70ea	0.15277448
23	0x3e47e35c	0.19520324
24	0x3d8aefff	0.06784057
25	0xbd4b0852	-0.04956848
26	0xbd9bf6e2	-0.076154485
27	0xbe36281c	-0.17788738
28	0x3db5e860	0.08882213
29	0xbdd94761	-0.106093176
30	0x3d7e210d	0.06204324
31	0xbe4b5a27	-0.19858609
32	0x3cd541db	0.026032379
33	0x3ddc3091	0.10751451
34	0xbddc0840	-0.10743761
35	0xbd66250f	-0.056187686
36	0x3d58ad67	0.052899744
37	0x3d98f08e	0.07467757
38	0xbd4c330b	-0.049853366
39	0x3c4752f2	0.012165772
40	0xbd787b08	-0.060664207
41	0x3d9425b1	0.072337516
42	0x3dbe7aec	0.09300789
43	0xbc9b0f72	-0.018928263
44	0x3d1187ba	0.03552983
45	0xbca46bcd	-0.020070935
46	0xbddcdced	-0.10784326
47	0xbdaa43ae	-0.0831369
48	0x3d095606	0.033529304
49	0x3dc2fa9f	0.095204584
50	0x380d0352	3.3620112e-05
51	0x3e404f15	0.18780167
52	0x3e1a4d0a	0.1506845
53	0x3e169eb0	0.14708972
54	0xbdb07195	-0.08615414
55	0xbdb2977b	-0.08720299
56	0xbdc50990	-0.096209645
57	0x3dd26efb	0.10275074
58	0x3e0fb85f	0.14035176
59	0x3e36678f	0.17812942
60	0xbdaf5add	-0.08562253
61	0x3de2dbe3	0.11077096
62	0xbcccd096	-0.025001805
63	0x3db5614f	0.08856451
64	0x3d2a70c2	0.04161144
65	0xbde41116	-0.111360714
66	0xbdd639f9	-0.10460276
67	0x3da442ad	0.0802053
68	0xbdd93820	-0.10606408
69	0x3d8add0a	0.06780441
70	0x3dbe8770	0.093031764
71	0x3e1b8052	0.15185669
72	0x3d4f8319	0.050662134
73	0xbd17236d	-0.03689902
74	0x3d4e92c0	0.05043292
75	0x3d30a8fe	0.043129914
76	0xbde279a1	-0.11058355
77	0x3d93299d	0.071856715
78	0xbdcbc670	-0.09949958
79	0x3de80c60	0.11330485
80	0x3d8069c1	0.06270171
81	0xbd2e0aa5	-0.04249062
82	0xbdb87650	-0.09006941
83	0x3dcb652b	0.09931406
84	0x3d109c07	0.03530505
85	0x3dc9df10	0.09856999
86	0x3d98fb46	0.074698016
87	0xbdd86a24	-0.1056712
88	0x3de602d6	0.1123101
89	0xbc1ef3cb	-0.009701679
90	0x3da8c0f1	0.08239926
91	0xbca076d6	-0.019587915
92	0x3d149f06	0.03628447
93	0xbd001489	-0.031269584
94	0x3ccd6a9a	0.025075246
95	0x3d25eb3d	0.040507544
96	0xbdfea74f	-0.12434255
97	0x3dca2f3d	0.09872291
98	0x3a1e865b	0.0006047242
99	0xbdd1e535	-0.10248796
100	0x3e2e254f	0.1700642
101	0xbddef280	-0.10886097
102	0x3baae31d	0.0052150623
103	0x3dfede03	0.12444689
104	0xbc1376b0	-0.009000465
105	0xbd8c0fa2	-0.06838919
106	0xbd5165c6	-0.05112245
107	0x3cef8a30	0.029240698
108	0x3c95669d	0.018237406
109	0x3dca8b0e	0.09889804
110	0x3ddb88a4	0.107194215
111	0xbda1a17e	-0.0789213
112	0xbc8ada36	-0.016949754
113	0xbdea2ce6	-0.11434345
114	0xbc43c7a4	-0.0119494535
115	0x3d30c633	0.043157768
116	0xbde28f28	-0.11062461
117	0xbc1baa8f	-0.009501114
118	0x3d58a449	0.05289105
119	0xbdd263a9	-0.10272915
120	0x3d7c24cf	0.06155854
121	0x3bb43852	0.005499878
122	0x3cf9f152	0.030510578
123	0xbd8019ca	-0.06254919
124	0xbd1f2e78	-0.038862675
125	0xbc4ae117	-0.012382767
126	0x3bbb17df	0.0057096328
127	0xbd5451b6	-0.051835738
128	0xbd371a7f	-0.044703003
129	0x3e341065	0.17584379
130	0x3d698ba5	0.05701794
131	0x3e052d0c	0.13005465
132	0x3e22c7ae	0.15896484
133	0x3dae2d37	0.08504718
134	0xbdb9917e	-0.090609536
135	0xbbffa837	-0.007802035
136	0xbdd5d701	-0.10441399
137	0x3db43ed0	0.08801043
138	0xbd123902	-0.035698898
139	0xbd2056db	-0.03914533
140	0xbd0504b8	-0.032475203
141	0x3d173889	0.03691915
142	0xbdf35d9c	-0.11883089
143	0xbd696887	-0.05698445
144	0x3d3c0d87	0.04591134
145	0xbdb8d291	-0.09024537
146	0xbdfdc0b1	-0.123902686
147	0xbe0a07f0	-0.1347959
148	0x3c4d07c9	0.012514063
149	0xbdba9959	-0.0911128
150	0xbe58263f	-0.2110834
151	0x3d835302	0.06412317
152	0xbd0ae9b3	-0.03391428
153	0x3d48c945	0.04902007
154	0x3d1a2384	0.037631527
155	0x3dc5eed8	0.096646965
156	0x3d7012c0	0.05861163
157	0xbdc04dc4	-0.093898326
158	0x3e1e58a0	0.15463495
159	0x3e104e24	0.14092308
160	0x3e258e64	0.16167599
161	0xbda36c69	-0.07979662
162	0xbd45994b	-0.048241895
163	0xbc0368dc	-0.008020606
164	0xbe176f9e	-0.14788672
165	0x3c9fd925	0.019512722
166	0xbb2ac9f4	-0.0026060315
167	0x3dd47c3c	0.10375258
168	0xbd60ac1c	-0.054851636
169	0xbd143e19	-0.036192033
170	0xbbb5ae3c	-0.005544452
171	0xbbb2e937	-0.0054599303
172	0x3e1e26f0	0.15444541
173	0x3df444dd	0.11927197
174	0x3c87b6f9	0.01656674
175	0xbdaeb52e	-0.08530651
176	0x3a30c075	0.00067425455
177	0x3dac71b6	0.08420126
178	0xbd887ee7	-0.0666483
179	0xbcd14418	-0.025545165
180	0x3e31d1a3	0.17365126
181	0xbdba5ed9	-0.09100122
182	0xbe1bec79	-0.15226926
183	0xbde28901	-0.11061288
184	0x3e01b910	0.12668252
185	0xbc177de3	-0.009246322
186	0x3cd0d593	0.025492465
187	0x3ceae8fd	0.02867555
188	0xbd3306c4	-0.043707624
189	0x3db6b49e	0.08921169
190	0xbcae49f9	-0.021275507
191	0xbe45f04d	-0.19329949
192	0xbce60e8c	-0.028083108
193	0xbd9065af	-0.070506446
194	0xbe18ce51	-0.14922453
195	0x3df46cb5	0.11934797
196	0xbd66e323	-0.05636896
197	0xbc511d9c	-0.012763407
198	0x3dfcf3ad	0.12351165
199	0xbb6e46e2	-0.0036358167
200	0x3d065125	0.03279223
201	0xbdfdec7b	-0.12398621
202	0xbcb87ae7	-0.022519542
203	0xbe167fee	-0.14697239
204	0xbe218032	-0.15771559
205	0x3e00f48c	0.12593287
206	0x3db61d3b	0.08892294
207	0x3d3a77bd	0.045524348
208	0x3e63b756	0.22237906
209	0x3de976fb	0.11399647
210	0x3e0efb5a	0.1396307
211	0xbc1eed93	-0.009700197
212	0x3d81555c	0.06315109
213	0xbc576733	-0.013147163
214	0xbd170496	-0.036869608
215	0xbd0de375	-0.034640748
216	0x3db7f20e	0.08981715
217	0xbce74838	-0.028232679
218	0x3d9e9cb9	0.07744736
219	0xbe7ba9c0	-0.24576473
220	0x3d15a062	0.036529906
221	0x3bf81f03	0.0075720563
222	0x3e1e1248	0.15436661
223	0x3b0145a0	0.0019725338
224	0x3df584e0	0.119882345
225	0xbd179b9c	-0.037013635
226	0x3df11734	0.11772004
227	0xbd418e90	-0.0472551
228	0x3de17c95	0.1101009
229	0x3db3641c	0.08759329
230	0xbcc12ee6	-0.023581933
231	0xbd90afa1	-0.070647486
232	0x3cbb96f8	0.022899136
233	0x3d8b047c	0.06787965
234	0xb989c058	-0.00026273984
235	0xbd42fbdb	-0.04760347
236	0x3c1e7855	0.009672244
237	0xbdee3fad	-0.11633239
238	0x3daf20d8	0.08551186
239	0xbddde45d	-0.108345725
240	0xbd2fdc77	-0.04293486
241	0x3d7a3d5c	0.061093673
242	0x3d8f197a	0.06987281
243	0xbd5991a0	-0.053117394
244	0xbcb00d1a	-0.021490622
245	0xbc275f75	-0.01021563
246	0x3c83583b	0.016033283
247	0x3dc9fff0	0.09863269
248	0xbdc114ca	-0.09427793
249	0xbbf2a4e2	-0.0074049095
250	0x3cb5c42a	0.022188265
251	0x3e465847	0.19369613
252	0x3dc69618	0.09696597
253	0x3da7cf2b	0.08193811
254	0xbd383de0	-0.044980884
255	0xbbb833df	-0.005621418

layer_5.lin.bias f4 [32]
0	0xbd816b87	-0.06319337
1	0x3db18975	0.08668796
2	0xbc677a8e	-0.01412834
3	0xbd208fa7	-0.039199498
4	0xbd6c4175	-0.057679612
5	0xbca15c24	-0.019697256
6	0xbd9a55ec	-0.075359195
7	0x3d83cde3	0.06435754
8	0x3cb94c65	0.022619436
9	0xbbe82f4b	-0.007085716
10	0x3dd0c25e	0.101933226
11	0xbcd60906	-0.02612735
12	0xbb02f823	-0.0019984327
13	0x3d8a59e8	0.067554295
14	0xbb8ea629	-0.004353304
15	0x3c0c1f65	0.008552407
16	0x3d969456	0.073525116
17	0xbd73200d	-0.059356738
18	0x3d55dbbc	0.05221151
19	0x3d07c0eb	0.033142965
20	0xba48ce3d	-0.00076601264
21	0x3b7abdad	0.0038260028
22	0xbc6be1dd	-0.014397112
23	0xbd553955	-0.05205663
24	0xbdcd9216	-0.10037629
25	0xbd51eb3a	-0.05124972
26	0x3d789097	0.060684767
27	0x3dbbe091	0.09173692
28	0xbd1fa754	-0.038977936
29	0x3d3c7540	0.046010256
30	0x3d580406	0.052738212
31	0x3d80278a	0.062575415
