training_runs/model_step12000.pt (torch, 108782 bytes, 24 tensors)

layer_0.lin.weight f4 [32, 64]
000000 01 95 16 be 86 eb d9 3d 9a bc 42 3e 04 94 12 bb
       -0.14705278 0.10640626 0.19017258 -0.0022366056
000010 6b af 84 bd bf 62 82 bc f4 3c 02 3d 87 c4 a7 bc
       -0.06478771 -0.015916226 0.03179641 -0.020479454
000020 2a 55 c2 3d cc a6 92 bd 64 0d 64 3d 8a 2b 0a 3e
       0.094889 -0.0716072 0.055676833 0.13493171
000030 d3 9c fd bd 04 cc 8a 3d 8f 80 3d 3b c6 e4 d0 bd
       -0.123834275 0.06777194 0.0028915738 -0.10199885
000040 67 77 2c 3e 08 94 c5 3d 8f 1d 2a be 82 02 e4 bd
       0.16842423 0.09647375 -0.16612838 -0.11133291
000050 f2 c8 20 3e 40 d4 18 3e 25 f0 cd bd 3c 47 4d 3d
       0.15701655 0.14924717 -0.100555696 0.050116763
000060 72 6a 38 be 55 c5 a3 3d 14 d5 34 3e 1c e4 c6 bd
       -0.18009356 0.079966225 0.17659408 -0.09711477
000070 65 6a 07 3e 91 fd 25 3d 63 1e d1 3c 8a 40 10 3e
       0.1322418 0.040525023 0.025527185 0.1408712
000080 54 9e a1 3d 5d 83 29 3e 53 c0 a7 bd 6e 46 23 be
       0.07891527 0.16554017 -0.0819098 -0.15944836
000090 5a 9a 25 3e 28 a2 3d be fd 61 2e 3e d7 55 5e 3e
       0.16172162 -0.18518889 0.17029567 0.21712433
0000a0 b6 6e 4a 3e c8 b7 6a bd f7 91 62 3d 55 9a b5 be
       0.19768795 -0.057304174 0.055314984 -0.35469308
0000b0 1a 72 ae bd 1f cd d0 bd 93 19 4a bd 5b 4f 95 3d
       -0.08517857 -0.10195374 -0.049340796 0.072905265
0000c0 ad 16 83 3c 07 c3 16 be 86 2f 04 3e 4b 68 78 3e
       0.016002024 -0.14722835 0.12908754 0.24258535
0000d0 6a 5f 9e bc e3 70 9d bd 5d 82 0b be e1 f1 ac bc
       -0.019332606 -0.07687547 -0.13623948 -0.02111143
0000e0 c5 f1 d1 3d 2c 5e 71 be 92 20 06 bc 41 cd a2 bd
       0.10251192 -0.2357108 -0.008186476 -0.07949305
0000f0 b4 26 f7 bc 66 b3 50 be a0 dc b6 3d be c8 20 be
       -0.030169822 -0.20380935 0.089288 -0.15701577
000100 b8 be 8c 3c a1 be 29 3c 15 e9 1c 3d 21 82 ec bb
       0.017180786 0.010360391 0.03830822 -0.007217661
000110 96 1b dd bd 49 81 88 3e 3d ca a3 bc b4 2f 09 be
       -0.10796277 0.26661137 -0.019993896 -0.13397104
000120 db 0c 58 bd 00 e9 85 bc 17 25 06 3c 54 51 5e 3e
       -0.052746635 -0.016346455 0.008187554 0.21710712
000130 28 fb b4 3d 1b 42 be bc 58 4e a7 3d 1a 23 8f bd
       0.08836967 -0.02322488 0.0816924 -0.06989117
000140 07 e2 05 be ef 30 d3 3d c5 fd 00 3d 1e 10 06 be
       -0.13074504 0.10312068 0.031492013 -0.13092086
000150 d2 dd 02 3e 3a b9 a1 bc db 2a 32 3e d2 d2 31 3d
       0.1277993 -0.019741643 0.1739916 0.043413945
000160 fd b7 8b 3d 71 1a 95 bc b5 a4 db 3c b4 3b 7a 3d
       0.06822202 -0.018201085 0.026811937 0.061092094
000170 9f 92 bf 3d 16 2b 61 3e 1a 43 56 bd 8b 0a 80 3d
       0.09354138 0.21989092 -0.052310087 0.06252011
000180 45 da 37 3e aa 97 33 3e 0c 27 41 be 51 e0 75 be
       0.17954357 0.17538324 -0.18862551 -0.24011351
000190 b5 bd 28 3e ab d4 a3 bd d7 ac c3 bc 62 05 82 3e
       0.16478617 -0.079995476 -0.023886127 0.25394732
0001a0 dc d4 07 be 07 33 66 3d 50 c7 33 bd 25 8e b8 be
       -0.13264793 0.056201007 -0.04389125 -0.36045948
0001b0 2a 9e 63 bd a2 68 25 3d 41 9d 9f bd c6 48 0f 3e
       -0.05557076 0.04038299 -0.07793666 0.13992605
0001c0 86 cd 47 be 5b 99 15 be 3b f3 ab 39 65 cc d3 bc
       -0.19511995 -0.14609282 0.00032796882 -0.025854299
0001d0 27 ec ca 3d ff 1c 51 3b 0e dc 5c bd d8 41 d9 3c
       0.09908324 0.0031908152 -0.053920798 0.026520655
0001e0 b3 76 69 3e 16 93 70 3e b6 3d 17 be dd d9 34 3b
       0.22799186 0.23493609 -0.14769635 0.0027595677
0001f0 ad 5c 94 be a9 9a 45 be 33 40 21 bd d2 55 34 be
       -0.28976956 -0.1929728 -0.039367866 -0.17610863
000200 49 7a ff bd 3e 3b bb 3d 58 a5 1b 3e 2e d5 17 bc
       -0.12474496 0.09142159 0.15199792 -0.009267135
000210 d0 b1 d7 bc 23 9b 00 3e f3 c8 f4 3d b8 d3 02 be
       -0.026329905 0.1255918 0.119523905 -0.12776077
000220 bf 3d 62 3c b6 77 72 be 01 8a 83 bd 42 32 95 3d
       0.013808667 -0.23678479 -0.064228065 0.072849765
000230 d8 28 c6 3d dd 47 aa 3d 6e 64 99 3d b4 79 e2 bc
       0.09675759 0.08314488 0.074898586 -0.027645923
000240 fd b3 71 bc fc 93 51 bc 09 45 a3 3c c0 f5 46 3d
       -0.014752385 -0.01279163 0.01993038 0.04857421
000250 ba f5 88 3c 7f 20 4b 3d 49 b8 63 be ce 19 9d bd
       0.016718734 0.049591538 -0.22238268 -0.076709375
000260 5c 82 81 bd 9c 26 f1 bc 1f d3 62 3e 12 5c 6c bb
       -0.06323692 -0.029437356 0.22150849 -0.003606562
000270 df 35 ba 3e 7b f0 1a 3d 93 84 cf 3c 8b 06 69 3d
       0.36369225 0.037826996 0.025331771 0.056891005
000280 d7 e3 ff bc 83 19 60 be b5 36 10 be 41 7c 6a bd
       -0.031236572 -0.21884732 -0.14083369 -0.057247404
000290 2a 58 e7 bd d2 48 c5 3d 76 83 0b be e4 8a d7 bc
       -0.11296113 0.0963303 -0.13624367 -0.026311345
0002a0 ca ac 9c be ce 92 41 3d ce 93 1d 3e 59 c3 69 3d
       -0.30600578 0.047259144 0.15388414 0.057071064
0002b0 06 85 d1 3d 47 0c b4 bc 41 34 7e bd da 21 17 3e
       0.1023045 -0.02197851 -0.062061552 0.14759007
0002c0 29 48 41 be 7a d8 ba bd 5c 78 55 bd 0c 6a 24 bd
       -0.18875183 -0.09123321 -0.052116737 -0.040140197
0002d0 90 4a 36 3e 09 0d 0f 3d f9 0c b4 3e 81 48 62 3c
       0.17801881 0.03492454 0.35166147 0.013811232
0002e0 68 07 f1 3c 20 33 17 3e 33 f4 06 be 0b 00 2a bd
       0.029422477 0.14765596 -0.13179092 -0.041503947
0002f0 0f 3d df bd 78 c9 22 3e 8c 3a 8f bd d5 21 af 3d
       -0.10900318 0.15897167 -0.06993589 0.08551375
000300 70 51 a8 be c4 02 d6 bd 53 29 e2 bc 1d a3 a5 3d
       -0.32874632 -0.10449746 -0.027607596 0.08087752
000310 78 c8 15 bd d6 e1 6d bd f3 b7 16 bd 0e d3 59 bd
       -0.036568135 -0.058076702 -0.03679652 -0.053179793
000320 6e 51 0d 3e f5 da 02 3e 1d 8f 24 be a2 b5 6a bd
       0.13800594 0.12778838 -0.16070218 -0.057302125
000330 51 33 9e 3c 59 76 d3 3d 4f f9 e5 bc 48 a9 de 3c
       0.019311579 0.103253074 -0.028072981 0.027180329
000340 d4 cb 5b 3e fb e5 50 3e 1f 45 ff 3d 4b ac f0 3c
       0.21464473 0.2040023 0.12464356 0.02937903
000350 56 11 d5 bd dd 79 19 be 49 6a 94 3c dd e8 e6 bd
       -0.10403697 -0.14987893 0.018117087 -0.11274884
000360 c8 54 9b be db 30 77 be b2 bd de 3d a3 f7 fd bd
       -0.3033812 -0.2413973 0.10876025 -0.124007486
000370 5f 48 ed bc 37 2a 10 3e d2 0c 6e bd 83 8b a5 3d
       -0.028965173 0.14078604 -0.058117695 0.080832504
000380 4f c1 a7 bd 04 1e b8 bd bd 05 58 be 67 68 c0 bd
       -0.081911676 -0.089901 -0.21095939 -0.09394913
000390 a8 ff bd 3d de d8 e0 bd 01 25 d6 3c fc 02 16 3e
       0.09277278 -0.10978864 0.026140692 0.14649576
0003a0 81 84 de 3c 65 f9 2e 3e 50 6f 0b 3d c9 d6 68 be
       0.027162792 0.17087324 0.034041703 -0.22738184
0003b0 0b 4c 20 bc 5e 91 9d bd 7f 4b 78 bd 8b fe c3 3d
       -0.009783755 -0.07693742 -0.060618874 0.095700346
0003c0 9d 87 99 3b 6f b6 f8 3d 57 93 21 3d e9 12 5e 3d
       0.004685356 0.121441714 0.039447155 0.054217253
0003d0 73 81 a5 bd ee 5f 87 be 71 ab b4 3d 3e 59 de bd
       -0.08081331 -0.26440376 0.08821762 -0.10856865
0003e0 c0 25 ef 3c 25 c1 b1 bd fe f3 63 be 2a 8c 05 be
       0.029192805 -0.086794175 -0.22261044 -0.1304175
0003f0 39 b9 35 be e5 1f 49 be 2c 32 21 bd c1 fd 40 be
       -0.17746438 -0.19641073 -0.03935449 -0.188468

layer_0.lin.bias f4 [32]
000000 e2 bc 6c 3c a2 4d 4e 3c 1d a0 53 bd a8 60 3e 3d
       0.01444933 0.012591751 -0.051666368 0.046478897
000010 77 aa 74 bb 95 7c 02 3d 85 0a 17 bd 99 19 1c 3e
       -0.003733305 0.031857092 -0.036875267 0.1524414
000020 d8 16 06 3e d0 95 0e 3c 28 76 d2 bd 88 5f cb 3d
       0.13094652 0.00870271 -0.10276443 0.099303305
000030 82 1e 58 3c 99 1e 4d bc d8 69 a2 3d 67 a3 22 bc
       0.013190867 -0.012519502 0.07930344 -0.0099266535
000040 f0 fe b1 3c 66 b6 01 3e 3a ae eb bd 8a 37 19 bd
       0.021728009 0.12667236 -0.115078405 -0.03740648
000050 d6 c3 7d bd 9e 6e 75 bd 4e cb ce bd af db c0 bc
       -0.06195434 -0.059919946 -0.10097371 -0.023542253
000060 72 f4 8e 3b 0b 85 3b bd dd fe 53 3d 8d 85 59 3c
       0.0043626362 -0.045781177 0.05175673 0.01327647
000070 10 fb ad 3c 40 40 67 bd 49 04 84 bc b7 2f 7d 3c
       0.02123788 -0.056457758 -0.016115325 0.015453271

layer_1.lin.weight f4 [32, 64]
000000 ab c8 00 be f7 be a0 bd ac 0f 8a bd e1 18 c8 3d
       -0.12576549 -0.07848924 -0.067412704 0.0977037
000010 27 d0 e2 bd 5a 84 d9 3d e5 ff 0f be 47 b4 2c 3e
       -0.11074858 0.10620947 -0.1406246 0.16865645
000020 66 12 a9 bd 07 59 22 bd cd 20 e2 bd ab 14 22 be
       -0.08255462 -0.039635684 -0.110414125 -0.15828197
000030 36 9a fe 3d de ed 97 bd 0e 33 47 bb 3e f9 6f bd
       0.12431757 -0.074184164 -0.0030395421 -0.058587305
000040 6b 79 63 3d 05 79 c7 3c 75 03 87 bd 13 f0 01 3e
       0.055535715 0.024349699 -0.06592456 0.12689237
000050 9f 6f 41 be e7 31 54 bc 34 8a ec 3d aa cc b5 bc
       -0.18890236 -0.012951351 0.11549798 -0.022192318
000060 a4 1b f7 3c 19 0d 27 3e 68 ca fb 3c 0a ee 91 bd
       0.030164547 0.1631359 0.030736163 -0.071254805
000070 8e f2 18 3e c7 67 20 3e 22 9b 6c bc 48 2f 92 bb
       0.14936277 0.15664588 -0.014441283 -0.004461203
000080 32 14 35 3d 15 f7 36 3e 62 ae bb 3c 67 18 20 bd
       0.044208713 0.17867692 0.0229103 -0.039085772
000090 cd 56 16 bb d5 7e 33 bd aa 23 2d 3e 07 50 25 be
       -0.002293992 -0.04382213 0.16908136 -0.1614381
0000a0 9c cb 93 3b 83 81 fb 3d ce 9d 8c bd e5 5e 8e 3b
       0.004510356 0.12280562 -0.06866036 0.0043448084
0000b0 b3 3c d5 bd 0d a7 f0 3d 50 f2 87 3e 0b 38 2a 3e
       -0.10411968 0.117506124 0.26552057 0.16622941
0000c0 fb b5 b4 3d da 34 02 be de 3e 0b bd b1 2d b0 3c
       0.088237725 -0.12715474 -0.0339955 0.021506162
0000d0 1d ed cf bd eb 5a 27 3d b0 f0 11 be cf e4 97 3d
       -0.10152648 0.04085819 -0.14251971 0.07416689
0000e0 a5 21 a7 3d c5 34 14 be 8d a9 fc 3d d4 24 06 3e
       0.08160714 -0.14473255 0.12337027 0.13099986
0000f0 20 5f 8e be 4a 36 0e 3e 06 dc 28 bd e1 4e b8 bd
       -0.2780695 0.13887897 -0.041225456 -0.0899942
000100 15 12 19 bd 38 dc 8e bb 89 de 23 bd fc 50 40 bc
       -0.03737076 -0.004359748 -0.040007148 -0.011738058
000110 07 24 2d 3c 22 00 c5 bd 9b ec a3 3e bc 03 91 3b
       0.010567672 -0.09619166 0.32016453 0.004425494
000120 c0 14 a3 3d 17 ad bb 3d 0d 63 8c 3d 29 2f ac bd
       0.07962942 0.09163874 0.0685483 -0.084074326
000130 34 ab 20 b8 d5 74 87 be 19 43 25 be a2 f5 19 be
       -3.8306418e-05 -0.26456323 -0.16138877 -0.15035108
000140 44 c6 b5 3d 4d 66 6e 3c 73 a5 80 bc 03 26 ab 3d
       0.08875707 0.014550758 -0.015703892 0.083568595
000150 56 80 89 be 1e 4a 36 bc 2e eb f6 bd 18 2f a9 bd
       -0.26855725 -0.011126069 -0.12056576 -0.082609355
000160 61 bf 01 be 75 b5 a2 3d f5 e9 1c be f7 32 9e bd
       -0.12670662 0.079447664 -0.15323623 -0.077245645
000170 55 08 1d 3e 7a 68 d3 3d 4d 30 4b be 49 d4 e1 3d
       0.1533521 0.10322662 -0.19842644 0.11026818
000180 9d a2 0d 3e 13 98 b3 3d d9 d1 95 bd d3 64 f3 3b
       0.13831563 0.0876924 -0.07315416 0.0074277907
000190 fd 81 c8 3d c1 88 86 3d f2 4d 63 bd 3c 82 e5 bd
       0.09790418 0.065690525 -0.055494256 -0.11206481
0001a0 2f b6 1f bd 2d 57 f7 3d 7c 51 71 3c cb 08 d2 3c
       -0.038992103 0.12077174 0.0147289 0.025638958
0001b0 fb 0e 96 bc 0c cc 6e 3c c9 b9 ac 3d 79 18 83 3d
       -0.01831769 0.014575016 0.08433873 0.06401152
0001c0 9a 59 7e 3d 33 f9 1b bd 30 70 41 3c a0 c8 31 3d
       0.06209717 -0.03807945 0.011806533 0.04340422
0001d0 6a d6 c7 3c 3f 9c 08 bd 3e be fc 3c 77 46 90 bd
       0.024394233 -0.033352133 0.030852433 -0.0704469
0001e0 7c a5 6b 3d ed fe be bd 6c fe 05 3e f2 c6 94 3d
       0.057530865 -0.09325967 0.13085335 0.07264508
0001f0 cc f8 24 be 14 ad 71 3d 16 d0 aa 3c 88 17 75 3c
       -0.16110533 0.05900295 0.020851176 0.014959224
000200 0c e7 09 be 06 85 3c be f7 e1 94 3b c0 31 0d bc
       -0.13467044 -0.1841012 0.0045435387 -0.008617818
000210 0d 3c 38 3e e1 6b 54 be c3 81 36 3e d7 20 89 3e
       0.17991658 -0.20744278 0.17822938 0.26782867
000220 52 51 e5 3d 34 f6 d8 bd bd a5 ce bd c9 0f b1 bd
       0.11197151 -0.105938345 -0.10090206 -0.08645589
000230 e3 28 3d 3e 81 89 14 bd fc e8 f1 bd 50 5b 1f be
       0.18472628 -0.036263946 -0.11812016 -0.15562177
000240 ad 82 3d bd f8 f6 8c bd 1a d9 c5 3d 03 a7 d3 bd
       -0.0462672 -0.06883043 0.096605495 -0.10334589
000250 e3 07 5b 3d cb 44 b7 bd 1e 44 6e be cd 7a 95 bc
       0.05347432 -0.08948668 -0.23268172 -0.018247033
000260 b9 3c 0b 3d 16 15 fc 3a d1 29 0f be a5 d1 59 3c
       0.033993457 0.0019232358 -0.13980795 0.013294612
000270 28 dc 81 3e 2f 93 53 3d 40 8c 6d 3c b8 ee 31 3c
       0.25363278 0.051654037 0.01449877 0.010860138
000280 45 56 a3 3c 5d fc 7e bd b7 b6 1d be 75 b1 79 bd
       0.019938597 -0.06225239 -0.15401731 -0.06096025
000290 2f 3f 60 3d 51 52 0c 3e 53 8c 09 be e5 3e 2e 3b
       0.054747757 0.13703276 -0.13432436 0.002658778
0002a0 1a fc b1 3c 5d be 77 bd 6c 97 0e bc 34 3d 03 3e
       0.021726657 -0.06048428 -0.008703094 0.12816316
0002b0 40 e9 74 3d 7b 12 34 3e 3c 34 cd 3d 18 dd ae 3d
       0.059792757 0.17585175 0.100197285 0.08538264
0002c0 4a 43 3a 3e e5 ec 2e bb d8 2d 94 bd 94 11 c1 3d
       0.18189731 -0.0026691493 -0.072353065 0.09427181
0002d0 4a 8b c5 3c 5a 98 5f bd 1f 07 b2 3d 14 c1 85 3c
       0.02411427 -0.054588653 0.086927645 0.016327418
0002e0 0f e5 0a 3d 97 74 12 be 36 82 7b 3d c7 52 a0 3d
       0.033909854 -0.14302288 0.061403476 0.078282885
0002f0 ac a2 ea 3a 49 9b a7 bd 97 2f df 3d f0 aa a5 3d
       0.0017901263 -0.08183915 0.10897749 0.08089244
000300 ad b7 51 3d 56 fa 91 ba 29 25 4f 3b 48 bd a3 3d
       0.051200558 -0.0011137228 0.0031607843 0.07995087
000310 18 c2 91 3b 2a 26 4d bd 6a 1a ca bc 32 12 42 3e
       0.0044481866 -0.050085224 -0.024670798 0.18952253
000320 2f 62 3c 3d 43 34 8b bd 7d ad 69 bc 9c 60 85 bd
       0.045992073 -0.067970775 -0.014262554 -0.065125674
000330 81 34 f2 3d c3 e4 6f bd fb 34 66 be 67 93 d1 bb
       0.118264206 -0.058567774 -0.22481148 -0.0063957456
000340 2f 28 25 bd d1 1b 6c 3c 75 2e 1d 3d 1d 51 cd bc
       -0.040321525 0.014410929 0.038374383 -0.025063092
000350 b1 65 aa 3d 63 ed 04 3d 4e e2 1e bc 28 a4 96 bd
       0.08320177 0.032452952 -0.00969751 -0.07355529
000360 8f ed b2 3c 72 26 4f 3d 0d e0 9c 3d ca ee 19 be
       0.021841792 0.050573774 0.07659922 -0.15032497
000370 a2 81 a9 3c 59 61 05 be 74 34 9e bd b8 71 de 3d
       0.020691697 -0.13025416 -0.077248484 0.10861534
000380 2a c4 33 be 85 d3 0f be 9b 62 51 3d 7b 55 22 be
       -0.175553 -0.14045532 0.051119428 -0.1585292
000390 46 b1 e5 3d 4e e4 13 3e 2b 61 ab 3d 70 e6 d3 3d
       0.11215453 0.1444256 0.08368143 0.10346687
0003a0 c3 bb cf bd 31 99 52 3d 1b 2e 8c 3d a7 12 c8 bd
       -0.101432346 0.051415626 0.068447314 -0.09769183
0003b0 80 ca 10 3d 4f 64 f9 3d 51 11 2b 3d f3 99 b6 3d
       0.03534937 0.121773355 0.04176456 0.08916082
0003c0 19 28 72 bd ce d5 e2 3d cd 3e c9 3d dc 2c fd 3c
       -0.05912027 0.11075936 0.098264314 0.03090518
0003d0 d2 cc 5e bd e7 fd 82 bc df 20 1f 3d ea 1b f5 3d
       -0.05439455 -0.01599021 0.038849708 0.11968215
0003e0 c8 95 37 3c 2b 68 62 bd 74 b3 3d 3d 39 9f 3a bd
       0.011205144 -0.055275124 0.046313718 -0.045562003
0003f0 02 3d e5 bd d1 86 86 bd f7 fc ae bd 46 0f 93 3c
       -0.11193277 -0.06568683 -0.08544343 0.017951619

layer_1.lin.bias f4 [32]
000000 f1 e6 72 bd 6c ea 8a bd d7 74 b7 bc ac e2 5a ba
       -0.059302274 -0.06782994 -0.02239458 -0.0008349817
000010 01 49 41 bd 15 51 ce bd cf 1a 94 3d 77 bc 4c 3d
       -0.047188763 -0.10074059 0.07231676 0.04998442
000020 22 26 ab bd d5 e9 f5 3c 42 54 1d 3d ee 9d 8a 3c
       -0.08356883 0.030018726 0.038410433 0.01692101
000030 16 f4 14 3b 51 e3 3a 3c 78 36 a5 3d 6b 84 ec bd
       0.0022728494 0.0114067355 0.0806703 -0.11548694
000040 13 12 01 bd f2 17 7f 3d c6 04 5b bd 79 13 94 3d
       -0.031511378 0.062278695 -0.05347135 0.072302766
000050 06 63 d7 3d e9 8b b5 bd dd 33 cd bc 23 f8 b5 3d
       0.10516934 -0.08864576 -0.025049144 0.08885219
000060 1a bd f3 3b c3 c5 2b 3d 2a 53 af 3b 8f e4 0c 3d
       0.007438314 0.041936647 0.00535049 0.034397658
000070 d3 d2 42 bd 95 2e 30 3b b5 cb 8d 3d 8d 97 d8 ba
       -0.04756434 0.0026883234 0.0692362 -0.0016524658

layer_2.lin.weight f4 [32, 64]
000000 b7 22 94 3c ab 58 8a 3d 9e e0 d4 3c 34 58 9c 3b
       0.01808296 0.06755193 0.025986012 0.004771257
000010 af e1 15 bc 2c 7d 08 3a 3b 91 ce bd 88 23 fa bb
       -0.009148045 0.00052066403 -0.10086294 -0.00763363
000020 fd 5f e9 bb 4a 8e ac bd d5 c1 36 3e 5f 3c 93 bd
       -0.0071220384 -0.08425577 0.17847379 -0.07189249
000030 38 b0 36 3e 4c d8 2f 3d 98 be f7 bc 82 fe bd 3c
       0.1784066 0.042930886 -0.03024225 0.023192648
000040 aa 0b 8b 3c d1 f8 fa 3d 24 06 19 3d 88 d3 d7 3c
       0.016973335 0.12254489 0.03735937 0.026345983
000050 83 14 b7 bd 19 5f bb 3c 4b a4 ac bd c2 cf f5 3d
       -0.08939459 0.022872495 -0.08429774 0.12002517
000060 21 fa 9e bd 76 73 fe 3c 16 16 6f 3e 39 3c 9c bd
       -0.07762552 0.031060915 0.23348269 -0.07628674
000070 0f dd b5 3d 20 1b 97 bd 89 08 14 3e a6 44 0d be
       0.08880054 -0.073782206 0.14456381 -0.13795719
000080 8d 7f 0c be 95 40 7e 3d eb da fe bd 7c 85 ff bd
       -0.13720532 0.06207331 -0.12444099 -0.12476632
000090 05 5e d7 bd 8e 76 18 3e 2a 58 78 3d e3 ba f1 bd
       -0.1051598 0.14888975 0.060630955 -0.11803224
0000a0 1d 08 23 3e 93 7c 7f 3d 17 d1 30 be fd 7c 58 bd
       0.15921064 0.062374663 -0.17267261 -0.052853573
0000b0 f5 8c 2b be d1 46 b6 3c 9d d9 87 3c 7b da 79 bd
       -0.1675299 0.022250565 0.016583258 -0.060999375
0000c0 fe 9e 4c 3c 37 2c 85 3d 4b 45 77 bd 4d ea c7 bc
       0.012489079 0.06502574 -0.060368817 -0.024403716
0000d0 6a ce 0e bd 2a 54 c3 be f5 0e 30 3d 98 2a 09 3c
       -0.03486482 -0.3815015 0.042983014 0.008371972
0000e0 8a f1 de bd 0e 1c 1a 3b 91 23 1c 3e 1b d3 b9 3d
       -0.10885914 0.0023515257 0.15247943 0.09073468
0000f0 04 a0 1a be 12 82 b8 3d b9 6b 0e be ba 23 05 3e
       -0.15100104 0.09009184 -0.1390828 0.1300191
000100 c5 a4 08 3d c0 2e aa 3d 83 2e 00 3e 5f 97 7d 3d
       0.03336026 0.08309698 0.12517743 0.061911937
000110 62 66 99 bd 7e f7 e0 3d 1e 8d ae bc 7f 7e 72 bb
       -0.07490231 0.109847054 -0.021307524 -0.0037001667
000120 dc 0e 1d 3e 22 5a f1 3d 93 db 3b be e0 1b 33 bd
       0.153377 0.117847696 -0.1834548 -0.043727756
000130 3f 86 51 be df 15 d1 3c bf 27 4a bd bd d7 1b be
       -0.20461367 0.025523124 -0.04935431 -0.15219016
000140 68 9a b5 bd 8c 14 e9 3c 82 b5 83 3c e9 95 cd 3d
       -0.08867341 0.02845218 0.01607776 0.10038359
000150 c5 e5 04 3d 62 8e 98 bd 31 c7 cf bc 6f 0a 26 3d
       0.032445688 -0.07449032 -0.025363537 0.040537294
000160 ef be b2 3b dd fd d8 3b d9 fa cb 3d db fc 5b bd
       0.00545489 0.0066220597 0.09959955 -0.05370794
000170 d3 ec 87 be 3d e6 19 be 40 af a1 bd 4c 3c 8a 3e
       -0.2654787 -0.15029235 -0.078947544 0.26999128
000180 47 ce eb 3d 2a f8 bc 3c 7b f1 f5 3d fb b2 0c 3c
       0.11513954 0.023067553 0.12008949 0.008587594
000190 ea fa 9f be 06 bd db 3c a3 e8 02 3e 01 41 0a 3d
       -0.3124612 0.026823532 0.12784056 0.0337534
0001a0 92 50 00 bc 46 6b e8 3c fd 73 04 be 19 d3 48 bd
       -0.007831709 0.028371464 -0.12934871 -0.049029443
0001b0 16 c5 de 3d 0b 4e 44 bd a7 f7 0a bd ab 10 23 bc
       0.10877435 -0.04792599 -0.033927586 -0.009952704
0001c0 99 51 64 bd 9a e3 b1 3d 24 80 bd bd ab ab e2 bd
       -0.05574188 0.0868599 -0.092529565 -0.11067899
0001d0 cf 61 02 bd 15 a0 5a be 89 9a 8f 3d 35 35 8c bd
       -0.03183156 -0.21350129 0.07011897 -0.06846086
0001e0 f4 a9 c4 bd cb bd 8a 3c d1 ff 6d 3b bb 2b 9f 3c
       -0.096027285 0.016936203 0.0036315809 0.019430032
0001f0 cb b1 c6 3d fe af d6 bc 71 c3 89 3d 5a d4 06 3d
       0.0970188 -0.026206966 0.067267306 0.032917358
000200 25 ab a9 bd b6 65 05 3e 44 51 ad 3d 19 fc e8 3c
       -0.08284596 0.13027081 0.08462766 0.028440522
000210 b8 76 e4 bd f9 88 6f bb c1 de 11 3e 04 5f a0 3d
       -0.11155456 -0.0036550148 0.1424513 0.07830623
000220 d0 dd 45 be c1 c3 ee 3c 3c ef d0 3c 84 de 34 bc
       -0.19322896 0.029146077 0.0255047 -0.01103938
000230 7a f3 ef 3c ba 8f 1d be 26 07 e8 bd e6 af 9c bc
       0.029290903 -0.15386859 -0.113294885 -0.019126844
000240 65 56 53 bd ab 7e df bd 17 09 c0 bc 9f 75 7f bd
       -0.051596064 -0.10912832 -0.023441834 -0.06236803
000250 63 ff 07 3e 14 6a 2e bd 34 6a b5 bb 64 19 4c 3d
       0.13281016 -0.042581633 -0.005536342 0.049828902
000260 3d dc 1b bd 31 c0 09 3e 5c 27 33 bd 62 01 18 3e
       -0.038051832 0.13452221 -0.043738708 0.14844278
000270 76 4a 8d 3a 08 1a 4b 3d 7f b7 12 be 4b fb d9 3d
       0.0010779637 0.049585372 -0.1432781 0.106436335
000280 6c 43 1d 3e 75 53 c5 3d 85 55 e1 3b 82 09 b4 3c
       0.1535775 0.09635059 0.00687665 0.02197719
000290 40 9c 68 bd 2a e8 42 3c 73 c6 c5 3d 3c 1f ca bc
       -0.056789637 0.011896173 0.09656992 -0.024673097
0002a0 6c a8 94 bc ff eb 1b be a6 15 0c 3e 1a 03 68 3d
       -0.018146716 -0.15226744 0.13680133 0.056643583
0002b0 25 41 25 bd 51 23 01 bd f9 9f 12 3d 4b a2 04 3c
       -0.04034533 -0.03152782 0.035797093 0.008095334
0002c0 85 ee 20 be 1a e8 98 3d b5 6c 8f bd fa 55 a5 bd
       -0.15715988 0.07466145 -0.07003156 -0.08073039
0002d0 27 2e 4c 3d 9c 59 23 3e 07 33 36 3c d4 7c f3 bc
       0.0498487 0.15952152 0.011120564 -0.029722609
0002e0 40 8d fd bc 01 76 96 bc 7d 74 7a bc 5f 71 c7 bd
       -0.030951142 -0.018366816 -0.015286562 -0.09738421
0002f0 80 ab 89 3d ae 51 06 3c ee c0 d4 3d 9d a7 2f be
       0.06722164 0.008198185 0.10388361 -0.17153783
000300 cb 38 3c bd 6d 93 85 3d 89 7c 38 3e 52 88 65 3d
       -0.0459526 0.0652226 0.18016256 0.05603821
000310 7d 47 13 be a8 f0 12 bd 85 4e 1d be 7b a7 f8 bd
       -0.1438274 -0.03587404 -0.15361984 -0.12141319
000320 ed a1 8e 3c 40 e1 9a bd 4b f3 86 3d c0 c4 dd bb
       0.017411197 -0.07562494 0.06589373 -0.006767839
000330 a1 e8 5b 3e e6 56 da 3c b1 b4 be bc 1d 98 be 3d
       0.2147546 0.026652765 -0.02327952 0.09306357
000340 09 9a 16 3d 7e 33 78 bd 33 4a a2 bd a6 4a 11 3d
       0.036767993 -0.06059598 -0.07924309 0.03547158
000350 e4 c4 07 3d 70 cb 13 be 7e d7 6c 3c d5 74 a2 bd
       0.033146754 -0.14433074 0.014455674 -0.0793244
000360 55 f0 3d bd 4a 44 1f 3e ae e1 03 3e 17 eb 4f 3b
       -0.046371777 0.15553394 0.12879059 0.0031725818
000370 bd d3 20 3e f1 79 9a 3c 64 6c 88 3d a6 5c 4a be
       0.15705772 0.018856974 0.06661299 -0.19761905
000380 f0 97 a6 3d 4e a9 be bd e3 a8 c4 bd 3d ac c1 bd
       0.081344485 -0.09309636 -0.09602525 -0.0945668
000390 26 a2 c2 3d 68 09 1d bd 0e 57 fe bc 5f 0e c2 bc
       0.095035836 -0.03833905 -0.03104737 -0.023688493
0003a0 c6 fc 93 bb 93 21 de 3d 1d e6 c4 bd 5a 07 30 bd
       -0.004516217 0.108462475 -0.09614203 -0.04297576
0003b0 36 9e 46 be 34 06 76 bd 0a b7 ba bd 4c 88 c2 3c
       -0.1939629 -0.06006451 -0.09116943 0.023746632
0003c0 f0 50 00 bd 33 b9 d7 bd 82 06 c1 3d 9e e9 dd ba
       -0.031327188 -0.10533371 0.094250694 -0.0016930585
0003d0 af de a1 3c f0 44 94 3c f9 4f 0e bd 82 28 3d bd
       0.019759504 0.018099278 -0.034744237 -0.04618121
0003e0 c1 3d 87 3c 11 fd d6 bd 4b d7 ce bd a8 83 8e bc
       0.016508939 -0.10497487 -0.100996576 -0.017396763
0003f0 14 88 0d be de d5 c0 bd 59 fd d4 bd eb 7f 89 3e
       -0.13821441 -0.09415792 -0.10399885 0.26855406

layer_2.lin.bias f4 [32]
000000 57 2b 47 3d 19 39 8c bc f9 eb dc bd 32 02 fd 3c
       0.048625316 -0.01711707 -0.10787196 0.030884836
000010 f2 8a f6 bd eb 24 55 bd d6 9e 0e bd da 20 8b bd
       -0.120382205 -0.05203716 -0.034819447 -0.06793375
000020 70 20 64 bd 54 d4 2c bd 21 e3 57 bc 6f 7e 71 3d
       -0.055694997 -0.04219468 -0.01317671 0.058958467
000030 1f 07 a6 3d 1e dc c2 3c cd b2 95 3c a0 49 2c 3d
       0.08106827 0.0237866 0.018273735 0.0420624
000040 71 56 69 bc 58 54 84 bd 63 c8 d8 bd 02 1d 95 bd
       -0.014241801 -0.064614 -0.10585096 -0.072809234
000050 53 b7 d2 3c df 47 82 bd 23 2c 5c bd c8 d2 30 3d
       0.025722181 -0.063613646 -0.05375303 0.043169767
000060 18 1c e2 bc e8 0d ab 3c f0 62 bb bc 2f a0 44 3c
       -0.027601287 0.020880654 -0.022874326 0.012001081
000070 2a 90 8d bd 7f 81 a2 3d 92 69 ed bd d6 60 ac bd
       -0.06912263 0.07934856 -0.115924016 -0.084169075

layer_3.lin.weight f4 [32, 64]
000000 89 f5 53 3d f9 5c 12 be 4f f1 43 3e 9f 6b 48 3d
       0.051747832 -0.14293279 0.1913502 0.04893076
000010 92 b2 06 3d 56 89 80 3c 62 46 8d 3c 61 0d 8f 3c
       0.03288514 0.015690487 0.017245475 0.017462434
000020 6d 7c df bd 68 ff 8f 3d 67 8a 0c 3d 05 da bb 3d
       -0.10912404 0.07031137 0.03431168 0.09172443
000030 82 b3 da 3d 12 c8 86 bc ee 7b 9a 3d e8 96 38 be
       0.1067877 -0.016452823 0.07543169 -0.18026316
000040 08 7b 90 38 4e 39 3e bd b0 fc a9 bd 79 2d be 3d
       6.8893714e-05 -0.04644137 -0.083001494 0.09286017
000050 4a 4e 22 3e 4d bb 0e be 98 dc 1c be 2d 1d fb 3c
       0.15850177 -0.13938637 -0.15318525 0.03065356
000060 5f c1 49 bc 2e 0f a3 3d 0a 34 10 bd f2 27 fb 3d
       -0.01231417 0.0796188 -0.03520588 0.12263478
000070 be 13 4b 3d e7 23 47 3d 4b 16 70 3c e9 08 d2 3c
       0.049579374 0.048618224 0.014653753 0.025639014
000080 1c 74 2f 3e 70 44 1b be 12 2c 3c be fd 54 24 3e
       0.17134136 -0.15162826 -0.18376186 0.16048045
000090 60 6e 23 be 48 f3 83 3d 2c 72 67 3d 0e ed 69 3d
       -0.15960073 0.064428866 0.056505367 0.05711084
0000a0 8f 14 31 3d 4f 06 d6 bd 3c 87 37 bd d5 29 fb 3d
       0.043232497 -0.10450422 -0.044806704 0.12263838
0000b0 b4 be 4a bd ef 20 98 bc 05 89 0d 3e e9 e6 13 bd
       -0.049498275 -0.018570391 0.138218 -0.036108885
0000c0 d9 55 c0 3d b9 10 99 bd dc 35 86 bd 26 4a 15 be
       0.09391374 -0.07473893 -0.065532416 -0.14579067
0000d0 16 57 67 bd 74 8e f0 3d 81 ba 56 3e c5 e8 0a 3e
       -0.056479536 0.11745921 0.20969583 0.13565357
0000e0 91 0c 0c 3e b3 b9 08 be 38 7e 83 3d 76 f1 64 be
       0.13676669 -0.13352089 0.06420559 -0.22357735
0000f0 57 9b 93 3d 00 06 43 3d 6c cc e6 bd 72 20 28 3e
       0.07207363 0.047613144 -0.11269459 0.16418627
000100 a6 91 07 be 53 f2 dc 3d d0 21 b5 bd 0e 88 e3 bc
       -0.13239154 0.10788407 -0.0884434 -0.027774837
000110 40 e7 c5 3c 33 34 bd bd 19 f8 25 3e 76 fe 09 3c
       0.02415812 -0.09238472 0.16207923 0.008422485
000120 ac 92 67 bb 55 57 1e 3e dd 50 a8 3c 6e ae 8a bd
       -0.0035335226 0.15463002 0.020546371 -0.06771551
000130 8e 9d 8c bd 45 ae bd bd db 51 81 be 34 81 10 be
       -0.06865989 -0.09261755 -0.25257763 -0.14111787
000140 80 d3 90 bd 9b 5e 1f 3e 34 d3 d4 bc 20 81 85 bc
       -0.070715904 0.15563433 -0.025979616 -0.016296923
000150 94 51 d4 bc a3 e7 e4 bc 70 0a c8 3d 46 f6 12 3e
       -0.025917806 -0.027942484 0.09767616 0.14351758
000160 3c cb 3d 3d 00 7a a3 3c 71 6b 19 be cb 23 92 bc
       0.046336398 0.019955635 -0.14982392 -0.017839333
000170 b8 a7 f8 bc bf af 06 3e 5d a6 55 3d 56 fa 48 bd
       -0.030353412 0.1315298 0.05216061 -0.049066864
000180 8a a0 92 bc f5 25 5d 3d 6b 4f 12 3e 50 a8 d8 bd
       -0.017898817 0.053991277 0.14288108 -0.10578978
000190 1d ff 7e bd ee 5d dc 3d 79 ee 37 3e 89 88 30 bd
       -0.062255014 0.10760103 0.17962064 -0.04309896
0001a0 71 4f 43 3c 11 0b 0c be 79 34 c8 bd c7 78 87 ba
       0.011920796 -0.13676096 -0.09775633 -0.0010335677
0001b0 22 ec 46 3e 82 85 f8 3d 63 3f 89 bd 6f 7d 06 3e
       0.19426015 0.121348396 -0.06701543 0.13133787
0001c0 e9 26 f0 bc 07 09 25 bc 6f c0 92 3d a4 06 7f bd
       -0.029315429 -0.010072953 0.0716561 -0.062262192
0001d0 bd 22 57 3e f5 71 35 bd 8d fd 1e be 45 c4 01 bd
       0.21009345 -0.04429813 -0.1552641 -0.031681318
0001e0 9e 0c 8b bc 65 97 65 3e db 51 2c 3d 2b e2 cc 3d
       -0.01697379 0.22421034 0.04207025 0.100040756
0001f0 32 ae 92 bd 1d a5 ae 3d a8 26 29 3e c7 b1 72 bd
       -0.07162131 0.085275866 0.16518652 -0.059251573
000200 88 f4 b9 bd fd 1d 42 be 51 35 e3 3d bc f0 20 be
       -0.09079844 -0.18956752 0.11094154 -0.15716833
000210 f3 83 e1 3a 76 dc 68 be 0e 53 f9 3d 44 e0 de 3d
       0.0017205462 -0.22740349 0.121740445 0.10882619
000220 dc 39 63 bd 1e 10 13 3b 95 32 c2 3d 58 a6 7e 3d
       -0.0554751 0.0022440027 0.09482304 0.062170357
000230 b0 0c b0 bd e9 3a f9 3c 02 3d 44 3b 0d 69 b8 3d
       -0.0859617 0.030423598 0.002994359 0.09004412
000240 bc 45 0d be 87 af 08 bd f5 25 b4 3d ce 7c 92 3c
       -0.13796133 -0.03337052 0.08796302 0.017881777
000250 a6 2b a1 3c ae a1 46 3d af 94 2a be 60 42 d1 bd
       0.019674134 0.048494034 -0.16658281 -0.10217738
000260 23 d5 2b bd b8 fe 99 bc e4 1f 49 bc 41 25 24 3c
       -0.04195131 -0.018798217 -0.01227567 0.010018648
000270 e4 d8 cf 3d ee d9 b4 3d 1e fa 8d bd b1 5f f6 3d
       0.101487905 0.08830629 -0.06932472 0.120299704
000280 8a f1 09 3e 0b e0 a2 3c 30 d3 41 3d 49 6f f5 bc
       0.13471046 0.019882223 0.047320545 -0.029960291
000290 1b 96 a2 3c ef 86 67 3e ac 95 9a 3b 78 af 36 3d
       0.019846966 0.22610067 0.0047175493 0.044600934
0002a0 b0 e8 03 3e 5c cc e9 bd 6b 60 15 be ce ce ca bd
       0.12881732 -0.114159316 -0.14587562 -0.09902726
0002b0 2e 08 3e bd 05 2d 18 bc 3d d5 de bd 3e 3e 1a bd
       -0.04639452 -0.009288077 -0.10880516 -0.037657015
0002c0 d5 1e ef bc e4 94 d4 bc 0f d3 35 bb 53 b5 b9 bd
       -0.029189507 -0.025949903 -0.002774421 -0.09067788
0002d0 4d af 04 bc 9e e7 02 3d e1 1a 45 be 86 0a 48 3d
       -0.008098436 0.03195917 -0.19248535 0.04883816
0002e0 b2 21 b7 3d a3 15 07 bc 5f 54 b2 3d 0d d8 06 3e
       0.08941974 -0.008244905 0.08707499 0.13168354
0002f0 ca 7c 6a 3c a9 33 13 bd c5 a1 20 3e eb 6e af 3d
       0.014311979 -0.03593794 0.1568671 0.08566078
000300 3d 5c 3a 3d f4 ee 95 bb 92 54 3c be 1f 16 b5 3d
       0.04549812 -0.0045756046 -0.18391636 0.0884211
000310 bb 40 fe bc dc fd 56 bd 3e 1c bb bd 5f 86 65 3d
       -0.031036725 -0.052488193 -0.09136246 0.05603635
000320 8a f9 47 bd ca 39 a7 bd e9 16 f7 3c fe 6d 4a bd
       -0.048821963 -0.08165319 0.030162292 -0.049421303
000330 ff a8 44 bd 2a af e3 3d a7 2c 2d be 0d de 7d bd
       -0.04801273 0.11117394 -0.16911565 -0.061979342
000340 54 ee c0 bd 47 36 06 3e c9 cb 8d bc 35 fa 9d bd
       -0.094204575 0.13106643 -0.017309086 -0.07713739
000350 68 54 fc bd 2b 77 4b 3d e8 2a 3a 3e 0b 28 81 bd
       -0.12320787 0.049674194 0.1818043 -0.06306466
000360 54 f5 f4 3d 5e 51 f8 bd 32 bd 81 3d d1 ad 04 be
       0.11960855 -0.121248946 0.06334914 -0.1295693
000370 19 81 72 3d d6 1d 1c 3e 62 5c 78 b9 8b 85 c6 3b
       0.05920515 0.15245757 -0.00023685538 0.0060584
000380 38 fa c7 3d 15 ad 7e 3d a8 56 81 bd 8e d1 97 bd
       0.09764522 0.062176783 -0.063153565 -0.07413016
000390 4a 5d ad bd 79 a8 b6 3d 9d d6 0c be 92 bc e3 3d
       -0.08465059 0.08918852 -0.13753743 0.11119951
0003a0 27 5d 73 bc 4b fe 82 ba 77 e3 c7 bc a0 ad 8c 3b
       -0.014853752 -0.0009993998 -0.024400456 0.0042931587
0003b0 fe 39 b0 bc 9e 1e 41 bd c9 c8 ce bc e4 db 00 bd
       -0.021512028 -0.04714834 -0.025242226 -0.031459704
0003c0 2e ca 67 3b 74 bf ab 3c a0 a0 3d 3d 98 8f 02 bd
       0.0035368311 0.020965315 0.046295762 -0.031875223
0003d0 cb bb 1e 3e 56 9a 11 bc c4 37 fe bd d7 fd 24 3e
       0.15501325 -0.008886894 -0.1241298 0.16112457
0003e0 c6 d7 b6 3c 01 ec 33 3d f0 c6 c3 3d e5 b0 2c 3e
       0.022319686 0.043926243 0.09559429 0.16864355
0003f0 60 d0 1a be 7a 2f e1 3d bb 69 2c 3e 09 2b 91 bd
       -0.15118551 0.109953836 0.16837208 -0.070882864

layer_3.lin.bias f4 [32]
000000 56 c1 fa 3c cc 1b d3 3c 11 a0 a2 3d 52 7c 8b bd
       0.030609768 0.02577009 0.079406865 -0.068108216
000010 d7 eb 13 3d bd 49 9f 3d 6d ec d3 3d b9 9c 99 bd
       0.036113586 0.07777736 0.10347829 -0.075005956
000020 4c bf 97 3d df fe 8e bc a4 52 a7 bb 06 49 b2 3c
       0.07409534 -0.017455516 -0.005106287 0.021763336
000030 25 0e 95 3d 56 1c 24 3d 65 e5 b3 bd dd c4 bc 3b
       0.072780885 0.040066086 -0.08783988 0.0057607726
000040 e8 c0 50 3c 76 45 ab bb 82 1d 24 bd 8a 48 3b bc
       0.012741305 -0.0052267862 -0.040067203 -0.011430869
000050 01 f5 86 3d fb 47 a5 3d fc 17 3f 3d 34 a7 05 bc
       0.065896995 0.0807037 0.046653733 -0.00815754
000060 f1 87 7b 3c 56 ca e6 3c 52 3a f7 bc 97 44 8b 3d
       0.015352235 0.028172653 -0.030179176 0.06800192
000070 e2 0c ab 3d 7f e7 82 3c 00 17 8c 3d f6 4f 82 bd
       0.083520666 0.015979527 0.068403244 -0.063629076

layer_4.lin.weight f4 [32, 64]
000000 8a fb 01 3e db c3 85 bd dd f9 38 3d 46 b3 e2 bd
       0.12693611 -0.06531497 0.045160163 -0.1106935
000010 c9 77 85 be 70 71 01 3e ad d2 1a bd c8 6b d7 bd
       -0.2606795 0.12640929 -0.037798572 -0.105186045
000020 6e 46 64 bb 02 d2 91 3d 41 97 16 bd ed 02 5b bd
       -0.0034832018 0.07120134 -0.03676534 -0.053469587
000030 be ef ad 3d d4 c9 66 bc c8 e5 9d 3c ec cb 07 be
       0.08492993 -0.0140862055 0.019274607 -0.13261384
000040 30 48 e4 bd 93 53 67 3d 48 d9 19 3c 53 ec 5a 3d
       -0.11146581 0.056476187 0.009390183 0.053448033
000050 01 ae ac 3d e0 f6 65 bd 65 ba 20 bb e4 6a 18 be
       0.08431626 -0.05614364 -0.0024525162 -0.14884526
000060 74 01 63 bc dd ab 0a 3e ac 37 d9 3d f4 6b 72 3d
       -0.013855327 0.13542123 0.10606322 0.059184983
000070 2c c4 c0 bd f3 4c c3 bd 95 de 52 bd 4b 17 11 be
       -0.09412417 -0.09536161 -0.051481802 -0.14169042
000080 50 f9 a1 bd 6c d6 e7 3d 14 23 e6 3c 70 ab c8 3d
       -0.07908881 0.113201946 0.028092898 0.09798324
000090 f4 75 aa 3d 0f cd 93 3c 40 c6 84 bd 9a 40 20 3e
       0.08323279 0.018042115 -0.06483126 0.15649644
0000a0 85 7e c0 3d 84 fa 8c 3d 23 10 0a be 8a bd d6 bc
       0.09399132 0.068837196 -0.13482718 -0.026213426
0000b0 a5 60 09 be 04 b9 99 bc 25 92 08 3d ea 0a 5f 3e
       -0.13415773 -0.01876498 0.0333425 0.21781507
0000c0 94 ff 2b 3c 2e 7f b2 3c e0 ee 0b be e6 43 25 3d
       0.010497946 0.02178916 -0.13665342 0.040347956
0000d0 ad 05 fe 3d 2f 78 5f 3c e2 df 8e bd 12 25 07 3e
       0.12403426 0.013639494 -0.06976296 0.13197735
0000e0 2f 71 45 3d cf 12 18 be 67 33 0f be 77 34 b6 bd
       0.048203643 -0.14850925 -0.13984452 -0.088967256
0000f0 2c 6d e3 bd c5 16 04 3e 74 8f 44 3d c5 c8 04 bd
       -0.11104807 0.12899311 0.04798837 -0.03241803
000100 a1 8f 23 3e 79 74 0c be ec db 32 be 70 2d bf bd
       0.15972759 -0.13716306 -0.17466706 -0.093348384
000110 e4 b6 2e bc 95 b2 1d bd 3d 7d 1a 3e 35 d0 98 3d
       -0.010663722 -0.038500387 0.15086837 0.07461587
000120 fe c4 7c be 09 6c 88 bc f0 cd 76 b9 b5 6e 05 3e
       -0.24684522 -0.016653078 -0.00023537106 0.13030513
000130 67 98 1a 3e a2 b4 13 be 6d 50 1a bc f8 5c 96 3d
       0.150972 -0.14424375 -0.009418589 0.07341951
000140 e2 cb 2e bc d4 c2 ed 3d a8 e9 15 be 8e 7f cb bc
       -0.010668727 0.11609426 -0.14639914 -0.024841096
000150 e0 fa 52 bd 7d 8a f4 3b 76 c0 3b bd b9 aa bf 3d
       -0.051508784 0.007462798 -0.045837842 0.09358735
000160 94 3d b8 bd 7e f1 29 be 44 68 32 be 2c 0b a0 bb
       -0.0899612 -0.16596028 -0.17422587 -0.0048841443
000170 55 4d d1 3d cf 79 09 3d 88 80 1c 3e 53 44 bb bc
       0.10219828 0.03356343 0.15283406 -0.022859728
000180 3a a9 9e 3d fd d1 fd ba a8 96 26 bd de f7 e9 bd
       0.07747121 -0.001936495 -0.04067102 -0.1142423
000190 a8 e0 ef bd 27 11 24 3c 8e 15 03 3d 85 dc ec bd
       -0.11712772 0.010013855 0.032002978 -0.11565498
0001a0 e3 ec bf bd 0c 1a 9b 3c 26 7a b8 bd a3 5f e4 bd
       -0.093713544 0.018933319 -0.09007673 -0.11151054
0001b0 91 f1 0f bd 90 6e 70 3d b3 04 50 3d 02 54 30 be
       -0.035142485 0.05869919 0.05078573 -0.17219546
0001c0 8f e2 83 bd 10 97 be 3d fe 2f 62 bd c1 b2 12 be
       -0.06439697 0.09306157 -0.05522155 -0.14326002
0001d0 f9 74 47 3d 90 a3 ad 3d b0 5e 66 ba 84 c7 7c 3d
       0.04869554 0.08478463 -0.0008787913 0.06171371
0001e0 d0 c4 df 3d 8d b3 1c be 42 fc e6 bc 5c d0 a3 3c
       0.10926211 -0.15302868 -0.028196458 0.019996814
0001f0 90 23 e5 bd c2 62 a5 bb 27 82 52 bd 14 13 e9 3d
       -0.11188424 -0.0050471732 -0.051393654 0.11380592
000200 17 35 ec bd c8 56 31 3e 85 5b 8e bd ce c4 08 3e
       -0.115335636 0.1731826 -0.0695105 0.13356325
000210 92 44 38 bd b0 0a f9 bd 37 5c ba bd db b4 de bd
       -0.04498727 -0.121602416 -0.0909962 -0.10874339
000220 8e 2b de bc 5d 07 0f 3d a7 fc c0 bc 8d 7a 00 bd
       -0.027120378 0.03491913 -0.023557974 -0.031366874
000230 a0 cd 61 3d af a4 46 3d 05 ab 14 bd 9b 6c 3d 3b
       0.05512774 0.0484969 -0.03629591 0.0028903845
000240 66 84 20 be cd e7 69 3d ca 53 41 3d bd 67 fb bd
       -0.15675506 0.057105828 0.047199048 -0.12275646
000250 94 26 d3 bd 79 f0 89 3d ea 91 37 3d 67 8d ad 3d
       -0.103100926 0.0673532 0.04481689 0.08474236
000260 9f ed 06 3d 1b a6 2b be 1b 4f 0c 3e ac fa 86 bd
       0.032941457 -0.16762583 0.13702051 -0.065907806
000270 bf 43 08 3d b3 5d 7c 3c 2d 76 73 3d 1c d5 8e 3d
       0.033267733 0.015403199 0.059438873 0.06974241
000280 e3 53 b4 bd 8c a9 80 bd 04 64 cd 3b e6 50 1c bc
       -0.088050626 -0.062823385 0.0062680263 -0.009540772
000290 e4 a3 db 3d bd 70 11 3e 74 e3 3f bd ad 41 40 3c
       0.10724619 0.14203162 -0.046847776 0.011734408
0002a0 ae f6 91 bd 76 27 e2 bd 7d f5 91 3d 38 0b 24 bc
       -0.071271285 -0.11042683 0.07126901 -0.01001244
0002b0 d5 f9 20 bd ce 93 3a bd f3 f8 27 3c 03 bd 32 3d
       -0.03930076 -0.045551114 0.010252225 0.043637287
0002c0 16 a0 d0 3d f2 b6 80 3c 42 dd c6 bd 7b d4 a4 3d
       0.10186784 0.015712235 -0.0971017 0.0804834
0002d0 17 bc 1a be b5 8a 2e bd d7 4a c5 bd d0 9c 18 3e
       -0.15110813 -0.04261275 -0.09633415 0.14903569
0002e0 62 46 41 bd b6 39 36 3d 41 f4 09 3d af 73 27 3d
       -0.047186263 0.04448863 0.033680204 0.04088181
0002f0 ad 7d 97 bc 7b 2b a0 3d c7 3a e3 bd 48 36 57 3d
       -0.018492544 0.07820793 -0.11095195 0.052542
000300 24 96 ef bc a1 37 1a be 99 d9 8c bd cc 9e ba 3d
       -0.029246397 -0.15060283 -0.06877441 0.09112319
000310 34 8a ba 3c 3a 48 85 bc 1e ad 99 3d bf f8 f0 3d
       0.022770979 -0.016269792 0.075037226 0.117661946
000320 43 91 87 3d e5 97 0b bd 4a 41 6f 3c 79 f5 8e 3d
       0.06619503 -0.034080405 0.0146029685 0.06980414
000330 0e 9f 2a 3d 7e 1b 09 3c 30 ec 01 3e 46 af 1c be
       0.041655593 0.008368371 0.12687755 -0.15301237
000340 1b 14 dd 3d 5a de 1c bd 47 88 b9 3d 79 46 14 3e
       0.107948504 -0.03829799 0.09059196 0.14480008
000350 cf d1 1b 3e 53 a9 14 bc ee cf aa 3d 76 b3 92 3d
       0.15216754 -0.009073573 0.08340441 0.07163136
000360 01 32 26 bd 4e e9 e3 3d dc 62 85 bb a4 5a cf 3d
       -0.04057503 0.11128484 -0.004070623 0.1012471
000370 fe 9f 16 3d 80 4d 77 bd 31 73 12 be e6 bd c4 3d
       0.036773674 -0.060376644 -0.14301755 0.09606533
000380 33 eb b6 3d ae 17 35 3d a0 50 a9 3d f5 55 3b 3d
       0.089315794 0.044212036 0.08267331 0.045736272
000390 e5 eb 92 bc 93 62 42 3c 9f 79 df bc bf 84 85 3d
       -0.017934749 0.011864322 -0.027279673 0.0651946
0003a0 ff c5 8a bd fb 29 08 3e c8 62 83 bd e6 f7 8a bd
       -0.06776046 0.13297264 -0.064153254 -0.06785564
0003b0 17 67 9c bc e8 0a 68 bd 76 a6 ff 3d c3 8e 95 3b
       -0.019092126 -0.056651026 0.12482922 0.0045641377
0003c0 88 1e 0b be 78 b6 21 bc 04 a3 a1 3d 56 07 b4 bd
       -0.13585865 -0.009870164 0.07892421 -0.08790462
0003d0 8c 83 65 3c c3 15 5e bd d4 40 83 bc 83 2f d3 bd
       0.014008414 -0.054219972 -0.016022123 -0.103117965
0003e0 83 36 2f 3e 4f a7 08 bd f3 59 e3 3d 58 9d 10 3b
       0.17110638 -0.033362683 0.11101141 0.002206644
0003f0 70 48 0b be 42 6a e1 3a ff be 50 bc f6 0b f0 3d
       -0.13601851 0.0017197805 -0.0127408495 0.11721031

layer_4.lin.bias f4 [32]
000000 1a 9d 8e 3c d6 31 9e bd bc a9 b6 3d 81 61 7a bd
       0.017408896 -0.07724349 0.08919093 -0.061128143
000010 e2 bd 80 bd 80 44 87 bc 9b 3d a8 bb 22 87 38 bd
       -0.06286217 -0.016512156 -0.005134297 -0.045050748
000020 52 25 85 bd 73 67 a5 bc 8d a5 ca 3c 52 e4 ab 3c
       -0.06501259 -0.02019093 0.024737144 0.020982895
000030 6d 96 fb bd d5 3c 49 bc 79 12 96 3d d2 17 d3 3d
       -0.12284551 -0.01228257 0.07327742 0.10307278
000040 7e 50 06 3d a3 77 9c 3d bb 61 ab 3d 9e d7 27 bd
       0.032791607 0.076400064 0.0836825 -0.040977113
000050 62 bc 97 bd e0 1a 4a bd d9 ce fb 3c b7 ed 29 bd
       -0.07408978 -0.049342036 0.030738281 -0.04148647
000060 0c 6b d4 3d 18 b8 8e bd f2 85 75 3d cf 9e 65 3d
       0.1037198 -0.06968707 0.059942193 0.056059655
000070 6a 26 e7 3d e8 a6 7d 3d 89 4a 12 bd 46 5a 84 3d
       0.11286624 0.061926752 -0.035715614 0.06462531

layer_5.lin.weight f4 [32, 64]
000000 bb 04 b8 bd 0b 55 9e bd 5a 60 0a 3d 5e 9c c4 3d
       -0.08985277 -0.077310644 0.033783294 0.09600137
000010 ef d8 9a 3b bd 2b ee bd e4 d7 c9 bd 8a 85 14 be
       0.0047255675 -0.11629436 -0.09855631 -0.14504066
000020 2e 35 a2 3c 99 b2 c5 3d e1 99 f4 bc c3 18 17 3e
       0.019800749 0.096532054 -0.029858531 0.1475554
000030 b9 52 4e bd ce 0c 54 be 0b c3 7d 3e 7a 9b 8b bd
       -0.05037186 -0.2070801 0.24781434 -0.06816764
000040 33 f6 de bd 0c d3 e0 3d 58 b9 4c 3c 0e aa fe bd
       -0.108868025 0.10977754 0.012495361 -0.12434779
000050 df a9 eb ba f1 32 3a bd c9 33 86 3e 63 cd 22 3e
       -0.0017979703 -0.045458738 0.26211384 0.15898661
000060 4d 36 a2 3d 10 d9 9a bd 8e 0d e1 bd 91 2b 8e be
       0.07920513 -0.07560933 -0.109889135 -0.27767614
000070 68 8d 07 3e 7d 42 39 be b8 2c 60 3d 6a f2 56 be
       0.13237536 -0.1809177 0.054730147 -0.20990911
000080 a5 ef 60 3d ae f5 a6 3d c8 1f 8d bd ed 9d ca bd
       0.054916043 0.081523284 -0.068908274 -0.09893403
000090 26 5f 53 3d 57 4e a9 3d 0f 75 50 bc 53 0f 2b 3c
       0.051604412 0.08266895 -0.012723221 0.010440665
0000a0 31 1d 94 bd 8c da f1 3c 80 ba ce 3d 22 61 69 bc
       -0.0723213 0.029523157 0.10094166 -0.01424435
0000b0 c8 87 27 bc bf 74 ad 3c 65 49 21 be 3a 64 2f bd
       -0.010225244 0.021173833 -0.15750654 -0.042820193
0000c0 ed b3 ce 3c fa c7 0a 3e 7e 84 74 3d 09 af 37 3e
       0.02523228 0.13552848 0.059696667 0.17937864
0000d0 0b 05 3b 3e 63 71 f4 3d 43 93 e0 bd 47 f3 e2 bd
       0.18263642 0.11935689 -0.10965588 -0.11081558
0000e0 c0 5d 06 bd 67 53 bd 3d 8e 6e 2c 3e 45 c0 4f 3e
       -0.03280425 0.09244423 0.16839048 0.20288189
0000f0 86 da 51 bd 81 4f 0d 3e a9 10 8e ba 6d d0 eb 3d
       -0.05123379 0.1379986 -0.0010838705 0.115143634
000100 88 77 7a 3d 73 b0 cd bd 32 bc a6 bd 17 a9 be 3d
       0.06114915 -0.10043421 -0.08141364 0.09309595
000110 24 a8 b5 bd b4 7d c3 3d d0 6c ca 3c 93 8f cd 3d
       -0.08869961 0.0954546 0.024710089 0.1003715
000120 de 53 98 3d 28 b0 be bd 91 65 9d 3d b6 10 84 3c
       0.074378714 -0.09310943 0.07685388 0.01612125
000130 51 ea 56 bd fa 61 12 3e 42 62 f0 bd 34 f3 1e 3d
       -0.052469555 0.14295188 -0.11737491 0.038806155
000140 d3 a0 d1 3d b6 70 4c bd 75 77 f3 bd fc 6f ee 3d
       0.10235753 -0.049912177 -0.11888019 0.11642453
000150 86 fa e6 3c 2f 7e d0 3d 53 d5 6b 3d 1a 04 8b bd
       0.02819563 0.101803176 0.05757649 -0.06787892
000160 00 ea 82 3d 68 08 82 3d 22 34 a1 3d 5c b5 6e 3d
       0.06392288 0.063492596 0.07871272 0.058278427
000170 9a 4e 84 3d 49 f3 c1 bc 6a 70 55 3d 23 4d 33 3d
       0.064603046 -0.023675578 0.05210916 0.043774735
000180 e5 75 d1 bd 3a d2 c1 3d 0e 04 b3 3c 58 46 c6 bd
       -0.10227565 0.09463926 0.02185252 -0.09681386
000190 49 0f 34 3e 51 60 b2 bd 09 1b dc bc e9 78 94 3d
       0.17583956 -0.08709777 -0.02686836 0.07249624
0001a0 94 cc 02 bb 34 5f 8e bd 7a 3e 29 bd 20 6c 00 3d
       -0.0019958364 -0.06951752 -0.041319348 0.031353116
0001b0 93 ac 83 3d 20 91 de 3d 27 ae b3 3d 06 ea 03 be
       0.064294 0.10867524 0.08773451 -0.12882242
0001c0 ea 19 0d 3c 89 23 fb bd 5e 3a 5a bd 4f 83 9c 3d
       0.008612135 -0.12262637 -0.05327832 0.076422326
0001d0 02 e4 d9 bd 4e 0e d0 bb 7c bc 14 3d bb f5 86 bd
       -0.10639192 -0.0063493615 0.036312565 -0.06589838
0001e0 22 6f a5 3c 18 86 7d 3d 7f 75 64 b9 b1 88 26 bc
       0.020194594 0.06189546 -0.00021787545 -0.010164426
0001f0 7a 4e 33 bc b1 35 13 bc 6f b0 4b bb 08 0f 47 bd
       -0.010944003 -0.008984969 -0.0031080504 -0.04859832
000200 93 95 92 bd 32 3f 3c 3e 22 a0 ce 3c 6d 91 04 3e
       -0.07157435 0.18383482 0.025222842 0.129461
000210 84 38 3a 3e dd 10 e4 3d 0d 7a 65 bd 79 77 00 3d
       0.18185622 0.11136029 -0.0560246 0.031363938
000220 bc 5e 0c be ff 10 1f 3e 9f 29 91 bd f6 0e 2b bd
       -0.13708013 0.15533827 -0.07088017 -0.041762315
000230 63 34 a2 bd 88 a4 2c bc d4 51 02 be bb fc c9 bc
       -0.07920148 -0.010537274 -0.12726527 -0.024656644
000240 04 be 64 3d b4 46 d0 bd 6f 0b de bd 43 7b 16 be
       0.055845276 -0.101697356 -0.108420245 -0.14695458
000250 9f 5e 72 3c 7c 85 aa bd c3 5d 52 be 48 b2 52 3b
       0.014793067 -0.083262414 -0.2054358 0.003214972
000260 f6 99 be bc 59 ed c4 3b 34 d4 c3 3c c5 24 85 3d
       -0.023266774 0.0060097394 0.023904897 0.06501154
000270 a6 7a c4 3c dc 82 d3 bd c7 04 14 3e 0b c6 18 3e
       0.023984265 -0.10327694 0.14454947 0.14919297
000280 84 40 1a 3e da 76 90 bd 8b e2 85 bd 8f d6 4d 3c
       0.15063673 -0.07053919 -0.0653735 0.012563362
000290 6b dc 07 be 5c a3 c2 3c a4 89 d4 3c 62 7f 09 3e
       -0.13267677 0.023759536 0.025944538 0.13427499
0002a0 63 e8 cb bd e1 0f 6c bb 8d 47 14 bb fd 64 cf bc
       -0.099564336 -0.0036020207 -0.0022625655 -0.02531671
0002b0 bb 80 e8 3d 2c c6 c6 3d f5 3b 17 3d df e4 31 bd
       0.113526784 0.09705767 0.036922414 -0.04343116
0002c0 05 1e fc 3c 1b a9 8f 3d 05 e0 c7 bc b4 bf 84 bd
       0.030776033 0.07014676 -0.024398813 -0.06481877
0002d0 4c 35 0e 3e 63 d7 8d bd 26 a7 17 be b1 4c 11 be
       0.13887519 -0.069258474 -0.14809856 -0.14189412
0002e0 7e 1c c4 3d 9e 6f 0c bd 29 33 0f 3d 90 65 3f 3b
       0.09575747 -0.034286134 0.0349609 0.0029204823
0002f0 8b 1c 94 bd 80 a8 9d 3d 30 78 b8 bc d1 8b 48 be
       -0.07232007 0.076981544 -0.022518247 -0.19584586
000300 a0 b2 25 bd a7 0b 1e bd 37 99 2f be ca 11 03 3e
       -0.040453553 -0.03858533 -0.1714829 0.12799755
000310 4e 71 b5 bd e1 99 d3 bc e6 fb fa 3d 1b f8 2b 3d
       -0.08859502 -0.025830211 0.12255077 0.04198466
000320 b3 45 1c 3d 81 b6 e9 bd e0 9b de bc 34 06 27 be
       0.038152408 -0.11411763 -0.027173936 -0.1631096
000330 3f 4d 3e be 7c 8c ed 3d c6 e0 81 3d 78 6d 5b 3d
       -0.18584155 0.11599061 0.063417 0.053571194
000340 a8 c2 a6 3e 06 1a ff 3d 73 6d 1d 3e 90 6d 0c bd
       0.32570386 0.124561355 0.15373783 -0.034284174
000350 b4 1e 6e 3d b8 cf f3 3c 2c 42 97 bd 5c a2 42 bd
       0.05813475 0.029762134 -0.07385668 -0.04751812
000360 23 a0 bd 3d 40 69 8e bd 80 8a aa 3d b1 25 93 be
       0.09259059 -0.069536686 0.08327198 -0.28739694
000370 4c 69 b7 ba 21 52 8b 3b 0f b5 47 3e 5f 80 93 bc
       -0.0013993173 0.004251734 0.19502662 -0.018005548
000380 7e 71 03 3e dc e0 c9 bc 17 2c d4 3d ea 3e 47 bd
       0.12836263 -0.024643354 0.10359972 -0.048643984
000390 15 28 ca 3d fa 70 aa 3d 09 39 27 bd 24 c8 01 bd
       0.09870926 0.0832233 -0.040825877 -0.03168501
0003a0 f9 85 b5 3b ea 96 33 3d c0 fc 1a bd 3e 0f 8e bd
       0.0055396524 0.043845095 -0.037838697 -0.06936501
0003b0 8e d2 98 3b 76 64 b3 bd ba f5 bd 3d 45 3b b4 bd
       0.004663772 -0.08759396 0.09275384 -0.08800367
0003c0 89 ce 76 3b 6a 99 8c 3d 48 08 db 3d 96 47 ae bd
       0.0037659726 0.06865199 0.10694939 -0.08509748
0003d0 c1 16 4b bd 5d 21 96 3c c3 5f 2f 3d 51 c6 ce 3d
       -0.049582247 0.018326456 0.042815935 0.100964196
0003e0 3c 6f 17 be 0a 79 ab bc ab 1c 90 3c 82 48 31 3e
       -0.14788526 -0.02093174 0.017591795 0.17312816
0003f0 1a cc 97 3d 4d ae a5 3d 0e 7b 23 bd 59 bc b2 bc
       0.07411976 0.08089886 -0.039912276 -0.021818327

layer_5.lin.bias f4 [32]
000000 36 f1 82 bc 15 56 a8 3d 55 95 9a bc ce 6c 25 bd
       -0.015984159 0.08219544 -0.018870035 -0.040386967
000010 99 f4 fa bc 3e ef e8 bc 54 d7 ad bd bb db 48 3d
       -0.030634211 -0.028434392 -0.08488336 0.049037676
000020 5d 9c 85 bb b4 9c 8b ba b1 fe d5 3d bf 4b a9 bb
       -0.004077478 -0.001065156 0.10448969 -0.0051665003
000030 c2 2e 95 bb 71 0b a2 3d f3 38 2d 3c 64 22 77 3c
       -0.004552693 0.079123385 0.01057266 0.015083883
000040 6f f1 ac 3d a3 7f 1b bd 6c 76 1d 3d 69 f5 ee 3c
       0.08444487 -0.03796352 0.038443014 0.029169755
000050 30 ce ef 3b a2 57 4a bc 3c 59 a9 bc 0b f3 c0 bc
       0.0073182806 -0.012349995 -0.020672433 -0.023553392
000060 12 d5 bc bd 59 63 76 bd 5c 7b 2c 3d ab 18 44 3d
       -0.092203274 -0.06015334 0.042109832 0.047875088
000070 dd 3e 34 bc ae 84 72 3d 3b 1a 99 3c d2 47 83 3d
       -0.011001316 0.059208564 0.018689265 0.06410183
