training_runs/model_step5000.pt (torch, 108754 bytes, 24 tensors)

layer_0.lin.weight f4 [32, 64]
-0.07287019 0.050076403 0.07931849 -0.028602954 -0.053915475 0.0020437909 0.019475093 -0.036905568
0.02547297 -0.13048102 0.027046015 0.05279994 -0.11803417 0.0075522624 -0.009743822 0.014699599
0.14453214 0.10766281 -0.17999503 -0.087547995 0.15693918 0.14361493 -0.11519324 0.03592147
-0.13453794 0.04870855 0.12747957 -0.14297928 -0.018685173 0.041313525 0.056493822 0.10981165
0.078050666 0.13107122 -0.033934448 -0.15273044 0.06653212 -0.07303536 0.079172395 0.17452261
0.16471961 0.03169493 0.03504733 -0.2418139 -0.073116764 -0.002087783 -0.00660812 0.050033618
-0.028792566 -0.12445147 0.162488 0.11574034 0.050621044 -0.11301376 -0.015329963 -0.064036325
0.087020874 -0.15212645 -0.018338164 -0.0032281252 0.041215982 -0.12958795 -0.03081154 -0.12689953
0.01896817 0.018247703 -0.05362422 0.025900787 -0.006385282 0.10481949 -0.0055410373 -0.12136859
-0.0043661855 0.011593658 0.057084024 0.102989845 0.08173417 -0.07791516 0.08364378 -0.049110085
-0.075212054 0.06784327 0.016322555 -0.03643463 0.029288817 -0.019117396 0.093079284 0.019950602
0.0058648316 -0.053681172 -0.051688816 -0.0148288105 0.035284217 0.11985032 -0.04425741 -0.01570692
0.18706566 0.11544446 -0.12361667 -0.25180238 0.14144953 0.008909873 -0.01799606 0.1846652
-0.037167143 0.11049879 -0.09693681 -0.17291836 -0.09169799 0.036074836 -0.104115546 0.074778214
-0.17258929 -0.047934093 0.1169518 -0.07956388 0.03953219 -0.06254239 -0.013898383 0.0031774568
0.12491929 0.099233136 -0.06339909 0.089591235 -0.16312979 -0.12385085 -0.08133647 -0.10578085
-0.11066601 -0.0068563726 0.07730213 0.07140069 -0.054784033 0.041586496 0.109090514 -0.07144782
-0.0031158742 -0.1562325 0.029239185 0.07788756 0.093402125 0.101243906 0.17519139 -0.05051741
-0.05533003 -0.0254223 0.0148203755 0.015171218 -0.024309473 -0.052072242 -0.1272299 -0.04993842
-0.040533196 0.016429072 0.085149854 -0.08656624 0.14207418 0.0064128647 0.03783478 -0.05639757
0.0006810704 -0.13306615 -0.14775822 -0.06367034 -0.021009931 0.091392234 -0.0895611 -0.012562484
-0.18191724 0.047500532 0.054757215 0.01570992 0.06391843 -0.04616335 -0.1615293 0.118469164
-0.09604087 0.009178555 -0.03262363 -0.021894766 0.047797024 -0.005662741 0.24158597 0.07099674
-0.017677743 0.06595998 -0.09830951 -0.018665386 -0.13101767 0.10425663 -0.011426243 0.082100436
-0.16544625 -0.04452089 -0.049271654 -0.026432462 -0.057714045 -0.00041757047 -0.04694742 -0.04689084
0.030810678 0.050994538 -0.11257407 -0.08256449 -0.00056471396 0.06648563 -0.08595339 0.13368702
0.11077376 0.057971813 0.020942727 -0.017749311 0.02531602 -0.058676723 -0.016710669 -0.075160705
-0.20742635 -0.09871197 0.092494294 -0.09818573 -0.018473752 0.08801099 0.024155868 0.023487441
-0.049108323 -0.02185356 -0.13404234 -0.081340164 0.025728827 -0.002798154 -0.00773122 0.122134075
0.003327257 0.18036877 0.031106908 -0.13509427 0.013051993 -0.07581961 -0.09806988 0.03135186
0.007101368 0.026333638 0.015186749 0.07459447 -0.0056151412 -0.16116153 0.10219958 -0.0273441
0.048503 -0.060350683 -0.15164737 -0.032577164 0.00023060001 -0.12965831 -0.13903928 -0.08559081
00000000: f73c 95bd ea1c 4d3d bc71 a23d be50 eabc
00000010: 79d6 5cbd 1ff1 053b 3b8a 9f3c 4b2a 17bd
00000020: b1ac d03c d19c 05be 9b8f dd3c c044 583d
00000030: e6bb f1bd f878 f73b 8da4 1fbc 96d6 703c
00000040: 3c00 143e 527e dc3d 9e50 38be 5d4c b3bd
00000050: aab4 203e cb0f 133e 6fea ebbd 6422 133d
00000060: 50c4 09be 9e82 473d 018a 023e 2969 12be
00000070: a611 99bc 5f38 293d 1166 673d eee4 e03d
00000080: 07d9 9f3d 8937 063e d9fe 0abd 5e65 1cbe
00000090: fe41 883d 9093 95bd 2325 a23d 0eb6 323e
000000a0: 42ac 283e 8bd2 013d ca8d 0f3d 109e 77be
000000b0: 3ebe 95bd 30d3 08bb ee88 d8bb 0df0 4c3d
000000c0: 63de ebbc 6ae0 febd 4163 263e 4509 ed3d
000000d0: 0358 4f3d c273 e7bd 862a 7bbc 7a25 83bd
000000e0: 0038 b23d 09c7 1bbe eb39 96bc f48e 53bb
000000f0: 17d2 283d b4b2 04be 7c68 fcbc f3f1 01be
00000100: 2363 9b3c 357c 953c 12a5 5bbd e32d d43c
00000110: a13b d1bb 9aab d63d 9791 b5bb 1890 f8bd
00000120: 3812 8fbb 53f3 3d3c f0d0 693d 57ec d23d
00000130: 3f64 a73d fc91 9fbd 6e4d ab3d a827 49bd
00000140: c708 9abd 6af1 8a3d e1b6 853c 7b3c 15bd
00000150: 1aef ef3c 169c 9cbc 5aa0 be3d 726f a33c
00000160: c62d c03b cae0 5bbd a7b7 53bd 8af4 72bc
00000170: 2f86 103d 1674 f53d 4247 35bd ccab 80bc
00000180: 248e 3f3e 256e ec3d bd2a fdbd 3eec 80be
00000190: 25d8 103e b7fa 113c 796c 93bc e018 3d3e
000001a0: 933c 18bd 314d e23d ce86 c6bd 8311 31be
000001b0: 28cc bbbd 35c3 133d 883a d5bd 5225 993d
000001c0: 3fbb 30be 8a56 44bd 6d84 ef3d 63f2 a2bd
000001d0: 81ec 213d 3916 80bd 0bb6 63bc e13c 503b
000001e0: afd5 ff3d be3a cb3d 62d7 81bd 9c7b b73d
000001f0: 7f0b 27be 84a5 fdbd bc93 a6bd a1a3 d8bd
00000200: dca4 e2bd 6cab e0bb 9450 9e3d 863a 923d
00000210: 3965 60bd 9a56 2a3d d96a df3d 3c53 92bd
00000220: b233 4cbb 6afb 1fbe 0487 ef3c 8383 9f3d
00000230: 9d49 bf3d f758 cf3d 5f65 333e 58eb 4ebd
00000240: bea1 62bd 6d42 d0bc 29d1 723c b390 783c
00000250: a924 c7bc b449 55bd 8e48 02be 3b8c 4cbd
00000260: 2306 26bd 4396 863c 0c63 ae3d a449 b1bd
00000270: e57b 113e 0223 d23b a4f8 1a3d 2301 67bd
00000280: dc89 323a 7e42 08be ee4d 17be 9865 82bd
00000290: 051d acbc da2b bb3d cf6b b7bd e0d2 4dbc
000002a0: 8348 3abe eb8f 423d 1a49 603d 17b2 803c
000002b0: aae7 823d c815 3dbd f067 25be f69f f23d
000002c0: 13b1 c4bd a661 163c 5ba0 05bd a75c b3bc
000002d0: d0c6 433d 848e b9bb 5062 773e bd66 913d
000002e0: ead0 90bc 0716 873d 7f56 c9bd 27e8 98bc
000002f0: 7f29 06be 8084 d53d 2335 3bbc 4624 a83d
00000300: be6a 29be 895b 36bd 13d1 49bd e488 d8bc
00000310: 9065 6cbd 5ced dab9 f04b 40bd 9c10 40bd
00000320: ad66 fc3c a6df 503d 3c8d e6bd 9217 a9bd
00000330: 5009 14ba 9e29 883d 5508 b0bd 40e5 083e
00000340: 5add e23d da73 6d3d 1590 ab3c 0167 91bc
00000350: 8b63 cf3c 0157 70bd d0e4 88bc dbed 99bd
00000360: 9367 54be 8029 cabd a66d bd3d 9a15 c9bd
00000370: 4456 97bc 1b3f b43d 87e2 c53c bc68 c03c
00000380: cf25 49bd 3d06 b3bc 6542 09be ac95 a6bd
00000390: 43c5 d23c 3c61 37bb 2d56 fdbb 6e21 fa3d
000003a0: 1c0e 5a3b 97b2 383e ead3 fe3c 2756 0abe
000003b0: 07d8 553c 5047 9bbd dcd8 c8bd cf6a 003d
000003c0: 98b2 e83b a4b9 d73c d8d1 783c fcc4 983d
000003d0: 38ff b7bb 8707 25be 034e d13d bc00 e0bc
000003e0: 15ab 463d 4732 77bd 7349 1bbe a26f 05bd
000003f0: 38cd 7139 26c5 04be 5060 0ebe 3c4a afbd

layer_0.lin.bias f4 [32]
-0.009868793 -0.051552825 -0.08805337 0.04670791 -0.013968695 -0.01577185 -0.0060271826 0.014659734
0.10860482 0.0753132 -0.10978319 0.10667335 0.03436302 0.001779212 0.009417749 -0.007012451
0.0551969 0.12585555 -0.08545373 -0.07249362 -0.06457236 -0.0708419 0.026433712 0.043698747
-0.048033495 0.04703613 0.08511226 -0.027501168 -0.0056668166 -0.06974954 -0.001607199 -0.043785978
00000000: b8b0 21bc 0e29 53bd 5355 b4bd cb50 3f3d
00000010: f4dc 64bc f733 81bc ac7f c5bb 622f 703c
00000020: 346c de3d cf3d 9a3d 02d6 e0bd 8f77 da3d
00000030: 3dc0 0c3d 7334 e93a e74c 1a3c b4c8 e5bb
00000040: 2516 623d 47e0 003e 5d02 afbd 8977 94bd
00000050: 833e 84bd 8f15 91bd 838b d83c 75fd 323d
00000060: c5be 44bd f5a8 403d 564f ae3d 214a e1bc
00000070: b4b0 b9bb d9d8 8ebd a6a8 d2ba ed58 33bd

layer_1.lin.weight f4 [32, 64]
-0.079236895 -0.067176186 -0.089315094 0.087434195 -0.039315976 0.029566675 -0.09213777 0.123094164
-0.06297277 -0.022324359 -0.1052597 -0.13691017 0.115997784 -0.06747059 -0.021663776 -0.04462959
0.052114915 0.03663072 -0.09013597 0.103876576 -0.17149135 -0.0054444806 0.03892471 -0.014594669
0.047340732 0.11805768 0.033438798 -0.056992862 0.11894192 0.11605096 -0.0273053 -0.0125363665
-0.00050432194 0.1551522 -0.0032762014 -0.032486904 -0.028427333 -0.05414012 0.13912912 -0.1162648
0.008501702 0.097969405 -0.072471745 0.013430945 -0.0730618 0.092123546 0.21296734 0.14541677
0.099546365 -0.104101434 -0.04420498 0.0060569905 -0.10279973 0.03559198 -0.13397641 0.0767858
0.09669709 -0.12885763 0.13455473 0.08344162 -0.16968432 0.13131489 -0.04404202 -0.113782026
-0.075927824 -0.01771572 -0.020888127 -0.0018986079 -0.06652384 -0.048923764 0.2051573 0.030531334
0.076132976 0.0850669 0.0253083 -0.07745727 0.033610962 -0.116896085 -0.0991508 -0.036375735
0.060535382 0.016429003 -0.04444116 0.044538014 -0.2320717 -0.058333997 -0.038624562 0.02265476
-0.075307935 0.062104687 -0.09885698 -0.07180308 0.11282355 0.0719603 -0.14504725 0.061864387
0.090634294 0.031864796 -0.089379124 0.009695498 0.0805343 0.016869804 -0.030274872 -0.14679618
-0.032429133 0.13263208 0.000678356 0.045088794 0.008734615 -0.0098236315 0.049731966 0.08008011
0.047118887 -0.014709895 -0.005696943 0.021902362 0.0015328579 -0.063779086 0.026365701 -0.05577333
0.0421993 -0.07666167 0.14368652 0.042258907 -0.13593225 0.062629215 -0.019197717 -0.010713511
-0.1053898 -0.14460424 0.012149563 -0.034401752 0.1565072 -0.11442788 0.13470852 0.090796664
0.10872697 -0.055326488 -0.078430064 -0.085641816 0.103150316 -0.029877415 -0.10228461 -0.006412976
0.008384941 -0.086047985 0.092628375 -0.066814505 0.07310189 -0.06386704 -0.0993309 0.026481127
0.021971839 -0.0018710552 -0.12550923 0.03508246 0.17851424 0.056286152 0.064819284 0.004840323
-0.0078221215 -0.070192695 -0.1329141 -0.063163795 -0.020291518 0.093709625 -0.07943273 -0.02891546
0.006155637 -0.054343212 -0.0022201778 0.121288106 0.06937705 0.10009957 0.007221462 0.027410362
0.17146435 -0.017958261 -0.055047043 0.08276964 0.012982288 -0.05724933 0.10057665 0.033635397
0.045293175 -0.09929831 0.04699068 0.05582807 0.013378368 -0.083400585 0.111757286 0.062212255
0.0610315 0.005972273 -0.0038622273 0.07302897 0.020113261 -0.04629514 -0.0048877816 0.07462065
0.038095217 -0.032203916 -0.012566694 -0.05258364 0.059471995 -0.10756045 -0.16406143 0.018890401
-0.026478909 0.013494432 0.041052595 0.0077886204 0.060974017 0.04582294 0.020373214 -0.025147352
0.011472709 0.05380768 0.077110544 -0.14128076 0.007585246 -0.124385715 -0.060502205 0.093220815
-0.14307548 -0.13841842 0.05313702 -0.12126274 0.1174735 0.11329201 0.070558384 0.08453219
-0.11556154 0.07660503 0.06030541 -0.09220888 0.008477614 0.003501398 0.022708785 0.023284776
-0.054850567 0.11366402 0.10894793 0.02073539 -0.080029696 -0.020753104 0.005013808 0.12354278
0.0025430012 -0.005549561 0.03403617 -0.06424691 -0.09141076 -0.06451665 -0.052253827 0.0059180898
00000000: f446 a2bd ab93 89bd d5ea b6bd b310 b33d
00000010: ca09 21bd d035 f23c bab2 bcbd cb18 fc3d
00000020: def7 80bd 93e1 b6bc 6692 d7bd 2e32 0cbe
00000030: 3f90 ed3d 052e 8abd 3b78 b1bc 84cd 36bd
00000040: 7376 553d 180a 163d 3599 b8bd 3ebd d43d
00000050: 6e9b 2fbe 9d67 b2bb 846f 1f3d 7b1e 6fbc
00000060: 5be8 413d 3ac8 f13d 1ff7 083d 5971 69bd
00000070: d297 f33d 20ac ed3d 5daf dfbc 5565 4dbc
00000080: 7934 04ba 38e0 1e3e 8ab5 56bb fd10 05bd
00000090: 70e0 e8bc 08c2 5dbd dd77 0e3e 3d1c eebd
000000a0: b94a 0b3c 2fa4 c83d 116c 94bd 770d 5c3c
000000b0: 6da1 95bd 45ab bc3d 1c14 5a3e 22e8 143e
000000c0: f7de cb3d 2233 d5bd 4810 35bd b879 c63b
000000d0: aa88 d2bd e5c8 113d 1d31 09be e041 9d3d
000000e0: 2009 c63d 41f3 03be b7c8 093e 71e3 aa3d
000000f0: bac1 2dbe 6977 063e 6865 34bd 8d06 e9bd
00000100: 0c80 9bbd 8f20 91bc 941d abbc b6da f8ba
00000110: a73d 88bd 4964 48bd c114 523e d91c fa3c
00000120: 9beb 9b3d 8e37 ae3d 5a53 cf3c eba1 9ebd
00000130: a6ab 093d 3767 efbd 930f cbbd b9fe 14bd
00000140: f3f3 773d 1e96 863c ef07 36bd 7e6d 363d
00000150: 34a4 6dbe a1ef 6ebd ca34 1ebd 7a96 b93c
00000160: 0c3b 9abd 7c61 7e3d 8775 cabd 7e0d 93bd
00000170: 0910 e73d ec5f 933d 4487 14be 8365 7d3d
00000180: 799e b93d a984 023d 670c b7bd ded9 1e3c
00000190: 2bef a43d 8b32 8a3c 0203 f8bc bd51 16be
000001a0: 69d4 04bd b4d0 073e b3d3 313a 07af 383d
000001b0: a11b 0f3c 4cf3 20bc bfb3 4b3d 0a01 a43d
000001c0: bcff 403d c501 71bc 6cad babb 956c b33c
000001d0: 2dea c83a 9c9e 82bd e2fc d73c 9372 64bd
000001e0: 2cd9 2c3d cb00 9dbd 8f22 133e ad17 2d3d
000001f0: d331 0bbe bf43 803d 8844 9dbc b987 2fbc
00000200: 9cd6 d7bd 2213 14be f60e 473c dae8 0cbd
00000210: 6c43 203e 2a59 eabd 08f1 093e 9af3 b93d
00000220: 3fac de3d 079e 62bd f19f a0bd fa64 afbd
00000230: 7940 d33d 7bc1 f4bc 987a d1bd f123 d2bb
00000240: fe60 093c ed39 b0bd f2b3 bd3d 0bd6 88bd
00000250: 72b6 953d b9cc 82bd 006e cbbd f3ee d83c
00000260: 49fe b33c 323e f5ba 7e85 00be a0b2 0f3d
00000270: 70cc 363e 4f8c 663d f9bf 843d 929b 9e3b
00000280: 5b28 00bc 30c1 8fbd a21a 08be 055c 81bd
00000290: 663a a6bc d5ea bf3d a1ad a2bd 1de0 ecbc
000002a0: 3ab5 c93b fd96 5ebd 6780 11bb e665 f83d
000002b0: 8e15 8e3d 0101 cd3d 04a2 ec3b b28b e03c
000002c0: 5a94 2f3e 341d 93bc 0279 61bd 2183 a93d
000002d0: aab3 543c 467e 6abd 21fb cd3d 45c5 093d
000002e0: 5685 393d ea5c cbbd 4d79 403d f9ab 643d
000002f0: f130 5b3c edcd aabd 01e1 e43d 47d2 7e3d
00000300: 2bfc 793d 0fb3 c33b 6c1d 7dbb 3690 953d
00000310: 91c4 a43c f99f 3dbd af29 a0bb b6d2 983d
00000320: bb09 1c3d 41e8 03bd 89e4 4dbc f161 57bd
00000330: e898 733d a748 dcbd b8ff 27be 0bc0 9a3c
00000340: 4cea d8bc c017 5d3c c426 283d af37 ff3b
00000350: e4bf 793d d6b0 3b3d bae5 a63c d201 cebc
00000360: 07f8 3b3c 7165 5c3d 22ec 9d3d e7ab 10be
00000370: a88d f83b f0bd febd 29d1 77bd 8eea be3d
00000380: 6182 12be 8fbd 0dbe 34a6 593d 9958 f8bd
00000390: f295 f03d a405 e83d ea80 903d 361f ad3d
000003a0: 87ab ecbd 19e3 9c3d ce02 773d 02d8 bcbd
000003b0: b1e5 0a3c b677 653b c607 ba3c b7bf be3c
000003c0: fdaa 60bd afc8 e83d 1820 df3d 44dd a93c
000003d0: 9ce6 a3bd 6a02 aabc df4a a43b ff03 fd3d
000003e0: 7ba8 263b 18d9 b5bb 8369 0b3d e293 83bd
000003f0: 9135 bbbd 4e21 84bd 1c08 56bd 89ec c13b

layer_1.lin.bias f4 [32]
-0.04916798 -0.05372232 -0.039667927 -0.0022222705 -0.03534414 -0.07368061 0.07075565 0.03497902
-0.08856621 0.030929461 0.04174531 0.02480988 0.033277567 0.02958067 0.07863385 -0.06560616
-0.012970661 0.10433561 -0.040076993 0.028605094 0.10541222 -0.09704877 -0.03949989 0.07959587
-0.026578477 0.029231157 0.020211326 0.03701412 -0.047623362 -0.018887294 0.09343988 -0.0037923655
00000000: 5d64 49bd ef0b 5cbd d67a 22bd 83a3 11bb
00000010: 04c5 10bd dce5 96bd 57e8 903d 2946 0f3d
00000020: 3362 b5bd c85f fd3c 21fd 2a3d 173e cb3c
00000030: 0f4e 083d 2953 f23c c90a a13d 865c 86bd
00000040: e582 54bc e9ad d53d c627 24bd 3b55 ea3c
00000050: 5de2 d73d 81c1 c6bd a3ca 21bd 2903 a33d
00000060: 1bbb d9bc 2e76 ef3c 3992 a53c 1e9c 173d
00000070: b710 43bd 87b9 9abc 685d bf3d 5689 78bb

layer_2.lin.weight f4 [32, 64]
-0.03267864 0.06012096 0.01612755 -0.023905523 -0.012101739 -0.012037599 -0.081009455 -0.01522646
0.004075557 -0.061178748 0.115377404 -0.07849734 0.15700832 0.045885514 -0.012594337 0.0055319555
0.00086740346 0.1184137 0.05190099 0.029119188 -0.042687763 0.016441995 -0.10054692 0.08869781
-0.102193505 0.048846483 0.19932766 -0.07492632 0.07881295 -0.085840106 0.15187109 -0.04390387
-0.15559895 0.04872464 -0.11304142 -0.13085136 -0.11943777 0.12864563 0.059829973 -0.11594962
0.16037117 0.043802045 -0.19448493 -0.023936471 -0.13091424 0.030759368 0.033986304 -0.072790876
-0.0036322395 0.07176971 -0.04849007 -0.028707989 -0.010743182 -0.36076432 0.024073571 -0.009221908
-0.118877515 0.034728516 0.12524918 0.082894824 -0.14273421 0.08625982 -0.13004442 0.14181542
0.07483883 0.10632689 0.114919916 0.08390181 -0.07515596 0.12297438 -0.06285818 0.004792318
0.11067942 0.066855155 -0.13745192 -0.048366986 -0.18254735 0.017797032 -0.041171603 -0.113369375
-0.04535164 0.028655615 0.009010946 0.098190024 0.0052380753 -0.027491737 -0.027153885 0.015154066
0.011829286 -0.022154288 0.047568113 -0.044321798 -0.22998688 -0.1351777 -0.07518085 0.18895221
0.10179734 -0.016066827 0.07625254 0.020466987 -0.21156299 0.025284456 0.07807269 0.042597037
-0.032479126 0.03429647 -0.07933983 -0.028219815 0.06471382 -0.03607944 -0.0274666 0.015179199
-0.034026396 0.08818241 -0.1014418 -0.089299075 -0.082364775 -0.18958542 0.10374451 -0.054814238
-0.0893867 -0.027735962 -0.046770804 0.021687334 0.095843785 -0.013268007 0.06463339 0.0027130588
-0.08109576 0.08520408 0.051837575 0.014256556 -0.021495374 -0.00043564505 0.04350806 0.06136894
-0.14915483 0.04473876 0.057923753 0.0013437109 0.04489844 -0.09652318 -0.078236334 0.0027703606
0.0073223235 -0.042815354 0.0018386528 -0.039790165 0.08641976 -0.121269725 -0.0045249066 0.086334854
-0.062041655 0.088959225 0.0043530934 0.08671952 -0.08251943 0.058940355 -0.13347754 0.13254292
0.099866964 0.11863567 -0.00092508446 0.03037409 -0.02325571 0.051831935 0.1275399 -0.06525514
-0.019595329 -0.15468724 0.14786705 0.07341684 -0.027806507 -0.001090098 0.082034774 0.05438172
-0.11108659 0.1133444 -0.04992295 -0.08257504 0.053925816 0.1517168 0.030128503 -0.07454787
-0.05549428 -0.045784205 0.013047018 -0.0915239 0.005738647 -0.008086491 0.088383734 -0.10993124
-0.088154495 0.026572883 0.18056539 0.018793577 -0.11055061 -0.01662834 -0.12560321 -0.119847596
0.025416853 -0.062895805 0.061237983 0.029604686 0.21254256 0.03282847 -0.0021205186 0.07108443
0.008684554 -0.07445494 -0.058547825 0.036759816 0.04978234 -0.113402 0.004401112 -0.10216824
-0.059382882 0.18233229 0.11349738 -0.027007634 0.14787623 0.00450266 0.07869516 -0.13871364
0.10054323 -0.05257958 -0.071213014 -0.13473523 -0.037777174 -0.025237566 -0.0069367774 -0.026327638
0.016592372 0.09373813 -0.12779495 -0.04457202 -0.15218869 -0.06378201 -0.07008553 0.0063616694
-0.049323965 -0.09897711 0.10617821 -0.013335787 0.06765746 0.040528268 -0.06904399 -0.09056559
-0.0065393774 -0.07376076 -0.06526155 -0.031631205 -0.13198735 -0.10959806 -0.0855671 0.27923334
00000000: 0ada 05bd 6541 763d ec1d 843c 84d5 c3bc
00000010: 5f46 46bc 5a39 45bc 49e8 a5bd 6778 79bc
00000020: 408c 853b 9196 7abd fd4a ec3d 37c3 a0bd
00000030: cac6 203e 73f2 3b3d 7a58 4ebc 6845 b53b
00000040: 7662 633a e282 f23d 2296 543d 5d8b ee3c
00000050: 5dd9 2ebd 5db1 863c 8beb cdbd 33a7 b53d
00000060: d44a d1bd 4013 483d 8d1c 4c3e f872 99bd
00000070: af68 a13d f0cc afbd 1884 1b3e 8bd4 33bd
00000080: 5555 1fbe 7d93 473d 4382 e7bd e6fd 05be
00000090: ca9b f4bd aebb 033e 4610 753d ff76 edbd
000000a0: 5738 243e c669 333d 0f27 47be 6b16 c4bc
000000b0: 620e 06be 12fb fb3c 3935 0b3d 6213 95bd
000000c0: de0a 6ebb fffb 923d 869d 46bd 042d ebbc
000000d0: 2c04 30bc 1ab6 b8be f035 c53c 7c17 17bc
000000e0: 0e76 f3bd 7d3f 0e3d 5241 003e c3c4 a93d
000000f0: eb28 12be fda8 b03d 5d2a 05be 1038 113e
00000100: 1a45 993d eac1 d93d 225b eb3d b6d4 ab3d
00000110: 5eeb 99bd fed9 fb3d cabb 80bd e108 9d3b
00000120: e4ab e23d 5beb 883d 32c0 0cbe 761c 46bd
00000130: b1ed 3abe 15cb 913c 8ea3 28bd 342e e8bd
00000140: a4c2 39bd 2ebf ea3c a6a2 133c da17 c93d
00000150: 29a4 ab3b 5a36 e1bc d371 debc c248 783c
00000160: 9fcf 413c e97c b5bc c8d6 423d c68a 35bd
00000170: ae81 6bbe 066c 0abe 6bf8 99bd b07c 413e
00000180: 207b d03d 949e 83bc 4b2a 9c3d 62aa a73c
00000190: f8a3 58be 5921 cf3c 93e4 9f3d 3b7a 2e3d
000001a0: d508 05bd 757a 0c3d ec7c a2bd 3e2d e7bc
000001b0: ae88 843d 09c8 13bd a301 e1bc 2db2 783c
000001c0: 435f 0bbd fb98 b43d b8c0 cfbd 6fe2 b6bd
000001d0: ddae a8bd ae22 42be 0078 d43d e584 60bd
000001e0: 6010 b7bd 8736 e3bc be92 3fbd a3a9 b13c
000001f0: bf49 c43d 0e62 59bc 835e 843d 93cd 313b
00000200: 8915 a6bd 7a7f ae3d a353 543d 5494 693c
00000210: 1117 b0bc 4a67 e4b9 8235 323d ff5d 7b3d
00000220: 0bbc 18be fd3f 373d 7541 6d3d 751f b03a
00000230: 6de7 373d f2ad c5bd 5f3a a0bd f08e 353b
00000240: 1af0 ef3b 275f 2fbd f3fe f03a 03fb 22bd
00000250: d8fc b03d 435c f8bd ab45 94bb 54d0 b03d
00000260: 641f 7ebd 4130 b63d 65a4 8e3b 019a b13d
00000270: f2ff a8bd 716b 713d 56ae 08be 55b9 073e
00000280: 0d87 cc3d 42f7 f23d 5e81 72ba 15d3 f83c
00000290: c282 bebc b94d 543d d299 023e 7da4 85bd
000002a0: 6286 a0bc 5566 1ebe 766a 173e 915b 963d
000002b0: 79ca e3bc 9fe1 8eba d901 a83d 5ebf 5e3d
000002c0: 5e81 e3bd 1c21 e83d 027c 4cbd 1a1d a9bd
000002d0: 51e1 5c3d a65b 1b3e 0dd0 f63c 8eac 98bd
000002e0: f84d 63bd 3888 3bbd 29c3 553c e270 bbbd
000002f0: 430b bc3b 347d 04bc 8802 b53d a123 e1bd
00000300: 588a b4bd 60af d93c 22e6 383e fdf4 993c
00000310: 5c68 e2bd 2838 88bc 219e 00be a872 f5bd
00000320: 0137 d03c 84cf 80bd aed4 7a3d 8785 f23c
00000330: c2a4 593e 2577 063d 66f8 0abb b794 913d
00000340: a949 0e3c d57b 98bd d8cf 6fbd 7691 163d
00000350: 91e8 4b3d 4f3f e8bd 3437 903b 953d d1bd
00000360: 773b 73bd 51b5 3a3e 5071 e83d 1d3f ddbc
00000370: de6c 173e 0d8b 933b ee2a a13d f30a 0ebe
00000380: 9ce9 cd3d b05d 57bd 21d8 91bd 08f8 09be
00000390: 3dbc 1abd 03bf cebc e84d e3bb 0fad d7bc
000003a0: baec 873c c7f9 bf3d aedc 02be 2791 36bd
000003b0: 5ad7 1bbe 24a0 82bd 0189 8fbd 8d75 d03b
000003c0: ed07 4abd 83b4 cabd f673 d93d 587e 5abc
000003d0: ff8f 8a3d f800 263d ef66 8dbd 747a b9bd
000003e0: 4648 d6bb e20f 97bd d9a7 85bd b98f 01bd
000003f0: b127 07be f374 e0bd ce3d afbd acf7 8e3e

layer_2.lin.bias f4 [32]
0.044894606 -0.0065996787 -0.054618925 0.02492941 -0.08084823 -0.07609999 -0.04625992 -0.08374091
-0.06275444 -0.051535316 -0.015654553 0.07496242 0.07638335 0.0846303 0.011587912 0.029923286
-0.018038636 -0.07257744 -0.099617116 -0.09400635 0.024083825 -0.071618125 -0.06744271 0.0671447
-0.050157424 0.02700627 -0.025804851 0.046117783 -0.061902616 0.084737994 -0.1057141 -0.11100898
00000000: 68e3 373d 1e42 d8bb 18b8 5fbd c338 cc3c
00000010: c293 a5bd 50da 9bbd 0b7b 3dbd 5b80 abbd
00000020: 6685 80bd b216 53bd fa3d 80bc e685 993d
00000030: e06e 9c3d a752 ad3d 3adb 3d3c ae21 f53c
00000040: c3c5 93bc 7ba3 94bd 0f04 ccbd 6786 c0bd
00000050: 714b c53c 86ac 92bd 671f 8abd 2983 893d
00000060: df71 4dbd 413c dd3c b264 d3bc 00e6 3c3d
00000070: 998d 7dbd 1d8b ad3d a280 d8bd ad58 e3bd

layer_3.lin.weight f4 [32, 64]
0.07124001 -0.11245128 0.094155446 0.08079142 0.035651427 0.03941601 0.022592884 0.038419288
-0.10310554 0.08545371 0.01726341 0.06279286 0.07929292 -0.03380473 0.053749148 -0.12117798
-0.0073459987 -0.09583006 -0.05873912 0.091351345 0.12056445 -0.12070111 -0.120789945 0.060018342
0.008341603 0.04078915 0.009461882 0.07381861 0.02665361 0.044455625 0.014656932 0.008083591
0.16109726 -0.104906455 -0.1858638 0.1525492 -0.14803676 0.08462621 0.061276227 0.0737871
0.021781618 -0.042884856 -0.0070676855 0.09798235 7.0511094e-05 -0.04975412 0.14229327 -0.004044476
0.0899591 -0.117841825 -0.061328545 -0.12784614 -0.04168931 0.118067354 0.20051642 0.13181503
0.1384768 -0.09613876 0.10703265 -0.18562597 0.06475693 0.06439999 -0.081174366 0.12968928
-0.10783217 0.020594887 -0.04649117 0.021530727 -0.06025216 -0.019002656 0.07931715 -0.0065272655
0.029318154 0.08922427 0.039530385 -0.10119402 -0.082718916 -0.10076946 -0.22173172 -0.14336732
-0.0324215 0.13889189 -0.08918849 0.017797926 -0.024328342 0.03205133 0.075819805 0.08215419
0.06941578 -0.04536356 -0.08614488 -0.031648315 0.0018408397 0.13970156 0.023145352 0.01657477
0.023392288 -0.004568423 0.10692184 -0.081087984 -0.1127316 0.12352802 0.10224387 -0.022706347
-0.018783852 -0.08396987 -0.07696174 -0.022739198 0.1278773 0.12048899 -0.08437312 0.06774527
-0.021836491 -0.038449023 0.011642377 -0.04675167 0.16359895 -0.0603118 -0.10261857 -0.05542868
0.06445314 0.12064586 0.03147672 0.023015216 -0.070779346 0.048690006 0.08429892 -0.030249212
-0.064910546 -0.18081613 0.04669452 -0.09870337 0.000707037 -0.18434773 0.10742653 0.12283607
-0.018348804 0.01569256 0.10630326 0.013468596 -0.0804722 0.017652433 -0.016612621 0.10438141
-0.11206435 -0.056927223 0.09307169 0.039204128 -0.04737026 0.09805701 -0.12496952 -0.098926306
-0.010489318 -0.0663813 0.012133098 -0.037717517 0.12990959 0.0876537 -0.06517702 0.10346478
0.13286147 -0.02281131 -0.0074398345 0.007815822 0.03573154 0.23234308 0.027863422 0.051556956
0.17160256 -0.08224104 -0.07392703 -0.13461518 0.002084103 -0.023875041 -0.11259231 -0.02057831
-0.019935098 -0.033653986 -0.008506592 -0.07131081 -0.072283044 0.10792146 -0.1467523 0.025646212
0.09993259 -0.04259821 0.114715256 0.09802309 0.049466774 -0.013635592 0.14703432 0.06461951
0.028847732 0.04200801 -0.12056988 0.100156814 -0.051320255 -0.06681357 -0.06548276 0.06129206
-0.10160219 -0.048425227 0.050036803 -0.04149695 0.028508639 0.11393865 -0.132252 -0.07147908
-0.079638034 0.1165532 0.03132273 -0.07085404 -0.095049694 0.08366618 0.14924392 -0.061145164
0.07115649 -0.063405626 0.049353465 -0.12247806 0.09916457 0.13534307 0.025874265 0.009524597
0.047844823 0.07170084 -0.0719167 -0.06690368 -0.099233694 0.07428038 -0.13187301 0.09531764
-0.03152883 0.00013570377 0.024253385 0.009076658 -0.06620731 -0.035142496 -0.0383085 -0.0900048
-0.020519404 0.052621726 0.022620838 -0.032175414 0.11000061 -0.042318482 -0.10715522 0.112376735
0.014050382 -0.013914675 0.05906962 0.11508174 -0.12994525 0.100633 0.12641807 -0.07694938
00000000: 48e6 913d db4c e6bd 92d4 c03d f975 a53d
00000010: 3b07 123d af72 213d b614 b93c 8b5d 1d3d
00000020: ff28 d3bd 5b02 af3d ff6b 8d3c 8b99 803d
00000030: 5464 a23d d476 0abd 1128 5c3d 292c f8bd
00000040: b4b6 f0bb 8d42 c4bd 6e98 70bd 6a16 bb3d
00000050: 7fea f63d 2532 f7bd b860 f7bd cbd5 753d
00000060: 38ab 083c 8612 273d 0206 1b3c 362e 973d
00000070: ac58 da3c 1a17 363d a123 703c 0a71 043c
00000080: aef6 243e 32d9 d6bd 1453 3ebe dc35 1c3e
00000090: f396 17be 8250 ad3d c8fc 7a3d b11d 973d
000000a0: 5d6f b23c 08a8 2fbd 0b98 e7bb f8aa c83d
000000b0: 5bdf 9338 faca 4bbd 54b5 113e 8687 84bb
000000c0: 7a3c b83d 0e57 f1bd a433 7bbd 19ea 02be
000000d0: 69c2 2abd 4ccd f13d 2d54 4d3e 85fa 063e
000000e0: ddcc 0d3e 66e4 c4bd ef33 db3d bc14 3ebe
000000f0: 489f 843d 24e4 833d bf3e a6bd 44cd 043e
00000100: 1dd7 dcbd 9cb6 a83c 866d 3ebd 3561 b03c
00000110: f8ca 76bd 75ab 9bbc 0871 a23d ace2 d5bb
00000120: a02c f03c 37bb b63d 9dea 213d cf3e cfbd
00000130: 8968 a9bd 3860 cebd a40d 63be e2ce 12be
00000140: 68cc 04bd ad39 0e3e 74a8 b6bd f5cc 913c
00000150: 3b4c c7bc 4148 033d 6a47 9b3d 7540 a83d
00000160: dc29 8e3d 24cf 39bd ba6c b0bd aaa1 01bd
00000170: 5548 f13a ed0d 0f3e 529b bd3c d0c7 873c
00000180: 2fa1 bf3c b6b2 95bb d6f9 da3d 7511 a6bd
00000190: d3df e6bd 42fc fc3d 3c65 d13d a902 babc
000001a0: 98e0 99bc 65f8 abbd 1e9e 9dbd 8e47 babc
000001b0: 44f2 023e eec2 f63d d0cb acbd 08be 8a3d
000001c0: 71e2 b2bc b97c 1dbd abbf 3e3c ae7e 3fbd
000001d0: 7c86 273e 8209 77bd af29 d2bd 2f09 63bd
000001e0: 0200 843d 2d15 f73d bced 003d 688a bc3c
000001f0: c3f4 90bd 2c6f 473d eaa4 ac3d 32cd f7bc
00000200: d2ef 84bd dd27 39be c142 3f3d fe24 cabd
00000210: 7358 393a a7c5 3cbe 7102 dc3d 7a91 fb3d
00000220: 3b50 96bc af8d 803c 86b5 d93d 63ab 5c3c
00000230: 9cce a4bd d69b 903c 3117 88bc ecc5 d53d
00000240: fe81 e5bd 852c 69bd 5f9c be3d 8294 203d
00000250: 5107 42bd 1dd2 c83d 05f0 ffbd e099 cabd
00000260: 63db 2bbc ebf2 87bd e7c9 463c af7d 1abd
00000270: 0507 053e c883 b33d 887b 85bd 58e5 d33d
00000280: d60c 083e c9de babc dbc9 f3bb ef0d 003c
00000290: 3c5b 123d 58eb 6d3e d541 e43c 632d 533d
000002a0: 95b8 2f3e fe6d a8bd 0e67 97bd 90d8 09be
000002b0: 7295 083b 9795 c3bc cc96 e6bd d893 a8bc
000002c0: ee4e a3bc c3d8 09bd 3c5f 0bbc 670b 92bd
000002d0: 2209 94bd ed05 dd3d 3c46 16be 0118 d23c
000002e0: 75a9 cc3d 767b 2ebd d5ef ea3d 54c0 c83d
000002f0: ac9d 4a3d d167 5fbc 2a90 163e 3c57 843d
00000300: 1452 ec3c 9710 2c3d 57ed f6bd 041f cd3d
00000310: 3035 52bd 8ed5 88bd d31b 86bd 620d 7b3d
00000320: cf14 d0bd 8859 46bd 64f3 4c3d b5f8 29bd
00000330: f38a e93c ab58 e93d 116d 07be a063 92bd
00000340: 4419 a3bd 72b3 ee3d 434c 003d ec1b 91bd
00000350: 6aa9 c2bd 2d59 ab3d 66d3 183e 5a73 7abd
00000360: 7eba 913d cfda 81bd dc26 4a3d c7d5 fabd
00000370: cb16 cb3d 6097 0a3e 44f6 d33c 0e0d 1c3c
00000380: eff8 433d e4d7 923d 1049 93bd cc04 89bd
00000390: 093b cbbd 5020 983d b809 07be e535 c33d
000003a0: 6024 01bd b44b 0e39 09af c63c 43b6 143c
000003b0: b397 87bd 94f1 0fbd 60e9 1cbd 7054 b8bd
000003c0: 4f18 a8bc e189 573d 564f b93c 5eca 03bd
000003d0: 0048 e13d 2556 2dbd 3274 dbbd c625 e63d
000003e0: 9333 663c 61fa 63bc fcf2 713d faaf eb3d
000003f0: 5e10 05be ad18 ce3d bd73 013e a397 9dbd

layer_3.lin.bias f4 [32]
0.021458898 -0.014907495 0.078318454 -0.068735994 0.069812804 0.039295483 0.08488311 -0.094362505
0.10210501 -0.049502585 -0.0050129546 -0.010949712 0.089503005 0.06605588 -0.06800298 0.040229976
-0.0025783652 0.008080744 0.03744773 -0.022744562 0.03593704 0.1271925 0.046558008 -0.028980717
0.011012817 0.019165048 -0.06507069 0.05698632 0.09204556 0.057016104 0.069814965 -0.035887644
00000000: 92ca af3c 913e 74bc 6d65 a03d 75c5 8cbd
00000010: 04fa 8e3d 4df4 203d 32d7 ad3d 2141 c1bd
00000020: 6e1c d13d 39c3 4abd b643 a4bb 6c66 33bc
00000030: 5a4d b73d 4e48 873d 2545 8bbd 30c8 243d
00000040: caf9 28bb 1965 043c ca62 193d ce52 babc
00000050: b832 133d c03e 023e 9cb3 3e3d f868 edbc
00000060: 1a6f 343c 0500 9d3c c843 85bd 7d6a 693d
00000070: 6282 bc3d b889 693d 26fb 8e3d ecfe 12bd

layer_4.lin.weight f4 [32, 64]
0.09206178 -0.008551831 0.077132136 -0.09813199 -0.17401762 0.06488368 0.008939545 -0.10839787
0.039666887 0.01379433 0.057995297 0.016103392 0.08261562 -0.0039275284 0.0618941 -0.11337469
-0.045288444 0.055959415 0.048947144 0.05978156 0.08670887 -0.014930741 0.0047620316 -0.16317655
-0.04002349 0.11183939 0.06253293 0.043150626 0.052696794 -0.076120876 -0.0150067 -0.12137333
-0.015523742 0.019897433 0.09100687 0.099044055 0.09737327 -0.03157759 -0.029316893 0.07684929
0.1117615 0.06119511 -0.10349874 0.0058957343 -0.11706398 0.00737849 0.082005 0.16075459
0.066464655 0.056501668 -0.10382868 0.03723907 0.08807361 -0.048063464 -0.10882048 0.08206717
-0.025036482 -0.12125101 -0.11982661 -0.058575433 -0.021903628 0.10852899 -0.019277023 -0.113516666
0.086196154 -0.032597393 -0.02811289 0.0051857443 0.020804238 -0.028206015 0.13281977 0.022207098
-0.1400694 0.03155708 0.051968087 0.038027667 0.12624136 -0.02669607 -0.062678695 0.06515164
-0.0828051 0.08773545 -0.1334105 -0.039768428 -0.10506466 -0.016107481 -0.01640685 0.1277391
0.027951384 -0.18907446 -0.09688055 0.0020908704 0.08859992 0.021054475 0.15263754 -0.038682457
0.07268492 0.06043083 -0.059509523 -0.11312696 -0.10268178 0.060896203 -0.0073489984 -0.12824875
-0.055305906 0.013580949 -0.04872624 -0.07322761 -0.0442696 0.072565265 -0.0028452002 -0.118825465
-0.10059635 0.11857978 -0.10330572 -0.12362674 0.03191356 0.08046876 0.0013731548 0.071558625
0.07067433 -0.13738693 -0.0333026 -0.007665144 -0.09679426 -0.031734142 -0.09342152 0.065589055
0.014261802 0.10976041 -0.026562845 0.08842131 0.00018687955 -0.10749175 -0.10033555 -0.07496536
-0.035456073 0.051332437 -0.03373386 -0.008280866 0.088857315 0.0007003652 0.0439937 -0.020738361
-0.024669139 -0.070828564 0.10642605 -0.082924396 -0.035759795 0.04209516 0.027889168 0.0043272944
-0.0045352867 -0.07601026 0.038062815 -0.045159254 0.05474347 0.03456709 0.08296933 -0.008691506
-0.04531606 -0.0657051 0.028226726 -0.027003948 0.13017651 0.10314892 -0.010150323 0.06904887
-0.09592055 -0.087676376 0.08632559 0.00799412 -0.024695702 -0.07779004 0.052466135 0.040709406
0.16279082 -0.0046540126 -0.11039452 0.062247682 -0.10284489 -0.053258136 -0.09237354 0.1256337
-0.042387232 0.022914032 -0.005884286 0.039947566 -0.040549286 0.11811525 -0.085584566 0.024640344
-0.03706951 -0.0727288 0.046295967 0.08091807 0.0700533 -0.015665421 0.037474673 0.10688516
0.049603365 -0.0322994 0.059178587 0.10513035 0.0578558 -0.024102617 0.15251847 -0.08881397
0.06613505 0.004085809 0.06475988 0.1299115 0.16177934 -0.08233296 0.05246555 0.039227318
-0.009166382 0.09164489 0.038546067 0.041818287 0.048543107 -0.059162416 -0.15088855 0.054332122
0.085361175 0.021170815 0.114255756 0.004755261 0.00036569123 -0.042133164 -0.024152976 -0.014613088
-0.05957672 0.093124546 -0.052933685 -0.01662953 -0.005692959 -0.07450926 0.14088428 0.05003199
-0.103758335 0.0233389 0.042807136 -0.07068229 0.002945337 -0.11151021 -0.030633388 -0.11510258
0.10473457 0.062174805 0.09245699 -0.02051368 -0.08528908 0.043541357 -0.006088273 0.093698025
00000000: e38a bc3d fb1c 0cbc 74f7 9d3d 6df9 c8bd
00000010: ad31 32be bce1 843d 2b77 123c b4ff ddbd
00000020: bf79 223d 9d01 623c 7a8c 6d3d 43eb 833c
00000030: 6132 a93d 7fb2 80bb ab84 7d3d fd30 e8bd
00000040: 6080 39bd b335 653d cd7c 483d 82dd 743d
00000050: 6c94 b13d 11a0 74bc d10a 9c3b c117 27be
00000060: acef 23bd 0d0c e53d 4411 803d b6be 303d
00000070: 98d8 573d 43e5 9bbd a9de 75bc 9592 f8bd
00000080: 4b57 7ebc f1ff a23c cf61 ba3d 9cd7 ca3d
00000090: a36b c73d 8157 01bd fb29 f0bc 2963 9d3d
000000a0: 37e3 e43d b9a7 7a3d 26f7 d3bd 0131 c13b
000000b0: 3dbf efbd 43c7 f13b 3df2 a73d da9c 243e
000000c0: 9f1e 883d 4b6e 673d 22a4 d4bd ff87 183d
000000d0: f05f b43d 32de 44bd 46dd debd d512 a83d
000000e0: 4f19 cdbc 7352 f8bd a767 f5bd cbec 6fbd
000000f0: 3d6f b3bc 7244 de3d d9ea 9dbc 6d7b e8bd
00000100: 9c87 b03d d884 05bd 014d e6bc 2ded a93b
00000110: a66d aa3c 4d10 e7bc e801 083e a9eb b53c
00000120: 5a6e 0fbe ff41 013d 7ddc 543d e6c2 1b3d
00000130: 6a45 013e b7b1 dabc b05d 80bd 396e 853d
00000140: b895 a9bd a5ae b33d c39c 08be 38e4 22bd
00000150: 242c d7bd d6f3 83bc a967 86bc 0ace 023e
00000160: 4dfa e43c bc9c 41be 4f69 c6bd fc06 093b
00000170: e073 b53d 6f7a ac3c 044d 1c3e 7f71 1ebd
00000180: d5db 943d 5186 773d 42c0 73bd 1caf e7bd
00000190: d34a d2bd 4c6e 793d decf f0bb a453 03be
000001a0: 7288 62bd a182 5e3c 2a95 47bd 5bf8 95bd
000001b0: 0a54 35bd 199d 943d 8a76 3abb c45a f3bd
000001c0: 7605 cebd f5d9 f23d f391 d3bd 0430 fdbd
000001d0: cbb7 023d cecc a43d 6efb b33a 548d 923d
000001e0: b4bd 903d 29af 0cbe 4f68 08bd e32b fbbb
000001f0: 123c c6bd a9fb 01bd c853 bfbd 8e53 863d
00000200: 55aa 693c 11ca e03d 539a d9bc 3b16 b53d
00000210: 19f5 4339 a224 dcbd ba7c cdbd 7087 99bd
00000220: 633a 11bd f641 523d 842c 0abd 78ac 07bc
00000230: d3fa b53d b798 373a bd32 343d 7fe3 a9bc
00000240: ef16 cabc 910e 91bd e7f5 d93d 44d4 a9bd
00000250: dd78 12bd f96b 2c3d d377 e43c facb 8d3b
00000260: be9c 94bb 44ab 9bbd c1e7 1b3d e9f8 38bd
00000270: b03a 603d 3996 0d3d d3eb a93d d266 0ebc
00000280: 559d 39bd 6590 86bd bc3b e73c 6237 ddbc
00000290: fe4c 053e be3f d33d 8a4d 26bc 7e69 8d3d
000002a0: fe71 c4bd ac8f b3bd 79cb b03d c5f9 023c
000002b0: a44e cabc 6250 9fbd bbe6 563d e8be 263d
000002c0: a3b2 263e b080 98bb 8616 e2bd 6df7 7e3d
000002d0: 57a0 d2bd 3425 5abd 572e bdbd 1fa6 003e
000002e0: 3c9e 2dbd 35b6 bb3c f8d0 c0bb 0fa0 233d
000002f0: 0217 26bd 68e6 f13d f646 afbd 8cda c93c
00000300: 33d6 17bd d6f2 94bd d7a0 3d3d 60b8 a53d
00000310: 1b78 8f3d c554 80bc 0b7f 193d 9be6 da3d
00000320: e62c 4b3d 604c 04bd 3f65 723d 954e d73d
00000330: 34fa 6c3d da72 c5bc cd2d 1c3e 19e4 b5bd
00000340: d071 873d 40e2 853b d4a0 843d 8507 053e
00000350: 7ca9 253e 2f9e a8bd 1ee6 563d d3ac 203d
00000360: 982e 16bc 51b0 bb3d 7be2 1d3d a749 2b3d
00000370: 23d5 463d 4a54 72bd 8782 1abe 5c8b 5e3d
00000380: d7d1 ae3d 6b6e ad3c ecfe e93d 05d2 9b3b
00000390: 3fba bf39 d393 2cbd 76dc c5bc bc6b 6fbc
000003a0: b806 74bd 15b8 be3d fed0 58bd a73a 88bc
000003b0: 008c babb 5098 98bd f843 103e 58ee 4c3d
000003c0: 407f d4bd 3931 bf3c 8956 2f3d e0c1 90bd
000003d0: 8e06 413b 775f e4bd dff2 fabc e7ba ebbd
000003e0: 147f d63d 02ab 7e3d 175a bd3d 4e0c a8bc
000003f0: 0bac aebd 6c58 323d 2380 c7bb c0e4 bf3d

layer_4.lin.bias f4 [32]
0.044801503 -0.07709819 0.1039366 -0.040987372 -0.08856526 -0.015548778 -0.030274075 -0.04077112
-0.056036152 -0.0054008877 0.022225754 0.057574775 -0.09698711 0.00048611584 0.045238085 0.095237456
0.028368695 0.08684196 0.014782834 0.020083131 -0.037328903 -0.051155385 0.028489424 -0.04177235
0.11350596 -0.08206316 0.053134497 0.079488635 0.1083196 0.06433352 -0.041917987 0.08231356
00000000: c881 373d a8e5 9dbd b6dc d43d 60e2 27bd
00000010: b461 b5bd 4dc0 7ebc 5601 f8bc 9eff 26bd
00000020: 2a86 65bd eef9 b0bb c912 b63c 87d3 6b3d
00000030: 2ea1 c6bd 5ddd fe39 924b 393d db0b c33d
00000040: 7765 e83c 33da b13d b333 723c 6185 a43c
00000050: 31e6 18bd 4f88 51bd a762 e93c 7c19 2bbd
00000060: d075 e83d bb10 a8bd 8fa3 593d f0ca a23d
00000070: abd6 dd3d 4bc1 833d 32b2 2bbd 0394 a83d

layer_5.lin.weight f4 [32, 64]
-0.07815391 -0.064687505 0.02044079 0.10897709 -0.0022947765 -0.15530899 -0.12003418 -0.06601948
0.0024559132 0.042151228 -0.044953153 0.08461631 0.022629008 -0.04438188 0.1320632 -0.0861775
-0.048755873 0.062607996 -0.05391495 -0.05178951 -0.023973247 0.050106827 0.14646907 0.16631171
0.06453968 -0.06853181 -0.07674175 -0.17512041 0.08951488 -0.09610763 0.07787084 -0.18473898
0.030422391 0.10386962 -0.102477096 -0.033026192 0.049732003 0.04599356 -0.04707764 0.04531399
-0.031921245 0.0921922 0.09316211 -0.0049615055 0.036488455 -0.03020891 -0.0657381 -0.065254115
0.003799441 0.081686795 0.016524684 0.16769102 0.13913682 0.14439063 -0.068191975 -0.10042682
-0.07870324 0.07941421 0.15531059 0.14658095 -0.08462639 0.09486443 -0.013624485 0.09019196
0.054626577 -0.11256346 -0.11534831 0.07275029 -0.05887676 0.10280557 0.117659345 0.10513853
0.0002835286 -4.602533e-06 0.037151672 0.051156618 -0.14584279 0.019865975 -0.13880728 0.14435317
-0.017038547 -0.070132 -0.075648345 0.10427712 0.09350575 0.09923605 0.078745104 -0.11045439
0.09379101 -0.02348895 0.10661936 -0.006068178 0.02775751 -0.040572487 -0.010415604 0.09247998
-0.11708908 0.09862834 -0.014799975 -0.10235845 0.18222295 -0.077820726 0.035021033 0.08224878
-0.050359804 -0.08609092 -0.07204652 0.022374375 -0.015922211 0.086832106 0.10315059 -0.05684313
0.035837147 -0.1253367 0.008043934 0.013134001 -0.073758826 -0.02436711 0.05558666 -0.09259784
0.056915317 0.035474744 0.016244309 -0.085444756 -0.03770384 -0.039125767 -0.007603325 -0.03486191
-0.065800965 0.16540463 0.09182237 0.13266808 0.1366929 0.06976707 -0.08637485 -0.06355491
-0.065735914 0.059826925 -0.014736955 -0.015205345 -0.035167344 -0.0023366928 -0.0783592 -0.062674455
0.053320885 -0.08678868 -0.13519983 -0.13560067 -0.0012789008 -0.089456975 -0.16397698 0.110187106
-0.0414568 0.09086211 0.014699866 0.076218896 0.09147671 -0.12744717 0.11443663 0.14104861
0.14551085 -0.07727828 -0.03832887 0.010600063 -0.11915556 0.03315387 -0.0013456963 0.0680324
-0.09975689 -0.02428692 0.004417886 -0.0077823424 0.13527243 0.09117977 0.0608963 -0.09814539
0.016172796 0.07436081 -0.07322237 -0.04188089 0.17151688 -0.09302075 -0.13638373 -0.09138594
0.10731529 0.0076004327 -0.00086770236 0.043739866 -0.021064512 0.06431545 -0.048296712 -0.1762863
-0.06616053 -0.057110038 -0.1632759 0.080043815 -0.10081144 -0.05600856 0.10681931 0.04231822
0.030507604 -0.0897284 -0.014253762 -0.14540978 -0.124523655 0.09536423 0.07142869 0.037342913
0.16128658 0.11945398 0.12521535 0.015161985 0.044985216 -0.0038126814 -0.07948454 -0.07439718
0.10181476 -0.07588929 0.079333186 -0.25418288 0.023390736 0.031172192 0.16519006 -0.0314972
0.09754129 -0.030841446 0.11259623 -0.074201845 0.089137584 0.07020767 -0.051326547 -0.03261989
0.033732824 0.05825252 0.026138468 -0.060906924 0.034679342 -0.10335315 0.06285993 -0.12518041
-0.046585713 0.06982099 0.0640458 -0.02327593 -0.050649446 -0.009185478 -0.0038667845 0.060748085
-0.08738558 -0.039990462 0.01704563 0.21232025 0.088944346 0.11587117 0.0009326753 -0.034393832
00000000: 280f a0bd e27a 84bd 7273 a73c 612f df3d
00000010: f663 16bb 5209 1fbe 7bd4 f5bd 3935 87bd
00000020: 63f3 203b c4a6 2c3d cc20 38bd 514b ad3d
00000030: 7860 b93c c6c9 35bd 933b 073e d47d b0bd
00000040: 3db4 47bd 9f38 803d ecd5 5cbd 3d21 54bd
00000050: 8b63 c4bc d13c 4d3d fdfb 153e 9e4d 2a3e
00000060: 612d 843d 685a 8cbd c72a 9dbd c452 33be
00000070: 9453 b73d 14d4 c4bd bf7a 9f3d 372c 3dbe
00000080: 6138 f93c 98b9 d43d 83df d1bd 7946 07bd
00000090: c9b3 4b3d be63 3c3d 7cd4 40bd 2a9b 393d
000000a0: dabf 02bd 44cf bc3d c7cb be3d 2094 a2bb
000000b0: eb74 153d ad78 f7bc b2a1 86bd f3a3 85bd
000000c0: 0b00 793b 684b a73d c65e 873c 32b7 2b3e
000000d0: e279 0e3e 23db 133e 3ca8 8bbd 94ac cdbd
000000e0: 2a2f a1bd eba3 a23d bd09 1f3e 5119 163e
000000f0: 9a50 adbd 4848 c23d 3b39 5fbc 90b6 b83d
00000100: 1ec0 5f3d ac87 e6bd bc3b ecbd 1bfe 943d
00000110: c228 71bd ba8b d23d 62f7 f03d df52 d73d
00000120: 91a6 9439 756f 9ab6 5a2c 183d 9a89 513d
00000130: d057 15be f8bd a23c 7f23 0ebe 51d1 133e
00000140: 6c94 8bbc 5ea1 8fbd 85ed 9abd 3e8f d53d
00000150: f17f bf3d 453c cb3d 1d45 a13d e935 e2bd
00000160: 8015 c03d e66b c0bc 405b da3d 91d7 c6bb
00000170: b863 e33c 562f 26bd 36a6 2abc 2566 bd3d
00000180: 66cc efbd a8fd c93d 987b 72bc 4fa1 d1bd
00000190: a798 3a3e 7960 9fbd 3772 0f3d 0c72 a83d
000001a0: 1546 4ebd 7050 b0bd 208d 93bd 774a b73c
000001b0: 4c6f 82bc 08d5 b13d 9e40 d33d 58d4 68bd
000001c0: f9c9 123d 4458 00be b4ca 033c fe2f 573c
000001d0: de0e 97bd 899d c7bc d6ae 633d f0a3 bdbd
000001e0: 0920 693d f74d 113d c912 853c a9fd aebd
000001f0: 576f 1abd 5742 20bd 5025 f9bb 5dcb 0ebd
00000200: a8c2 86bd d55f 293e 5e0d bc3d 24da 073e
00000210: 39f9 0b3e 0ae2 8e3d 4ce5 b0bd 1429 82bd
00000220: 8da0 86bd 140d 753d 4573 71bc d71f 79bc
00000230: a20b 10bd 3323 19bb ca7a a0bd 775b 80bd
00000240: 0067 5a3d 43be b1bd d371 0abe e7da 0abe
00000250: caa0 a7ba 3835 b7bd 95e9 27be c7a9 e13d
00000260: 9bce 29bd ea15 ba3d b5d7 703c a718 9c3d
00000270: 2458 bb3d 8381 02be c05d ea3d 0c6f 103e
00000280: cc00 153e 1344 9ebd bcfe 1cbd e3ab 2d3c
00000290: d507 f4bd 5acc 073d 1362 b0ba 9254 8b3d
000002a0: 574d ccbd 5df5 c6bc eac3 903b 0503 ffbb
000002b0: db84 0a3e 76bc ba3d 666e 793d 7300 c9bd
000002c0: d07c 843c 7b4a 983d 9cf5 95bd 4c8b 2bbd
000002d0: 1fa2 2f3e aa81 bebd 2da8 0bbe 8d28 bbbd
000002e0: 1ec8 db3d 0d0d f93b 8576 63ba 9328 333d
000002f0: 7c8f acbc d2b7 833d c6d2 45bd 6584 34be
00000300: 2c7f 87bd 37ec 69bd cc31 27be 03ee a33d
00000310: 3a76 cebd 3b69 65bd 15c4 da3d df55 2d3d
00000320: 15eb f93c 86c3 b7bd 9c88 69bc 4de6 14be
00000330: 4206 ffbd 524e c33d 3449 923d e2f4 183d
00000340: 4f28 253e 4aa4 f43d 7438 003e f969 783c
00000350: 6b42 383d 2ede 79bb cac8 a2bd 8c5d 98bd
00000360: 4284 d03d d86b 9bbd 7079 a23d 4224 82be
00000370: ee9d bf3c d35c ff3c 9527 293e 3503 01bd
00000380: bac3 c73d 33a7 fcbc da98 e63d 23f7 97bd
00000390: c48d b63d 0ac9 8f3d c93b 52bd 6f9c 05bd
000003a0: 6e2b 0a3d 329a 6e3d 5720 d63c 8a79 79bd
000003b0: ed0b 0e3d d1aa d3bd b5bc 803d 4b2f 00be
000003c0: a9d0 3ebd 4ffe 8e3d 722a 833d 2aad bebc
000003d0: cb75 4fbd b07e 16bc e169 7dbb fcd2 783d
000003e0: 36f7 b2bd 0acd 23bd 47a3 8b3c 7b6a 593e
000003f0: 7428 b63d dd4d ed3d c87e 743a 8ce0 0cbd

layer_5.lin.bias f4 [32]
-0.057465315 0.0829868 -0.032177545 -0.039151587 -0.044530943 -0.024621967 -0.07584318 0.06880362
0.018240688 -0.012269575 0.09442854 -0.02625574 0.0011425084 0.0634707 0.0032684943 0.009389919
0.08892963 -0.061765175 0.058753286 0.027643243 0.00020216289 0.007335013 -0.00973118 -0.055138934
-0.095191434 -0.03812184 0.061593376 0.08655884 -0.033341352 0.06412265 0.07446265 0.074195564
00000000: c060 6bbd fcf4 a93d 9acc 03bd 6a5d 20bd
00000010: 1466 36bd 02b4 c9bc ab53 9bbd eae8 8c3d
00000020: 7f6d 953c 5406 49bc c063 c13d 4716 d7bc
00000030: 38c0 953a edfc 813d 3c34 563b 2dd8 193c
00000040: bd20 b63d 7bfd 7cbd 49a7 703d 1574 e23c
00000050: b0fb 5339 8c5a f03b 876f 1fbc 5dd9 61bd
00000060: baf3 c2bd a625 1cbd 5649 7c3d c345 b13d
00000070: f190 08bd bc52 833d e07f 983d d8f3 973d

layer_6.lin.weight f4 [32, 64]
-0.012896298 0.13515526 -0.08420902 0.16313083 -0.036483705 -0.1675628 -0.016709981 -0.086172186
0.015046171 0.12259093 0.029734299 -0.061657887 -0.0029985444 0.11370647 0.12298869 -0.10314745
0.021720871 0.15212004 -0.053633556 -0.12422118 0.0046386677 0.0891262 -0.09512947 0.21112277
-0.097798415 0.098485515 -0.09962103 -0.058774244 0.08228835 -0.04989278 -0.12807204 0.09639733
0.13173701 -0.14565319 -0.107338786 0.048616283 0.17908223 -0.058162108 -0.03117339 0.1362349
-0.06751658 -0.09998368 -0.02218748 0.11194538 0.0015189311 0.009679952 0.055880193 0.023426503
0.09214018 -0.18905184 0.09141234 0.031721447 -0.19344154 -0.020803066 0.0051396005 -0.13895932
0.07895991 0.17858239 -0.039751373 0.0035701657 -0.13858141 -0.01977906 0.061957333 -0.12913516
0.1325529 -0.10250376 -0.029704174 -0.14817081 -0.08879522 0.069079265 -0.044172652 0.062119953
-0.060837388 0.045275066 -0.09342947 0.038505696 -0.097676605 -0.04241051 0.060565542 -0.07246641
-0.030193467 0.086073235 0.086329184 -0.019168176 0.064395055 -0.11798673 0.00072437833 0.13240619
-0.20421712 -0.11635107 -0.13901293 -0.12695311 0.007527078 0.016934238 -0.056422908 -0.04155441
0.07561344 0.08648546 0.18174754 -0.040048856 -0.07103461 -0.070462115 -0.1172841 -0.07734239
0.068346575 -0.04711705 0.05559429 0.03577569 0.08865617 -0.03262733 0.07768467 0.01677566
-0.004373541 -0.037354868 -0.20196682 0.11890781 -0.11366029 0.0068307403 -0.1024656 -0.08007997
0.013634833 0.17507374 0.11958581 -0.058393955 0.15763755 -0.08272603 -0.03964669 0.119777486
0.12797149 -0.06730413 0.064613044 -0.006653083 0.006264846 0.023849428 0.032233384 0.084924355
-0.024422707 0.0076586115 -0.046249267 -0.14980793 0.050626367 -0.038230874 -0.009840482 -0.18179637
-0.116970986 -0.012796517 0.0062376526 -0.10482655 -0.12391283 -0.08633833 0.12636118 0.012638976
0.057187345 0.108979896 0.112797685 0.09635108 -0.13211533 -0.17407243 -0.04270829 -0.21978562
0.10384599 0.0043723234 0.04146521 -0.027321182 -0.13175376 -0.020558355 -0.05928556 -0.068703264
0.07990623 -0.096561454 -0.10860563 0.062331744 0.02196912 -0.08849524 0.00047865152 0.072829895
0.017097095 -0.045182064 -0.10015235 0.043721437 0.101398624 -0.04647376 -0.009351211 -0.07940499
0.040849335 -0.009702159 -0.1202826 -0.039524436 -0.020800978 -0.03089314 0.013851835 0.07373892
0.07805882 -0.042129554 0.13184012 0.20299116 0.1364697 -0.020865977 0.008618523 -0.15943041
0.117226325 -0.08975726 0.05044083 0.16579792 -0.06788585 0.035282996 -0.17236851 0.05468544
-0.08044505 0.050421882 -0.04042321 -0.0728813 -0.056897026 -0.06043674 -0.021266524 -0.10007741
0.09339054 0.03886359 0.06697188 0.046909265 0.05127598 0.057878193 0.03502361 0.10246129
-0.18643837 0.042769205 -0.009359569 0.10704786 -0.026663274 -0.13464493 0.060676415 0.12804902
-0.17345475 -0.0066351523 0.07604121 0.019777162 -0.07133507 0.0011003541 0.025976801 0.07008799
0.096174374 0.008545543 0.029660821 0.030113062 0.11972104 -0.054443568 -0.037116654 0.12050428
-0.03580171 -0.08462283 -0.018041268 -0.14701092 -0.044020474 0.113361426 -0.09171987 0.036195263
00000000: ff4a 53bc 2466 0a3e c775 acbd c50b 273e
00000010: f06f 15bd 9595 2bbe 5fe3 88bc 0b7b b0bd
00000020: 3784 763c f410 fb3d 5895 f33c fb8c 7cbd
00000030: 3a83 44bb f0de e83d 7fe1 fb3d f83e d3bd
00000040: f8ef b13c 5bc5 1b3e dcae 5bbd ad67 febd
00000050: f7ff 973b cc87 b63d 3dd3 c2bd 9130 583e
00000060: 894a c8bd c6b2 c93d 1c06 ccbd 43bd 70bd
00000070: cb86 a83d 5f5c 4cbd 5125 03be f76b c53d
00000080: 11e6 063e 1c26 15be 70d4 dbbd de21 473d
00000090: 5561 373e 643b 6ebd 565f ffbc 2981 0b3e
000000a0: 2246 8abd 3ec4 ccbd 85c2 b5bc 9f43 e53d
000000b0: df16 c73a a998 1e3c a1e2 643d f0e8 bf3c
000000c0: feb3 bc3d ce96 41be 6536 bb3d 59ee 013d
000000d0: 8a15 46be 316b aabc 186a a83b 5a4b 0ebe
000000e0: bcb5 a13d 4dde 363e 56d2 22bd 71f9 693b
000000f0: 49e8 0dbe b207 a2bc f9c6 7d3d 023c 04be
00000100: f3bb 073e 7eed d1bd 2b56 f3bc 17ba 17be
00000110: 45da b5bd 6e79 8d3d 62ee 34bd 7e71 7e3d
00000120: a030 79bd 5972 393d f357 bfbd 26b8 1d3d
00000130: ac0a c8bd a5b6 2dbd 9313 783d 4569 94bd
00000140: 4a58 f7bc 2a47 b03d 5bcd b03d 9406 9dbc
00000150: 8ee1 833d 07a3 f1bd 35e4 3d3a 7d95 073e
00000160: 4b1e 51be 7849 eebd 6859 0ebe ffff 01be
00000170: b5a5 f63b acb9 8a3c b51b 67bd f534 2abd
00000180: 38db 9a3d 4a1f b13d 071c 3a3e 450a 24bd
00000190: 987a 91bd 714e 90bd a532 f0bd b065 9ebd
000001a0: 4af9 8b3d cffd 40bd d7b6 633d 8889 123d
000001b0: 5e91 b53d 3ca4 05bd 2419 9f3d 1c6d 893c
000001c0: ec4f 8fbb 6b01 19bd 64d0 4ebe f085 f33d
000001d0: bac6 e8bd 67d4 df3b 7cd9 d1bd f800 a4bd
000001e0: a264 5f3c 8846 333e 68e9 f43d 802e 6fbd
000001f0: bd6b 213e 446c a9bd 9164 22bd e64d f53d
00000200: f50a 033e bfd6 89bd d853 843d 1b02 dabb
00000210: 5649 cd3b e05f c33c 2707 043d d2ec ad3d
00000220: 2112 c8bc 17f5 fa3b df6f 3dbd 4067 19be
00000230: 985d 4f3d fa97 1cbd f939 21bc d428 3abe
00000240: 7c8e efbd 7ca8 51bc 3965 cc3b 4daf d6bd
00000250: 03c6 fdbd 26d2 b0bd d364 013e b513 4f3c
00000260: 473d 6a3d da30 df3d 7902 e73d b753 c53d
00000270: 3e49 07be 0b40 32be e3ee 2ebd 7b0f 61be
00000280: 35ad d43d b545 8f3b 6dd7 293d acd0 dfbc
00000290: 75ea 06be ff69 a8bc 6ad5 72bd 4cb4 8cbd
000002a0: e1a5 a33d 03c2 c5bd a16c debd 924f 7f3d
000002b0: 95f8 b33c fe3c b5bd 85f3 fa39 d727 953d
000002c0: 350f 8c3c d410 39bd ad1c cdbd 4015 333d
000002d0: 15aa cf3d 455b 3ebd d235 19bc 159f a2bd
000002e0: a251 273d cef5 1ebc b956 f6bd 60e4 21bd
000002f0: d066 aabc 9c13 fdbc cff2 623c 6e04 973d
00000300: 4ddd 9f3d 0a90 2cbd 1901 073e eadc 4f3e
00000310: b7be 0b3e 20ef aabc b534 0d3c ba41 23be
00000320: 5b14 f03d a8d2 b7bd 0b9b 4e3d eec6 293e
00000330: bd07 8bbd e784 103d 5f81 30be d7fd 5f3d
00000340: 60c0 a4bd 2d87 4e3d cf92 25bd ca42 95bd
00000350: db0c 69bd 848c 77bd 2237 aebc 63f5 ccbd
00000360: 8a43 bf3d 6e2f 1f3d 8e28 893d ee23 403d
00000370: c306 523d af11 6d3d eb74 0f3d 3ad7 d13d
00000380: b3e9 3ebe c32e 2f3d e158 19bc e93b db3d
00000390: f06c dabc 5ce0 09be d587 783d 481f 033e
000003a0: 1f9e 31be b16b d9bb 7ebb 9b3d b703 a23c
000003b0: 1f18 92bd c239 903a 4dcd d43c 4b8a 8f3d
000003c0: 12f7 c43d 9b02 0c3c 40fb f23c abaf f63c
000003d0: 4e30 f53d 3800 5fbd a207 18bd f3ca f63d
000003e0: d0a4 12bd bc4e adbd 48cb 93bc 088a 16be
000003f0: d04e 34bd 092a e83d a1d7 bbbd 7c41 143d

layer_6.lin.bias f4 [32]
0.08072668 0.028131945 0.036909427 0.003289128 -0.07780201 0.012460336 0.024901185 0.042848095
0.031203117 0.1131736 -0.036861047 0.046205826 -0.09803709 -0.014184539 -0.05111489 -0.0043557854
-0.08629058 -0.04360008 0.084832795 0.022999836 0.06430078 0.04153733 0.05457171 -0.065286614
0.023882987 -0.116213806 -0.06801279 -0.108689845 0.058521133 0.052299663 -0.05717428 0.012711511
00000000: 0854 a53d f774 e63c 572e 173d 698e 573b
00000010: a956 9fbd 7026 4c3c 92fd cb3c 7c81 2f3d
00000020: ae9d ff3c 8fc7 e73d 9cfb 16bd 5242 3d3d
00000030: abc7 c8bd 4566 68bc d95d 51bd faba 8ebb
00000040: 1eb9 b0bd ff95 32bd d1bc ad3d 276a bc3c
00000050: 21b0 833d 0c23 2a3d 9686 5f3d fdb4 85bd
00000060: 41a6 c33c 8101 eebd 4a4a 8bbd c898 debd
00000070: dbb3 6f3d 2c38 563d 942f 6abd f143 503c
