training_runs/model_step17000.pt (torch, 108782 bytes, 24 tensors)

layer_0.lin.weight f4 [32, 64]
0	0xbe6cee84	-0.23137861
1	0x3dae18d2	0.08500828
2	0x3e11d85a	0.14242688
3	0x3ba82073	0.0051308214
4	0xbdda919c	-0.10672304
5	0x3d6a3400	0.057178497
6	0x3cc3c0ab	0.023895582
7	0xbdd97acb	-0.10619124
8	0x3d1cc839	0.038276885
9	0xbcf808d8	-0.030277655
10	0x3d87fefa	0.0664043
11	0x3e7735a1	0.24141552
12	0xbe06dacd	-0.13169403
13	0x3d926aa2	0.07149245
14	0xbd8bb777	-0.068221025
15	0xbdf19189	-0.11795337
16	0x3e17fa7b	0.14841644
17	0x3e09e4da	0.13466206
18	0xbe36caa7	-0.17850743
19	0xbe0a16bf	-0.1348524
20	0x3e4fa748	0.20278656
21	0x3e84f2b2	0.25966412
22	0xbd8b7093	-0.06808581
23	0xbc56e4ad	-0.013116044
24	0xbe01103e	-0.12603852
25	0x3dc0a6f7	0.09406846
26	0x3e3e4066	0.18579254
27	0xbd738a23	-0.05945791
28	0x3ddc5037	0.10757487
29	0x3d8fec5e	0.07027505
30	0x3b70e0cc	0.0036755083
31	0x3dc9732a	0.09836419
32	0x3e27a134	0.16370088
33	0x3e70fafe	0.23533246
34	0xbd0d33fb	-0.0344734
35	0xbe5971be	-0.21234795
36	0x3e667920	0.22507143
37	0xbe0652af	-0.13117479
38	0x3e23a981	0.1598263
39	0x3e6f7ec5	0.23388202
40	0x3e4b46be	0.19851205
41	0xbd02687b	-0.03183792
42	0x3dba5f4b	0.09100207
43	0xbefbc37b	-0.49172577
44	0xbd337eeb	-0.04382221
45	0xbcda4aa3	-0.026646918
46	0xbdc24dc9	-0.094874926
47	0x3de38d67	0.11110955
48	0xbd535971	-0.05159897
49	0xbe53e04f	-0.20691036
50	0x3e26ec11	0.1630099
51	0x3e9945bf	0.29936025
52	0x3d85cf28	0.065336525
53	0xbdbd6b44	-0.09248975
54	0xbe0bebdb	-0.1366419
55	0x3d5de448	0.054172784
56	0x3e0eb0bf	0.13934611
57	0xbe9f3b3c	-0.3109988
58	0x3d609c2b	0.054836433
59	0xbda32d81	-0.079676636
60	0xbd2f8067	-0.042847063
61	0xbe39eb73	-0.18156223
62	0x3d4a41b8	0.04937908
63	0xbdf987cd	-0.12184105
64	0xbd620d5f	-0.055188533
65	0xbd4dd8dc	-0.05025564
66	0x3c87243f	0.016496776
67	0x3de2e06a	0.1107796
68	0xbe393861	-0.18087913
69	0x3e7f02b7	0.2490338
70	0xbde9298d	-0.11384878
71	0xbe43807c	-0.19091982
72	0xbde4ea5f	-0.11177515
73	0x3d09028d	0.0334497
74	0xbc99c80f	-0.018772153
75	0x3eac02ba	0.3359583
76	0x3dce1bfc	0.10063931
77	0xbc88ed44	-0.0167147
78	0x3dbbb951	0.09166206
79	0xbdfcb78c	-0.12339696
80	0xbd40fea2	-0.047117837
81	0x3e0544c4	0.13014513
82	0xbb578752	-0.0032887054
83	0xbe1b2bb0	-0.15153384
84	0x3dcfd305	0.10147671
85	0x3bf9706f	0.00761228
86	0x3e262892	0.16226414
87	0xbd345ee4	-0.044035807
88	0x3d631cb4	0.055447295
89	0x3ce745a3	0.028231448
90	0x3ccc7ab0	0.024960846
91	0x3c6f9616	0.014623186
92	0x3d703e5b	0.058653217
93	0x3e173a5c	0.14768356
94	0x3c81cf1f	0.015845833
95	0x3de4f65f	0.11179804
96	0x3e80dd1e	0.251687
97	0x3df01d31	0.11724318
98	0xbe59051c	-0.21193355
99	0xbe9755d2	-0.29557663
100	0x3dfd1bb8	0.123588026
101	0xbdc189b7	-0.09450095
102	0x3d62cb0c	0.05536942
103	0x3e3233be	0.1740255
104	0xbdf60172	-0.120119944
105	0xbd6e16fb	-0.058127385
106	0xbd2c033b	-0.04199527
107	0xbee2dc35	-0.4430863
108	0xbe1158da	-0.1419405
109	0x3c888da9	0.016669111
110	0xbd601b48	-0.054713517
111	0x3e54094b	0.2070667
112	0xbe7703d4	-0.24122554
113	0xbe439aae	-0.19101974
114	0x3c96ab8a	0.018392343
115	0xbc0fe139	-0.008781725
116	0x3e06bb4f	0.1315739
117	0xbd9f6fd9	-0.07785005
118	0xbc8cc56e	-0.017183986
119	0x3ced9215	0.029000321
120	0x3e55b926	0.2087141
121	0x3e6d022e	0.23145363
122	0xbe570f3c	-0.21001905
123	0xbd1245c2	-0.035711057
124	0xbe9cd39e	-0.306302
125	0xbe052883	-0.13003735
126	0xbd8e7cd1	-0.069574006
127	0xbe7c8390	-0.24659562
128	0xbe15a6d9	-0.14614429
129	0x3e577695	0.21041329
130	0x3e2aef55	0.1669286
131	0xbbe45d82	-0.006969155
132	0xbccd8c5b	-0.02509134
133	0x3db7bef7	0.089719705
134	0x3d486aa5	0.04892983
135	0xbda4955a	-0.08036299
136	0x3d99316d	0.0748013
137	0xbe250f4a	-0.16119114
138	0xbd83cbca	-0.06435354
139	0x3d3a1215	0.0454274
140	0x3d739394	0.059466913
141	0x3de22e46	0.11043982
142	0x3dcbcffb	0.099517785
143	0xbe4052b3	-0.18781547
144	0x3d9c1d96	0.076228306
145	0xbe04d420	-0.12971544
146	0x3dd97cd3	0.106195115
147	0xbcbaccd0	-0.02280274
148	0x3dfef946	0.12449889
149	0x3de7b3df	0.113136046
150	0xbe8429e0	-0.25813198
151	0xbcb38085	-0.021911869
152	0xbd0ddc5b	-0.034633975
153	0xbde1fcae	-0.11034523
154	0x3ea979dd	0.33100787
155	0x3c9f0a63	0.019414132
156	0x3efa7aca	0.48921806
157	0xbd91a02c	-0.071106285
158	0x3dcefcd0	0.10106814
159	0x3dd5c572	0.1043805
160	0xbd9ac78f	-0.07557594
161	0xbe35e487	-0.17762958
162	0xbe038599	-0.12843932
163	0xbe5717a4	-0.21005112
164	0xbe182db9	-0.14861192
165	0x3dc76947	0.09736877
166	0xbe070bd7	-0.1318811
167	0xbdc42d4f	-0.095789544
168	0xbe97ddc3	-0.29661378
169	0x3d1af85b	0.037834506
170	0x3e529838	0.2056588
171	0x3df4ca77	0.119526796
172	0x3d86e459	0.065865226
173	0xbccae950	-0.024769455
174	0xbdc074c2	-0.0939727
175	0x3e26f984	0.1630612
176	0xbe86536e	-0.26235527
177	0xbda4e96b	-0.080523334
178	0xbc815539	-0.015787708
179	0xbd2d8536	-0.042363368
180	0x3e3d8085	0.18506058
181	0x3d0c93fe	0.034320824
182	0x3e8db4da	0.2767704
183	0x3d2bc518	0.04193601
184	0x3d8615ba	0.06547113
185	0x3dfd0076	0.123536035
186	0xbe413532	-0.18867949
187	0xbe06ca59	-0.13163127
188	0xbde59a42	-0.11211063
189	0x3e3a1d6b	0.18175285
190	0xbda732e6	-0.08164005
191	0x3bd5e638	0.0065276884
192	0xbeb108fd	-0.3457717
193	0xbe243607	-0.16036235
194	0xbcf19f73	-0.029494977
195	0x3e295644	0.16536814
196	0xbcdcf3fd	-0.026971811
197	0xbda720e4	-0.0816057
198	0xbd7e2c00	-0.06205368
199	0xbd4fffb6	-0.050780974
200	0x3de8c44b	0.11365565
201	0x3df7549d	0.120766856
202	0xbdc75db4	-0.09734669
203	0xbc218d5b	-0.009860362
204	0x3d039bfa	0.032131173
205	0x3c2da963	0.010599467
206	0x3d41f91a	0.047356702
207	0xbb3621b8	-0.0027791094
208	0x3ea3f6e8	0.32024312
209	0x3e834c47	0.25644132
210	0x3ddc6bbc	0.10762736
211	0x3dbc9248	0.092075884
212	0xbe148d53	-0.14507036
213	0xbe2a1df2	-0.16612986
214	0xbd05b317	-0.032641497
215	0xbe0caa33	-0.13736801
216	0xbe8856b8	-0.2662866
217	0xbe3ea8e5	-0.18619116
218	0x3df04ef1	0.11733807
219	0xbe14c60c	-0.14528674
220	0xbd18317d	-0.03715657
221	0x3d863606	0.06553273
222	0xbcdb6194	-0.026779927
223	0x3dabdc27	0.083916
224	0xbd37c4b6	-0.044865333
225	0xbde79d31	-0.11309279
226	0xbe7556f4	-0.23958951
227	0xbd8dd387	-0.06925111
228	0x3d9ad3cb	0.075599276
229	0xbe0a2e00	-0.1349411
230	0x3dd19d9e	0.10235141
231	0x3e20701c	0.15667766
232	0x3d4449c1	0.0479219
233	0x3d8198a3	0.06327941
234	0x3d096212	0.033540793
235	0xbe8ff110	-0.28113604
236	0xbda2cdf9	-0.079494424
237	0xbde2d573	-0.110758685
238	0xbcd18fbf	-0.025581239
239	0x3e15a545	0.14613827
240	0xbd4a0ee7	-0.04933062
241	0x3e04ead4	0.12980205
242	0x3ca74e17	0.020422978
243	0x3de25381	0.11051083
244	0xbe373ac2	-0.17893508
245	0xbe9d2598	-0.30692744
246	0x3db70e41	0.089382656
247	0xbd6d27cd	-0.057899285
248	0x3c82248b	0.015886566
249	0xbcd77851	-0.026302489
250	0xbe6e4023	-0.23266654
251	0xbe5da2d2	-0.21644142
252	0xbe71c021	-0.23608448
253	0xbe1029b4	-0.14078408
254	0xbda8ebed	-0.08248124
255	0xbe106ee8	-0.14104807

layer_0.lin.bias f4 [32]
0	0x3d32f667	0.04369202
1	0x3c258fd6	0.010105094
2	0xbca150af	-0.019691793
3	0x3cc54fbb	0.02408587
4	0xbcb64998	-0.02225189
5	0x3d28dd68	0.041226774
6	0x3d2aa2c2	0.041659124
7	0x3e194de8	0.14971125
8	0x3e0a5d16	0.13512072
9	0xbca0a7d6	-0.01961128
10	0xbd8ecb4e	-0.06972371
11	0x3da7c786	0.08192353
12	0xbb142fcc	-0.0022611497
13	0xbb79c84f	-0.0038113778
14	0x3dda3f4f	0.106566064
15	0xbcdcecd8	-0.026968405
16	0xbbee8035	-0.007278467
17	0x3dd8a2b4	0.10577908
18	0xbd551031	-0.052017394
19	0xbb8ce32c	-0.004299542
20	0xbc90f0b5	-0.017692903
21	0xbda1c47b	-0.07898804
22	0xbdb5ccc0	-0.088769436
23	0x3d090153	0.03344853
24	0xbda419ed	-0.080127575
25	0x3c31ff9d	0.010864166
26	0x3c43abb4	0.011942793
27	0xbcbc7f57	-0.02300994
28	0xbcd16047	-0.025558604
29	0x3d86ddd5	0.0658528
30	0xbb073bc9	-0.0020635
31	0x3cb69fdd	0.022293026

layer_1.lin.weight f4 [32, 64]
0	0xbe4be556	-0.19911703
1	0xbdb108ba	-0.086442426
2	0xbd1b412d	-0.037903953
3	0x3e13b8cf	0.14425968
4	0xbe1eca25	-0.155068
5	0x3db3a008	0.08770758
6	0xbe0dac40	-0.1383524
7	0x3e39e514	0.18153793
8	0xbdd67fe1	-0.1047361
9	0xbd410d4c	-0.04713182
10	0xbe0ec887	-0.13943683
11	0xbe2e1126	-0.16998729
12	0x3e1a82ae	0.15088913
13	0xbdf4bd27	-0.119501404
14	0xbd00de09	-0.03146175
15	0xbdd82214	-0.10553375
16	0x3d2a5d7b	0.041593056
17	0x3ca4f298	0.020135209
18	0xbd1c0d72	-0.03809876
19	0x3da47873	0.08030786
20	0xbe5c4937	-0.21512304
21	0xbc6d7dfb	-0.014495368
22	0x3df9a084	0.12188819
23	0xbc605447	-0.013691968
24	0x3ca5180f	0.020153074
25	0x3e48e6e0	0.19619322
26	0x3cb8c21e	0.0225535
27	0xbd8df119	-0.06930751
28	0x3e4fc79e	0.20290992
29	0x3e834dee	0.25645393
30	0x3bdb4f85	0.006692829
31	0xbc3cb3d9	-0.011517488
32	0xbae59a2f	-0.0017517264
33	0x3e311fee	0.17297336
34	0x3cc8edaf	0.024527399
35	0xbd0de2b2	-0.03464002
36	0x3b69d61f	0.0035680605
37	0xbd390ad4	-0.045176342
38	0x3e4faa1a	0.20279732
39	0xbe3b88ff	-0.18313979
40	0xbb53677a	-0.0032257722
41	0x3e30387a	0.17209044
42	0xbd745541	-0.059651617
43	0x3b505fa7	0.0031795294
44	0xbdfc1887	-0.12309366
45	0x3e13cd0c	0.14433688
46	0x3e86d7e9	0.263366
47	0x3e4923c6	0.19642553
48	0x3d9cc221	0.07654215
49	0xbe090bef	-0.13383459
50	0xbccd2472	-0.025041793
51	0x3d05303e	0.03251671
52	0xbdbb6597	-0.09150236
53	0x3ce492e9	0.027902083
54	0xbe16d8f0	-0.14731193
55	0x3dd113cd	0.10208855
56	0x3e301834	0.17196733
57	0xbe36f74f	-0.17867778
58	0x3deefd21	0.11669374
59	0x3e3cdb7f	0.18443106
60	0xbebc49f5	-0.36775175
61	0x3e2d48c2	0.16922286
62	0xbd374e79	-0.04475257
63	0xbe0ecea3	-0.13946013
64	0xbc995723	-0.018718308
65	0xbd0753fa	-0.03303907
66	0xbd6eb284	-0.058275715
67	0x3c687ebe	0.014190374
68	0xbcb6d9f3	-0.022320723
69	0xbe15d95d	-0.14633699
70	0x3ec044e6	0.37552565
71	0x3cec2710	0.02882722
72	0x3dedf636	0.11619227
73	0x3d87f948	0.066393435
74	0x3cfbbb5c	0.030728988
75	0xbd33e50f	-0.04391962
76	0x3d8be7be	0.06831311
77	0xbe9d6f78	-0.30749106
78	0xbe26619b	-0.16248171
79	0xbe6cf846	-0.23141584
80	0x3d5ad7a7	0.05342832
81	0x3d410b00	0.04712963
82	0xbd3f51e5	-0.04670896
83	0x3d1b7637	0.037954535
84	0xbe95a8e9	-0.2923043
85	0xbd283a7c	-0.0410714
86	0xbe278afa	-0.16361609
87	0xbd6c2f30	-0.05766219
88	0xbe42158a	-0.18953529
89	0x3d8a758f	0.06760704
90	0xbe19a985	-0.15006073
91	0xbdb7cf04	-0.08975032
92	0x3e5cba1e	0.21555373
93	0x3e0c78ed	0.13718005
94	0xbe810fa5	-0.25207248
95	0x3d8f5900	0.06999397
96	0x3e2184f5	0.15773375
97	0x3da8f2b1	0.08249415
98	0xbdbe32cb	-0.09287032
99	0x3cd7a0ff	0.026321886
100	0x3d93514e	0.07193242
101	0x3dae7052	0.08517517
102	0xbd2b604c	-0.041839883
103	0xbdb9c135	-0.090700544
104	0xbbd30d11	-0.0064407666
105	0x3db8d8a9	0.090257
106	0xbc542f34	-0.012950707
107	0x3d6ddfa4	0.05807461
108	0x3bc88adf	0.0061200703
109	0x3c69539b	0.0142411245
110	0x3de101f9	0.109867044
111	0x3d6faf62	0.058516867
112	0x3da28163	0.07934835
113	0xbc5fd72d	-0.013662142
114	0xbc5bda20	-0.013418704
115	0x3cb2a9d9	0.021809505
116	0x3cc0dbde	0.02354234
117	0xbd88781e	-0.066635355
118	0x3b1a18df	0.002351336
119	0xbd07ec93	-0.0331846
120	0x3d465458	0.04842028
121	0xbe0557ff	-0.13021849
122	0x3e1cd7c1	0.15316679
123	0x3d93b47e	0.072121605
124	0xbe7a3ef4	-0.24438077
125	0x3db0a181	0.086245544
126	0xbad16e4e	-0.0015978308
127	0x3ab1cd79	0.0013565264
128	0xbe4bf7c5	-0.19918735
129	0xbe601ae1	-0.21885253
130	0x3c8848da	0.0166363
131	0xbd17d45a	-0.03706775
132	0x3e22c3bd	0.1589498
133	0xbe85e721	-0.261529
134	0x3e49ebeb	0.19718902
135	0x3e77c04b	0.24194448
136	0x3db7b596	0.08970182
137	0xbe13d9b4	-0.14438516
138	0xbdac27d5	-0.08406035
139	0xbdfbedea	-0.12301238
140	0x3e70d8fa	0.2352027
141	0xbdc5cad2	-0.096578255
142	0xbe363a77	-0.1779574
143	0xbe8f6a42	-0.28010756
144	0xbda8898b	-0.08229359
145	0xbda6f9e8	-0.081531346
146	0x3e0383dd	0.1284327
147	0xbe0c3c64	-0.13694912
148	0x3d80a420	0.06281304
149	0xbd657a6d	-0.056024957
150	0xbe50537d	-0.20344348
151	0xbbdfb10c	-0.0068265256
152	0x3c60e0a8	0.013725437
153	0x3da17dc4	0.07885316
154	0xbe28cf09	-0.16485228
155	0xbd66cd14	-0.05634792
156	0x3ec3e9ff	0.38264462
157	0x3d9d92ca	0.076940134
158	0xbaa145dd	-0.0012304146
159	0xbd5e7709	-0.05431274
160	0x3be7e3de	0.0070767244
161	0xbd70d85d	-0.05880009
162	0xbe1e630e	-0.15467474
163	0xbd95de00	-0.07317734
164	0x3d29b596	0.04143294
165	0x3e0901ab	0.13379543
166	0xbe190e17	-0.14946781
167	0xbc87898d	-0.016545082
168	0x3c5127e2	0.012765856
169	0xbd89c3b6	-0.06726782
170	0x39f4b617	0.00046674974
171	0x3dd80bf2	0.105491534
172	0x3d16df0c	0.036833808
173	0x3e451d15	0.19249375
174	0x3dbe3d46	0.09289031
175	0x3d93271b	0.07185193
176	0x3e5097e1	0.20370437
177	0xbc6d9026	-0.0144997
178	0xbd7c0ee5	-0.061537642
179	0x3dd0cbb0	0.101951
180	0x3d40438a	0.04693941
181	0xbce8264b	-0.028338572
182	0x3de2c6a3	0.11073043
183	0x3d4e467c	0.050360188
184	0x3d28172d	0.041037727
185	0xbddffbce	-0.109367
186	0x3d92efbb	0.07174631
187	0x3d771f52	0.060332604
188	0xbc6e345f	-0.014538853
189	0xbd886f22	-0.06661822
190	0x3df401b7	0.119143896
191	0x3d60d2a2	0.054888375
192	0x3d7c6fad	0.06162994
193	0x3a9dca8a	0.0012038511
194	0xbcdc581b	-0.02689748
195	0x3dd3556a	0.10319026
196	0xbbcb28bf	-0.0061999257
197	0xbdab592a	-0.08366616
198	0xbc2352ae	-0.009968443
199	0x3e59220f	0.21204399
200	0x3da73f3d	0.081663586
201	0xbe12e1e4	-0.14343983
202	0xbd0593e3	-0.03261174
203	0xbd768cb6	-0.060192786
204	0x3e47b981	0.19504358
205	0xbdd16663	-0.10224607
206	0xbe72dd40	-0.23717213
207	0xbde1da49	-0.11027963
208	0xbc53c02f	-0.012924238
209	0x3d50ec09	0.05100635
210	0x3cb4b3ad	0.022058332
211	0xbd45d5be	-0.048299544
212	0x3db70780	0.089369774
213	0x3c9a208c	0.018814348
214	0xbd00c8a8	-0.03144136
215	0xbda95995	-0.082690395
216	0xbc98a97b	-0.018635502
217	0x3e01cc37	0.12675558
218	0x3dc25425	0.094887055
219	0xbe60881d	-0.21926923
220	0x3d7ffccb	0.06249694
221	0xbde08f80	-0.109648705
222	0xbda69d19	-0.08135433
223	0x3de2757b	0.11057564
224	0xbe34b139	-0.1764573
225	0xbe1b6da9	-0.15178551
226	0x3c765e45	0.015037124
227	0xbe0122e2	-0.12610963
228	0x3e031493	0.12800817
229	0x3e3307a2	0.1748338
230	0x3dec82d9	0.11548395
231	0x3e030f98	0.12798917
232	0xbd8949f8	-0.067035615
233	0xbc4474a7	-0.011990703
234	0x3d414fab	0.047195118
235	0xbda1a0cc	-0.07891998
236	0x3d7decc7	0.061993387
237	0x3dd88e5b	0.10574027
238	0x3d871e65	0.06597594
239	0x3cbad165	0.022804925
240	0xbd1f2af6	-0.03885933
241	0x3e0d9348	0.13825715
242	0x3da3eb20	0.08003831
243	0x3cf478bd	0.029842729
244	0xbd804ef0	-0.06265056
245	0xbd65cb66	-0.05610218
246	0x3c54fda9	0.01299993
247	0x3e2d41ce	0.16919634
248	0xbce8ea32	-0.028431986
249	0xbd88855a	-0.0666606
250	0x3d45add3	0.048261475
251	0xbdc6833d	-0.096930005
252	0xbde993ee	-0.114051685
253	0x3c56f77c	0.013120528
254	0xbdcbc0b0	-0.099488616
255	0x3d1adcd0	0.03780824

layer_1.lin.bias f4 [32]
0	0xbd8154c0	-0.06314993
1	0xbd032ca5	-0.032025
2	0xbd4176d5	-0.047232468
3	0x3d06ab02	0.03287793
4	0xbd495be5	-0.049159903
5	0xbd5b6673	-0.0535645
6	0x3d8121f8	0.06305307
7	0x3d96a51c	0.07355711
8	0xbd2978bb	-0.041374903
9	0x39e5bf13	0.00043820645
10	0x3c5cb157	0.0134700155
11	0xbab07091	-0.0013461282
12	0x3d3aa479	0.04556701
13	0x3d36fe2c	0.04467599
14	0x3cc0c825	0.023532936
15	0xbd731d2e	-0.059354
16	0xbcd0524a	-0.025429863
17	0x3da74705	0.08167843
18	0xbdcbdb24	-0.09953907
19	0x3d3f45b4	0.046697333
20	0x3d9bbdca	0.07604559
21	0xbda90b7c	-0.082541436
22	0xbcbee746	-0.02330364
23	0x3d972371	0.07379807
24	0xba33fae3	-0.0006865693
25	0x3d79c0af	0.060974773
26	0x3cee2977	0.029072506
27	0x3db1d79b	0.086837016
28	0xbcf69c32	-0.030103777
29	0xbc2d6bde	-0.0105848
30	0x3e00eebb	0.12591068
31	0xbc273dda	-0.010207618

layer_2.lin.weight f4 [32, 64]
0	0x3d7e6c76	0.062115155
1	0x3dfba4ec	0.12287316
2	0x3dc92489	0.09821422
3	0x3d436bca	0.047710218
4	0xbd0f868c	-0.035040423
5	0xba54d71f	-0.0008119214
6	0xbd808cf0	-0.06276882
7	0x3ccc6982	0.024952654
8	0xbd4ee5f3	-0.050512265
9	0xbdd2fc4b	-0.10302027
10	0x3e6284bd	0.22120948
11	0xbd25edac	-0.040509865
12	0x3e7f0edb	0.2490801
13	0x3d891bfc	0.06694791
14	0xbd110583	-0.035405647
15	0x3d21ec8d	0.039532233
16	0xbd0af8b1	-0.033928577
17	0x3e3ccbb6	0.18437085
18	0x3d8b742f	0.0680927
19	0x3cb1f15f	0.02172154
20	0xbda2cd72	-0.07949342
21	0x3d4034c7	0.046925332
22	0xbde9781a	-0.11399861
23	0x3dceb39c	0.100928515
24	0xbcc111d4	-0.023568071
25	0x3d91c018	0.07116717
26	0x3e669bec	0.22520417
27	0xbdcd3e54	-0.10021654
28	0x3d98a3af	0.07453095
29	0xbdfd6d6e	-0.12374388
30	0x3e17b543	0.1481524
31	0xbe4ab279	-0.19794644
32	0xbe05baf0	-0.13059592
33	0x3dc54cff	0.096338265
34	0xbdc7c22d	-0.09753833
35	0xbdeb704b	-0.114960276
36	0xbe0e888c	-0.13919276
37	0x3e1b3b1c	0.15159267
38	0x3de353c8	0.110999644
39	0xbd6656aa	-0.056234993
40	0x3e181f88	0.14855778
41	0x3dd2adde	0.10287069
42	0xbe3a182b	-0.18173282
43	0xbd7a9a3e	-0.061182253
44	0xbe28da6b	-0.1648957
45	0x3d2ada68	0.041712195
46	0x3c27430a	0.010208854
47	0xbd5b718b	-0.05357508
48	0xbca69456	-0.020334404
49	0x3dd63870	0.10459983
50	0xbd110c7c	-0.035412297
51	0xbccacd61	-0.024756135
52	0xbcb7bc0f	-0.02242854
53	0xbec7d89d	-0.3903245
54	0x3cf5f60e	0.030024555
55	0xbcd6bbe0	-0.026212633
56	0xbd8abbe6	-0.0677412
57	0x3ceb0d58	0.028692886
58	0x3df2909e	0.1184399
59	0x3dc293e1	0.09500862
60	0xbe2c4c6d	-0.16826029
61	0x3cd81779	0.02637838
62	0xbe02c44b	-0.12770192
63	0x3dde853a	0.10865255
64	0x3c871839	0.016491042
65	0x3d95c39f	0.073127024
66	0x3e0209d7	0.12699066
67	0x3c978a08	0.018498436
68	0xbd16d4d3	-0.03682406
69	0x3e06b066	0.13153228
70	0xbd6405d8	-0.055669636
71	0xbdf24b4a	-0.118307665
72	0x3e455bc5	0.19273289
73	0x3e0bd326	0.13654765
74	0xbe430814	-0.1904605
75	0xbd6d6a4e	-0.05796271
76	0xbe7faf34	-0.24969178
77	0x3d3aafdc	0.04557787
78	0xbda94b74	-0.08266345
79	0xbe15648b	-0.14589135
80	0xbdbd3d25	-0.09240178
81	0x3b0420b6	0.0020161099
82	0xbadc4fd1	-0.0016808455
83	0x3db8ee3a	0.09029813
84	0x3c91c876	0.017795783
85	0xbe2017aa	-0.15634027
86	0xbc82337c	-0.01589369
87	0x3ddde1a0	0.1083405
88	0xbd17e9f1	-0.03708834
89	0xbcb91eff	-0.022597788
90	0x3e060dd5	0.13091214
91	0xbd102a2a	-0.03519646
92	0xbe986a2a	-0.29768497
93	0xbe0435fc	-0.12911218
94	0xbddfdc6d	-0.10930715
95	0x3eb8ad8a	0.360699
96	0x3d877a54	0.06615129
97	0x3d2df188	0.04246667
98	0x3dbbef2b	0.09176477
99	0xbd6729f9	-0.056436513
100	0xbe99f8a4	-0.3007251
101	0x3d522647	0.051306035
102	0x3dcf7274	0.10129252
103	0xbcf1a587	-0.029497875
104	0x3d323fcb	0.04351787
105	0x3bd72f65	0.006566929
106	0xbe0b32b9	-0.13593568
107	0xbdd75bda	-0.10515566
108	0x3d9b5e41	0.07586337
109	0xbdbb7bd9	-0.091544814
110	0xbd42ddba	-0.047574736
111	0xbc98345b	-0.018579653
112	0xbcf9aba2	-0.030477349
113	0x3d79bf97	0.06097373
114	0xbdfff51c	-0.12497923
115	0xbe02bec5	-0.12768085
116	0xbd4700e9	-0.048584852
117	0xbe92a0d8	-0.2863834
118	0x3da7c266	0.081913754
119	0xbd243a7a	-0.04009483
120	0xbe1e3b41	-0.15452291
121	0xbc941ea7	-0.018081022
122	0x3daada0a	0.08342369
123	0x3d308760	0.043097854
124	0x3db97fa2	0.09057547
125	0x3cb92494	0.02260045
126	0x3d6b9b31	0.05752105
127	0x3d6b67ee	0.057472162
128	0xbe1bdd41	-0.1522112
129	0x3e167f8f	0.14697097
130	0x3df76a80	0.1208086
131	0xbcbc9060	-0.023018062
132	0xbe175f9f	-0.1478257
133	0xbc2fbc71	-0.01072608
134	0x3e3bcafa	0.18339148
135	0x3c55548b	0.013020645
136	0xbe4bc6e5	-0.19900091
137	0xbbada838	-0.0052995943
138	0x3d0b579b	0.034019094
139	0xbc968155	-0.018372217
140	0x3c5abf79	0.013351315
141	0xbe80e8a5	-0.25177494
142	0xbdd2ff2f	-0.10302579
143	0xbd7864ab	-0.06064288
144	0xbd127559	-0.035756443
145	0xbe388b08	-0.18021786
146	0xbd2c9592	-0.04213483
147	0xbd701f6c	-0.058623716
148	0x3e2bcfab	0.16778438
149	0xbdfce8e1	-0.123491056
150	0x3d0fd60d	0.035116244
151	0x3de44fd7	0.11148041
152	0xbd99114b	-0.074740015
153	0x3df963be	0.121772274
154	0xbb72f7f1	-0.0037074054
155	0x3e10457c	0.14089006
156	0xbcd8d87a	-0.026470412
157	0x3d840748	0.06446701
158	0xbe137a1e	-0.14402053
159	0x3def1611	0.11674131
160	0x3d7661b1	0.06015176
161	0x3d76a3e5	0.060214896
162	0x3d68664d	0.056738187
163	0x3cb5bbbe	0.022184249
164	0xbd795ee5	-0.060881514
165	0xbc33157a	-0.010930413
166	0x3ddf12d3	0.10892262
167	0xbd12c320	-0.035830617
168	0xbcedd3ba	-0.029031623
169	0xbe5bf109	-0.21478666
170	0x3e256f3f	0.16155718
171	0x3d8fb4b8	0.07016891
172	0x3c20647e	0.009789584
173	0xbd81a3e1	-0.063300855
174	0x3d627b8d	0.05529361
175	0xbca81e88	-0.020522371
176	0xbde02cc7	-0.109460406
177	0x3bd4a031	0.006488823
178	0xbdd824e7	-0.105539136
179	0xbd905aac	-0.07048544
180	0x3d8292d0	0.063756585
181	0x3ddeeb91	0.108847745
182	0xba728a6f	-0.00092521956
183	0x3d1d031e	0.03833305
184	0xbdb2ac95	-0.08724324
185	0xbcb14303	-0.021638399
186	0x3d23d5d5	0.039998848
187	0xbdf94fe7	-0.12173443
188	0x3d96c638	0.07362026
189	0x3d8a989e	0.06767391
190	0x3e059cc9	0.1304809
191	0xbe64ff87	-0.22363101
192	0xbd53ddde	-0.05172526
193	0x3dbcffbe	0.092284665
194	0x3e44f9a0	0.1923585
195	0x3da3822f	0.07983815
196	0xbe093319	-0.13398398
197	0xba53b9a1	-0.0008076672
198	0xbe203264	-0.15644222
199	0xbe03629d	-0.12830587
200	0x3d738ed1	0.059462372
201	0xbdb85bea	-0.09001906
202	0x3d6ad87d	0.057335366
203	0xbdc6894a	-0.096941546
204	0x3e8afaf8	0.271446
205	0x3c8c9ddb	0.017165115
206	0xbd5ccae5	-0.053904433
207	0x3dc10c73	0.094262026
208	0x3d6d6729	0.05795971
209	0xbd574db8	-0.052564353
210	0xbde9fa45	-0.11424688
211	0x3c415bd4	0.011801679
212	0x3c26579f	0.010152726
213	0xbe137c67	-0.14402924
214	0x3a941b2d	0.0011299603
215	0xbd8b7290	-0.068089604
216	0xbd69dc15	-0.057094652
217	0x3e35ebed	0.1776578
218	0x3e38265e	0.17983386
219	0x3ccea728	0.02522619
220	0x3e4e722b	0.20160739
221	0x3ccf2b58	0.025289223
222	0x3db9a5a5	0.09064797
223	0xbe6d3398	-0.23164213
224	0x3db0b15e	0.0862758
225	0xbdc71d6c	-0.09722409
226	0xbe0cf01b	-0.13763468
227	0xbda1d0e2	-0.07901169
228	0x3e10637a	0.14100447
229	0x3b869a39	0.0041077402
230	0xbd523ae9	-0.051325712
231	0xbd63bb27	-0.055598404
232	0x3d2c798e	0.04210811
233	0x3e0db188	0.13837254
234	0xbe0a2767	-0.13491593
235	0xbd642b39	-0.055705283
236	0xbe351465	-0.17683561
237	0xbd1cbb88	-0.03826478
238	0xbe0f8bec	-0.1401822
239	0x3d1c77fe	0.03820037
240	0xbcb9effc	-0.022697441
241	0xbdf8b64a	-0.12144144
242	0x3d9e9b26	0.07744436
243	0xbcfd400b	-0.030914327
244	0xbce0fe23	-0.027464932
245	0xbc5fe1d5	-0.013664682
246	0xbd711551	-0.05885822
247	0xbae95045	-0.0017800411
248	0x3cafce57	0.021460695
249	0xbda69521	-0.08133913
250	0xbe0ae2d1	-0.13563086
251	0x3bf221c3	0.0073892786
252	0xbe02f6aa	-0.12789407
253	0xbdbae38b	-0.091254316
254	0xbe08b0f7	-0.13348757
255	0x3e9bd389	0.30434826

layer_2.lin.bias f4 [32]
0	0x3d5ce93f	0.05393338
1	0xbcd7dd50	-0.026350647
2	0xbdbf22c4	-0.09332803
3	0xbad82e86	-0.0016493357
4	0xbd8f0a8a	-0.06984432
5	0xbd65fe0b	-0.056150477
6	0xbd889e14	-0.06670776
7	0xbd83f607	-0.0644341
8	0xbcc0393c	-0.023464791
9	0xbd013f69	-0.031554613
10	0xbc8f60b3	-0.017502164
11	0x3da8ffbb	0.08251902
12	0x3db1212d	0.08648906
13	0x3d2a0521	0.041508798
14	0x3d56e531	0.052464668
15	0x3c98d3a6	0.01865561
16	0xbc5655b6	-0.0130819585
17	0xbd60a0f8	-0.05484101
18	0xbdd09ccf	-0.10186159
19	0xbd8e2388	-0.06940371
20	0x3c97c90b	0.018528482
21	0xbd30fd05	-0.04321005
22	0xbd053f15	-0.032530863
23	0x3d599a47	0.053125646
24	0xbb6d1b89	-0.0036179742
25	0x3cdc521a	0.026894618
26	0xbd1f81f3	-0.03894229
27	0xbacea1eb	-0.0015764808
28	0xbd5a5fd2	-0.053314038
29	0x3d3e2dcf	0.046430405
30	0xbdb8a3cc	-0.09015617
31	0xbde2ca45	-0.11073736

layer_3.lin.weight f4 [32, 64]
0	0x3d4d68e8	0.050148875
1	0xbdf29ff7	-0.11846917
2	0x3e480165	0.19531782
3	0x3c4cd3ca	0.012501666
4	0x3d69c360	0.05707109
5	0x3d0452f1	0.03230566
6	0xbb2d61b4	-0.002645594
7	0x3d1e95cc	0.038717076
8	0xbe03d97f	-0.12875937
9	0x3e020b5e	0.12699649
10	0x3dc44077	0.09582608
11	0x3dcfc0e3	0.10144212
12	0x3dd06f48	0.10177475
13	0xbc6386ce	-0.01388712
14	0x3e015a02	0.12631992
15	0xbe46dec2	-0.19420913
16	0xbcaacdd1	-0.020850094
17	0x3c82459d	0.015902335
18	0xbdf0dcb0	-0.11760843
19	0x3dac4708	0.08411986
20	0x3e37a82d	0.17935248
21	0xbdfd8e97	-0.123807125
22	0xbe3ac558	-0.18239343
23	0xbc50ae9d	-0.012736944
24	0x3c3f3ba8	0.011671938
25	0x3dbc420a	0.091922835
26	0x3c82cc54	0.015966572
27	0x3e3377c8	0.17526162
28	0x3d6cff8a	0.05786089
29	0xbb970780	-0.0046090484
30	0x3d5a4ad7	0.05329403
31	0xbc6eab32	-0.014567183
32	0x3e624d54	0.22099811
33	0xbe11f8f9	-0.14255132
34	0xbe6b7ca4	-0.22996765
35	0x3e5100ad	0.20410414
36	0xbe182726	-0.14858684
37	0x3dcd5843	0.100266
38	0x3d36e35d	0.044650424
39	0x3ddcb77e	0.10777186
40	0x3d56ca51	0.052439038
41	0xbe04c8f0	-0.12967277
42	0xbdeafc25	-0.11473874
43	0x3e32a5e0	0.17446089
44	0xbdfed92a	-0.124437645
45	0x3bfdac37	0.007741477
46	0x3e32f89b	0.17477648
47	0xbd419c1c	-0.047268018
48	0x3d8767a4	0.06611565
49	0xbd140372	-0.0361361
50	0xbd949539	-0.072550245
51	0xbe268628	-0.16262114
52	0xbdaf0555	-0.08545939
53	0x3e04b716	0.12960467
54	0x3e85b122	0.26111704
55	0x3e17b057	0.14813362
56	0x3e200552	0.1562703
57	0xbe10ed97	-0.14153133
58	0x3dc4cdb8	0.0960955
59	0xbe90f0f0	-0.2830882
60	0x3db258b1	0.08708323
61	0x3c8f4f6c	0.017493926
62	0xbd8a5396	-0.06754224
63	0x3e2e8437	0.17042623
64	0xbe282b85	-0.16422851
65	0x3da0ba12	0.0784799
66	0xbe19be4e	-0.15014002
67	0xbcf1b349	-0.029504435
68	0x3d631d2e	0.05544775
69	0xbdda506d	-0.10659871
70	0x3e456959	0.19278468
71	0x3d484e71	0.048902933
72	0x3c0e7cd0	0.00869675
73	0x3e382394	0.17982322
74	0x3d24a6b6	0.04019805
75	0xbd5716c3	-0.05251194
76	0xbe2a7544	-0.16646296
77	0xbdbb039c	-0.09131548
78	0xbe94feea	-0.29100734
79	0xbe5593e1	-0.20857193
80	0xbddd2574	-0.10798159
81	0x3e4ab7a3	0.19796614
82	0xbc715c46	-0.014731472
83	0xbcd5672c	-0.026050173
84	0xbd9a8c7e	-0.07546328
85	0xbd900532	-0.07032241
86	0x3e10c581	0.14137842
87	0x3e2e0761	0.16995002
88	0x3d59d97d	0.05318593
89	0x3bc91e27	0.0061376276
90	0xbe322700	-0.1739769
91	0xbd91115a	-0.07083388
92	0xbc30cfa9	-0.010791698
93	0x3dbddc49	0.09270532
94	0x3d277f5b	0.04089294
95	0xbdd071d9	-0.10177965
96	0xbca7fc15	-0.020505944
97	0x3da6d4b3	0.08146038
98	0x3df593f0	0.119911075
99	0xbe22d4a8	-0.15901434
100	0xbd39c490	-0.045353472
101	0x3dd35850	0.10319579
102	0x3e6501e8	0.22364008
103	0xbc9d9151	-0.019234331
104	0x3c8bd7bb	0.017070642
105	0xbe2bb317	-0.16767536
106	0xbdfbe35e	-0.12299226
107	0xbc2897b7	-0.010290078
108	0x3e42d94c	0.19028205
109	0x3e0746ee	0.13210651
110	0xbdbedfd8	-0.093200386
111	0x3e09e2b5	0.13465388
112	0xbd5e2c34	-0.054241374
113	0x3cfb055a	0.0306422
114	0x3e075179	0.13214673
115	0xbda9ac59	-0.08284826
116	0x3e5a1f7c	0.21301073
117	0xbd1a5be8	-0.037685305
118	0xbe515f51	-0.20446517
119	0xbbd27680	-0.0064228177
120	0x3b23740b	0.0024940993
121	0x3e8874fb	0.2665175
122	0x3d8bc029	0.06823761
123	0x3e323de0	0.17406416
124	0xbd8a9ba5	-0.06767968
125	0x3d8685e3	0.065685056
126	0x3e31f6c3	0.17379288
127	0xbdb82bfd	-0.08992765
128	0xbdaf7399	-0.085669704
129	0xbe7467b7	-0.23867689
130	0x3d370d4c	0.044690415
131	0xbe38c39d	-0.1804337
132	0x3c8e5bd3	0.01737777
133	0xbe8f83f5	-0.28030363
134	0x3e28f6f0	0.16500449
135	0x3db971b5	0.09054891
136	0xbd584b90	-0.052806437
137	0x3cf229dc	0.029560976
138	0x3e10933b	0.14118664
139	0x3da00c5f	0.078148596
140	0xbd6d209f	-0.057892438
141	0x3d16b51a	0.036793806
142	0xbbc866e6	-0.006115782
143	0x3de42307	0.111394934
144	0xbe2efb57	-0.17088066
145	0x3ba71166	0.0050985096
146	0x3d4e5a18	0.05037889
147	0xbce9017b	-0.028443089
148	0xbc58699e	-0.013208775
149	0x3db7087a	0.08937164
150	0xbdc94dd8	-0.09829301
151	0xbd9875f8	-0.07444376
152	0xbd89480a	-0.067031935
153	0xbc9459e8	-0.018109277
154	0xbcd1a6fe	-0.025592323
155	0xbc67d22a	-0.014149228
156	0x3dd269f1	0.10274113
157	0x3dae794a	0.08519228
158	0xbd8b5713	-0.068037175
159	0x3dbc792c	0.09202799
160	0x3e323588	0.17403233
161	0x3c83eb81	0.016103508
162	0xbc3c7dd7	-0.011504612
163	0x3ce37b34	0.027768709
164	0x3c5637cd	0.013074827
165	0x3e595bfb	0.21226494
166	0x3cd6b241	0.026208045
167	0x3d137df1	0.03600878
168	0x3def5b5e	0.11687349
169	0xbdd6424d	-0.104618646
170	0xbe3acccb	-0.18242185
171	0xbe056211	-0.1302569
172	0xbd2d7362	-0.042346366
173	0x3ca90bd7	0.020635528
174	0xbdef89af	-0.11696183
175	0xbcd33b1b	-0.02578502
176	0xbd1ccfba	-0.03828404
177	0xbc7d848e	-0.015473498
178	0xbc08e607	-0.008355624
179	0xbe0c5e72	-0.13707903
180	0xbd358637	-0.04431745
181	0x3d84c051	0.06481994
182	0xbe0cc4c8	-0.13746941
183	0x3dabd977	0.083910875
184	0x3dd831e3	0.1055639
185	0xbd025b82	-0.03182555
186	0x3de4292d	0.11140666
187	0x3db1ffc7	0.08691364
188	0x3c5e2de2	0.013560744
189	0xbd3077b6	-0.043082915
190	0x3e1e5f65	0.15466078
191	0x3d7b525b	0.061357837
192	0x3c42794f	0.011869743
193	0xbd4b465e	-0.049627654
194	0xbe3cfd3a	-0.18455973
195	0x3e18f6e9	0.14937939
196	0xbda916c1	-0.08256293
197	0xbdad9c37	-0.08477061
198	0xbd8003f9	-0.06250758
199	0xbd1faf6d	-0.03898566
200	0xbd18f53d	-0.037343252
201	0xbe290182	-0.16504481
202	0x3da6d0a9	0.081452675
203	0xbdaa52d3	-0.08316579
204	0xbc5defe6	-0.013545966
205	0x3de9e6a9	0.11420948
206	0xbe661af8	-0.22471225
207	0x3c765206	0.015034204
208	0xbd9c6e88	-0.0763827
209	0x3db8f10d	0.09030352
210	0xbd895732	-0.06706084
211	0xbd83e8d7	-0.06440895
212	0xbe139a5e	-0.14414355
213	0x3d0cd1a5	0.03437962
214	0x3e51d080	0.20489693
215	0xbdddeb0d	-0.10835848
216	0x3dcb09d5	0.09913985
217	0xbe47c849	-0.19509996
218	0x3c8fec61	0.017568769
219	0xbe14c5b4	-0.14528543
220	0x3d04a1f1	0.032381
221	0x3e3f7560	0.18697119
222	0xbd51fbf1	-0.05126566
223	0x3d170bd6	0.036876522
224	0x3d73da85	0.05953457
225	0x3d92e536	0.07172625
226	0xbd149b74	-0.036281064
227	0xbd98958e	-0.074504
228	0xbe04e4ca	-0.12977901
229	0x3d2d37d8	0.042289585
230	0xbe0b32c2	-0.13593581
231	0x3ca49b65	0.02009363
232	0xbb88c220	-0.004173532
233	0xbd8283ae	-0.06372772
234	0xbca591f1	-0.020211192
235	0xbcb953c7	-0.022622956
236	0x3d95d2cc	0.07315597
237	0xbd8b5f27	-0.06805258
238	0xbd95dc62	-0.07317425
239	0x3d070225	0.03296103
240	0x3d2b0dd5	0.041761238
241	0xbc9a93ab	-0.018869242
242	0x3d374652	0.044744797
243	0xbc20051d	-0.009766844
244	0x3e2b13e5	0.16706808
245	0xbd218254	-0.03943093
246	0xbe126515	-0.14296372
247	0x3e4030b2	0.18768576
248	0x3c80d547	0.015726699
249	0x3c9ab514	0.018885173
250	0x3d72c205	0.059267063
251	0x3e3ece30	0.18633342
252	0xbe3b75c1	-0.18306638
253	0x3e1342a7	0.14380895
254	0x3e04e9b2	0.12979773
255	0xbd408df3	-0.047010373

layer_3.lin.bias f4 [32]
0	0xbb04e2d9	-0.0020276813
1	0x3d0437ee	0.0322799
2	0x3d9eb092	0.07748522
3	0xbca861da	-0.020554472
4	0x3d296a7e	0.041361324
5	0x3d6f20f3	0.058381032
6	0x3da55882	0.08073522
7	0xbd6feb33	-0.058573913
8	0x3d925036	0.07144205
9	0x3a8f6460	0.0010939948
10	0x3ce1e9b7	0.027577264
11	0x3cdbcb58	0.02683036
12	0x3d774af6	0.060374223
13	0x3c5fc384	0.013657454
14	0xbdbaea06	-0.09126668
15	0xbc4555e2	-0.012044402
16	0x3b2b341a	0.0026123584
17	0x3bdb1e68	0.0066869743
18	0x3a2a012f	0.0006485162
19	0x3c482f2d	0.012218279
20	0x3dac7d1e	0.08422302
21	0x3daba948	0.08381897
22	0x3cc69900	0.024242878
23	0x3b85e48b	0.0040860823
24	0x3d231865	0.039818186
25	0xbaf048e3	-0.0018332269
26	0xbd60bb21	-0.05486596
27	0x3dba15cb	0.09086188
28	0x3d348718	0.044074148
29	0x3d5cd843	0.05391718
30	0x3cce53f0	0.025186509
31	0xbd121c37	-0.03567144

layer_4.lin.weight f4 [32, 64]
0	0x3da96f56	0.08273189
1	0xbd15b2df	-0.036547538
2	0x3d114b60	0.035472274
3	0xbe0fe91b	-0.14053766
4	0xbedf9a0a	-0.4367221
5	0x3e0fd9fb	0.14047997
6	0xbc68aded	-0.014201623
7	0xbe3d35db	-0.18477575
8	0x3b31e327	0.002714345
9	0x3d407672	0.04698796
10	0xbdb59d3e	-0.08867882
11	0xbdb57efa	-0.088621095
12	0x3cfbddcd	0.030745411
13	0x3ca81b5f	0.020520864
14	0xbc0b5bb5	-0.008505751
15	0xbe4256d0	-0.18978429
16	0xbe2437aa	-0.16036859
17	0x3d76b015	0.06022652
18	0x3bd6a6d3	0.0065506487
19	0x3cd4da37	0.02598296
20	0x3d3327af	0.043739017
21	0xbd530675	-0.05151983
22	0x3bcb613b	0.006206659
23	0xbe39097a	-0.18070021
24	0x3c83cf22	0.01608998
25	0x3e0273fc	0.12739557
26	0x3dcf8908	0.101335585
27	0x3b99b1a9	0.004690368
28	0xbdce2a6b	-0.10066684
29	0xbdbb0958	-0.091326416
30	0xbd41470b	-0.047186892
31	0xbe229bd1	-0.15879752
32	0xbe197264	-0.14985043
33	0x3e28b495	0.16475137
34	0x3cbef78b	0.023311397
35	0x3d8d205d	0.068909384
36	0x3d0fa316	0.03506764
37	0x3d92f1e8	0.07175046
38	0xbd8e1864	-0.06938246
39	0x3d950375	0.0727605
40	0x3dc5f0df	0.09665083
41	0x3cd44d4f	0.02591577
42	0xbe337dc1	-0.1752844
43	0xbd7fe4fe	-0.062474243
44	0xbe454e98	-0.19268262
45	0x3c365989	0.011129745
46	0xbc1b75cb	-0.009488533
47	0x3e54859f	0.20754097
48	0xbd563bb7	-0.052303042
49	0x3c4bc3c1	0.012436808
50	0xbe19bd1e	-0.15013549
51	0xb931978f	-0.00016936495
52	0x3dc1c0a7	0.09460574
53	0x3bcd0253	0.0062563806
54	0xbd95eab7	-0.07320159
55	0x3dc0a15c	0.09405777
56	0x3da8ac81	0.082360275
57	0xbe1c89db	-0.15286963
58	0xbe33a9ab	-0.17545192
59	0xbe268adb	-0.16263907
60	0xbe08ceb7	-0.13360105
61	0x3e138958	0.14407861
62	0x3daa372a	0.08311303
63	0xbd2f27d4	-0.042762592
64	0x3e0947e0	0.13406324
65	0xbe07a162	-0.13245156
66	0xbe07e444	-0.1327067
67	0xbe024ac9	-0.12723841
68	0xbc82fe36	-0.015990358
69	0x3c07a304	0.008278612
70	0x3e1a0c88	0.15043843
71	0x3cc6b94a	0.024258275
72	0xbe347142	-0.1762133
73	0xbd8899c7	-0.06669956
74	0xbc54ecb2	-0.012995886
75	0x3de70ae7	0.11281376
76	0x3e3d71be	0.1850042
77	0xbddcc2b9	-0.10779328
78	0xbccda8f4	-0.025104977
79	0x3db03286	0.086033866
80	0xbd7afa09	-0.06127361
81	0x3ddb4d2c	0.10708079
82	0xbe2ea293	-0.17054205
83	0xbd8b09b7	-0.06788962
84	0xbd9ee117	-0.07757776
85	0xbcdd5f01	-0.02702284
86	0xbce70ac1	-0.02820337
87	0x3d65b707	0.05608275
88	0xbd93f809	-0.07225043
89	0xbe0827c5	-0.13296421
90	0xbe5fe7e6	-0.21865806
91	0xbd4b9591	-0.049703185
92	0x3dab898f	0.083758466
93	0x3c99edca	0.018790144
94	0x3e39dc5b	0.18150465
95	0xbd939b39	-0.07207341
96	0x3d838a89	0.06422908
97	0x3d7c96ba	0.06166718
98	0xbbccbad9	-0.00624786
99	0xbe2fdd80	-0.1717434
100	0xbe396337	-0.18104254
101	0x3d18c9d7	0.037301864
102	0x3d944bbb	0.07241007
103	0xbe15cf8e	-0.14629957
104	0xbd58a93e	-0.052895777
105	0xbc1e0862	-0.009645553
106	0xbe0e08b4	-0.13870507
107	0xbdd09689	-0.10184962
108	0xbcef8d10	-0.029242069
109	0x3dddad09	0.108240195
110	0x3d8fd73d	0.07023475
111	0xbe46bbbb	-0.19407551
112	0xbd9e31a5	-0.07724313
113	0x3df36dd5	0.11886183
114	0xbdd045a9	-0.101695366
115	0xbe1255eb	-0.14290588
116	0xbc0b5f33	-0.008506584
117	0x3d58a562	0.052892096
118	0x3d00fb0d	0.03148942
119	0x3d84b10e	0.06479083
120	0x3e264c47	0.16240035
121	0xbe292f2b	-0.165219
122	0xba53159a	-0.000805223
123	0xbc648c9b	-0.013949539
124	0xbde4c293	-0.111699246
125	0xbda215f0	-0.079143405
126	0x3d0efaea	0.03490726
127	0x3ddfd2a2	0.10928847
128	0xbd98e5d1	-0.07465709
129	0x3e0deec1	0.13860609
130	0xbdcb8c1e	-0.099388346
131	0x3e278fb5	0.16363414
132	0xbc6299f1	-0.013830648
133	0xbe2668d0	-0.1625092
134	0xbe0ac010	-0.13549829
135	0xbd5834fe	-0.052784912
136	0xbd1f8c22	-0.038952
137	0x3da9f704	0.082990676
138	0xbab8c49e	-0.0014096682
139	0x3b2ed842	0.0026679193
140	0x3dc9f800	0.09861755
141	0x3c746a03	0.014917853
142	0xbd4f1308	-0.05055526
143	0x3d9ee167	0.07757836
144	0xbe26f868	-0.16305697
145	0x3de5a96b	0.112139545
146	0x3d749d9f	0.05972063
147	0xbdf2d2f2	-0.11856641
148	0xbd4bebeb	-0.049785536
149	0x3d8c3d6c	0.06847653
150	0xbc6401b6	-0.013916424
151	0x3df7548a	0.120766714
152	0xbbe5540d	-0.006998545
153	0xbe3a6237	-0.18201528
154	0x3e09d028	0.13458312
155	0xbcccd187	-0.025002254
156	0x3d04d031	0.03242511
157	0x3d3d8e04	0.046278015
158	0x3ca8800a	0.020568866
159	0x3daa5184	0.08316329
160	0xbd6a93c9	-0.057269845
161	0xbe04aaba	-0.12955752
162	0xbd174157	-0.036927547
163	0xbb8cc913	-0.004296431
164	0x3e1486d3	0.14504556
165	0x3d58a620	0.052892804
166	0xbd925247	-0.071445994
167	0x3d908da5	0.070582666
168	0xbda406cc	-0.08009109
169	0xbd867b81	-0.06566525
170	0x3ddb4117	0.10705774
171	0x3d21b2b4	0.039477065
172	0x3983044e	0.00024989474
173	0xbda1f979	-0.07908911
174	0x3bf46feb	0.0074596307
175	0x3dd259ca	0.10271032
176	0x3df3a25a	0.118962005
177	0x3d915091	0.07095445
178	0xbda4433e	-0.08020638
179	0x3dcc5d5f	0.099787466
180	0xbdde1925	-0.1084464
181	0xbcfd7541	-0.0309397
182	0xbe10121c	-0.14069408
183	0x3e54a8f8	0.20767581
184	0xbddd9b10	-0.108205914
185	0x3cb708dc	0.022343092
186	0x3d85f9c9	0.06541783
187	0x3dcb0641	0.09913302
188	0x3c30d331	0.010792539
189	0x3ded47a5	0.11585931
190	0xbe165503	-0.14680867
191	0x3db780a8	0.08960086
192	0xbb90b96d	-0.0044166357
193	0xbe0e3b5d	-0.13889833
194	0xbe0c81cf	-0.13721393
195	0x3d03a413	0.032138895
196	0xbcdbfd17	-0.026854081
197	0x3bf47e3f	0.007461339
198	0x3dbb7713	0.09153571
199	0x3d1c6445	0.038181562
200	0x3e352102	0.17688373
201	0xbdd06fc7	-0.1017757
202	0x3bb7cc0c	0.005609041
203	0x3d60e06b	0.05490152
204	0x3d564ddb	0.052320343
205	0x3da72804	0.08161929
206	0x3d9cd596	0.07657926
207	0xbe27c93b	-0.16385357
208	0x3e3554d3	0.17708139
209	0x3ccfa7ef	0.025348632
210	0x3db0bf95	0.086302914
211	0x3dfef345	0.12448744
212	0x3e0876f1	0.13326623
213	0x3c380ec3	0.011233988
214	0x3dc4e714	0.09614387
215	0x3da6e8b4	0.08149853
216	0xbdc52c35	-0.096275724
217	0x3dcdd737	0.100508146
218	0xbd96c42d	-0.07361636
219	0x3d8c9af9	0.06865496
220	0x3debb6aa	0.1150945
221	0xbe2fbc8f	-0.17161773
222	0xbe1a4be4	-0.15068012
223	0x3dde2997	0.108477764
224	0x3da55bc8	0.080741465
225	0x3e09a546	0.13441953
226	0x3dc540c5	0.096314944
227	0x3ce2fe61	0.027709188
228	0xbcfb9a9c	-0.030713372
229	0x3dd2fcfc	0.10302159
230	0xbd4f7e39	-0.050657485
231	0x3bbd3ea1	0.005775288
232	0x3cd2aaf1	0.025716277
233	0x3e27b8a7	0.16379033
234	0xbd258f66	-0.04041996
235	0xbe072005	-0.13195808
236	0x3cda5c29	0.026655274
237	0x3a947462	0.0011326189
238	0x3de8b58d	0.11362753
239	0xbc94eb99	-0.018178748
240	0xbe13b5c2	-0.14424804
241	0x3d3ce6eb	0.046118658
242	0x3d679662	0.0565399
243	0xbdfcacc5	-0.12337641
244	0xbc8345d2	-0.016024504
245	0xbd2588b9	-0.040413592
246	0xbd3bdbd3	-0.045863938
247	0xbdf6c4ec	-0.120492786
248	0x3e6964e5	0.22792394
249	0xbd4663ce	-0.048435025
250	0x3d8e5881	0.069504745
251	0xbd202acf	-0.039103325
252	0xbdca75bd	-0.09885738
253	0xbded4c72	-0.115868464
254	0xbd852dee	-0.06502901
255	0x3dba8be6	0.09108715

layer_4.lin.bias f4 [32]
0	0x3cc0ab1d	0.023519093
1	0xbd690323	-0.056887757
2	0x3d8d3c80	0.06896305
3	0xbd24f341	-0.040271048
4	0xbd461c37	-0.04836675
5	0xbcc0286c	-0.023456775
6	0x3c986cd4	0.01860658
7	0xbcaafcf2	-0.020872567
8	0xbd9c2b37	-0.0762543
9	0xbca59bc4	-0.020215876
10	0x3d4e19ba	0.050317504
11	0x3d28aebe	0.041182272
12	0xbde1e930	-0.11030805
13	0x3b0e1e6c	0.0021685613
14	0x3c6d1fb8	0.014472894
15	0x3d9b4d65	0.07583121
16	0x3d44a6ef	0.048010763
17	0x3da1efe4	0.07907084
18	0x3d41f079	0.047348473
19	0xbd357c63	-0.044308078
20	0xbcbf47a2	-0.023349587
21	0xbc86b256	-0.01644246
22	0xbaeda788	-0.0018131593
23	0xbd87b48f	-0.06626236
24	0x3dca3636	0.09873621
25	0xbd452cb6	-0.048138343
26	0x3db32c54	0.08748689
27	0x3d850cc1	0.06496573
28	0x3d5d3744	0.054007784
29	0x3d8fad95	0.0701553
30	0xbcf3c788	-0.02975823
31	0x3d350113	0.044190478

layer_5.lin.weight f4 [32, 64]
0	0xbe0f0e2e	-0.13970253
1	0xbd9b1e6c	-0.07574162
2	0x3cb13e14	0.021636046
3	0x3db9519c	0.09048769
4	0xbd0e65f6	-0.034765206
5	0xbe24e276	-0.16102013
6	0xbdb9d754	-0.09074274
7	0xbdf6f419	-0.12058277
8	0x3d23391f	0.039849397
9	0x3de94783	0.11390593
10	0xbd06f029	-0.03294388
11	0x3e03ebbd	0.12882896
12	0xbde0da84	-0.109791785
13	0xbe8e1392	-0.27749306
14	0x3e827ed1	0.25487378
15	0xbd12361c	-0.035696134
16	0xbddfd48d	-0.10929213
17	0x3d4d44c1	0.050114397
18	0xbc917fb6	-0.017761093
19	0xbdeb0291	-0.11475099
20	0xbc56e3c7	-0.01311583
21	0xbd8fab34	-0.07015076
22	0x3e9719a3	0.29511747
23	0x3da10658	0.07862538
24	0x3e07c974	0.13260442
25	0xbcc21486	-0.023691427
26	0xbdbddcbc	-0.09270617
27	0xbea24904	-0.31696332
28	0x3df82383	0.12116148
29	0xbe8e5861	-0.27801803
30	0x3ca1d39b	0.019754222
31	0xbe3d2f05	-0.18474968
32	0x3d4c9b95	0.049953062
33	0x3da0400b	0.07824715
34	0xbd99b6e9	-0.075055905
35	0xbde88928	-0.113542855
36	0xbc42168a	-0.011846194
37	0x3d503215	0.050829012
38	0x3c5f802a	0.013641397
39	0x3d8c9042	0.068634525
40	0xbda23d2b	-0.07921823
41	0xbb9cb631	-0.004782461
42	0x3db7c8cd	0.089738466
43	0xbde55479	-0.111977525
44	0xbd543aa5	-0.05181374
45	0x3d335bc5	0.04378869
46	0xbe43cb95	-0.19120629
47	0xbc8f2c8f	-0.017477302
48	0x3d1655d4	0.036702946
49	0x3d491b4b	0.049098294
50	0x3d68a277	0.056795564
51	0x3e7cdb35	0.24692996
52	0x3e3503f3	0.17677288
53	0x3e1ceb7f	0.1532421
54	0xbe2697ab	-0.16268794
55	0xbe5dfdb3	-0.2167881
56	0x3ca75b9e	0.020429429
57	0x3e09751c	0.1342358
58	0x3e66a14f	0.22522472
59	0x3e7559d7	0.23960052
60	0xbdad7e72	-0.08471383
61	0x3e39afbe	0.18133447
62	0xbb9e6452	-0.0048337365
63	0x3e354710	0.1770289
64	0x3db313af	0.08743989
65	0xbde04911	-0.10951436
66	0xbd681858	-0.05666384
67	0x3de33ff3	0.11096182
68	0xbd042ba4	-0.03226818
69	0x3e5ea4ac	0.21742505
70	0x3c83f51e	0.016108092
71	0x3d82d378	0.06387991
72	0x3dc49ba8	0.096000016
73	0xbe05897f	-0.13040732
74	0x3cc6fa76	0.024289351
75	0x3d398631	0.04529399
76	0xbc4b7203	-0.012417319
77	0x3dbdca25	0.09267072
78	0xbe39f2e1	-0.18159057
79	0x3d9f7412	0.077858105
80	0x3df60384	0.12012389
81	0xbd87e78d	-0.06635962
82	0xbd201523	-0.039082658
83	0x3e2fd5fc	0.17171472
84	0x3d3cd2df	0.04609954
85	0x3e16d78b	0.1473066
86	0x3cfdc718	0.030978724
87	0xbd42ba61	-0.047541026
88	0x3d4d9a47	0.05019596
89	0x3d8a659f	0.06757664
90	0x3df89063	0.121369146
91	0x3d872774	0.06599322
92	0x3d9c130d	0.07620821
93	0x3ad89a20	0.0016525425
94	0x3cd90298	0.026490495
95	0x3d166c09	0.036724124
96	0xbd640e12	-0.05567748
97	0x3d8a193d	0.06743095
98	0x3d394d03	0.04523946
99	0xbdc10daa	-0.09426434
100	0x3e50c039	0.20385827
101	0xbd4384f8	-0.04773423
102	0xbd3803bf	-0.044925448
103	0x3cd48347	0.025941504
104	0x3ca9f43a	0.02074634
105	0xbd912277	-0.07086652
106	0xbd47422b	-0.048647087
107	0x3dcae406	0.09906773
108	0x3dd88472	0.10572137
109	0x3d712299	0.058870886
110	0x3e1a084e	0.1504223
111	0xbdb2ac5a	-0.0872428
112	0xbc36e2ea	-0.011162499
113	0xbddf4347	-0.10901504
114	0x3ca2b409	0.019861238
115	0x3da8f297	0.08249395
116	0xbdc53621	-0.09629465
117	0xbca406af	-0.020022718
118	0x3d52d16f	0.051469263
119	0xbc8ad580	-0.016947508
120	0x3d067769	0.032828722
121	0x3d944bce	0.07241021
122	0xbd2dc4ff	-0.0424242
123	0xbcbbd04b	-0.02292647
124	0x3d36236f	0.044467386
125	0xbd66c07c	-0.05633591
126	0xbd76a309	-0.060214076
127	0xbdc1d262	-0.094639555
128	0xbe23d183	-0.15997891
129	0x3e395a6e	0.18100902
130	0xbbd16a89	-0.006390874
131	0x3e0f43c1	0.1399069
132	0x3e1783d7	0.14796387
133	0x3d8d12d1	0.068883546
134	0xbdbd81ab	-0.09253248
135	0x3d275449	0.040851865
136	0xbe3e26c5	-0.18569477
137	0x3e2f77d3	0.17135553
138	0x3c8a3753	0.016872084
139	0xbdce2e40	-0.10067415
140	0xbdfeca4d	-0.124409296
141	0xbc90415a	-0.017609287
142	0xbd880af8	-0.06642717
143	0x3c84636f	0.016160695
144	0x3da196f9	0.07890124
145	0xbdbc8590	-0.092051625
146	0xbe072a8b	-0.13199823
147	0xbe09ba11	-0.13449885
148	0xbcd2d01a	-0.025733996
149	0xbddf24d2	-0.10895695
150	0xbe427942	-0.18991569
151	0xbda2f59e	-0.07957004
152	0x3c835c13	0.016035115
153	0x3cf40728	0.029788569
154	0xbd269d9d	-0.040677655
155	0x3dc83b3d	0.09776924
156	0x3dd3e777	0.10346883
157	0xbe13d92c	-0.14438313
158	0x3e08b850	0.1335156
159	0x3e1a40de	0.15063807
160	0x3e0fd7ae	0.14047119
161	0xbdc344b2	-0.09534587
162	0xbd29904d	-0.04139738
163	0xbd3145d4	-0.043279484
164	0xbe187120	-0.14886904
165	0xbc587ec8	-0.013213821
166	0xbd0b7068	-0.034042746
167	0x3e1c24a4	0.15248352
168	0xbe114774	-0.14187413
169	0xbbf58c39	-0.0074935225
170	0x3d676131	0.056489173
171	0xbd8f10a8	-0.06985599
172	0x3d9456e0	0.072431326
173	0x3de2b741	0.11070109
174	0x3d884bb4	0.06655064
175	0xbca752d0	-0.02042523
176	0x3ce53c53	0.027982866
177	0x3dc2e1e4	0.095157415
178	0xbc163769	-0.009168484
179	0xbd3837a9	-0.044974957
180	0x3d9480b0	0.07251108
181	0xbdca0b67	-0.09865456
182	0xbe3905bd	-0.18068595
183	0xbe112f2a	-0.14178148
184	0x3df5f2da	0.12009211
185	0xbd1ee9b1	-0.038797084
186	0x3d87d052	0.06631531
187	0x3d8206fc	0.063489884
188	0xbd3243f0	-0.04352182
189	0x3da2de87	0.079526
190	0xbd73787c	-0.059441075
191	0xbe3cbeca	-0.18432155
192	0xbd95a106	-0.073061034
193	0xbc92834d	-0.017884875
194	0xbe313ef9	-0.17309178
195	0x3e3b845c	0.1831221
196	0xbe12f756	-0.14352164
197	0xbd12d163	-0.035844218
198	0x3e1f3b8a	0.15550056
199	0x3d6ebd4c	0.058285996
200	0x3ccd2480	0.025041819
201	0xbd94a94a	-0.07258852
202	0x3d128206	0.03576853
203	0xbe17ca56	-0.14823279
204	0xbe412311	-0.18861033
205	0x3dd61500	0.10453224
206	0x3d0de200	0.03463936
207	0x3d7e06b9	0.06201813
208	0x3ec9a1c6	0.39381236
209	0x3e07cb43	0.13261132
210	0x3e0cd192	0.1375182
211	0xbd72d74a	-0.059287347
212	0x3dca8998	0.09889525
213	0x3dd605eb	0.104503475
214	0xbe203294	-0.15644294
215	0xbd1d4924	-0.03839983
216	0x3df89f2b	0.12139734
217	0xbdb8f3d8	-0.090308845
218	0x3dfe9ef5	0.124326624
219	0xbea46458	-0.32107806
220	0xbd601405	-0.054706592
221	0x3c8749aa	0.016514618
222	0x3e62493d	0.2209825
223	0xbd0a5cd7	-0.033779945
224	0x3e39f0d5	0.18158276
225	0xbd87675f	-0.06611513
226	0x3e06f8b6	0.13180813
227	0xbdaa7dea	-0.083247975
228	0x3dd3d726	0.10343771
229	0x3dc5cd85	0.0965834
230	0xbdb5e0b8	-0.08880752
231	0xbd19d3fe	-0.037555687
232	0x3cba60d4	0.02275125
233	0xbd214aa5	-0.039377827
234	0xbdcb4ef3	-0.09927168
235	0xbd3af0fd	-0.04563998
236	0x3d30b89a	0.0431448
237	0xbbdd35ff	-0.0067508216
238	0x3e1d573c	0.15365309
239	0xbd814fa5	-0.06314019
240	0xbd8dc480	-0.06922245
241	0x3dcf890a	0.1013356
242	0x3e10ba51	0.14133574
243	0xbdca0044	-0.09863332
244	0xbd77fc67	-0.060543444
245	0xbb4301f0	-0.0029755794
246	0x3d9cc231	0.076542266
247	0x3e242191	0.1602843
248	0xbe301c2e	-0.1719825
249	0xbbfc3778	-0.007697042
250	0x3cb38019	0.021911668
251	0x3e53a0ef	0.2066686
252	0x3dda3807	0.106552176
253	0x3d3df0f2	0.04637236
254	0xbd6748a6	-0.056465767
255	0xbcd48edf	-0.025947032

layer_5.lin.bias f4 [32]
0	0x3901a745	0.00012364711
1	0x3d9f769e	0.07786296
2	0x3c664598	0.014054678
3	0xbc26c4ca	-0.010178754
4	0xbd0d7d01	-0.03454304
5	0xbb41660a	-0.0029510283
6	0xbd2db5e5	-0.042409796
7	0x3cb21740	0.021739602
8	0x3d75257c	0.0598502
9	0xbc9a07f8	-0.018802628
10	0x3d924b8f	0.07143318
11	0xbcaa03a5	-0.020753691
12	0x3b37d41b	0.0028050009
13	0x3d8a00e2	0.0673845
14	0xbd46735b	-0.048449855
15	0xbb7ff904	-0.0039058337
16	0x3dbacd22	0.09121157
17	0xbd8a47e2	-0.06751992
18	0x3c94b374	0.018151976
19	0x3d423ab4	0.047419265
20	0xbb918635	-0.0044410476
21	0xbd11d442	-0.035602815
22	0xbc9529ce	-0.01820841
23	0xbce1b12a	-0.027550299
24	0xbd87eeca	-0.06637342
25	0xbd731afc	-0.059351906
26	0x3d403e11	0.04693419
27	0x3da922ab	0.082585655
28	0x3c756474	0.014977563
29	0x3cfde6e5	0.030993888
30	0x3d10e42e	0.03537386
31	0x3dd8a243	0.10577824
