training_runs/model_step4000.pt (torch, 108754 bytes, 24 tensors)

layer_0.lin.weight f4 [32, 64]
0	0xbda7637b	-0.08173271
1	0x3d8b243b	0.0679402
2	0x3db99087	0.090607695
3	0xbc038b84	-0.008028869
4	0xbd41cde3	-0.04731549
5	0xbc4efaf2	-0.012633072
6	0x3d03d9de	0.032190196
7	0xbcf1e8a1	-0.029529871
8	0x3d806a4d	0.06270275
9	0xbddcf0b3	-0.10788097
10	0x3d8937e8	0.067001164
11	0x3c573006	0.013134008
12	0xbdea0b2a	-0.114279106
13	0x3bba6bfb	0.005689142
14	0x3a7da4b1	0.0009675725
15	0xbc2bd763	-0.010488364
16	0x3df0efdb	0.11764499
17	0x3dd4bdac	0.103877395
18	0xbe4243dd	-0.189712
19	0xbdd7e253	-0.10541215
20	0x3e129c1e	0.14317366
21	0x3deae2ba	0.11469026
22	0xbdc980f5	-0.0983905
23	0x3cbec3c2	0.023286704
24	0xbddedeb8	-0.10882324
25	0x3d13a3ff	0.03604507
26	0x3e1e4f98	0.1546005
27	0xbe0929b6	-0.13394818
28	0xbc9102ae	-0.017701473
29	0x3d41291d	0.04715835
30	0x3d553332	0.052050777
31	0x3dd5cf57	0.104399376
32	0x3d752476	0.059849225
33	0x3dcfe691	0.10151399
34	0xbd372805	-0.0447159
35	0xbe240b56	-0.1601995
36	0x3db2a0ee	0.08722101
37	0xbd6d6bfc	-0.05796431
38	0x3d94815f	0.07251238
39	0x3e433b52	0.19065598
40	0x3e112cd6	0.1417726
41	0x3a9e0407	0.0012055644
42	0xbc056c0a	-0.008143434
43	0xbe7201a9	-0.23633446
44	0xbd85b570	-0.06528747
45	0x3cb907c0	0.022586703
46	0xbc2905d1	-0.010316328
47	0x3d810d5a	0.06301375
48	0xbc6d6d9b	-0.014491464
49	0xbe0b3faa	-0.13598505
50	0x3e38594c	0.18002814
51	0x3e0de021	0.1385503
52	0x3d675fc9	0.056487832
53	0xbdd07fc4	-0.10180619
54	0xbced8a5c	-0.028996639
55	0xbd85033b	-0.06494757
56	0x3dc038c8	0.0938583
57	0xbe2e6e2b	-0.17034213
58	0xbd274c7c	-0.040844426
59	0xbac673c0	-0.0015140697
60	0x3d414614	0.047185972
61	0xbe233ee4	-0.1594196
62	0xbce0795b	-0.027401617
63	0xbdca3c15	-0.09874741
64	0x3cb97bd8	0.022642061
65	0x3c28953b	0.010289486
66	0xbd19b5d3	-0.037526917
67	0x3d3f3fb8	0.046691626
68	0xbb90b746	-0.004416379
69	0x3db374bc	0.087625
70	0x3ca9a3c1	0.020707967
71	0xbde55396	-0.111975834
72	0x3cf2ec9c	0.02965384
73	0x3cf83277	0.030297501
74	0x3dbddc1d	0.09270499
75	0x3da8b9f3	0.08238592
76	0x3da5901c	0.08084127
77	0xbd9f6f56	-0.077849075
78	0x3d862435	0.06549875
79	0xbd215e14	-0.03939636
80	0xbd821e2f	-0.06353413
81	0x3dc436a1	0.09580732
82	0x3d82d35f	0.06387972
83	0xbd3fe943	-0.046853315
84	0x3cafd3fb	0.021463385
85	0xbd50b792	-0.050956316
86	0x3d93fa2f	0.07225453
87	0xb991aabe	-0.00027783768
88	0x3bebfb73	0.007201606
89	0xbd86a579	-0.0657453
90	0xbd05fb89	-0.032710586
91	0xbc2e87db	-0.010652508
92	0x3b944488	0.004524771
93	0x3dc5876e	0.09644972
94	0xbd705fa5	-0.058684964
95	0xbced9385	-0.029001007
96	0x3e0e80c9	0.13916315
97	0x3db7c61a	0.08973332
98	0xbde1a564	-0.11017874
99	0xbe6c0c6b	-0.23051612
100	0x3e2a5619	0.16634406
101	0x3a7564ff	0.0009361058
102	0xbc99c433	-0.018770313
103	0x3e4f805c	0.20263809
104	0xbc20673e	-0.00979024
105	0x3dd6666c	0.10468754
106	0xbe016545	-0.12636288
107	0xbe3c7563	-0.18404154
108	0xbd984562	-0.07435109
109	0x3d3fd468	0.046833426
110	0xbd865461	-0.06559063
111	0x3d161937	0.03664514
112	0xbe0b1dac	-0.13585538
113	0xbd47d752	-0.04878933
114	0x3e030c46	0.1279765
115	0xbd82659d	-0.063670374
116	0x3c092c1f	0.008372336
117	0xbd8c325c	-0.06845543
118	0xbcd6f395	-0.026239196
119	0x3c503a31	0.012709186
120	0x3ded3dcf	0.11584055
121	0x3d9b108a	0.07571514
122	0xbd959924	-0.073046
123	0x3d831a48	0.06401497
124	0xbe08f600	-0.13375092
125	0xbe2b245f	-0.16713093
126	0xbd8a609e	-0.067567095
127	0xbda431b4	-0.080172926
128	0xbde486f2	-0.11158551
129	0xbd265e67	-0.040617373
130	0x3d952148	0.072817385
131	0x3da0541c	0.078285426
132	0xbd7f20de	-0.062287204
133	0x3d098293	0.03357179
134	0x3df708ca	0.12062223
135	0xbd9b2be7	-0.07576733
136	0xbd1a7da3	-0.037717473
137	0xbe23ebd1	-0.16007926
138	0x3c6ec282	0.014572741
139	0x3dd1dfe3	0.10247781
140	0x3da80683	0.08204367
141	0x3dd1c96c	0.10243496
142	0x3e102575	0.14076789
143	0xbd02228e	-0.031771235
144	0xbcafa1e7	-0.021439506
145	0xbc1c31d0	-0.009533361
146	0x3cee34bc	0.02907788
147	0x3d52f0e5	0.051499266
148	0xbd76e542	-0.06027723
149	0xbd6f7ab4	-0.05846663
150	0xbe0cd517	-0.13753162
151	0xbd6e238d	-0.058139373
152	0xbd8f1571	-0.069865115
153	0x3bc701cf	0.0060732136
154	0x3dc521da	0.09625597
155	0xbdcf4b08	-0.10121733
156	0x3dd8c1a2	0.105838075
157	0xbc596bc2	-0.01327032
158	0x3b65849d	0.003502167
159	0xbd578e2f	-0.05262583
160	0xbcd01ab6	-0.025403362
161	0xbdef2f2c	-0.11678919
162	0xbdf8430e	-0.12122165
163	0xbd8456cd	-0.064618684
164	0xbcdbfb4b	-0.026853224
165	0x3dbc1622	0.09183909
166	0xbdb15893	-0.08659472
167	0xbc82775d	-0.015926057
168	0xbe24ac41	-0.16081335
169	0x3d89052c	0.066904396
170	0x3d9b68a0	0.07588315
171	0x3c5540d9	0.013015949
172	0x3dbff4c8	0.0937286
173	0xbd89fc42	-0.067375675
174	0xbe116f4d	-0.14202614
175	0x3ddd37cf	0.1080166
176	0xbdb6da31	-0.089283355
177	0xbc788488	-0.015168317
178	0xbcd760d9	-0.026291298
179	0xbd29e258	-0.041475624
180	0x3cc1e80d	0.02367022
181	0xbca99042	-0.02069867
182	0x3e77b832	0.24191359
183	0x3d8a97c2	0.06767227
184	0xbc55c759	-0.0130480165
185	0x3d99ad10	0.07503712
186	0xbdaea1de	-0.085269675
187	0xbce9ba78	-0.028531298
188	0xbdeebbca	-0.11656912
189	0x3df6d2ea	0.120519474
190	0x3b9d89d7	0.0048076916
191	0x3d6adb3c	0.057337984
192	0xbe08b7c2	-0.13351348
193	0x3b1d8d0f	0.0024040376
194	0xbd856535	-0.06513444
195	0xbcf0740d	-0.029352212
196	0xbd9f00c1	-0.07763816
197	0x3c9e6080	0.019333124
198	0xbd660ca0	-0.056164384
199	0xbd4a9121	-0.049454812
200	0x3d622ffc	0.055221543
201	0x3d4cdb6a	0.050013937
202	0xbd85fa1d	-0.06541846
203	0xbdbe665a	-0.09296866
204	0xbd17c4d2	-0.037052937
205	0x3d8d76dc	0.06907436
206	0xbd729c1a	-0.0592309
207	0x3df7b2f5	0.1209468
208	0x3d93f4eb	0.07224449
209	0x3d61fe84	0.055174366
210	0x3ccb1e6d	0.024794782
211	0xbd58e141	-0.052949194
212	0x3d972a7f	0.07381152
213	0xbd6701ed	-0.05639832
214	0x3bf917a4	0.007601695
215	0xbd73aaaf	-0.05948895
216	0xbe2698fe	-0.162693
217	0xbd8edc30	-0.06975591
218	0x3db64592	0.08899988
219	0xbdc8eb26	-0.09810476
220	0xbd27131e	-0.040789716
221	0x3ddf43da	0.109016135
222	0x3c3961d0	0.011314824
223	0x3b597543	0.0033181466
224	0xbd3d284f	-0.04618102
225	0xbc52ce50	-0.012866572
226	0xbe10fa69	-0.14158024
227	0xbdc45704	-0.095869094
228	0x3ce9f787	0.028560413
229	0xbc67ecf8	-0.014155619
230	0xbc1fce03	-0.009753707
231	0x3e1026bf	0.1407728
232	0xbacb7d43	-0.0015525002
233	0x3e38568f	0.1800177
234	0x3c6c34ac	0.014416855
235	0xbdf15eed	-0.11785684
236	0x3d252277	0.04031607
237	0xbdaecc3d	-0.08535049
238	0xbdd66fcb	-0.104705416
239	0x3d614d96	0.055005632
240	0x3c5bc6db	0.01341411
241	0x3ca3b5a4	0.019984074
242	0x3c88c536	0.0166956
243	0x3d8cf690	0.068829656
244	0xbcd99097	-0.026558204
245	0xbe1cdf3f	-0.15319537
246	0x3daf9e57	0.08575123
247	0xbd27102a	-0.0407869
248	0x3c9c3252	0.019066963
249	0xbd45de8c	-0.04830794
250	0xbe1597ab	-0.14608638
251	0xbd4ea9bd	-0.050454844
252	0x3cfe6519	0.031054066
253	0xbddc75f4	-0.10764685
254	0xbdef0e11	-0.11672605
255	0xbd99b897	-0.07505911

layer_0.lin.bias f4 [32]
0	0xbca3070a	-0.019900817
1	0xbd6ba69f	-0.05753195
2	0xbda9856e	-0.08277403
3	0x3d2cb6d9	0.042166565
4	0xbccf52d9	-0.02530806
5	0xbc8e4887	-0.017368568
6	0xbc189425	-0.009312664
7	0x39b14780	0.00033813342
8	0x3dcb2610	0.09919369
9	0x3d8c05a3	0.068370126
10	0xbdf3d771	-0.119063266
11	0x3dc8b92f	0.09800946
12	0x3d4a5a86	0.049402736
13	0x3c5d1321	0.01349333
14	0x3c94229f	0.018082915
15	0xbc5b5bb6	-0.013388565
16	0x3d3a0516	0.045415007
17	0x3de30e64	0.11086729
18	0xbdb22cdb	-0.08699962
19	0xbd9cee0e	-0.07662593
20	0xbd84f013	-0.06491103
21	0xbd972242	-0.07379581
22	0x3c87207f	0.016494988
23	0x3d4463c9	0.047946725
24	0xbd381b41	-0.044947866
25	0x3d263efb	0.040587407
26	0x3da61f95	0.081114925
27	0xbcce2fbe	-0.02516925
28	0xbc269925	-0.010168348
29	0xbd94689a	-0.07246514
30	0x3b800f92	0.003908106
31	0xbd4b4fa0	-0.049636483

layer_1.lin.weight f4 [32, 64]
0	0xbda213b2	-0.07913913
1	0xbd91af97	-0.07113569
2	0xbdbf2bce	-0.09334527
3	0x3da38c62	0.0798576
4	0xbcc51659	-0.024058508
5	0x3c69e0d8	0.014274798
6	0xbdac4fff	-0.084136955
7	0x3dea863f	0.11451387
8	0xbd7b69e7	-0.061380293
9	0xbcb79e7d	-0.02241444
10	0xbdda49da	-0.10658617
11	0xbe0ae9c2	-0.13565734
12	0x3df1b6bf	0.11802434
13	0xbd8ae250	-0.06781447
14	0xbcf069ad	-0.029347265
15	0xbd31679f	-0.04331171
16	0x3d5053e9	0.050861273
17	0x3d0e84af	0.034794506
18	0xbdbbd7c5	-0.09172014
19	0x3de35bd8	0.11101502
20	0xbe35a641	-0.17739202
21	0xbbc45f51	-0.005992808
22	0x3cc8dae9	0.024518447
23	0xbc836d3d	-0.0160433
24	0x3d43f1c3	0.047837984
25	0x3de1c7a2	0.11024405
26	0x3d0e34ec	0.03471844
27	0xbd70bb1e	-0.0587722
28	0x3ddb976c	0.10722241
29	0x3ddc9ddb	0.10772296
30	0xbd31be9e	-0.043394677
31	0xbc5bfb56	-0.013426622
32	0xbb89921f	-0.004198327
33	0x3e14339e	0.14472815
34	0xbbaec932	-0.005334043
35	0xbd066871	-0.032814447
36	0xbc90a1ed	-0.017655337
37	0xbd597004	-0.053085342
38	0x3e1fbc20	0.15599108
39	0xbded2e0c	-0.11581048
40	0x3c254f3a	0.01008969
41	0x3dbe21e6	0.09283809
42	0xbd8eac28	-0.0696643
43	0x3c74f387	0.01495064
44	0xbd91ba66	-0.07115631
45	0x3db18efc	0.0866985
46	0x3e527c36	0.20555195
47	0x3e138929	0.14407791
48	0x3dc45f87	0.09588533
49	0xbdcd2828	-0.10017425
50	0xbd3aab6d	-0.04557364
51	0x3bac5ed3	0.0052603274
52	0xbdcfeb5d	-0.10152314
53	0x3d087bce	0.033321194
54	0xbe0cc9df	-0.13748883
55	0x3da0ef1b	0.07858106
56	0x3dc49c89	0.09600169
57	0xbe00a885	-0.12564285
58	0x3e0608c7	0.13089286
59	0x3da6778f	0.08128273
60	0xbe20c1ae	-0.15698883
61	0x3e067f21	0.13134433
62	0xbd5840cc	-0.05279617
63	0xbde8e5e1	-0.11371971
64	0xbd9c1741	-0.07621623
65	0x3c2379fd	0.009977815
66	0xbc80b343	-0.015710479
67	0xbc17c38f	-0.009262933
68	0xbdb0fd22	-0.08642031
69	0xbd1a5593	-0.037679266
70	0x3e2e157a	0.1700038
71	0x3d2c52b1	0.04207105
72	0x3d9c60ab	0.076356255
73	0x3daf8b22	0.08571459
74	0x3cc3f9ae	0.023922767
75	0xbdc80905	-0.09767345
76	0x3ce0f349	0.027459757
77	0xbdd25afd	-0.10271261
78	0xbd9f809d	-0.07788203
79	0xbc6f932c	-0.014622491
80	0x3da8d683	0.0824404
81	0x3bde6a8f	0.006787605
82	0xbd1d674f	-0.0384286
83	0x3d4037e0	0.046928287
84	0xbe63a284	-0.22229964
85	0xbd360fbd	-0.044448603
86	0xbc37efe8	-0.011226632
87	0x3c6f1a72	0.014593707
88	0xbd646840	-0.055763483
89	0x3d6ab637	0.05730268
90	0xbd9e2c0c	-0.07723245
91	0xbdabd2b3	-0.08389797
92	0x3dbe2d82	0.09286024
93	0x3d860d3a	0.065454915
94	0xbdf6b8d8	-0.12046975
95	0x3d939fb8	0.07208198
96	0x3dc29693	0.09501376
97	0x3d1606a9	0.036627445
98	0xbdb3eea7	-0.08785754
99	0x3bc4db41	0.0060075824
100	0x3dde4555	0.10853068
101	0x3c9f500f	0.019447355
102	0xbd02e81c	-0.031959638
103	0xbe13f001	-0.14447023
104	0xbd0f4643	-0.034979116
105	0x3e00f326	0.12592754
106	0x3c4069fb	0.011744018
107	0x3d063582	0.032765873
108	0x3c228afb	0.009920831
109	0xbcc02865	-0.023456762
110	0x3d0ce595	0.034398634
111	0x3d91979e	0.07108997
112	0x3d3f294c	0.046670243
113	0xbc890504	-0.016726024
114	0xba712ca8	-0.0009200075
115	0x3d02c068	0.031921774
116	0x3b7d17ce	0.0038618925
117	0xbd5754e6	-0.0525712
118	0x3cbcc5c7	0.023043526
119	0xbd7150f6	-0.0589151
120	0x3d3d1d0f	0.04617029
121	0xbd9044cb	-0.07044371
122	0x3e0d16e4	0.13778263
123	0x3d2929e7	0.041299727
124	0xbdf04857	-0.11732548
125	0x3d90eb6b	0.070761524
126	0xbcac5392	-0.021035943
127	0xbbe7a51f	-0.0070692445
128	0xbdead12c	-0.114656776
129	0xbe0a009f	-0.134768
130	0x3c0678b7	0.008207492
131	0xbd18a326	-0.037264965
132	0x3dfa948d	0.12235365
133	0xbde1874c	-0.11012134
134	0x3e09f4ed	0.13472338
135	0x3dc210b7	0.09475844
136	0x3dea9777	0.11454671
137	0xbd4f85d2	-0.05066473
138	0xbdabe7db	-0.08393832
139	0xbda41599	-0.08011932
140	0x3ddb1179	0.10696692
141	0xbca06f5e	-0.019584354
142	0xbdc7d8ef	-0.09758174
143	0x3bcc9f42	0.006244571
144	0x3cd506af	0.026004164
145	0xbdaeceb8	-0.08535522
146	0x3db642ca	0.08899458
147	0xbd918163	-0.07104757
148	0x3d974a74	0.07387248
149	0xbd97dc1b	-0.07415029
150	0xbdd83c88	-0.105584204
151	0x3cf7654b	0.030199667
152	0x3ce45948	0.027874604
153	0xbb4ae1ac	-0.0030957265
154	0xbdeea4e9	-0.11652548
155	0x3d265d3c	0.04061626
156	0x3e1a94e0	0.15095854
157	0x3d659cf7	0.056057896
158	0x3d8b6036	0.0680546
159	0xba9c937e	-0.0011945812
160	0xbc12573e	-0.008931933
161	0xbda8a8b4	-0.082353026
162	0xbe0c163c	-0.13680357
163	0xbd7b1d3c	-0.061307177
164	0xbc2aeccf	-0.010432436
165	0x3db5b1e1	0.08871818
166	0xbd84ad07	-0.06478315
167	0xbd0b5b0b	-0.034022372
168	0x3c101d0e	0.00879599
169	0xbd55cfdf	-0.052200194
170	0xbbb0925f	-0.0053885425
171	0x3e068793	0.13137655
172	0x3d94f8fc	0.072740525
173	0x3dc816d7	0.09769981
174	0xbbbd5ca6	-0.005778867
175	0x3ce8001a	0.02832036
176	0x3e2b09a9	0.16702904
177	0xbc7eab50	-0.015543774
178	0xbd6656e5	-0.056235213
179	0x3daa9b8c	0.083304495
180	0x3c0e00b1	0.008667157
181	0xbd7d833b	-0.06189273
182	0x3db68b21	0.089132555
183	0x3d1536fe	0.036429398
184	0x3d2a5076	0.04158064
185	0xbdcc2983	-0.09968855
186	0x3d3dd5fd	0.046346653
187	0x3d665691	0.0562349
188	0x3c2982d6	0.010346135
189	0xbdb12461	-0.08649517
190	0x3dc2a9eb	0.095050655
191	0x3d6bedeb	0.057599943
192	0x3d41edab	0.0473458
193	0x3cdf89d6	0.027287405
194	0xba062acf	-0.00051180733
195	0x3d815506	0.06315045
196	0x3b3fd032	0.0029268381
197	0xbd230086	-0.03979542
198	0x3acdf6dd	0.001571383
199	0x3d9b105f	0.07571482
200	0x3d22bc17	0.039730158
201	0xbcd4ff31	-0.026000591
202	0xbc500576	-0.0126966145
203	0xbd8149e9	-0.06312925
204	0x3d59f160	0.05320871
205	0xbde269c5	-0.1105533
206	0xbe1a58d7	-0.15072952
207	0x3ce30697	0.027713103
208	0xbc89e254	-0.016831554
209	0x3c1627c5	0.009164755
210	0x3d2e46e9	0.042548094
211	0x3c5b0c7e	0.013369678
212	0x3d808d4e	0.06276952
213	0x3d2a18d0	0.04152757
214	0x3d33d4b8	0.043904036
215	0xbcce31aa	-0.025170166
216	0x3c9eab81	0.019368889
217	0x3d548d8a	0.051892795
218	0x3db18ae6	0.08669071
219	0xbe0df0ad	-0.13861342
220	0xbc053826	-0.008131063
221	0xbdde24db	-0.108468734
222	0xbd59fd24	-0.05321993
223	0x3dc1ae70	0.094570994
224	0xbe0bbc56	-0.13646063
225	0xbe0ef350	-0.13960004
226	0x3d665524	0.05623354
227	0xbdff0402	-0.12451936
228	0x3e152770	0.14565825
229	0x3de0c76a	0.10975535
230	0x3d8e57d8	0.069503486
231	0x3d9f03d2	0.077644005
232	0xbdf2a7d4	-0.11848417
233	0x3d9683ae	0.07349335
234	0x3d886974	0.066607386
235	0xbdce43a4	-0.10071495
236	0x3a9cd485	0.0011965191
237	0xbbdc30ad	-0.00671967
238	0x3ca4db34	0.020124055
239	0x3c9d4c89	0.019201534
240	0xbd4d4702	-0.050116546
241	0x3de55d16	0.11199395
242	0x3de23fbf	0.11047315
243	0x3d017169	0.031602297
244	0xbda4be1f	-0.08044075
245	0xbc532814	-0.012887973
246	0x3c40c546	0.011765784
247	0x3df89fa5	0.12139825
248	0xba411483	-0.0007365422
249	0xbb7308a7	-0.0037084015
250	0x3ceba8ce	0.028767016
251	0xbd89e450	-0.06733
252	0xbd9e0ed3	-0.07717671
253	0xbd76c626	-0.060247563
254	0xbd6e14ad	-0.058125187
255	0x3c228e44	0.009921614

layer_1.lin.bias f4 [32]
0	0xbd4a0c78	-0.049328297
1	0xbd72b733	-0.059256744
2	0xbd145ceb	-0.036221426
3	0xbbce9acb	-0.006305074
4	0xbd2713c3	-0.04079033
5	0xbd8cb5cc	-0.068706125
6	0x3d92e2f7	0.07172196
7	0x3d187af9	0.03722665
8	0xbdb14443	-0.08655598
9	0x3d03689e	0.032082193
10	0x3d2c0091	0.041992728
11	0x3cda1233	0.026620006
12	0x3cb04f1a	0.021522094
13	0x3d0ba54d	0.03409319
14	0x3da81768	0.082075894
15	0xbd81fa31	-0.06346548
16	0xbc7fc661	-0.015611262
17	0x3dd0be22	0.10192515
18	0xbd1a4060	-0.03765905
19	0x3ceaf903	0.028683191
20	0x3decb21b	0.115574084
21	0xbdbd59fc	-0.09245679
22	0xbd1c3683	-0.038137924
23	0x3da12585	0.078684844
24	0xbcf43896	-0.029812139
25	0x3cc5d4d8	0.024149343
26	0x3cb62bbd	0.022237653
27	0x3d0eb3f9	0.034839604
28	0xbd4f4f31	-0.050612632
29	0xbcb90c06	-0.022588741
30	0x3dca8b7d	0.098898865
31	0xbbf6e13e	-0.007534175

layer_2.lin.weight f4 [32, 64]
0	0xbd0917b3	-0.033469867
1	0x3d8e6f02	0.06954767
2	0x3c68fdbc	0.014220651
3	0xbcd6a334	-0.026200868
4	0xbc2889df	-0.010286777
5	0xbc5c2614	-0.013436813
6	0xbda58425	-0.08081845
7	0xbc1d763b	-0.009610708
8	0x3c3e3681	0.011609674
9	0xbd777827	-0.06041732
10	0x3de533f7	0.11191552
11	0xbdb00086	-0.0859385
12	0x3e148569	0.14504017
13	0x3d33d693	0.043905806
14	0xbc2712de	-0.010197369
15	0x3b56b782	0.0032763188
16	0x39da69fe	0.0004165917
17	0x3df5a819	0.11994953
18	0x3d46e542	0.04855848
19	0x3d042e9c	0.032271013
20	0xbd37b15c	-0.044846877
21	0x3bcbbbd4	0.006217459
22	0xbdcc18a3	-0.099656366
23	0x3dabde4c	0.08392009
24	0xbdd5dd3c	-0.10442588
25	0x3d684239	0.05670378
26	0x3e4cd60e	0.2000353
27	0xbd99cefd	-0.07510183
28	0x3d925b39	0.071463056
29	0xbdb13d0f	-0.08654224
30	0x3e1eef17	0.15520893
31	0xbd1fc665	-0.039007563
32	0xbe27d50b	-0.16389863
33	0x3d1dcb0b	0.038523715
34	0xbde8705d	-0.113495566
35	0xbe05f9a6	-0.13083515
36	0xbe0018a5	-0.12509401
37	0x3e103339	0.1408204
38	0x3d806106	0.06268506
39	0xbdeea453	-0.11652436
40	0x3e21479d	0.15749975
41	0x3d1d463e	0.038397066
42	0xbe3b3fcf	-0.1828606
43	0xbcb3469c	-0.021884255
44	0xbe034b36	-0.1282166
45	0x3cce57ca	0.025188345
46	0x3d118c1c	0.03553401
47	0xbda20619	-0.07911319
48	0xbb837684	-0.004011931
49	0x3d8df57a	0.069315866
50	0xbd537446	-0.05162456
51	0xbcf22ddc	-0.029562883
52	0xbc573f86	-0.013137704
53	0xbeb939a4	-0.3617679
54	0x3cd5198e	0.026013162
55	0xbc7157e0	-0.014730424
56	0xbdef5dc4	-0.11687806
57	0x3d13d92e	0.03609579
58	0x3df3e4f4	0.11908904
59	0x3db22c37	0.086998396
60	0xbe0f24b6	-0.13978848
61	0x3db7ca24	0.08974102
62	0xbe084ea2	-0.13311246
63	0x3df8e988	0.121539176
64	0x3db83d70	0.08996093
65	0x3dd8d54a	0.10587557
66	0x3def3be9	0.11681349
67	0x3da25a5b	0.0792739
68	0xbd92db36	-0.071707174
69	0x3dd1f269	0.10251314
70	0xbd8eb44c	-0.06967983
71	0x3a88ac0d	0.0010427252
72	0x3dee3810	0.11631787
73	0x3d97ef2b	0.074186645
74	0xbe06f14b	-0.13177983
75	0xbd44f298	-0.048082918
76	0xbe3331bf	-0.17499445
77	0x3cd51982	0.02601314
78	0xbd33727a	-0.043810345
79	0xbdd7b8aa	-0.10533269
80	0xbd2fa37b	-0.042880516
81	0x3d0637b4	0.032767966
82	0x3c2276c0	0.0099160075
83	0x3dd5749d	0.10422633
84	0x3bd51c1d	0.0065035955
85	0xbcea49c3	-0.028599625
86	0xbcde1ab4	-0.027112342
87	0x3c80ed43	0.015738135
88	0x3c5cd907	0.013479478
89	0xbb78c4e0	-0.0037959144
90	0x3d2ab168	0.041673094
91	0xbd455b81	-0.048182968
92	0xbe6e3918	-0.23263967
93	0xbe0a95df	-0.13533734
94	0xbd9e9b82	-0.077445045
95	0x3e4083c4	0.18800265
96	0x3db32e3f	0.08749055
97	0xbce18671	-0.027529927
98	0x3d8fb33e	0.070166096
99	0x3cff516c	0.031166755
100	0xbe223125	-0.1583906
101	0xba72b037	-0.00092578254
102	0x3d968e7b	0.07351395
103	0x3d2d4259	0.042299602
104	0xbd26b36b	-0.04069845
105	0x3d1e28d0	0.03861314
106	0xbd9ae831	-0.07563818
107	0xbc30ba3c	-0.010786589
108	0x3d15d171	0.036576692
109	0xbcf8e754	-0.030383743
110	0xbcd8b5f1	-0.026453944
111	0x3cb0d517	0.021585984
112	0xbd0c7623	-0.03429235
113	0x3db325f1	0.08747471
114	0xbdc72f88	-0.09725863
115	0xbda43c04	-0.080192596
116	0xbdb87f11	-0.09008611
117	0xbe3bc633	-0.18337326
118	0x3de40ec7	0.11135631
119	0xbd2ee3ab	-0.04269759
120	0xbdad88d8	-0.084733665
121	0xbce310fa	-0.027718056
122	0xbd6f9f9b	-0.05850182
123	0x3c97844f	0.018495707
124	0x3dbd5ce3	0.09246232
125	0xbc7e085f	-0.0155049255
126	0x3d835181	0.0641203
127	0x3cc0eccb	0.023550412
128	0xbda5a9ae	-0.080890045
129	0x3d7329a8	0.0593659
130	0x3d4b8d78	0.049695462
131	0x3c021127	0.00793866
132	0xbb8e2262	-0.004337595
133	0xbc1fd53b	-0.009755428
134	0x3d06fbc2	0.03295494
135	0x3d84f93b	0.064928494
136	0xbe1749a9	-0.14774193
137	0x3d5448b1	0.051827136
138	0x3d679522	0.05653871
139	0x3b2b3277	0.0026122609
140	0x3d0df6bd	0.034659136
141	0xbdc38590	-0.095469594
142	0xbd9ef4c1	-0.07761527
143	0xbb6038ba	-0.00342135
144	0x3bd8c332	0.006615066
145	0xbd364f61	-0.044509295
146	0x3ad06095	0.0015897924
147	0xbce2832b	-0.027650436
148	0x3dacbcda	0.08434458
149	0xbdf8144b	-0.121132456
150	0xbb587359	-0.0033027737
151	0x3db822d2	0.089910164
152	0xbd84bc0e	-0.06481181
153	0x3d902778	0.07038778
154	0x3bb44678	0.0055015646
155	0x3da8b6d8	0.08238
156	0xbda851e2	-0.08218743
157	0x3d891960	0.06694293
158	0xbe019dc3	-0.12657838
159	0x3df8cd17	0.12148493
160	0x3dc8c802	0.098037735
161	0x3de2bd55	0.110712685
162	0x3a1db6d7	0.000601632
163	0x3cd987b7	0.026553972
164	0xbcf51729	-0.02991827
165	0x3d6db99e	0.058038346
166	0x3e0191d3	0.12653284
167	0xbd840864	-0.06446913
168	0xbcadee4f	-0.021231798
169	0xbe1c8ceb	-0.15288131
170	0x3e10be4a	0.1413509
171	0x3d94409b	0.07238885
172	0xbcf90eb9	-0.030402528
173	0xbbd4c336	-0.0064929975
174	0x3da64905	0.08119396
175	0x3d4a10e7	0.049332526
176	0xbde3a613	-0.111156605
177	0x3de3fb9f	0.11131977
178	0xbd47d026	-0.04878249
179	0xbda445a1	-0.08021093
180	0x3d5945e1	0.053045157
181	0x3e21a463	0.15785365
182	0x3d0a99e2	0.03383816
183	0xbd99399d	-0.07481692
184	0xbd668fc6	-0.056289457
185	0xbd40768f	-0.046988066
186	0x3c11bcbc	0.008895095
187	0xbdb9c3ca	-0.09070547
188	0x3c22896c	0.009920459
189	0xbb96f9a8	-0.004607398
190	0x3dbed79f	0.0931847
191	0xbdf17a5b	-0.117909156
192	0xbdb0ebb9	-0.086387105
193	0x3cd3851b	0.025820306
194	0x3e389975	0.18027289
195	0x3c979781	0.01850486
196	0xbde370a7	-0.11105471
197	0xbbdbc0c2	-0.006706328
198	0xbe040121	-0.12891056
199	0xbdf24374	-0.11829272
200	0x3ccb6860	0.024830043
201	0xbd81c81e	-0.063369974
202	0x3d6f4137	0.058411803
203	0x3d0701a2	0.03296054
204	0x3e50737c	0.20356554
205	0x3cfbf0b5	0.030754426
206	0x3b066e85	0.0020512652
207	0x3d919c8e	0.071099386
208	0x3c11642b	0.00887398
209	0xbd98abe3	-0.0745466
210	0xbd6ac9b3	-0.05732126
211	0x3d1db4cb	0.038502496
212	0x3d4bce86	0.049757503
213	0xbdd5f4af	-0.1044706
214	0x3b48cf25	0.0030641046
215	0xbdd87d74	-0.10570803
216	0xbd832fff	-0.06405639
217	0x3e347908	0.17624295
218	0x3de37bc9	0.111075945
219	0xbcf3f4a9	-0.029779749
220	0x3e165723	0.14681678
221	0x3b769176	0.0037623323
222	0x3da772b8	0.08176178
223	0xbe0c9c8e	-0.13731596
224	0x3dd532c7	0.10410076
225	0xbd692281	-0.05691767
226	0xbd8f1728	-0.069868386
227	0xbe0f9b42	-0.1402407
228	0xbd95a3eb	-0.073066555
229	0xbc841c72	-0.016126845
230	0xbbaadb9c	-0.0052141678
231	0xbcb988aa	-0.022648174
232	0x3c92e258	0.017930195
233	0x3dc0b317	0.09409159
234	0xbdeb28bd	-0.114823796
235	0xbd44b0ab	-0.048020046
236	0xbe0dbc9d	-0.13841482
237	0xbd89a82e	-0.06721531
238	0xbd868933	-0.065691374
239	0x3b6adadb	0.0035836014
240	0xbd490bf4	-0.049083665
241	0xbdca547e	-0.09879397
242	0x3dda86cf	0.10670244
243	0xbc8842fc	-0.016633503
244	0x3d8ca983	0.06868269
245	0x3d346f0d	0.04405122
246	0xbd8dbf01	-0.06921197
247	0xbdc750ef	-0.09732234
248	0xbc56547b	-0.013081665
249	0xbda7e196	-0.08197324
250	0xbd4c555a	-0.049886085
251	0xbd01f5a9	-0.03172842
252	0xbe04f0f2	-0.12982538
253	0xbde07144	-0.10959104
254	0xbda1f73a	-0.07908483
255	0x3e80e58c	0.2517513

layer_2.lin.bias f4 [32]
0	0x3d2f23e0	0.042758822
1	0xbbb3effa	-0.005491254
2	0xbd64f8ca	-0.055901326
3	0x3cd35673	0.025798058
4	0xbdadabff	-0.08480071
5	0xbd9ccea0	-0.07656598
6	0xbd402234	-0.04690762
7	0xbdba0bbc	-0.090842694
8	0xbd748f7a	-0.059707142
9	0xbd4b68c1	-0.049660448
10	0xbc7e1a47	-0.015509195
11	0x3d99e575	0.075144686
12	0x3d97971a	0.07401867
13	0x3daa38fb	0.083116494
14	0x3c66abc9	0.014079043
15	0x3cedb177	0.029015286
16	0xbc71103b	-0.014713342
17	0xbd8ff081	-0.07028294
18	0xbdceb3aa	-0.10092862
19	0xbdbeb273	-0.0931138
20	0x3ce06cfa	0.027395714
21	0xbd9963b2	-0.074897185
22	0xbd8ccaeb	-0.06874641
23	0x3d8d300a	0.06893928
24	0xbd4f9cfd	-0.050686825
25	0x3ce012b7	0.027352674
26	0xbcc29d69	-0.0237567
27	0x3d4a7a73	0.049433183
28	0xbd7e15d7	-0.062032547
29	0x3db05b1c	0.08611128
30	0xbde238cc	-0.110459894
31	0xbde6d67e	-0.1127138

layer_3.lin.weight f4 [32, 64]
0	0x3d905562	0.070475355
1	0xbddb97c8	-0.10722309
2	0x3dc1d84c	0.094650835
3	0x3da0b361	0.07846714
4	0x3d128976	0.035775624
5	0x3d09bc86	0.033627056
6	0x3cd825e8	0.026385263
7	0x3d26a50e	0.040684752
8	0xbdd07809	-0.10179145
9	0x3db3eda3	0.0878556
10	0x3c5d3442	0.013501229
11	0x3d79b8fd	0.060967434
12	0x3d9d329c	0.076756686
13	0xbd0da4bb	-0.034580927
14	0x3d249de9	0.040189657
15	0xbdeebe5e	-0.116574034
16	0xba873316	-0.0010314907
17	0xbde3c900	-0.11122322
18	0xbd5e2224	-0.054231778
19	0x3dbc319c	0.0918915
20	0x3e027154	0.12738544
21	0xbded0d03	-0.115747474
22	0xbde31d05	-0.110895194
23	0x3d9e6568	0.077341855
24	0x3b64755b	0.0034859988
25	0x3d37f825	0.044914383
26	0x3c7693d1	0.015049891
27	0x3d956b43	0.07295849
28	0x3cdeb633	0.027186489
29	0x3d45e57a	0.04831455
30	0x3c5a13fb	0.013310428
31	0x3c2099f6	0.009802332
32	0x3e254881	0.1614094
33	0xbda9adc3	-0.082850955
34	0xbe367595	-0.17818291
35	0x3e19ffd9	0.15039004
36	0xbe1632c2	-0.146678
37	0x3da2f889	0.079575606
38	0x3d874b8d	0.06606207
39	0x3d9c5a5b	0.076344214
40	0x3ca8442f	0.020540325
41	0xbd19eacd	-0.03757744
42	0xbbad2761	-0.0052842353
43	0x3dca6b0c	0.09883699
44	0x3b72c47e	0.0037043388
45	0xbd64098c	-0.055673167
46	0x3e14ffce	0.14550707
47	0x3ab8b2b3	0.0014091342
48	0x3dcfbdab	0.10143598
49	0xbdf5725d	-0.11984704
50	0xbd701dda	-0.05862222
51	0xbe00a646	-0.12563428
52	0xbd014ff5	-0.031570394
53	0x3e082f0b	0.13299195
54	0x3e55d02d	0.20880194
55	0x3e137422	0.1439977
56	0x3e06f368	0.1317879
57	0xbdba89f1	-0.091083415
58	0x3de8bafc	0.113637894
59	0xbe3235b8	-0.17403305
60	0x3d84645b	0.06464454
61	0x3d725da3	0.05917133
62	0xbd80a6e4	-0.06281832
63	0x3e07f691	0.13277651
64	0xbdcb646f	-0.099312656
65	0x3c888a17	0.016667409
66	0xbd42bf26	-0.047545575
67	0x3cca78c4	0.024715789
68	0xbd797e1d	-0.060911287
69	0xbc1a9bb5	-0.0094365375
70	0x3dac0b2f	0.084005706
71	0xbc192f35	-0.009349634
72	0x3d00501f	0.03132641
73	0x3d9be3ff	0.07611846
74	0x3d234cd8	0.039868206
75	0xbdcfc96a	-0.101458386
76	0xbda8b846	-0.08238272
77	0xbdc97be0	-0.098380804
78	0xbe5eeb12	-0.2176936
79	0xbe135542	-0.14387992
80	0xbd1fe8a0	-0.039040208
81	0x3e12f652	0.14351776
82	0xbdbb25a1	-0.091380365
83	0x3c36e3de	0.011162726
84	0xbd023e12	-0.031797476
85	0x3cfe429b	0.03103762
86	0x3d9d49b2	0.07680072
87	0x3d9177be	0.07102917
88	0x3d94ffd7	0.0727536
89	0xbd50a7c5	-0.050941247
90	0xbdaa1103	-0.08304026
91	0xbd06ea58	-0.03293833
92	0x3adb1096	0.0016713317
93	0x3e0daccf	0.13835452
94	0x3c85962c	0.01630696
95	0x3cc10241	0.023560645
96	0x3cee3b68	0.029081061
97	0xbbc922ee	-0.006138197
98	0x3dd80ce7	0.10549336
99	0xbda774e3	-0.08176591
100	0xbde67cce	-0.11254273
101	0x3e040582	0.12892726
102	0x3dd20af2	0.10255994
103	0xbcc2541d	-0.023721749
104	0xbc96f2a8	-0.018426254
105	0xbdb8629b	-0.090031825
106	0xbd9dcb65	-0.0770481
107	0xbcba1f72	-0.022720072
108	0x3e02d505	0.12776573
109	0x3df5e7e8	0.12007123
110	0xbdc82fd5	-0.09774748
111	0x3d8603e7	0.06543713
112	0xbcd8518a	-0.026406068
113	0xbd1ce04c	-0.038299844
114	0x3c2695b4	0.010167528
115	0xbd4abb1f	-0.04949486
116	0x3e260dd6	0.16216215
117	0xbd8917b1	-0.06693972
118	0xbddfc7fb	-0.10926815
119	0xbd7b792a	-0.061394848
120	0x3d8b63d4	0.0680615
121	0x3df2eb8d	0.11861334
122	0x3cf9a560	0.030474365
123	0x3cb60bd3	0.022222435
124	0xbd92a5ff	-0.071605675
125	0x3d4c8646	0.04993274
126	0x3da0f790	0.07859719
127	0xbd03e1cd	-0.032197762
128	0xbd8395c0	-0.06425047
129	0xbe39b29c	-0.1813454
130	0x3d3c6a63	0.045999896
131	0xbdc927a5	-0.09822015
132	0x3b754283	0.0037423677
133	0xbe2f854e	-0.17140695
134	0x3ddba305	0.10724453
135	0x3df4abc5	0.11946825
136	0xbc6e1be0	-0.014533013
137	0x3c36e238	0.011162333
138	0x3dd6dc2e	0.10491215
139	0x3c707ea4	0.014678631
140	0xbda59223	-0.08084514
141	0x3c74c7e3	0.014940235
142	0xbc64d18c	-0.0139659755
143	0x3dc38c3c	0.09548232
144	0xbe005107	-0.1253091
145	0xbd4fc82f	-0.05072802
146	0x3dbc202f	0.09185826
147	0x3d1a3fa6	0.037658356
148	0xbd66324a	-0.056200303
149	0x3dbb5cf2	0.09148587
150	0xbe076bd4	-0.13224727
151	0xbddac3a9	-0.106818505
152	0xbbadea93	-0.0053075044
153	0xbd95394d	-0.0728632
154	0x3bca09f9	0.0061657396
155	0xbd0197b8	-0.03163883
156	0x3e02202d	0.12707587
157	0x3dacce82	0.08437826
158	0xbdb05808	-0.08610541
159	0x3dd34a14	0.10316864
160	0x3e09bf5b	0.13451903
161	0xbc9a5cde	-0.01884311
162	0xbc0083a3	-0.007843885
163	0x3c02b719	0.007978224
164	0x3d253f2c	0.04034345
165	0x3e7a294d	0.24429817
166	0x3d0a7534	0.03380318
167	0x3d4a4899	0.04938564
168	0x3e305a36	0.17221913
169	0xbdacd8e1	-0.08439804
170	0xbd96e0b6	-0.07367079
171	0xbe09dd0d	-0.1346323
172	0x3b9c1c2b	0.0047641
173	0xbcc07a08	-0.023495689
174	0xbde60979	-0.112322755
175	0xbcde37fa	-0.027126301
176	0xbce368bd	-0.027759904
177	0xbd0ccc5e	-0.034374587
178	0xbbe01d43	-0.006839426
179	0xbd943064	-0.07235792
180	0xbd9b0bee	-0.07570635
181	0x3dd091c3	0.10184052
182	0xbe1a215a	-0.15051785
183	0x3ca13336	0.01967774
184	0x3dc86708	0.09785277
185	0xbd31644b	-0.043308537
186	0x3dea37f2	0.11436452
187	0x3dcdd371	0.10050095
188	0x3d48f5b1	0.049062435
189	0xbc603bec	-0.0136861615
190	0x3e11cf3c	0.1423921
191	0x3d7dbbdb	0.06194673
192	0x3d015cad	0.031582523
193	0x3d81d319	0.06339092
194	0xbdf4d03a	-0.119537786
195	0x3dc89e0c	0.0979577
196	0xbd4e2b94	-0.050334528
197	0xbd6bb2a9	-0.05754343
198	0xbdaaff89	-0.08349521
199	0x3d728596	0.05920943
200	0xbdcbae90	-0.099454045
201	0xbd7bb89f	-0.061455365
202	0x3d3e5287	0.046465423
203	0xbd25ef0f	-0.040511187
204	0x3cefb0f8	0.02925919
205	0x3de20027	0.11035185
206	0xbe077fd9	-0.13232364
207	0xbd9fb5ee	-0.07798372
208	0xbdb784f2	-0.08960904
209	0x3dfa60be	0.12225483
210	0x3cd4a428	0.025957182
211	0xbd9b23b0	-0.07575166
212	0xbdd18b08	-0.10231596
213	0x3da18a83	0.07887747
214	0x3e101a1b	0.14072458
215	0xbd826d40	-0.06368494
216	0x3da120d8	0.078675926
217	0xbd900137	-0.07031482
218	0x3d342ffa	0.043991067
219	0xbde64aab	-0.112447105
220	0x3dba8833	0.09108009
221	0x3e05aef7	0.13055025
222	0x3cfd94d4	0.030954756
223	0x3bd54be3	0.0065092905
224	0x3d4b01d0	0.049562275
225	0x3d7d2e22	0.061811574
226	0xbd9d9c3f	-0.07695817
227	0xbd883752	-0.066511765
228	0xbde1bbc5	-0.11022142
229	0x3db1f036	0.08688395
230	0xbe081f6e	-0.1329324
231	0x3dbe2616	0.09284608
232	0xbcf92914	-0.030415095
233	0xbc988ae2	-0.018620912
234	0x3c975939	0.018475162
235	0x3be96648	0.0071227886
236	0xbd8d5783	-0.06901457
237	0xbd1468d6	-0.03623279
238	0xbd7ddf6d	-0.061980654
239	0xbdc50afa	-0.09621234
240	0xbd05205d	-0.032501567
241	0x3d2906d3	0.041266274
242	0x3c8b938c	0.01703813
243	0xbd06411d	-0.03277694
244	0x3dd5cfe8	0.104400456
245	0xbd683a14	-0.056696013
246	0xbe047d81	-0.12938501
247	0x3dbc80c8	0.092042506
248	0x3cc855ca	0.02445497
249	0xbcd48532	-0.025942419
250	0x3d6b02ba	0.057375647
251	0x3de0ecc5	0.1098266
252	0xbe07e13f	-0.13269518
253	0x3dd9f8fa	0.10643192
254	0x3df0461f	0.117321245
255	0xbd9cdc4a	-0.07659204

layer_3.lin.bias f4 [32]
0	0x3cab1cb5	0.020887712
1	0xbc728e47	-0.014804429
2	0x3da4f621	0.08054758
3	0xbd8ef1f3	-0.06979742
4	0x3d948b3f	0.072531216
5	0x3d3dad79	0.046308015
6	0x3da88cdf	0.08229994
7	0xbdc0c21d	-0.09412024
8	0x3dd16af3	0.10225477
9	0xbd560ce7	-0.0522584
10	0xbbc2d4a7	-0.0059457603
11	0xbc296459	-0.010338866
12	0x3db28952	0.08717598
13	0x3d940ada	0.07228632
14	0xbd90e7e3	-0.07075479
15	0x3d221e37	0.039579596
16	0xbaec1af0	-0.0018013399
17	0x3bf06a1a	0.007336867
18	0x3d0db9ec	0.034601137
19	0xbcbc595b	-0.022991827
20	0x3d067d86	0.032834552
21	0x3e038964	0.12845379
22	0x3d2f9fc0	0.04287696
23	0xbcd91ed7	-0.026503963
24	0x3c1aa051	0.0094376365
25	0x3c98a354	0.018632568
26	0xbd86f3fe	-0.065895066
27	0x3d6e2e89	0.058149848
28	0x3dbd3942	0.09239437
29	0x3d78b353	0.060717892
30	0x3d9e8fb2	0.077422515
31	0xbd1cc5a3	-0.03827442

layer_4.lin.weight f4 [32, 64]
0	0x3dc61754	0.09672418
1	0xbc634c2e	-0.013873143
2	0x3d8e8060	0.06958079
3	0xbdbc9499	-0.0920803
4	0xbe20c5c4	-0.15700442
5	0x3d80cd0a	0.06289108
6	0x3c641335	0.013920595
7	0xbde55099	-0.111970134
8	0x3d2bc09c	0.041931733
9	0xbb8eb2c2	-0.0043548057
10	0x3d8c7734	0.06858674
11	0x3d4ba083	0.049713623
12	0x3da813aa	0.082068756
13	0xbbb0f08e	-0.00539977
14	0x3d72018c	0.059083506
15	0xbdc29684	-0.09501365
16	0xbccb95be	-0.024851676
17	0x3d561045	0.05226161
18	0x3d6ff3c7	0.058582094
19	0x3d8473eb	0.06467422
20	0x3db35857	0.08757084
21	0xbbb0aec9	-0.0053919298
22	0x3c2181d0	0.00985761
23	0xbe20fcad	-0.15721388
24	0xbd2f16a0	-0.042746186
25	0x3dcd4360	0.100226164
26	0x3d7da559	0.061925266
27	0x3d22b494	0.039722994
28	0x3d6fea91	0.05857331
29	0xbd89a149	-0.06720216
30	0xb7594fc6	-1.2952782e-05
31	0xbddad5b1	-0.1068529
32	0xbc2b1fa2	-0.010444554
33	0x3c58a9d2	0.013224082
34	0x3da264bc	0.0792937
35	0x3dcb12a2	0.09915663
36	0x3db58140	0.08862543
37	0xbd2d8322	-0.042361386
38	0xbc963f19	-0.018340634
39	0x3d91a01f	0.07110619
40	0x3de071cd	0.10959206
41	0x3d5f4320	0.054507375
42	0xbdc4e7a5	-0.09614495
43	0x3cda9033	0.026680088
44	0xbdf0c932	-0.11757125
45	0x3bc0b44a	0.005880867
46	0x3da47943	0.08030941
47	0x3e1251ad	0.1428897
48	0x3d9954c7	0.07486873
49	0x3da73d01	0.081659324
50	0xbddf4f1c	-0.10903761
51	0x3d1d709d	0.038437475
52	0x3d96e845	0.07368521
53	0xbd4682dc	-0.04846464
54	0xbdd95f8c	-0.10613927
55	0x3dbea5c4	0.09308961
56	0xbd2d27db	-0.042274337
57	0xbe001914	-0.12509567
58	0xbdea427e	-0.11438464
59	0xbd5a6a80	-0.053324223
60	0xbc11ccc5	-0.0088989185
61	0x3dc9022a	0.09814866
62	0xbcbfd136	-0.02341519
63	0xbddca7a5	-0.10774163
64	0x3da9deab	0.08294424
65	0xbcc86f05	-0.024467
66	0xbbc7ff73	-0.00610345
67	0x3c7bc482	0.015366675
68	0x3d0e2b4e	0.034709267
69	0xbbeee587	-0.0072905454
70	0x3de59708	0.112104475
71	0x3d0ee111	0.03488261
72	0xbe0379f8	-0.12839496
73	0x3d8fb0ca	0.07016142
74	0x3d781406	0.06056597
75	0x3cb85a2a	0.022503931
76	0x3df99e77	0.12188428
77	0xbcc9e1b7	-0.024643762
78	0xbd76066a	-0.06006471
79	0x3d83cfb5	0.06436101
80	0xbdc2630f	-0.0949155
81	0x3d916d97	0.07100981
82	0xbdf7ebc3	-0.12105515
83	0xbd4476cb	-0.047964852
84	0xbdbd7f74	-0.092528254
85	0xbcb60904	-0.022221096
86	0xbc918d02	-0.017767433
87	0x3e0741d7	0.1320871
88	0x3d3f0e7e	0.04664468
89	0xbe4094fe	-0.18806836
90	0xbdc69cff	-0.096979134
91	0x3c853ed0	0.016265303
92	0x3d930196	0.07178037
93	0x3d0af258	0.033922523
94	0x3e0a7f88	0.13525212
95	0xbd4fc72e	-0.050727062
96	0x3d931852	0.07182373
97	0x3d8be73e	0.06831215
98	0xbd77116e	-0.060319357
99	0xbde561d6	-0.11200301
100	0xbdbf24ad	-0.09333167
101	0x3d663afe	0.056208603
102	0xbb462e8a	-0.0030240142
103	0xbdfcc5cb	-0.123424135
104	0xbd8422f6	-0.06451981
105	0x3c9e3f56	0.01931731
106	0xbd2e3a2b	-0.042535942
107	0xbda7e801	-0.08198548
108	0xbd474496	-0.048649393
109	0x3d9207cd	0.07130394
110	0x3a8b38b3	0.0010621756
111	0xbdcba844	-0.099442035
112	0xbde16182	-0.11004926
113	0x3dcff43d	0.10154007
114	0xbdd0239a	-0.101630405
115	0xbdffbc28	-0.1248706
116	0x3d1480c3	0.03625561
117	0x3da31573	0.079630755
118	0x3a8c42ad	0.0010701023
119	0x3d8aab45	0.06770948
120	0x3da91b35	0.082571425
121	0xbe0277ff	-0.12741087
122	0xbccc045e	-0.024904426
123	0xbcc78acd	-0.024358178
124	0xbdc84688	-0.09779078
125	0xbc86e83b	-0.016468158
126	0xbdd1efd1	-0.102508195
127	0x3d6acc30	0.057323635
128	0x3c566424	0.013085399
129	0x3ddc312b	0.107515655
130	0xbca37e21	-0.019957604
131	0x3da33a4c	0.079701036
132	0xbb85d7d0	-0.0040845647
133	0xbde98d2e	-0.11403881
134	0xbdca6755	-0.0988299
135	0xbd996ea0	-0.07491803
136	0xbd0ff686	-0.035147212
137	0x3d7c25bc	0.061559424
138	0xbd246239	-0.040132735
139	0xbc4062c1	-0.011742295
140	0x3dc7d111	0.09756673
141	0xbbd993f8	-0.0066399537
142	0x3d3b599a	0.045739748
143	0xbb24bd0f	-0.0025137102
144	0xbcd8ab84	-0.026448973
145	0xbd98727f	-0.074437134
146	0x3ddb97a0	0.107222795
147	0xbdb22d3b	-0.08700033
148	0xbcb12ae9	-0.021626906
149	0x3d3843c1	0.04498649
150	0x3d035f91	0.03207356
151	0x3b307582	0.002692551
152	0xbc3d5289	-0.011555322
153	0xbd9d6ceb	-0.0768679
154	0x3ce9f1ad	0.028557623
155	0xbd270e7c	-0.040785298
156	0x3d511803	0.05104829
157	0x3d0ff7d4	0.035148457
158	0x3da8730c	0.082250684
159	0xbc38039a	-0.011231327
160	0xbd563072	-0.052292295
161	0xbd8e045a	-0.06934424
162	0x3d0dc5ee	0.03461259
163	0xbd11349a	-0.035450555
164	0x3e071b44	0.13193995
165	0x3dcb61f3	0.09930792
166	0xbc52985b	-0.012853707
167	0x3d897a87	0.06712823
168	0xbdbdab51	-0.09261192
169	0xbdb35fab	-0.087584816
170	0x3da9a70f	0.08283817
171	0x3c655e52	0.0139995385
172	0xbc93e333	-0.018052673
173	0xbdac2c71	-0.08406914
174	0x3d50252c	0.0508167
175	0x3d9f24c6	0.07770686
176	0x3e26a9e6	0.16275749
177	0xbbeeadec	-0.0072839167
178	0xbddf1e2a	-0.10894425
179	0x3d704b47	0.05866554
180	0xbdbdb093	-0.092621945
181	0xbd346e25	-0.044050355
182	0xbdb7d033	-0.08975258
183	0x3e03a755	0.12856801
184	0xbd33bb98	-0.043880075
185	0x3c8b4bfe	0.01700401
186	0xbc8260ee	-0.01591536
187	0x3d25fb3f	0.04052281
188	0xbd352629	-0.044225845
189	0x3df0831a	0.11743756
190	0xbda40335	-0.08008424
191	0x3d05e088	0.032684833
192	0xbd353321	-0.044238213
193	0xbd857d51	-0.06518043
194	0x3d486bac	0.04893081
195	0x3dbf52e8	0.09341985
196	0x3d9e1838	0.07719463
197	0xbc8c3874	-0.017116763
198	0x3d1a5959	0.037682865
199	0x3ddeb6ce	0.10874711
200	0x3d0d73fc	0.03453444
201	0xbcf93c74	-0.030424334
202	0x3d8c4cce	0.06850587
203	0x3dae7391	0.08518136
204	0x3d6384ca	0.05554656
205	0xbcbcf29d	-0.023064906
206	0x3e1e7f90	0.15478349
207	0xbdb6354e	-0.08896886
208	0x3d7e22a0	0.06204474
209	0xba76362c	-0.00093922275
210	0x3d8ba347	0.06818252
211	0x3e05c1df	0.13062237
212	0x3e25e243	0.16199593
213	0xbdbc5ce7	-0.09197407
214	0x3d4b4cf2	0.049633928
215	0x3d0d0457	0.034427967
216	0x3c8ba812	0.017047916
217	0x3dafcb1f	0.08583664
218	0x3d56e15a	0.052461006
219	0x3d197d76	0.037473164
220	0x3d3560f9	0.044281933
221	0xbd61c9c6	-0.055124067
222	0xbe184ea6	-0.14873752
223	0x3d53d047	0.0517123
224	0x3dbece3f	0.09316682
225	0x3cc37d04	0.023863323
226	0x3de4ffcf	0.11181604
227	0x3c40acb4	0.011759926
228	0x371675b2	8.9681e-06
229	0xbd3486b1	-0.044073764
230	0xbc989611	-0.018626245
231	0xbc839b00	-0.01606512
232	0xbd97c38f	-0.07410347
233	0x3dbbabcf	0.09163629
234	0xbd3a991d	-0.045556176
235	0xbcc0f86c	-0.023555957
236	0xbbfcbd23	-0.0077129765
237	0xbd99e035	-0.07513467
238	0x3e1349bf	0.143836
239	0x3d0d936a	0.034564413
240	0xbdd0a537	-0.10187762
241	0x3cb2235d	0.021745378
242	0x3d411cb9	0.047146533
243	0xbd894fb7	-0.067046575
244	0x3a2358bc	0.0006231179
245	0xbdfce743	-0.12348797
246	0xbcf774be	-0.030207034
247	0xbdf4a8da	-0.119462684
248	0x3dfe8ebc	0.12429568
249	0x3d862c78	0.065514505
250	0x3dd9fa6b	0.106434666
251	0xbcc89aba	-0.024487842
252	0xbda91f5f	-0.08257937
253	0x3d2e7c52	0.04259903
254	0xbbdf2a66	-0.006810474
255	0x3db58b50	0.088644624

layer_4.lin.bias f4 [32]
0	0x3d3ad11f	0.04560959
1	0xbda2e54e	-0.07953893
2	0x3de5e500	0.11225319
3	0xbd353fdd	-0.044250358
4	0xbdb4373f	-0.087996
5	0xbc6e0002	-0.014526369
6	0xbce4d9e0	-0.027935922
7	0xbd2a719f	-0.041612264
8	0xbd706ddb	-0.058698516
9	0xbc010215	-0.007874032
10	0x3cbaa6d1	0.022784622
11	0x3d711dfd	0.05886649
12	0xbdc82ad1	-0.097737916
13	0xbb52de3f	-0.0032175926
14	0x3d4354b2	0.047688194
15	0x3dcb0ad6	0.09914176
16	0x3cbcbfc1	0.023040654
17	0x3daecbf9	0.085349984
18	0x3cac7753	0.021052992
19	0x3ca9827e	0.020692106
20	0xbd1fbb7d	-0.038997162
21	0xbd6db149	-0.0580304
22	0x3d15f727	0.036612656
23	0xbd2e5a8f	-0.042566832
24	0x3ded3f3d	0.11584327
25	0xbda5904a	-0.080841616
26	0x3d49f188	0.049302608
27	0x3da4f463	0.080544256
28	0x3de3dbaf	0.11125886
29	0x3d774654	0.060369805
30	0xbd3c7dec	-0.046018526
31	0x3dae2b8d	0.085044004

layer_5.lin.weight f4 [32, 64]
0	0xbdc1126c	-0.09427342
1	0xbd7dbf62	-0.061950095
2	0x3c6811b3	0.014164376
3	0x3ddcdb25	0.10783986
4	0xbbd7128b	-0.00656349
5	0xbe223f69	-0.15844502
6	0xbdf74d81	-0.120753296
7	0xbd8188a4	-0.0632489
8	0xbb751dfc	-0.0037401905
9	0x3cef5bdf	0.029218612
10	0xbd448055	-0.04797395
11	0x3da264ca	0.0792938
12	0x3ccc1e6e	0.024916854
13	0xbd2753e7	-0.0408515
14	0x3df49918	0.11943263
15	0xbdb6377f	-0.08897304
16	0xbd543e96	-0.0518175
17	0x3d540de2	0.051771052
18	0xbd6192f6	-0.055071793
19	0xbd373731	-0.04473037
20	0xbc8203f4	-0.015871026
21	0x3d62936a	0.055316366
22	0x3e0b8304	0.13624197
23	0x3e252444	0.16127115
24	0x3d799b3d	0.060939062
25	0xbd7611bb	-0.060075503
26	0xbd9b2e90	-0.075772405
27	0xbe319eab	-0.17345683
28	0x3da605b7	0.08106559
29	0xbdbf98d7	-0.09355324
30	0x3d9e0c03	0.07717135
31	0xbe383b4e	-0.17991373
32	0x3ca895a9	0.020579176
33	0x3dd904aa	0.10596593
34	0xbde4082a	-0.1113437
35	0xbd0164c5	-0.031590242
36	0x3d3ed82b	0.046592873
37	0x3d21c370	0.039493024
38	0xbd4b5204	-0.049638763
39	0x3d3be827	0.045875695
40	0xbd1d1892	-0.03835351
41	0x3da506cf	0.08057939
42	0x3dbb9044	0.09158376
43	0xbc498a76	-0.012301078
44	0x3d12e971	0.03586716
45	0xbcda7547	-0.02666725
46	0xbd908b7b	-0.07057854
47	0xbd8df471	-0.06931389
48	0x3983283c	0.00025016244
49	0x3d97c9da	0.07411547
50	0x3ca1c508	0.019747272
51	0x3e2df781	0.16988946
52	0x3e10abd7	0.14128052
53	0x3e192dd8	0.14958894
54	0xbd999732	-0.07499541
55	0xbdcf1376	-0.10111134
56	0xbdaed335	-0.08536378
57	0x3db225fc	0.08698651
58	0x3e21cb69	0.15800251
59	0x3e13851a	0.14406243
60	0xbdc4e5a6	-0.096141145
61	0x3dcce14e	0.10003911
62	0xbc4e2feb	-0.012584667
63	0x3db2041f	0.08692192
64	0x3d62eaab	0.055399578
65	0xbde1e5c2	-0.11030151
66	0xbdeda3d9	-0.11603517
67	0x3d9378fc	0.0720081
68	0xbd72c5cc	-0.059270665
69	0x3dd2d36d	0.102942325
70	0x3dff1e15	0.124569096
71	0x3ddd5c66	0.10808639
72	0xbd0ae47e	-0.033909313
73	0x3c48eddd	0.012263742
74	0x3d0d35e3	0.03447522
75	0x3d4c3bb9	0.049861643
76	0xbe11f388	-0.14253056
77	0x3c885702	0.016643051
78	0xbe0d6f51	-0.13811995
79	0x3e1ae010	0.15124536
80	0xbcd933c1	-0.026513936
81	0xbd913956	-0.07091014
82	0xbd93fc33	-0.072258376
83	0x3dd13991	0.10216058
84	0x3dd709fe	0.10499953
85	0x3dc4354f	0.0958048
86	0x3d9b8874	0.07594386
87	0xbdecdac6	-0.11565165
88	0x3dc5507b	0.09634491
89	0xbcc95920	-0.02457863
90	0x3de83ec6	0.11340098
91	0xbbef6986	-0.0073062805
92	0x3ce7d7f6	0.02830122
93	0xbd2cf43a	-0.0422251
94	0xbc265251	-0.010151462
95	0x3dc82971	0.09773529
96	0xbdee4dce	-0.11635934
97	0x3dc83541	0.097757824
98	0xbc906512	-0.01762632
99	0xbdc24a4e	-0.09486829
100	0x3e38abb1	0.18034245
101	0xbd910e41	-0.07082797
102	0x3d414869	0.047188196
103	0x3db1cea1	0.086819895
104	0xbd4ccd72	-0.050000615
105	0xbdb79023	-0.08963039
106	0xbd936ca7	-0.07198458
107	0x3caaa3a3	0.020829981
108	0xbca1f899	-0.01977186
109	0x3dad692a	0.08467324
110	0x3dcd9b26	0.10039358
111	0xbd5e5c4b	-0.054287236
112	0x3cf65004	0.030067451
113	0xbe025311	-0.12727
114	0x3c7f8805	0.015596394
115	0x3c5de481	0.013543249
116	0xbd8ca57a	-0.068675
117	0xbcd16b9c	-0.025564007
118	0x3d6c9f57	0.057769146
119	0xbdc57861	-0.09642101
120	0x3d75b29d	0.059984792
121	0x3d12cd3d	0.03584026
122	0x3ca33b2f	0.019925682
123	0xbdbbeba1	-0.09175802
124	0xbd2c3603	-0.042043697
125	0xbd1fb9ec	-0.03899567
126	0xbbf5fa50	-0.007506646
127	0xbd0ef1ba	-0.034898497
128	0xbdad7adb	-0.084706984
129	0x3e261d46	0.16222104
130	0x3dbdfc38	0.092766225
131	0x3e1188a1	0.14212276
132	0x3dffd784	0.12492278
133	0x3dc9c358	0.09851712
134	0xbd96d735	-0.07365266
135	0xbd76efc5	-0.060287256
136	0xbc50d026	-0.012744939
137	0x3ca7dcbc	0.020490997
138	0xbbaff237	-0.0053694504
139	0xbb630cb6	-0.0034645027
140	0xbd434622	-0.047674306
141	0x3b26e7ee	0.002546783
142	0xbdbdcc1e	-0.09267448
143	0xbd95be09	-0.07311637
144	0x3d013079	0.031540368
145	0xbdc82e3b	-0.09774443
146	0xbde32c80	-0.11092472
147	0xbdedc1a5	-0.116092004
148	0xbc115243	-0.00886971
149	0xbdb4a1a5	-0.08819894
150	0xbe2506f8	-0.1611594
151	0x3dfc3dfc	0.1231651
152	0xbd3289af	-0.043588337
153	0x3ddb427c	0.1070604
154	0x3c8c7958	0.017147705
155	0x3d348554	0.044072464
156	0x3db7ab29	0.08968193
157	0xbdf53afd	-0.11974142
158	0x3de1faa0	0.11034131
159	0x3e04f2ea	0.1298329
160	0x3de0a50b	0.109689794
161	0xbd93fbab	-0.07225736
162	0xbd33f1da	-0.04393182
163	0xb93afc91	-0.0001783243
164	0xbdf32015	-0.118713535
165	0x3d8ea7fb	0.069656335
166	0xbc315633	-0.010823774
167	0x3d8a5d16	0.06756036
168	0xbd8444aa	-0.06458409
169	0xbcf5a82f	-0.029987423
170	0x3beeb863	0.007285164
171	0xbcc0d439	-0.023538696
172	0x3de921ad	0.11383376
173	0x3db52e3c	0.08846709
174	0x3d63f5ef	0.055654462
175	0xbddf1b8d	-0.10893927
176	0x3cff73a1	0.031183066
177	0x3d62140e	0.055194907
178	0xbd62c46e	-0.05536311
179	0xbd034469	-0.032047663
180	0x3e27f442	0.1640177
181	0xbdb3fa77	-0.08788007
182	0xbe13a175	-0.1441706
183	0xbde7ea89	-0.11324031
184	0x3dd16757	0.10224789
185	0x3cc9af8c	0.02461984
186	0xbd00b0ba	-0.03141854
187	0x3d07b80c	0.033134505
188	0xbc979f8b	-0.018508693
189	0x3d481d3f	0.048856016
190	0xbd354697	-0.044256773
191	0xbe2717e0	-0.16317701
192	0xbd9dbac0	-0.07701635
193	0xbd68dddf	-0.056852218
194	0xbe290cf5	-0.16508849
195	0x3dac0d02	0.084009185
196	0xbddf9cba	-0.10918565
197	0xbd3cb9a9	-0.046075497
198	0x3dee68d9	0.11641092
199	0x3d3b1399	0.045672987
200	0x3d06b3ec	0.03288643
201	0xbdad4eed	-0.084623195
202	0xbcafd664	-0.021464534
203	0xbe17c12d	-0.14819784
204	0xbe05e52a	-0.130757
205	0x3db8a115	0.09015099
206	0x3d83b46c	0.06430897
207	0x3d283596	0.04106673
208	0x3e10d640	0.1414423
209	0x3de4f2fb	0.11179157
210	0x3e0f0969	0.13968433
211	0x3cb05d14	0.021528758
212	0x3d63d159	0.05561957
213	0xbc09f62c	-0.008420508
214	0xbda50dc1	-0.08059264
215	0xbdc0c708	-0.09412962
216	0x3de35753	0.1110064
217	0xbd9e28da	-0.077226356
218	0x3dac76c2	0.08421089
219	0xbe8a8f14	-0.27062285
220	0x3c9a5834	0.018840887
221	0x3c9ffdb7	0.01953016
222	0x3e29a2a8	0.16565955
223	0xbcc1b110	-0.023644
224	0x3dc677f9	0.09690852
225	0xbd03d12f	-0.032181915
226	0x3de27b82	0.110587135
227	0xbd8ee90b	-0.06978043
228	0x3da99fa9	0.08282406
229	0x3db7e4b4	0.089791685
230	0xbd21888e	-0.03943687
231	0xbcbebac2	-0.023282412
232	0x3d455392	0.048175402
233	0x3d719daa	0.05898825
234	0x3cced358	0.02524726
235	0xbd8110f1	-0.063020594
236	0x3c8b798e	0.017025735
237	0xbdea1f74	-0.114317805
238	0x3d65cb80	0.056102276
239	0xbe018abe	-0.12650582
240	0xbd7d8366	-0.06189289
241	0x3d7a985a	0.06118045
242	0x3db547aa	0.088515595
243	0xbc82f070	-0.01598379
244	0xbd1ea2dd	-0.038729537
245	0xbc75c2e0	-0.015000075
246	0xbc40d08b	-0.0117684705
247	0x3d1ae29b	0.037813764
248	0xbd9efc9f	-0.077630274
249	0xbd43194c	-0.047631547
250	0x3cc59e7c	0.024123423
251	0x3e4ab7ee	0.19796726
252	0x3d9f2a1c	0.077717036
253	0x3dec8bff	0.1155014
254	0x3b92be4a	0.0044782506
255	0xbcebf0a0	-0.028801262

layer_5.lin.bias f4 [32]
0	0xbd7ffbb2	-0.062495895
1	0x3da99638	0.08280605
2	0xbd235768	-0.03987828
3	0xbd35ad2b	-0.0443546
4	0xbd3a232e	-0.045443706
5	0xbcbf5e0a	-0.023360271
6	0xbd9df66a	-0.077130154
7	0x3d8ec791	0.06971658
8	0x3caf81bb	0.021424165
9	0xbc5c58e6	-0.013448929
10	0x3dca3c2a	0.09874757
11	0xbcf5bfbf	-0.029998658
12	0x39a355b2	0.0003115363
13	0x3d863061	0.06552196
14	0x3bbe4ffc	0.0058078747
15	0x3c0c2180	0.008552909
16	0x3dab30a1	0.083588846
17	0xbd4b561d	-0.04964267
18	0x3d7a8cd3	0.061169457
19	0x3cf02912	0.029316459
20	0x3b1b7329	0.0023719764
21	0x3c04d577	0.008107535
22	0xbc5ce4d6	-0.013482293
23	0xbd5eff19	-0.0544425
24	0xbdbdafc1	-0.09262038
25	0xbd2940bf	-0.041321512
26	0x3d789b9e	0.060695283
27	0x3da561cc	0.08075294
28	0xbd0eea8f	-0.03489166
29	0x3d85d88c	0.06535444
30	0x3da48d1b	0.08034726
31	0x3d88aaa8	0.06673175
