training_runs/model_step15000.pt (torch, 108782 bytes, 24 tensors)

layer_0.lin.weight f4 [32, 64]
000000 ac 3b 0f be f9 0f 87 3d 95 30 1c 3e 10 0d 4f 3d
       -0.13987607 0.065948434 0.15252908 0.050549567
000010 aa 32 ca bd fc 35 57 3d 4c 0b 88 3d dc f2 d0 bd
       -0.09872945 0.052541718 0.0664278 -0.10202572
000020 19 dd 54 3d 24 e1 8c bd 17 85 84 3d 2d b9 80 3e
       0.051968668 -0.0687888 0.064706974 0.25141278
000030 1f 3e d5 bd b8 c0 87 3c 5f 2d a9 bd ca 59 a6 bd
       -0.10412239 0.016571388 -0.08260607 -0.08122595
000040 d0 e3 1c 3e 85 15 fc 3d 6b ef 08 be f7 e9 17 be
       0.15321279 0.12308792 -0.1337258 -0.14835344
000050 f9 40 33 3e d1 7c 5e 3e 16 cc 00 be 35 83 99 bc
       0.17505254 0.21727301 -0.12577853 -0.018739322
000060 a6 d7 14 be 0c f4 a6 3d d9 b1 20 3e a1 ed 07 be
       -0.14535388 0.08152017 0.15692843 -0.13274242
000070 0a 51 d8 3d 2a 4a 71 3d d7 e0 87 3d c0 e7 dd 3d
       0.10562332 0.05890862 0.06634682 0.108352184
000080 18 5f a5 3d 95 4d 42 3e 40 e0 52 bd ff a2 46 be
       0.08074778 0.18974908 -0.051483393 -0.19398116
000090 5e 23 43 3e 3c b3 12 be 4b b8 ec 3d 42 12 86 3e
       0.1905646 -0.14326185 0.115585886 0.26185805
0000a0 ee 64 0f 3e ee df d1 bc a4 c4 ae 3d 55 b6 ea be
       0.14003345 -0.025619473 0.085336 -0.45842233
0000b0 be 09 c3 bc bc 2b 07 ba 62 8a 45 bd 9d 66 c1 3d
       -0.023808356 -0.0005156358 -0.048227675 0.094434
0000c0 72 d8 35 bd 2d 05 3f be 23 67 f7 3d 0b 13 8a 3e
       -0.04439587 -0.18654318 0.12080219 0.26967654
0000d0 ad 26 36 3c 58 6f 21 bd 19 77 b5 bd da ad d8 3c
       0.011117619 -0.039412826 -0.08860607 0.026450086
0000e0 ff 7d 17 3e b7 29 77 be 6f 03 21 3d 9a f2 a0 bc
       0.14794157 -0.24137007 0.039309915 -0.019646931
0000f0 b1 20 91 3c da 88 50 be a8 4b 4f 3d 76 37 26 be
       0.017715784 -0.20364705 0.05060926 -0.16232094
000100 1c 5a 61 bc 99 5c 47 bd ee a0 34 3c 7a d0 d2 3d
       -0.013754394 -0.048672292 0.011024697 0.1029367
000110 a2 1d 1f be f4 a2 86 3e e5 f0 54 bd 87 52 3d be
       -0.15538648 0.26296198 -0.051987547 -0.18488513
000120 44 bd cb bd f0 be 3f bc a1 c3 d3 bc 67 44 98 3e
       -0.09948209 -0.011703238 -0.02585012 0.29739687
000130 7c 88 b5 3d 86 3f 45 bd 83 67 d8 3d 1b d0 e2 bd
       0.08863923 -0.048156284 0.10566618 -0.11074849
000140 70 72 29 bd e8 b3 b2 3d 1b 44 0a 3d 01 fb 31 be
       -0.0413689 0.08725721 0.033756357 -0.17380907
000150 7c b9 e5 3d 85 eb cb bc c2 13 23 3e 9f 35 25 bd
       0.11217019 -0.024892578 0.15925506 -0.04033434
000160 a4 db d6 3c 9c b9 6e 3d d8 39 f2 3b 6e 74 53 3c
       0.02622778 0.05828248 0.0073921494 0.012906177
000170 82 d8 78 3d ff 50 2f 3e 4c e2 10 bb 56 fc d2 3d
       0.060753353 0.17120741 -0.002210754 0.103020355
000180 f2 d7 55 3e 7b 6e bc 3d 8b 28 49 be 18 46 8c be
       0.20883158 0.0920076 -0.19644372 -0.27397227
000190 88 6e da 3d 3a da 04 be 24 99 c5 bc 79 5c 5a 3e
       0.106656134 -0.12973872 -0.024120875 0.21324338
0001a0 65 5f 22 be 13 0f d1 bc 50 42 bd bd 37 5d ea be
       -0.15856703 -0.025519883 -0.09241164 -0.45774242
0001b0 54 d5 00 be ed e9 0d 3d ba 11 3c bd ed ce 26 3e
       -0.12581378 0.034646917 -0.045915343 0.16289873
0001c0 1f a1 5f be c2 6b 3f be c8 b4 fc 3b 0e 83 80 bd
       -0.21838807 -0.1869345 0.0077119805 -0.06274997
0001d0 8e ab c1 3d bb ee 80 bd 05 6a a4 bb 13 67 57 bb
       0.094565496 -0.06295534 -0.0050175213 -0.0032867834
0001e0 b1 b6 39 3e 5e a3 68 3e 49 f4 2f be ff d2 73 3b
       0.18136097 0.2271857 -0.17183031 0.003720462
0001f0 59 68 83 be 25 d1 1b be 2d 06 00 bc 24 fe 5b be
       -0.25665548 -0.15216501 -0.007813972 -0.21483666
000200 1e 55 2f be bd 99 41 3e 7f 1e 4b 3e aa 59 92 bc
       -0.17122313 0.18906303 0.19835852 -0.01786502
000210 d7 1b d9 bc 8e 6c d4 3d 41 23 90 3d 61 0a e9 bd
       -0.026502533 0.10372268 0.07037974 -0.11378933
000220 01 78 87 3d ba 67 3d be ec 5f 97 bd bd 21 d4 3c
       0.06614686 -0.184966 -0.073913425 0.025894994
000230 bb 0c 91 3d 3f 08 15 3e 27 d3 49 3d 26 6c 15 be
       0.07082506 0.14553927 0.049273636 -0.14592037
000240 df 5e 58 3d 11 04 ab bd bb 82 20 3d 89 97 08 3c
       0.05282485 -0.08350385 0.039187174 0.00833691
000250 ac 71 7f 3d 60 f2 b7 3d 75 d9 6d be cb b1 4e bc
       0.062364265 0.08981776 -0.23227485 -0.012615631
000260 70 69 ee bc 13 51 a9 bd 8e 93 9b 3e bb e8 59 3d
       -0.02910301 -0.08267417 0.30386013 0.053200465
000270 ce 3a e3 3e 8a 5a e5 bc 90 72 25 3d c3 19 ca 3d
       0.44380802 -0.027997274 0.04039246 0.09868195
000280 11 81 9b bd b4 31 40 be 1e 51 eb bd b8 12 3f be
       -0.07592977 -0.1876896 -0.11490081 -0.18659484
000290 d2 e3 0e be a7 08 a0 3d d7 f1 0c be 44 dd 4f bd
       -0.13954094 0.0781415 -0.1376413 -0.050748125
0002a0 9e bd 98 be d5 81 30 3d b6 09 3f 3e 21 f0 d7 3d
       -0.29832166 0.043092567 0.18656048 0.10543848
0002b0 78 fb d8 3d b0 b6 b1 3a b0 f8 14 be b3 9f 30 3e
       0.10594839 0.0013558473 -0.14547992 0.1724842
0002c0 54 c8 61 be 37 b0 6c bd 69 f1 35 bd 26 51 ca bc
       -0.22049075 -0.05778524 -0.04441968 -0.024696898
0002d0 13 29 37 3e d7 7d 08 3d 90 0d 71 3e ad 31 2b 3d
       0.17886762 0.033323135 0.2354033 0.04179542
0002e0 b4 4d 4e 3d 5f 45 b0 3d 82 8a 1c be 95 69 b0 bd
       0.050367072 0.086069815 -0.15287212 -0.08613888
0002f0 f9 6e da bd b5 60 3c 3e ed 75 e5 bd 64 ed 4d 3d
       -0.106656976 0.18396266 -0.11204133 0.05027522
000300 ec 3d ae be 52 b1 29 be 1d 59 1b bd 95 a1 21 3e
       -0.34031618 -0.16571549 -0.037926782 0.15784295
000310 11 47 24 3c 97 a6 87 bd 16 d8 69 bd 74 71 d5 bd
       0.010026709 -0.06623571 -0.05709084 -0.1042203
000320 41 ec 01 3e 45 26 f0 3d a6 15 dc bd c0 8e 27 bd
       0.1268778 0.11726049 -0.107463166 -0.04090762
000330 d8 ff 2f 3c b8 d5 91 3a b3 8e ab 3b 01 3f 76 bb
       0.01074215 0.0011126315 0.005235517 -0.0037574174
000340 81 2f a5 3e cb 7d 79 3e 7b 20 f8 3d 7f f3 bc 3d
       0.32262805 0.24364392 0.1211557 0.09226131
000350 4e eb db bd e2 33 2b be 91 2a 11 bd ce 05 25 be
       -0.1073824 -0.1671901 -0.035440985 -0.16115496
000360 35 7e 9f be e2 30 49 be 45 2a ae 3d 49 69 1e be
       -0.31150976 -0.19647554 0.08504156 -0.1546985
000370 5e ef 98 bd ef 04 e9 3d c0 3e 43 3c ce ad fb 3d
       -0.07467531 0.11377894 0.011916816 0.1228901
000380 96 e4 b3 bc 62 27 dc bd a9 5c 69 be f1 8f bc bd
       -0.021959584 -0.10749699 -0.22789253 -0.09207142
000390 65 67 81 3d a7 ca 11 be 30 48 76 3d 13 07 1d 3e
       0.06318549 -0.14237462 0.060127437 0.1533473
0003a0 01 08 12 3d db 66 e8 3d 39 be 9f bc b7 31 99 be
       0.035652164 0.11347743 -0.019499885 -0.29920742
0003b0 88 f4 7b bd 99 7f b7 bd 7c c7 3b 39 2e d1 cb 3d
       -0.0615125 -0.08959884 0.00017908023 0.09952007
0003c0 86 18 52 bd 8d e1 ef 3d 1c 82 f0 3b a8 97 a6 3d
       -0.05129292 0.11712942 0.007339729 0.08134395
0003d0 93 39 21 be d3 1d a2 be 09 91 e2 3d 63 18 81 bd
       -0.15744619 -0.3166338 0.110628195 -0.063034795
0003e0 de 73 4d bc 90 86 a9 bc ed 90 60 be b8 8c 42 be
       -0.012539832 -0.020694047 -0.21930285 -0.18998992
0003f0 a8 d4 42 be 65 7a 0d be 66 53 2b bd 1e ce 1a be
       -0.19026434 -0.13816221 -0.04182758 -0.1511769

layer_0.lin.bias f4 [32]
000000 f8 63 03 3b b6 ba b9 3b f6 00 88 bd cb 51 12 3d
       0.00200486 0.0056680096 -0.06640808 0.035722535
000010 8a d5 45 bc 58 a6 e2 3c ff 8a fe 3c bb 21 13 3e
       -0.012074837 0.02766721 0.031072138 0.14368336
000020 98 63 2a 3e 9e 31 99 bb 7f 88 d0 bd 7c d9 c5 3d
       0.16639555 -0.0046751043 -0.101822846 0.096606225
000030 5f da ab 3c 6e 83 d9 bc 7c 99 a7 3d ae ab de bc
       0.02097815 -0.026551928 0.08183572 -0.027181473
000040 ee 2d e1 3b 44 b6 01 3e b9 eb c8 bd ea 01 be bc
       0.0068719303 0.12667185 -0.098105855 -0.023194272
000050 4b 01 57 bd 55 92 80 bd 34 ea eb bd 65 f3 8d 3b
       -0.052491467 -0.062779106 -0.1151928 0.0043319934
000060 df 98 0d bc 9d 9b e3 bc 25 99 e7 3c 15 bd 76 bb
       -0.008642404 -0.027784163 0.028271267 -0.0037649323
000070 cb e5 2b 3c a5 e4 a3 3c 7b 50 2c bd 52 66 a6 bb
       0.010491799 0.020006487 -0.04206894 -0.0050781155

layer_1.lin.weight f4 [32, 64]
000000 5b 3b 24 be 0a 92 a9 bd c9 a5 73 bd e7 91 0e 3e
       -0.16038267 -0.08279808 -0.059484277 0.13922845
000010 72 69 e1 bd 09 55 da 3d dc 28 00 be 2c cf 2f 3e
       -0.1100644 0.106607504 -0.12515587 0.17168874
000020 47 a0 d7 bd fd ce 5d bd 9b 7a e2 bd 20 fe 2f be
       -0.10528617 -0.054152478 -0.110585414 -0.17186785
000030 66 06 11 3e 23 0b c8 bd 26 75 ce bc 32 ff bc bd
       0.14162597 -0.09767749 -0.025202345 -0.09228362
000040 f3 dc 55 3d 5a 12 b6 3c 49 d6 1c bd 82 fe 92 3d
       0.052212667 0.022225548 -0.038290296 0.0717745
000050 5c 25 31 be 63 e2 69 bc 7c 9d f2 3d 5b 1a 84 bc
       -0.17299408 -0.014275166 0.11846444 -0.016125849
000060 53 70 ad 3c 9b 02 40 3e b9 38 45 3c 92 b0 97 bd
       0.021171724 0.18750994 0.0120374495 -0.07406725
000070 82 1a 3a 3e cb 6c 5b 3e 60 19 f3 3a 55 45 4d bc
       0.18174174 0.2142822 0.0018546991 -0.012528737
000080 b0 61 1d 3d b9 29 20 3e 3d 85 fa 3c 2b 3c cf bc
       0.03842324 0.15640916 0.030581111 -0.025297245
000090 a9 b1 a1 3c c1 ee 85 bd e2 05 58 3e 3a 0b 36 be
       0.019738035 -0.06539679 0.21095994 -0.1777772
0000a0 81 e5 b4 bb d7 ad 26 3e 11 a0 6a bd e1 4b a7 3b
       -0.005520523 0.16277252 -0.057281557 0.005105481
0000b0 2f a7 ff bd 65 87 04 3e 98 34 80 3e 2f f2 24 3e
       -0.124830596 0.12942274 0.25040126 0.1610801
0000c0 f4 cb 8b 3d c3 75 03 be b6 c6 86 bc 7e 5b d9 3c
       0.0682601 -0.12837891 -0.016452175 0.026532885
0000d0 6c e1 b0 bd 0d be d4 3c 71 c3 17 be 3e 90 be 3d
       -0.08636746 0.02596953 -0.14820649 0.09304856
0000e0 28 c7 d8 3d 45 91 16 be 23 6b d3 3d 0d 90 3e 3e
       0.10584861 -0.14703853 0.10323169 0.18609639
0000f0 00 0d ae be 32 fe 2d 3e 24 2c cd bc 4c 19 eb bd
       -0.33994293 0.16991499 -0.025045462 -0.11479434
000100 c0 09 61 bd 69 05 f7 bc fc 45 0e bd 4e 7b 95 bc
       -0.05494094 -0.030153947 -0.03473471 -0.018247273
000110 40 0d f2 3b b9 9e 0a be 42 c5 b5 3e e6 5a 86 3b
       0.0073868334 -0.1353711 0.35502058 0.0041001914
000120 54 98 b3 3d e1 0e 7f 3d d8 6f 71 3d 65 d2 94 bd
       0.08769289 0.06227005 0.058944553 -0.07266692
000130 aa 73 5b 3d 67 ea 8d be 65 db 3a be 8c d6 5a be
       0.053577103 -0.27717897 -0.18247755 -0.21370906
000140 88 01 81 3d 81 ed b2 3c b7 a5 ad bc b0 3e 7b 3d
       0.0629912 0.021841766 -0.021197183 0.06133908
000150 7a 70 85 be 6a f2 3d bc fb ff 05 be 4a 82 25 bd
       -0.26062375 -0.011593441 -0.1308593 -0.040407456
000160 79 e9 2c be f4 8b b1 3d 73 f4 1f be be ce a4 bd
       -0.16885938 0.08669272 -0.15620594 -0.080472454
000170 2c 1a 4f 3e 7e d4 e3 3d f2 56 57 be ed f3 9b 3d
       0.20224828 0.11124514 -0.21029261 0.076148845
000180 d4 78 05 3e a6 9f a1 3d b6 83 82 bd fe be bd 3b
       0.13034374 0.07891779 -0.06372778 0.0057905903
000190 c9 30 ae 3d a4 b0 75 3d 8f 64 5b bd 3e 39 ec bd
       0.08505399 0.05998291 -0.053562697 -0.115343556
0001a0 23 d1 16 bd 58 b0 e0 3d 19 6c 3f 3c 04 86 01 3d
       -0.036820542 0.10971135 0.011683487 0.031621948
0001b0 03 a4 7f bc eb e3 34 3d 44 85 a0 3d 01 d0 7a 3d
       -0.015603068 0.044162672 0.078379184 0.061233524
0001c0 a7 6b 6d 3d 9f bb 28 bd 46 03 60 3c 98 f0 4d 3d
       0.057963993 -0.041194554 0.013672655 0.050278276
0001d0 fb 2e 38 3d de 5a 23 bd d6 b5 01 3d e4 44 60 bd
       0.04496668 -0.03988158 0.031667553 -0.0547532
0001e0 ec 62 1e 3d a5 85 c9 bd ec 05 0b 3e f9 d1 a6 3d
       0.038668558 -0.09839944 0.13576478 0.08145518
0001f0 af 84 47 be a3 6c 8f 3d dd dc 09 3d ae 2f 5a 3c
       -0.19484209 0.07003143 0.033657897 0.013317032
000200 c2 cd 1a be 44 a0 57 be 6e 46 ae 3c d6 4e f6 bc
       -0.15117553 -0.2105723 0.021273818 -0.030066889
000210 27 41 2b 3e 14 96 85 be bf e4 4d 3e 7a 2e 77 3e
       0.16724072 -0.26091063 0.20106791 0.24138823
000220 01 dd ae 3d 03 1b 07 be 20 c1 a3 bd 4e bc f7 bd
       0.08538247 -0.13193898 -0.0799582 -0.12096463
000230 5d 9b 5b 3e 9a 64 97 bd dd c7 32 be ae c9 87 be
       0.21445985 -0.07392235 -0.17459054 -0.26521057
000240 f5 bd ac bd 35 c4 b0 bd 6e 56 08 3e 87 81 02 be
       -0.08434669 -0.086311735 0.1331422 -0.12744723
000250 b2 8a 95 3d c7 4e 85 bd 23 b5 4f be be 8c bf bb
       0.07301845 -0.06509166 -0.20283942 -0.005845635
000260 61 d4 dd bb ef ca a0 3d f6 33 2f be bf 50 06 bd
       -0.0067697023 0.078512065 -0.17109665 -0.03279185
000270 52 90 a0 3e e6 de b2 3d bb fc 03 3d 0b 9b 1e bd
       0.31360108 0.08733921 0.032223444 -0.03872208
000280 a2 be c8 3c 49 09 80 bd 46 5d 17 be 53 22 8e bd
       0.024504963 -0.06251771 -0.14781675 -0.069401406
000290 b2 dc 53 3d bf b6 fb 3d 48 db 0a be 88 9c 85 bc
       0.051724143 0.122907154 -0.13560212 -0.016309991
0002a0 4e 5c f7 3b 62 2a 84 bd b6 58 70 3b 07 51 d7 3d
       0.0075488454 -0.064533964 0.003667397 0.105135016
0002b0 ec 0d 06 3d 0d 2c 43 3e 9c f7 b0 3d 80 f0 5d 3d
       0.03272812 0.19059773 0.08640978 0.054184437
0002c0 e1 ce 3f 3e 56 cf 96 bc 9a af 51 bd dc 9d d5 3d
       0.18731262 -0.018409412 -0.051192857 0.104305
0002d0 9f 2e 4e 3d 8e f3 12 bd 22 fd e0 3d fc 15 3d 3d
       0.05033743 -0.035876803 0.10985781 0.046163544
0002e0 2b 0d 2c 3c 70 70 cd bd 8d 37 78 3d 86 25 86 3d
       0.010501186 -0.100312114 0.060599852 0.06550126
0002f0 41 62 11 bd 43 25 59 bd 0f 64 10 3e 2d 78 75 3d
       -0.035494093 -0.05301405 0.1410067 0.05992906
000300 c7 bd 61 3d 50 bd c6 bc 55 02 ad 3b 6a 36 a1 3d
       0.055112626 -0.024260193 0.005279819 0.07871707
000310 50 e3 95 3c af da 91 bd 20 69 f1 bc 52 4c 2d 3e
       0.018296868 -0.07121789 -0.029469073 0.16923645
000320 b8 51 d1 3c b8 0d ef bd fa cc 08 3c 48 4e be bd
       0.025551662 -0.116725385 0.0083496515 -0.09292275
000330 4f fb 0a 3e 95 57 84 bd b0 81 86 be 1b 4f 84 bd
       0.13572429 -0.064620174 -0.2627082 -0.06460401
000340 1a 3b 2e bc cc c5 89 3c cb 78 73 3d da c5 ae bc
       -0.010634208 0.01681795 0.05944137 -0.021334577
000350 91 0b fc 3d 2d 3a 57 3d a2 21 05 3c ae 24 66 bd
       0.123068936 0.052545715 0.0081256945 -0.056187324
000360 4e 64 72 3c 32 30 01 3e a1 e0 85 3d 22 5c 2d be
       0.014794422 0.12616041 0.06536985 -0.16929677
000370 10 cf 06 3d 92 72 f4 bd ad 53 93 bd 07 3b aa 3d
       0.032912314 -0.11935915 -0.07193694 0.0831204
000380 aa c2 37 be bf eb 29 be 55 d2 5d 3d ca ab 2e be
       -0.17945352 -0.16593836 0.054155666 -0.1705772
000390 89 1d 18 3e 3a e9 0a 3e 4e 63 bc 3d 13 55 ad 3d
       0.14855017 0.13565531 0.09198628 0.08463492
0003a0 78 d7 ee bd 37 60 1a 3d ba fd b9 3d 73 a1 f4 bd
       -0.11662191 0.037689414 0.090815976 -0.119448565
0003b0 54 a6 80 3c 61 3b 09 3e 0e a8 82 3c 7e f7 46 3d
       0.015704311 0.13401558 0.015949275 0.04857587
0003c0 8c 21 71 bd ff e9 cd 3d 41 fb f6 3d 5d 24 5c 3d
       -0.058869883 0.10054397 0.12059642 0.053745616
0003d0 5c c4 d4 bc e6 85 69 b9 dd 09 5f 3d b9 7f 1d 3e
       -0.025972538 -0.00022270493 0.054452766 0.15380754
0003e0 e4 57 67 bc 8c f0 10 bd a1 7c cf 3c 21 8e 42 bd
       -0.014120076 -0.035385653 0.025327982 -0.047498826
0003f0 76 9c bf bd 37 e9 f4 bc 7d 4b 78 bd 1f 04 c6 bb
       -0.093560144 -0.029896362 -0.060618866 -0.0060429717

layer_1.lin.bias f4 [32]
000000 d4 ae 80 bd 98 29 73 bd 35 37 41 bd d5 db 85 bc
       -0.06283346 -0.05936584 -0.04717179 -0.016340176
000010 a5 23 f9 bc f8 3b bc bd 68 42 3e 3d 8b 72 a0 3c
       -0.030412504 -0.09191126 0.04645005 0.019585868
000020 fa 6d ac bd 44 aa fb 3b 92 53 2d 3d ac cc c7 39
       -0.08419414 0.0076802094 0.042316027 0.0003810873
000030 b8 a4 b9 3c 94 29 37 bb 1e 49 93 3d 79 c5 bf bd
       0.022661552 -0.0027948366 0.0719168 -0.09363837
000040 1f 73 35 bc 46 4e 49 3d 86 39 aa bd 1d 3f 9f 3d
       -0.01107481 0.049146913 -0.08311753 0.0777571
000050 c6 ec cc 3d 6a 18 ce bd ab 3d 88 bc 05 9f e1 3d
       0.100060984 -0.1006325 -0.016630968 0.11016659
000060 0f 67 48 bc bb 74 c0 3c 2c 16 4b 3c 6b c0 05 3d
       -0.012231602 0.023493161 0.012395423 0.032654207
000070 88 4e 28 bd b2 78 28 3c fa 60 ae 3d 42 24 b7 3c
       -0.04109052 0.010282682 0.085145906 0.022356156

layer_2.lin.weight f4 [32, 64]
000000 db 70 37 3d a0 27 ce 3d b5 d5 63 3d 04 c2 0f 3d
       0.04478536 0.100661516 0.05562373 0.035097137
000010 0a 39 32 bd b7 67 26 bc 76 27 8e bd 8d 1d 58 3c
       -0.043511428 -0.0101565635 -0.0694112 0.013190639
000020 27 1f 01 bd 5f 70 d3 bd a7 99 50 3e 4e 23 91 bd
       -0.03152385 -0.103241675 0.20371114 -0.07086812
000030 50 f0 5c 3e bb 17 36 3d bc 86 b9 bc 0c 58 c7 3c
       0.21576047 0.044456225 -0.022647254 0.024333976
000040 e7 23 40 bc 36 83 37 3e 94 19 59 3d 34 c4 1a 3d
       -0.01172731 0.17921147 0.05300291 0.03778477
000050 a0 86 8d bd 07 74 1a 3d 5d 8e b5 bd 0b 3d cc 3d
       -0.06910443 0.03770831 -0.08865044 0.099725805
000060 59 58 24 bd 6a d3 80 3d d9 65 73 3e 7f c6 cb bd
       -0.040123317 0.06290324 0.2376932 -0.099499695
000070 d8 fe 9e 3d aa a3 c9 bd 4a 30 13 3e 17 10 35 be
       0.07763451 -0.098456696 0.1437389 -0.17681919
000080 97 62 de bd 4d fd a9 3d 48 ab d5 bd d1 ae 00 be
       -0.10858648 0.083002664 -0.1043306 -0.12566687
000090 2f 71 08 be 2b 4f 0e 3e 6b 64 c6 3d ad e4 d1 bd
       -0.13324426 0.13897388 0.09687122 -0.102486946
0000a0 6b 25 09 3e 61 25 b5 3d c7 24 2a be 2b 24 62 bd
       0.1339318 0.0884502 -0.16615592 -0.055210274
0000b0 b3 73 22 be 6b 04 c5 3c 0f 7e b1 3c 81 8f 86 bd
       -0.15864448 0.024049958 0.021666555 -0.0657034
0000c0 8a 66 96 bb 86 dc ba 3d 9e 53 2d bd f0 60 49 bc
       -0.0045898603 0.09124093 -0.04231607 -0.012291178
0000d0 66 07 74 bc 71 83 c7 be 5c 34 3d 3d 87 02 85 bc
       -0.014894342 -0.3896747 0.046192512 -0.016236557
0000e0 de 0d 92 bd bc 58 9f 3c 03 b3 f2 3d e6 5d a2 3d
       -0.07131551 0.019451492 0.1185055 0.07928066
0000f0 ab e4 2c be 0e 57 6a 3d 9b ab 1d be 18 b1 fe 3d
       -0.16884105 0.057211928 -0.15397494 0.12436122
000100 28 10 07 3c 79 81 8b 3d 78 fd ce 3d 34 df 10 3d
       0.008243598 0.06811804 0.10106939 0.035369113
000110 f5 3b 3d bd a9 8f 14 3e cd 49 5f bd 12 1f 40 bd
       -0.046199758 0.14507927 -0.05451374 -0.04690463
000120 67 75 54 3e 80 21 1c 3e d7 45 60 be ff 5d 89 bd
       0.2074791 0.15247154 -0.21901642 -0.067073815
000130 47 4b 84 be 57 c6 5b 3d 87 76 b3 bd 4d d0 0d be
       -0.25838682 0.05365595 -0.08762842 -0.13848992
000140 19 e4 a4 bd 11 4d 95 3c ff a9 e3 bb c6 4e a4 3d
       -0.08051319 0.018225225 -0.0069477553 0.08022837
000150 6f 8f 36 3c fc 96 0a be e0 76 21 bd 07 d4 a8 3d
       0.011142596 -0.13534158 -0.03942001 0.08243566
000160 d0 7d 36 bd 33 d6 b8 bc 7c 35 ee 3d 71 da 89 bc
       -0.044553578 -0.022563076 0.11631295 -0.016827794
000170 a9 c4 8c be e5 4f 06 be 0e 40 9e bd 22 ee ac 3e
       -0.2749379 -0.13116415 -0.07727061 0.3377543
000180 c6 5f ba 3d b1 d0 7d 3d 46 93 d8 3d ff 9f a8 bc
       0.091002986 0.0619666 0.10574965 -0.020584105
000190 2d 00 91 be 85 1b 71 3d de 79 c4 3d 31 0e a1 3b
       -0.28320447 0.058864135 0.09593557 0.004915022
0001a0 06 22 f7 3c c7 22 57 3c c1 28 0d be 0f 45 78 bd
       0.03016759 0.01313085 -0.13785078 -0.060612734
0001b0 4d 78 e3 3d 57 4f 82 bd 17 97 77 bd a9 59 ee 3b
       0.1110693 -0.06362789 -0.060446825 0.007273872
0001c0 4e ee 51 bd 1b 03 90 3d 1b 67 e6 bd 36 99 11 be
       -0.051252656 0.07031842 -0.112501346 -0.14218602
0001d0 2c 7e 82 bd 5f c5 87 be 9f ed 73 3d 5e 9d 35 bd
       -0.063717216 -0.2651777 0.059552785 -0.04433953
0001e0 c1 5d 0d be 8e be 0f 3a eb 04 62 3d 9b 89 45 3d
       -0.13805296 0.0005483412 0.05518047 0.048226934
0001f0 99 c3 cb 3d d5 da 45 bb c1 13 94 3d 16 9e 1c 3d
       0.09949417 -0.0030190249 0.0723033 0.0382367
000200 2b 8f 0f be 16 1b 0e 3e b5 d6 d4 3d f6 39 33 3c
       -0.14019458 0.1387752 0.103925146 0.010939112
000210 f9 a3 f9 bd 25 f4 6b 3c d0 eb 28 3e 0e 17 27 3d
       -0.121894784 0.01440147 0.16496205 0.04079347
000220 5b 2b 39 be ad d9 10 3d 74 c9 6e 3c 56 3f 86 bc
       -0.18082945 0.03536384 0.014574397 -0.016387623
000230 8f 03 8f 3c b5 58 39 be fc b4 0a be a3 b2 24 bd
       0.017457752 -0.18100245 -0.13545603 -0.040209424
000240 ee 1b 58 bd 37 fc 1b be 1d b8 29 bd 33 ee b5 bd
       -0.05276101 -0.15232931 -0.04143535 -0.088833235
000250 3c a4 11 3e c5 a9 bd bd 4f f8 1c 3c 15 a6 a0 3d
       0.14222807 -0.092608966 0.009580686 0.07844178
000260 f7 19 37 bd 29 a2 ff 3d b3 eb 17 bd 37 14 42 3e
       -0.044702496 0.124821015 -0.037090015 0.18953024
000270 06 d0 93 39 1c 99 72 3d 8d 87 11 be 84 6c bb 3d
       0.00028193014 0.059228048 -0.14211865 0.09151557
000280 ab 8a 75 3d b8 f1 af 3d 68 e2 81 3c b1 4a 74 3d
       0.059946697 0.08591026 0.01585503 0.059641544
000290 1c df 14 bd 9f b5 b1 3c 0d 0e b7 3d f6 8c 24 bd
       -0.036345586 0.021693049 0.08938227 -0.040173493
0002a0 8a 6e c6 3c ad 69 33 be 8f 7e f0 3d 41 b8 97 3d
       0.024222631 -0.17520781 0.11742889 0.074081905
0002b0 bb b6 ec bb 4f 90 00 bd 3f c7 ba 3c f2 61 e3 bb
       -0.0072239316 -0.031387623 0.022800086 -0.006939166
0002c0 35 11 1d be ef 4f 2d 3d cf dc c1 bd b7 dd c5 bd
       -0.15338595 0.04231256 -0.09465944 -0.096614294
0002d0 c6 ea 21 3d 8d f1 0f 3e c5 9b 82 bc 1d 48 ce 3b
       0.039530538 0.14056988 -0.015943417 0.0062952177
0002e0 35 28 5c bd cf bc 51 bc b8 d6 23 3c 9b 22 81 bd
       -0.053749282 -0.012801363 0.009999923 -0.063054286
0002f0 12 f5 c6 3d 03 b4 58 3d 5c 73 03 3e 2c 1d 84 be
       0.09714712 0.052906048 0.12836975 -0.25803506
000300 bc 72 64 bd 18 0f e1 3d e7 fc 3f 3e c0 01 af 3d
       -0.05577348 0.10989207 0.18748818 0.08545256
000310 57 80 f7 bd 76 e8 cd bb 7e 1b 2b be 7b ed fd bd
       -0.12085026 -0.006283815 -0.16709706 -0.123988114
000320 a9 ee 20 3d d9 f5 d2 bd 8d 99 8f 3d 95 15 20 bd
       0.039290104 -0.10300798 0.07011709 -0.039083082
000330 a4 da 7a 3e 52 d6 a6 3c fe fa 48 bd db 57 d1 3d
       0.24497467 0.020365868 -0.04906749 0.10221835
000340 c8 02 5a 3d 0b 96 62 bd 97 37 f9 bd 2b a9 84 3c
       0.05322531 -0.055318873 -0.12168806 0.016193947
000350 7f 26 a7 3b 1a 4d 0c be 97 41 17 3b 9e 31 5f bd
       0.0051010246 -0.13701287 0.0023079866 -0.054490678
000360 db a9 5d bd 36 11 47 3e 7e fc 23 3e a6 ab 59 3c
       -0.054117065 0.19440159 0.16014287 0.013285553
000370 78 d1 48 3e e7 8d 26 3d e9 9f e0 3d da 5f 6b be
       0.19611156 0.040662672 0.109680004 -0.22985783
000380 b0 2d ac 3d af 86 a7 bd 48 e5 f0 bd 20 11 b1 bd
       0.08407152 -0.08179986 -0.11762482 -0.086458445
000390 be 80 08 3e 8d c4 9e bb 24 2c 6c bd 5e 2f 2e bd
       0.13330361 -0.004845208 -0.057659283 -0.04252564
0003a0 79 76 13 3d 7d 49 fa 3d fe 0f fc bd a6 a0 85 bd
       0.036001656 0.12221048 -0.12307738 -0.06524782
0003b0 00 82 3e be cb ba 20 bd 9a f6 05 be 98 91 1b 3d
       -0.18604279 -0.03924064 -0.13082352 0.037980646
0003c0 56 c1 52 bc ad 7b fb bd b9 ee 74 3d fd 8e b6 bc
       -0.012863478 -0.12279449 0.059797976 -0.022284979
0003d0 09 c3 ba bc 8d a8 c0 bc 2b 0b 65 bd 5e 67 f7 3b
       -0.022798078 -0.023517871 -0.055918854 0.007550164
0003e0 cf c5 34 3c 31 e8 80 bd f3 32 03 be ea 1c 28 bb
       0.011033489 -0.06294287 -0.12812404 -0.0025652
0003f0 8a a7 06 be 0f 24 99 bd 07 0f af bd 37 48 a1 3e
       -0.13149849 -0.07477581 -0.08547788 0.31500408

layer_2.lin.bias f4 [32]
000000 9e b0 7b 3d 65 bc 17 bd 7f f0 f6 bd bf a7 a3 3b
       0.061447732 -0.0370449 -0.1205759 0.004994362
000010 15 33 bb bd 02 fd 67 bd f6 6a 38 bd fe ec 8f bd
       -0.091406025 -0.05663777 -0.04502388 -0.070276245
000020 a4 7a 4f bd 9b 98 e8 bc 8e 59 2b bc 3d 07 93 3d
       -0.05065407 -0.02839308 -0.010458363 0.07179115
000030 bb f1 b2 3d d3 56 8d 3d 8f a3 08 3d 0c 1e 6c 3d
       0.08737513 0.06901326 0.033359107 0.057645842
000040 7d 88 7c bd 22 8b 34 bd b5 a3 c9 bd eb 27 c4 bd
       -0.061653603 -0.044078 -0.09845678 -0.09577926
000050 4a a4 63 3b 33 73 30 bd 4b 77 11 bd 21 1f 3a 3d
       0.0034735375 -0.043078613 -0.035514157 0.045439843
000060 da 55 66 bb 44 80 84 3c cd fc d9 bc 9e 18 f0 3a
       -0.0035146386 0.016174443 -0.026609803 0.0018317883
000070 4e b9 4e bd 72 ac 30 3d a8 88 ee bd 4b e1 fa bd
       -0.05046969 0.043133207 -0.11647159 -0.122500025

layer_3.lin.weight f4 [32, 64]
000000 ba 68 5d 3d ac 86 02 be 8f 8e 43 3e c4 24 58 3c
       0.054054953 -0.12746686 0.1909735 0.013192359
000010 02 f6 7a 3d c0 31 6c 3c fb a0 bf 3a 21 68 82 3d
       0.061269768 0.014416158 0.001462012 0.06367517
000020 42 b8 04 be 78 73 08 3e 46 dc 63 3d 03 55 d6 3d
       -0.12960914 0.13325298 0.05562999 0.104654334
000030 65 80 d2 3d 2c 4c fa bb b4 41 fc 3d 84 1c 48 be
       0.102783956 -0.007638475 0.123172194 -0.19542128
000040 f3 90 b4 bc 4a e7 f0 bb a5 ed c0 bd 4f 15 9f 3d
       -0.022041773 -0.0073517906 -0.09420327 0.07767736
000050 05 e9 2a 3e 5a 37 d0 bd f2 1b 24 be 11 90 6f 3c
       0.16690452 -0.101668075 -0.16026285 0.01462175
000060 83 07 99 bb c5 d7 e1 3d 98 77 27 bb 2f e1 20 3e
       -0.004670085 0.11027483 -0.0025553461 0.157109
000070 95 71 78 3d ae 23 99 b9 14 dd 75 3d 45 52 2c bc
       0.060655195 -0.00029209018 0.06002529 -0.010517661
000080 51 b2 5d 3e 2a a5 26 be 20 ea 69 be 21 61 3a 3e
       0.21650054 -0.16273943 -0.22843218 0.18201114
000090 3d f2 16 be 75 ae b3 3d 49 d7 75 3d 73 e9 ee 3d
       -0.14740844 0.087735094 0.060019765 0.11665621
0000a0 ed 2d 45 3d f2 cf ae bd 41 be d1 bd 32 2d 14 3e
       0.0481395 -0.08535756 -0.10241366 0.14470366
0000b0 8b c6 f0 bd 99 98 45 3c 58 94 30 3e c2 ed 37 bd
       -0.11756619 0.012060308 0.17244089 -0.044904478
0000c0 90 db 79 3d 16 ef 02 bd 4c 60 31 bd 1a 07 2a be
       0.061000407 -0.03196629 -0.043304726 -0.16604272
0000d0 ea 29 be bd 0b 16 22 3e 8c 66 87 3e 8b 7a 16 3e
       -0.09285338 0.15828721 0.26445425 0.14695184
0000e0 f3 16 15 3e 98 6c f9 bd b1 3c da 3d 68 79 8f be
       0.14559536 -0.12178916 0.10656107 -0.28022313
0000f0 57 7a c5 3d 40 9b 1c 3c 66 c7 87 bd 32 0b 31 3e
       0.09642475 0.009558499 -0.06629829 0.17289427
000100 6f cd 31 be 3b e8 cb 3d f7 c7 00 be 66 81 3b bd
       -0.17363523 0.09956404 -0.1257628 -0.0457777
000110 9f 80 a0 3d d6 0a b6 bd 16 c3 28 3e 8f 8b 62 3d
       0.078370325 -0.088887855 0.1648067 0.055308875
000120 01 a4 5e 3c 4c a1 3c 3e 94 1f da 3c 42 42 f3 bc
       0.013588906 0.18420905 0.026626386 -0.02969468
000130 ec 58 20 be 75 50 e5 bd 50 a2 8c be ce 94 54 be
       -0.15658921 -0.111969866 -0.27467585 -0.2075989
000140 cd e1 c7 bd b0 31 56 3e 52 f3 57 ba 1e b0 58 bc
       -0.09759865 0.20917392 -0.00082378567 -0.013225583
000150 3a 07 45 bd e4 2a a4 bd d3 12 e4 3d 24 ee 39 3e
       -0.048102595 -0.08015993 0.11136403 0.1815725
000160 df b5 7f 3d ca 35 af 3c 73 19 3b be f5 52 57 bd
       0.062429305 0.021387953 -0.18271427 -0.05256935
000170 47 87 41 bc d1 47 d1 3d 64 5f 53 3d 3f e1 c6 bd
       -0.011812038 0.10218776 0.051604643 -0.09710931
000180 96 4a b9 bc 8f e4 62 3d 36 7f 02 3e 44 3c ef bd
       -0.022618573 0.05539375 0.1274384 -0.11681417
000190 f5 50 32 bd 91 5b 03 3e 80 b6 53 3e 11 56 b0 bc
       -0.043534238 0.12827899 0.20675087 -0.021525415
0001a0 2f 38 a4 3c f9 ba 1a be 18 a8 b9 bd d0 42 e9 3b
       0.020046322 -0.15110387 -0.090652645 0.0071185604
0001b0 5c d7 36 3e 38 0c 00 3e e9 83 92 bd cd 8a de 3d
       0.1785559 0.12504661 -0.07154066 0.10866318
0001c0 79 12 24 bd d0 b2 f4 ba 6b 2a b8 3d 03 19 8d bd
       -0.04005668 -0.0018669013 0.089924656 -0.06889536
0001d0 ff 11 5b 3e ad 7b 65 bd 1a fc 49 be e1 b7 fa bc
       0.21393584 -0.05602615 -0.19725075 -0.030605258
0001e0 92 63 c4 3b 1d 5e 76 3e 31 0c 66 3d d5 aa 1d 3e
       0.005993315 0.24059339 0.05616397 0.15397198
0001f0 1c 41 76 bd 68 a3 88 3d f4 3a 35 3e b9 f0 9f bd
       -0.060120687 0.06671792 0.1769827 -0.07809586
000200 bf a3 8c bd ea a4 6a be f4 5b 3e 3d 49 63 2b be
       -0.068671696 -0.22914472 0.046474412 -0.16737093
000210 78 ad 8a 3c dc b9 8a be ae b6 20 3e 11 8e dc 3d
       0.01692842 -0.27094924 0.15694687 0.107692845
000220 b2 22 82 bd 14 bf da 3c 53 09 f2 3d 79 1f 8b 3d
       -0.06354274 0.026702441 0.11818185 0.06793112
000230 e2 54 5f bd 3c d4 44 3d 8f ec 94 3b 44 f1 ce 3d
       -0.05452431 0.048053965 0.0045448015 0.101046115
000240 d1 d8 29 be b2 e1 ab bc ff b8 9d 3d 0a 3f 04 bd
       -0.16586615 -0.020981643 0.07701301 -0.03228668
000250 d1 d8 92 bb 7b 58 b6 3d 62 dd d2 bd fd 1b 87 bd
       -0.004481413 0.08903595 -0.10296132 -0.06597135
000260 0b 62 81 bd 44 f0 2a bc 32 0a ce bc 97 6d b7 bc
       -0.06317528 -0.01043326 -0.025151346 -0.022391124
000270 55 29 dd 3d 38 12 c0 3d b1 87 86 bd 94 49 c1 3d
       0.10798899 0.09378475 -0.0656885 0.09437862
000280 71 6b 2c 3e 4e e5 1f 3c 15 13 a9 bb 8e 5b 2e bc
       0.1683786 0.00975926 -0.0051597455 -0.0106419455
000290 4d 14 aa 3c c8 d4 55 3e c6 12 e3 3b c5 b4 44 3d
       0.020761633 0.20881951 0.006929728 0.048023958
0002a0 5f 36 e7 3d 72 ec 93 bd 38 b8 2e be 4a 6a e0 bd
       0.11289667 -0.07222833 -0.17062461 -0.10957773
0002b0 dd cf 18 bd 40 f8 aa 3c ec ad d7 bd e3 45 22 bd
       -0.03730761 0.020870328 -0.1053122 -0.03961743
0002c0 58 6c 16 bd f9 d7 c3 bc 66 2d a1 bc 72 1d 0b be
       -0.03672442 -0.023906695 -0.019674968 -0.13585451
0002d0 85 b2 fb bc 3f df 81 3d ee c4 0d be e8 06 cf 3d
       -0.030724773 0.06341409 -0.13844654 0.10108739
0002e0 e2 e2 de 3d 7b d0 9f bc e8 4d a4 3d 4a b1 b6 3d
       0.10883118 -0.01950859 0.08022672 0.08920534
0002f0 ca 11 99 3c 4a 32 44 bd 52 80 23 3e c9 e7 7c 3d
       0.01868524 -0.047899522 0.15966919 0.061744485
000300 75 25 89 3b 55 50 34 bd 53 fa 2c be ec cf 11 3e
       0.0041853734 -0.044021923 -0.16892366 0.14239472
000310 93 cb 8c bd 43 5e 97 bd 71 8e 74 bd 93 4c d4 bc
       -0.06874766 -0.07391026 -0.059706155 -0.02591542
000320 33 ae 37 bd ba af 11 be cd 83 89 3d 51 dc a3 bd
       -0.044843864 -0.1422719 0.06714592 -0.080010064
000330 a1 00 9f bb d1 58 e1 3d 9b 3c 55 be ed 85 84 bb
       -0.00485237 0.110032685 -0.208239 -0.0040442855
000340 5e ec 8a bd 07 b2 ba 3d eb 8c 32 bd 19 82 64 bd
       -0.06783365 0.09115987 -0.04359142 -0.055788133
000350 a2 2a 02 be 3e 43 a4 3c 7f 30 3e 3e 8d a2 d3 bd
       -0.12711576 0.020051595 0.18573187 -0.103337385
000360 e6 83 db 3d 38 5a 35 be 3a 36 2c bc 6b 7b 19 be
       0.10718517 -0.17710197 -0.0105109755 -0.14988486
000370 7b 4d 21 3d 22 d8 4f 3e e3 08 40 bd 10 3d 32 3d
       0.03938053 0.20297292 -0.046883475 0.043515265
000380 d6 46 43 3d bb 84 6d 3d 3a a1 07 bd af bc 8e bd
       0.047674976 0.05798791 -0.033112742 -0.06969582
000390 a5 83 f5 bd 6f 2e 5e 3d cc 62 03 be 8b b5 c4 3c
       -0.11988 0.0542435 -0.12830657 0.024012348
0003a0 a8 ad 7f 38 99 1b 2e bd 21 aa 97 bc cd e3 10 bd
       6.0958468e-05 -0.042506788 -0.018513741 -0.035373498
0003b0 30 45 88 3d 99 e6 94 bd bf 26 7f bd f8 78 b5 3c
       0.066538215 -0.072705455 -0.06229281 0.022152409
0003c0 4c 23 2e 3d 71 d2 c9 bc c1 a6 e8 3c 41 c4 99 bb
       0.04251413 -0.02463648 0.028399827 -0.0046925847
0003d0 f4 12 31 3e 59 8d 27 bd 43 24 1b be 81 a4 27 3e
       0.17292386 -0.040906284 -0.15150551 0.16371347
0003e0 55 40 b9 3c cf 5f 86 3c e1 95 d2 3c 74 1c 3f 3e
       0.022613684 0.016403107 0.025706233 0.18663198
0003f0 11 45 32 be d5 c0 1d 3e ba 4b 06 3e fc e4 2c bd
       -0.17409159 0.15405591 0.13114825 -0.042210564

layer_3.lin.bias f4 [32]
000000 b5 7c ed ba 62 12 bb 3c 29 e0 94 3d 09 81 f2 bc
       -0.0018118831 0.022835914 0.07269318 -0.029602544
000010 76 92 e7 3c 08 6c 4c 3d d9 ab b9 3d c9 2e 8a bd
       0.02826808 0.049907714 0.090659805 -0.06747205
000020 2f 89 72 3d 4e f9 08 bb 9b e8 98 3c d7 f7 0c 3d
       0.05921286 -0.002090055 0.018665602 0.034416046
000030 45 f5 8f 3d 97 0b 79 3c e0 29 9a bd 1f 48 a6 bc
       0.07029203 0.015200517 -0.07527518 -0.020298062
000040 df 35 c1 bc 00 0f 8b 3c 0d 13 60 bc a8 01 5c bb
       -0.023585258 0.016974926 -0.013676417 -0.0033570323
000050 e4 22 98 3d 90 44 82 3d 55 ae 14 3d d6 b4 73 3c
       0.0742853 0.063607335 0.03629907 0.014874658
000060 36 a3 38 3d 7b 76 b2 3a 1b 55 3f bd 90 eb a2 3d
       0.045077525 0.0013615632 -0.046712022 0.07955086
000070 76 45 6e 3d ca 1c 32 3d 44 74 0e 3d d9 4d ec bc
       0.05817171 0.043484487 0.03477885 -0.028845714

layer_4.lin.weight f4 [32, 64]
000000 38 a5 c3 3d 3c 4c 03 bd 07 f5 7c 3d c7 64 0b be
       0.09552997 -0.032055125 0.061757114 -0.13612662
000010 a8 17 a4 be 8e 21 2d 3e 97 81 e3 bc 0d 9c 1b be
       -0.32049298 0.16907331 -0.027771754 -0.15196247
000020 f3 b8 11 3c ac f7 2a 3d 43 59 b3 bd 9d b9 9d bd
       0.008894193 0.041740105 -0.0875726 -0.077014185
000030 03 02 6a 3d 9e 50 61 3c d6 2f 51 3b 2f 45 23 be
       0.057130825 0.013752131 0.0031919382 -0.1594436
000040 27 82 21 be 17 a2 05 3d 8e 3a c7 3c be 07 d5 3c
       -0.15772305 0.032625284 0.024319913 0.026004668
000050 2f 4d 64 3d 07 22 85 bd a1 4e 0f 3c a9 0c 41 be
       0.05573767 -0.06500631 0.008746774 -0.18852486
000060 1a c3 fe 3b 17 cf 14 3e d2 bc a1 3d cb 25 f0 3b
       0.0077747228 0.14532124 0.07897343 0.007328724
000070 f9 38 e3 bd 0a 09 b4 bd f9 44 25 bd 99 4b 22 be
       -0.11094851 -0.087907866 -0.04034898 -0.1584915
000080 26 f1 08 be df 6a 25 3e ee be 2e 3d 9a c8 76 3d
       -0.13373241 0.1615405 0.042662553 0.060249902
000090 3d 40 81 3d 50 08 49 3d 49 73 8f bd 2b 9f dd 3d
       0.063110806 0.049080193 -0.07004411 0.108213745
0000a0 22 2b d4 3d 98 f3 7e 3c 30 ab 36 be 15 52 1a bd
       0.103597894 0.015561007 -0.1783874 -0.037675936
0000b0 8b 55 29 be 8c 03 03 3c ea fa 40 3c 6f b8 5a 3e
       -0.16536538 0.007996451 0.011778573 0.21359418
0000c0 2c 24 13 bd 79 9d a9 39 58 52 13 be ea 69 76 3c
       -0.035923168 0.00032351518 -0.1438688 0.0150399
0000d0 d5 4b c2 3d 2f 23 fe 3b 72 a3 96 bd 3e 70 ca 3d
       0.0948712 0.007755659 -0.073553935 0.0988469
0000e0 68 e9 9d 3d 6a 27 22 be f5 c5 37 be 6b 07 12 be
       0.07710534 -0.15835348 -0.17946608 -0.14260642
0000f0 96 62 13 be f7 f2 12 3e 75 68 b5 3d 35 9b 1a bd
       -0.14393076 0.14350496 0.08857814 -0.037745673
000100 98 45 05 3e c4 06 d5 bd 71 80 12 be 90 0b 1c be
       0.13014829 -0.10401681 -0.14306809 -0.15238786
000110 73 16 44 bd 39 34 ba bb 1d 5d 35 3e c9 53 0b 3d
       -0.04787297 -0.005682495 0.17711301 0.03401545
000120 00 cd 5c be fc 06 62 bd e7 d1 cd bc 57 58 ea 3d
       -0.21562576 -0.055182442 -0.025124503 0.11442631
000130 44 be 03 3e 80 e0 d5 bd ae 41 9e bb c3 e1 38 3d
       0.1286555 -0.104432106 -0.004829607 0.04513718
000140 e3 c4 15 bd 26 1e ed 3d 41 69 3f be 3d 32 5f bd
       -0.03656472 0.11578016 -0.18692495 -0.05449127
000150 cd 06 c1 bd 49 4d 94 bc 84 20 0d bc 86 61 9a 3d
       -0.09425125 -0.018103259 -0.008613709 0.07538132
000160 37 e6 76 bd f4 ea 16 be 39 70 34 be 1f 26 28 bd
       -0.060278144 -0.14738065 -0.17620935 -0.04105198
000170 c4 3d ec 3d 5a f6 24 bc 51 22 34 3e f6 d8 3f bd
       0.11535218 -0.0100685 0.17591216 -0.04683777
000180 c6 0e 06 3d 50 7e 76 3d 54 c9 9d bb dd 42 0d be
       0.032728933 0.060179055 -0.00481526 -0.13795038
000190 06 9c 23 be b7 7e 7b 3d 00 57 85 3d 52 3a 28 be
       -0.15977487 0.06140014 0.065107346 -0.16428497
0001a0 32 9c 7b bd 1a e5 1a bd 40 ef dd bd 87 e5 07 be
       -0.061428256 -0.037816145 -0.10836649 -0.13271151
0001b0 cc fb aa bd 99 21 eb 3d 2e 59 4c 3d 65 5d 50 be
       -0.08348808 0.114810176 0.049889736 -0.20348127
0001c0 05 88 dd bd 59 22 a4 3d 99 b3 b4 bd 66 3e 24 be
       -0.10816959 0.08014364 -0.08823318 -0.16039428
0001d0 c5 4a 8c 3b 45 36 19 3d 2b d9 38 3d 15 9b 02 3d
       0.004281374 0.03740527 0.045128983 0.03188618
0001e0 18 da 1a 3e 09 9e 08 be fd 8a 9d bc b9 b6 9d bc
       0.15122259 -0.13341536 -0.019231314 -0.019252168
0001f0 31 6b f7 bd b9 f6 48 bd 2f fe 2d 3c b6 d8 bc 3d
       -0.12080992 -0.049063418 0.010619684 0.09221022
000200 5e 3f cb bd df 86 13 3e 9c 85 df bd 11 24 37 3e
       -0.09924196 0.14406918 -0.10914156 0.17884852
000210 48 a5 b8 3b 9e 97 40 be 47 b3 03 be 3f 34 81 bd
       0.0056349374 -0.18807837 -0.12861358 -0.06308793
000220 ba 05 e4 bc eb 9b 8a 3d 96 87 21 3d 78 49 15 bc
       -0.027834762 0.0676802 0.039435945 -0.009111755
000230 19 de a2 3d 42 c8 c0 3c 61 72 13 bd fa 1a 1b 3d
       0.07952518 0.02353299 -0.035997752 0.037867524
000240 56 55 13 be c4 57 bd 3d 09 88 ad 3d 47 37 dd bd
       -0.14388022 0.092452556 0.08473212 -0.10801559
000250 4c a9 7f bd 19 06 c5 3d e2 4b ee ba d5 bf da 3d
       -0.062417313 0.09620304 -0.0018180574 0.1068112
000260 7d 8e a5 3a f4 02 56 be 9b da 19 3e c9 14 c3 bc
       0.0012630966 -0.20899564 0.15024798 -0.023813622
000270 38 e8 9c 3c 89 13 82 3d 26 e3 aa 3c 78 8d d8 3d
       0.0191537 0.06351382 0.020860266 0.10573858
000280 42 44 43 bd 13 d5 eb bd 1b a2 02 bd 51 c8 0f 3c
       -0.047672518 -0.1151525 -0.031892877 0.0087757865
000290 aa 06 11 3e ec 30 87 3d 9a ff a3 bd 35 7d 8f 3d
       0.14162698 0.06601128 -0.080077365 0.07006303
0002a0 fe f6 97 bd 9b f3 6f bd 32 4b d8 3d 82 f1 df 3c
       -0.07420157 -0.05858193 0.10561217 0.02733684
0002b0 0c ff 7c bc 2a e1 94 bd 5e cc 9b 3c be 0e a0 3d
       -0.015441667 -0.07269509 0.019018348 0.07815312
0002c0 b9 59 03 3e 04 01 2a 3d c0 51 6d bd e8 d2 e2 3d
       0.12827195 0.041504875 -0.05793929 0.110753834
0002d0 d4 c7 cb bd 6e d6 17 bd 7b 6f 17 be 14 fb 29 3e
       -0.099502236 -0.03706973 -0.1478862 0.16599685
0002e0 ec 51 ac bd 38 fd 22 ba 53 e4 3b 3d 3e 85 e8 3d
       -0.08414063 -0.0006217542 0.045872044 0.11353539
0002f0 b0 b7 c9 bc eb 29 01 3e da 5f 0d be 16 00 8a 3d
       -0.024623722 0.12613647 -0.13806096 0.06738298
000300 3f ca bd 3b 47 9a dd bd 7a 58 e2 bd 5c 4e 58 3d
       0.005791932 -0.10820442 -0.11052032 0.052809104
000310 59 48 ad 3b 68 f0 4c 3c 35 4b dc 3d 58 80 c2 3d
       0.0052881655 0.012508489 0.10756532 0.09497136
000320 63 47 1d 3e b0 7c a1 bd 39 11 c5 bb d1 71 6f 3d
       0.15359263 -0.078851104 -0.006014016 0.058458153
000330 3b 88 a6 3d bd 19 8c 3d 21 70 6c 3d f8 21 14 be
       0.08131453 0.06840847 0.057724122 -0.14466083
000340 5d 10 17 3e 9d a8 b5 39 30 47 60 3d f0 3b e8 3d
       0.14752336 0.00034648637 0.05475539 0.11339557
000350 9d 7c 1c 3e c9 bc 09 bc 37 b9 c8 3d 9a 22 c4 3d
       0.15281911 -0.008406826 0.09800952 0.09576912
000360 39 97 d2 bd c4 e1 01 3e 71 49 c1 bd b9 e5 b0 3d
       -0.1028275 0.12683779 -0.09437836 0.08637566
000370 62 32 04 3e 4a 9c 1c be e9 9c 28 be f7 ee 8a 3d
       0.12909845 -0.15293995 -0.16466106 0.0678386
000380 bc 0e dd 3d d2 fb e7 3d a9 cb a6 3d 9a 73 d4 3c
       0.10793826 0.11327328 0.08144314 0.02593403
000390 c9 30 b4 bc 8c 9c 78 3d 06 08 b9 bc 67 f8 f7 3c
       -0.021995919 0.06069617 -0.022586834 0.030269815
0003a0 13 d0 3f 3c 15 b7 1e 3e 66 96 a3 bd 87 d2 b7 bd
       0.011707324 0.15499528 -0.079876706 -0.08975702
0003b0 3c 35 06 3d 76 ed 57 bc 2b 7c b7 3d 9f dc 04 3c
       0.032765612 -0.013179174 0.0895923 0.008109241
0003c0 c9 2c 07 be de 2d e6 3c 89 c8 02 3d 68 ef 04 be
       -0.13200678 0.028098043 0.031929526 -0.12981951
0003d0 dc 1a 04 3c a3 c4 33 bd df 71 ef bc 84 66 98 bd
       0.008063044 -0.0438887 -0.029229103 -0.07441428
0003e0 ca a9 40 3e 37 d1 ce bc da 82 09 3d 97 83 cf bc
       0.1881477 -0.025246246 0.033572055 -0.025331302
0003f0 88 c1 79 bd b2 74 c1 bd 9d 76 9c bd 73 db a4 3d
       -0.06097558 -0.09446086 -0.07639811 0.08049669

layer_4.lin.bias f4 [32]
000000 f5 6d a2 3c 08 b1 3a bd c1 ba 7b 3d bd b2 50 bc
       0.019827822 -0.045578986 0.0614574 -0.012737927
000010 6a f0 39 bd da c3 26 bd bb e5 d5 3c fb ac 17 bd
       -0.045395292 -0.040714122 0.02611052 -0.0370302
000020 d0 88 99 bd 21 77 02 bd a4 27 70 3d f6 cc 41 3c
       -0.07496798 -0.03185189 0.058631554 0.011828652
000030 89 7e e5 bd 31 40 ff 3b bf e3 14 3d 5c 6a 96 3d
       -0.11205775 0.0077896346 0.036350008 0.07344505
000040 1a e4 73 3d e6 76 bd 3d 33 03 58 3d e4 3f 51 bd
       0.059543706 0.09251194 0.052737426 -0.05108632
000050 78 85 03 bd 30 c8 4c bc fa ae 41 3b 24 1f 81 bd
       -0.032109708 -0.0124989 0.0029553757 -0.06304768
000060 6f 82 f7 3d c9 30 1a bd 71 d3 8c 3d 9f d3 97 3d
       0.12085425 -0.03764418 0.06876267 0.074134104
000070 5a 10 a0 3d f7 b8 84 3d f8 91 b0 bc bc bb 21 3d
       0.07815619 0.06480592 -0.021553978 0.039485678

layer_5.lin.weight f4 [32, 64]
000000 72 ce 17 be 4a d1 c1 bd 00 3a 18 3d 76 68 b8 3d
       -0.14824846 -0.09463747 0.037164688 0.09004299
000010 0e 28 ae bc 50 23 0d be d9 df 13 be 10 f3 03 be
       -0.021259334 -0.13783002 -0.1444086 -0.1288569
000020 cc c0 4d 3c 9c 14 05 3e ef bd 82 bc ec 18 02 3e
       0.012558173 0.12996143 -0.015959708 0.1270482
000030 99 b8 b8 bd f7 0b 84 be e9 db 93 3e 86 15 43 bd
       -0.09019584 -0.25790378 0.28878716 -0.04762795
000040 f6 f1 f0 bd 31 96 aa 3d 2a 8b b5 3b ba 72 eb bd
       -0.117649004 0.08329428 0.0055402713 -0.11496492
000050 58 90 a0 bc ec 63 b0 bd 19 36 a5 3e 0b f3 de 3d
       -0.019600078 -0.086128086 0.32267836 0.108862005
000060 ac 19 d5 3d 56 2c 44 bd 18 85 e8 bd ff a1 94 be
       0.10405287 -0.047893845 -0.113535106 -0.29029843
000070 fa 74 01 3e 3f b6 81 be f6 83 88 3c d3 5b 39 be
       0.1264228 -0.25334355 0.016664486 -0.18101434
000080 9f 1f 89 3c 0d f0 53 3d 86 fd 29 bd eb 2b f4 bd
       0.01673871 0.051742602 -0.041501544 -0.11922439
000090 be 05 d7 bb ed 17 52 3d 6b 00 41 bd 69 b6 4d 3d
       -0.006561964 0.05129235 -0.04711954 0.050222788
0000a0 41 eb c2 bd 16 bd 1b 3d 77 3e ef 3d 75 f6 98 bd
       -0.09517527 0.038022123 0.11681836 -0.07468883
0000b0 17 f4 30 bd de e6 cf 3c 72 02 10 be ea 37 48 bc
       -0.043201532 0.02537864 -0.14063433 -0.012220362
0000c0 bc 8c 7e 3c e5 cb c2 3d bd 0a 09 3d 87 68 6a 3e
       0.015536483 0.09511546 0.033457506 0.22891437
0000d0 e6 4c 23 3e c9 0c d3 3d 07 01 d6 bd 46 e2 2d be
       0.15947303 0.10305173 -0.10449415 -0.16980848
0000e0 24 f3 3a bb fb b6 d9 3d f8 73 43 3e ac 20 71 3e
       -0.002852627 0.10630604 0.19087207 0.2354762
0000f0 e0 5d 60 bd b0 a6 0b 3e 1b 38 1b bd 6c be 32 3e
       -0.054777026 0.13637805 -0.037895303 0.17455453
000100 be c5 5c 3d a2 a4 aa bd 37 90 82 bd 77 3e c2 3d
       0.05389952 -0.083321825 -0.06375163 0.094845705
000110 7f 10 ac bd cf de 16 3e eb e2 37 3c ed 92 82 3d
       -0.08401584 0.14733432 0.011223535 0.0637568
000120 31 98 f7 3d 15 35 14 be 64 0d ba 3d fd b9 e6 3c
       0.12089575 -0.14473374 0.09084585 0.028164858
000130 3a 9b 5b bd be 25 05 3e 75 f1 3f be 69 9f 95 3d
       -0.053614832 0.13002679 -0.18744452 0.07305796
000140 8e e2 1f 3e 55 ff b4 bd 33 07 b5 bd f4 1d 25 3e
       0.15613768 -0.08837763 -0.08839264 0.16124707
000150 87 22 e3 3c 82 8e 1f 3e 86 92 26 3c 59 f9 70 bd
       0.027726425 0.15581706 0.01016677 -0.058831546
000160 6b 81 9c 3d f8 1c b3 3d 69 e6 e5 3d b2 22 ae 3d
       0.07641872 0.0874576 0.11225588 0.08502711
000170 2f 13 80 3d 13 2f 2b bd b9 8a 8a 3d 1c 06 4c 3d
       0.06253659 -0.04179294 0.067647405 0.049810514
000180 15 bc a0 bd 40 ec c4 3d 52 81 f4 3c c2 c3 cf bd
       -0.07848374 0.096153736 0.029846821 -0.1014476
000190 2f 79 34 3e a2 84 9e bd 71 18 ed bc a2 ab 0c 3d
       0.17624353 -0.077401415 -0.028942319 0.03434337
0001a0 f2 49 2a 3d 8b 34 d0 bd 34 9d b1 bc 06 27 87 3d
       0.041574426 -0.10166272 -0.021681406 0.0659924
0001b0 ca e1 94 3d 78 23 b8 3d 1d ed f1 3d dd f7 d4 bd
       0.07269628 0.0899114 0.11812804 -0.10398839
0001c0 f5 5c 9e 3c 2b 34 0e be 7c 2f 46 3b c2 8d a5 3d
       0.019331435 -0.13887088 0.0030240705 0.08083679
0001d0 2a 8c eb bd 1b 22 8d 3c 69 37 4e 3c a7 24 0d bd
       -0.115013435 0.017228177 0.012586453 -0.034458783
0001e0 2d 12 54 3d bd 40 c7 3d 9b 7f d4 3b cd 1c fe bb
       0.051775146 0.09729145 0.0064849383 -0.007754898
0001f0 08 d0 8d bb c5 cb 59 bd b8 2a 4b bc f3 ba 96 bd
       -0.004327778 -0.053172845 -0.012400322 -0.073598765
000200 cf 5d b9 bd fa df 1d 3e 9d 11 e5 3b 6c 3d 04 3e
       -0.09051096 0.15417472 0.006990625 0.12914056
000210 44 8a 04 3e 6e 01 92 3d 42 2e 7a bd f9 e1 5a 3d
       0.12943369 0.07129179 -0.06107927 0.05343816
000220 6c 73 37 be 69 65 38 3e 09 2c 07 bd 73 fd 8e bd
       -0.17915124 0.18007435 -0.03300098 -0.06981935
000230 ba d7 d2 bd 90 8b a5 bc c0 63 9c bd 2f 7a 9c 3c
       -0.10295053 -0.02020815 -0.07636213 0.01910123
000240 5c 74 1f 3d d8 c2 b8 bd 04 f8 df bd 53 25 00 be
       0.03892933 -0.090215385 -0.10935977 -0.12514238
000250 7b 87 fe 3b 5a ac f3 bd 2f d2 48 be 09 b7 55 bd
       0.0077676154 -0.11898108 -0.19611429 -0.05217651
000260 65 91 0c 3c 52 29 a5 bb 7b 64 a6 ba 67 01 b6 3d
       0.008579587 -0.005040326 -0.001269474 0.08886986
000270 e7 a3 68 3d f3 f9 f9 bd f3 5b cd 3d 38 2b 20 3e
       0.056796934 -0.12205877 0.100273035 0.15641487
000280 bc 64 46 3e 5c 23 06 be 5b ef 0f bd f6 e0 a0 bc
       0.19374365 -0.13099426 -0.035140377 -0.01963852
000290 48 1a 30 be fa a1 9d bc 27 77 f2 b9 13 44 31 3e
       -0.17197526 -0.019242276 -0.00046246612 0.17311125
0002a0 af 48 28 be 59 39 3e bc da 28 db 3b 4e e9 44 bd
       -0.16433977 -0.011610352 0.0066882195 -0.04807406
0002b0 be 64 bc 3d 25 9f f4 3d 94 40 95 3d 4c eb 85 3b
       0.091989025 0.11944417 0.07287708 0.0040868875
0002c0 56 e3 ef bb 2e 50 d3 3d ed 04 11 3d 57 a8 05 bd
       -0.0073208017 0.103180274 0.03540509 -0.032631245
0002d0 c1 af d5 3d 1e 1a e4 bd 36 b1 24 be b8 f2 1f be
       0.10433913 -0.11137794 -0.16083226 -0.15619934
0002e0 86 d8 d3 3d ee dc 0c bd 55 07 93 3d a3 6f 35 3d
       0.10344033 -0.034390382 0.07179133 0.04429592
0002f0 af 95 0e bd 0c 9a f5 3d c7 7c a1 bd 47 ad 37 be
       -0.03481072 0.11992273 -0.078851275 -0.17937194
000300 97 ae 88 bd ce 5e 3a bc c9 3c 28 be 2d 86 02 3e
       -0.06673925 -0.011375142 -0.16429438 0.12746496
000310 a6 d8 e9 bd 5d 33 38 bc d8 de f5 3d 4e d7 0f 3d
       -0.114182755 -0.011242715 0.12005395 0.03511744
000320 0a fa 96 3d 09 47 c0 bd d5 6a ba 3c e1 76 13 be
       0.0737191 -0.09388549 0.02275602 -0.14400817
000330 37 00 3d be 1c 87 cc 3d e9 06 0a 3d be 10 66 3d
       -0.18457113 0.099867076 0.033697996 0.05616831
000340 b7 c1 c5 3e 21 2b b8 3d e2 e8 f4 3d 8b 49 15 bd
       0.38624355 0.08992601 0.11958481 -0.03644709
000350 32 0b 9a 3d 15 d2 c0 3d 76 6a 0b be 42 39 b2 bc
       0.075216666 0.0941507 -0.1361483 -0.021755818
000360 a4 00 ed 3d d4 05 91 bd 6d a1 dd 3d 89 2f 99 be
       0.11572388 -0.0708119 0.10821805 -0.2991908
000370 ac 18 f2 bc 5f fa fa bc 94 d4 62 3e ce d3 95 bc
       -0.02955278 -0.030636964 0.22151405 -0.018289473
000380 07 7e 18 3e ca 71 d7 bc 33 91 c4 3d 49 00 81 bd
       0.14891826 -0.026299376 0.09598007 -0.062988825
000390 03 11 e3 3d 54 67 96 3d 82 48 58 bd 18 10 01 bd
       0.11087229 0.07343927 -0.052803524 -0.03150949
0003a0 3c dc 9b 3c 31 30 48 39 44 15 7c bd e8 4d 7c bd
       0.019025914 0.00019091439 -0.061543718 -0.061597735
0003b0 63 78 da 3c 95 42 2e bd d4 a6 f7 3d 3e c8 9c bd
       0.026668733 -0.042543966 0.12092367 -0.07655381
0003c0 ad 86 97 bc 82 f0 78 3d bf 9b fd 3d dc 3a ab bd
       -0.018496836 0.06077624 0.12383222 -0.08360836
0003d0 11 a9 60 bd a9 f9 2f 3d 7e 46 fe 3c 18 46 04 3e
       -0.054848734 0.042962704 0.031039473 0.12917364
0003e0 02 2d 21 be dc 41 6a 3c e7 42 24 3d 44 4f 35 3e
       -0.15739825 0.014297929 0.040102866 0.17706019
0003f0 b7 21 98 3d f2 8d 0f 3d e6 30 13 bd 07 7d cf bc
       0.074283056 0.03504748 -0.035935305 -0.025328172

layer_5.lin.bias f4 [32]
000000 05 56 0b 3c 59 18 95 3d b1 47 a3 3c 70 a5 28 bd
       0.008504395 0.072800346 0.019931646 -0.0411734
000010 57 eb 53 bd 50 a9 49 bc 57 09 b4 bd 33 ca f5 3c
       -0.05173811 -0.012308434 -0.08790844 0.030003643
000020 3c 78 a2 3c ab de cb bc f2 0c 90 3d 78 d4 bb bc
       0.019832723 -0.02488645 0.07033719 -0.022928461
000030 ff 86 61 3c ca 86 80 3d cb 5f fc 3a 57 47 8f bc
       0.013765096 0.06275709 0.0019254623 -0.017490072
000040 19 f8 f2 3d 90 14 d8 bc 3d 2f 1e 3c 93 1d 60 3d
       0.11863727 -0.026376992 0.009654817 0.054715704
000050 a1 56 1b bc 2b c5 09 bd aa c9 1e bd 78 b9 53 bd
       -0.009481103 -0.0336353 -0.03876654 -0.05169055
000060 da ff 91 bd 6d 4e 39 bd 28 82 8f 3d 8a 4c 75 3d
       -0.07128878 -0.04524081 0.07007247 0.059887446
000070 e3 d2 37 3c c0 2a 17 3d 32 37 07 3c ed 7e cc 3d
       0.011219713 0.036906004 0.008252906 0.09985147
